examples/FashionMNIST/fmnist_pretrained.pth (torch_old, 458497 bytes, 14 tensors)

layers.0.weight f4 [32, 1, 5, 5]
0	0x3e23d078	0.15997493
1	0x3dcdb691	0.100445874
2	0x3e3a003c	0.18164152
3	0xbd520be1	-0.05128086
4	0xbd91a964	-0.07112387
5	0xbdb0054e	-0.08594762
6	0x3da7f806	0.082016036
7	0x3dad5a52	0.08464493
8	0x3dbfd59c	0.09366915
9	0x3df69f4e	0.12042104
10	0xbd1249ea	-0.03571502
11	0x3da63c1d	0.081169344
12	0x3e0e3e99	0.13891067
13	0x3dc0cfc5	0.09414629
14	0xbd15ed5a	-0.03660331
15	0xbde77028	-0.11300689
16	0xbe04812d	-0.12939902
17	0x3e13685e	0.14395282
18	0x3e432692	0.19057682
19	0x3d06a02d	0.0328676
20	0xbdff8349	-0.124762125
21	0x3e399712	0.18124035
22	0xbe0905b6	-0.13381085
23	0x3e18e1ea	0.1492993
24	0x3c06e0b6	0.008232286
25	0x3e22bfbc	0.15893453
26	0xbe28ddf0	-0.16490912
27	0x3e0e177e	0.13876149
28	0xbe2b0b73	-0.16703586
29	0x3da2f0b8	0.0795607
30	0xbe447f1d	-0.19189115
31	0xbd9eef30	-0.07760465
32	0x3e440de7	0.19145928
33	0x3e033ad9	0.12815417
34	0xbcac3158	-0.021019623
35	0x3e042e67	0.12908326
36	0x3e3b3fb9	0.18286027
37	0xbe375e49	-0.1790706
38	0x3e2fb045	0.17157085
39	0x3dafc616	0.08582704
40	0x3e08df1e	0.13366362
41	0xbe0ae6d2	-0.13564613
42	0x3d7b5272	0.061357923
43	0xbe4d5888	-0.20053303
44	0xbe14ceca	-0.14532009
45	0x3dfbacd7	0.12288826
46	0xbe4b146b	-0.19832008
47	0xbdad8f9b	-0.08474656
48	0xbd965c62	-0.073418394
49	0x3dcceef7	0.100065164
50	0x3e03e779	0.12881269
51	0x3e313d1e	0.1730847
52	0x3c6e0a38	0.0145288035
53	0x3e04541e	0.12922713
54	0x3de39d06	0.11113934
55	0x3d01fbd6	0.03173431
56	0xbe1e06b5	-0.15432246
57	0x3c76f63a	0.015073353
58	0xbd3f5126	-0.04670825
59	0x3e2318d4	0.1592744
60	0x3a427b0d	0.00074188487
61	0x3dd2c4e0	0.10291457
62	0xbd95d848	-0.07316643
63	0x3e18ca91	0.14921023
64	0xbdc5648c	-0.096383184
65	0xbd1a4681	-0.037664894
66	0xbdb0809c	-0.0861828
67	0xbb1b6bee	-0.0023715454
68	0x3d699511	0.057026926
69	0xbe682f37	-0.22674261
70	0x3e4519cb	0.1924812
71	0x3da1b742	0.07896282
72	0x3e113304	0.14179617
73	0xbd1d6378	-0.03842494
74	0x3e236962	0.15958169
75	0xbe191ea4	-0.14953095
76	0x3c418c94	0.011813302
77	0xbe2e5d30	-0.17027736
78	0xbcdb52b8	-0.026772842
79	0x3e3d2c2a	0.18473879
80	0xbe51a01f	-0.20471238
81	0xbe001c0d	-0.125107
82	0xbcf71d91	-0.030165466
83	0xbe34dcc9	-0.17662348
84	0x3e31fc55	0.17381413
85	0x3e2bbdb7	0.16771589
86	0x3d9298c9	0.07158048
87	0xbd087695	-0.033316214
88	0x3e2fa4bf	0.1715269
89	0x3d1aff8b	0.03784136
90	0x3e345b86	0.17613038
91	0x3db08d1c	0.086206645
92	0xbda053b6	-0.078284666
93	0xbe006279	-0.12537564
94	0x3d91cdeb	0.07119354
95	0x3b242186	0.0025044396
96	0xbdcc2c19	-0.099693485
97	0xbe11f341	-0.1425295
98	0x3abb331f	0.0014282203
99	0x3df289da	0.11842699
100	0xbe532746	-0.2062045
101	0xbd85b49e	-0.065285906
102	0x3e42cb47	0.19022857
103	0xbde5eea0	-0.11227155
104	0xbdaf814a	-0.08569582
105	0xba3f0d6a	-0.00072880706
106	0x3d21aeb4	0.03947325
107	0xbdfb68e8	-0.12275869
108	0x3d10d907	0.035363223
109	0x3e321a60	0.17392874
110	0xbe466e75	-0.19378074
111	0x3df491fa	0.11941905
112	0xbe01aecd	-0.12664337
113	0x3e1fa232	0.15589216
114	0xbde2bcf6	-0.11071198
115	0xbd8f5968	-0.06999475
116	0x3c2b6e2a	0.010463277
117	0x3dcbfc7d	0.09960268
118	0x3e15a7cd	0.14614792
119	0x3e161402	0.1465607
120	0xbe17cfd6	-0.14825377
121	0xbca2007b	-0.01977562
122	0x3dd61e8d	0.10455046
123	0x3c2b2e6f	0.010448082
124	0x3cbfc666	0.023410033
125	0x3d1e8863	0.038704287
126	0x3e0f03b6	0.1396626
127	0xbcdd525d	-0.027016813
128	0x3e577c14	0.21043426
129	0x3e46d941	0.19418813
130	0x3e10eebf	0.14153574
131	0xbd442ce6	-0.04789438
132	0x3a798504	0.0009518417
133	0x3dc7027f	0.09717273
134	0xbc43bc5f	-0.011946767
135	0x3db7697f	0.08955669
136	0xbd9c00eb	-0.076173626
137	0xbe195231	-0.1497276
138	0x3d08eb5e	0.03342759
139	0xbdf45953	-0.119311
140	0xbdbbccac	-0.091698974
141	0xbe27f4a7	-0.16401921
142	0x3db9a167	0.09063988
143	0xbddb1ea4	-0.106992036
144	0x3be1cc92	0.0068908418
145	0xbe419956	-0.1890615
146	0xbd85dafb	-0.06535908
147	0xbcc2332c	-0.023706041
148	0xbd007198	-0.03135833
149	0x3cf714e8	0.030161336
150	0x3d54825e	0.05188214
151	0x3c140773	0.009034979
152	0x3c65cac6	0.014025396
153	0xbd541576	-0.05177828
154	0xbd770042	-0.06030298
155	0xbe185431	-0.14875866
156	0x3e145b0f	0.14487861
157	0xbdb2a758	-0.087233245
158	0xbe28e28d	-0.16492672
159	0xbe212e96	-0.15740427
160	0x3c9ab94c	0.018887185
161	0xbdb95dc3	-0.09051087
162	0x3dfd1a19	0.12358493
163	0x3e577767	0.21041642
164	0xbe376b9b	-0.17912142
165	0xbd655c2e	-0.055996113
166	0x3e5c205e	0.21496722
167	0x3e11bc2c	0.14231938
168	0xbc0cdee8	-0.008598067
169	0xbc6c3d49	-0.014418908
170	0x3dc529e7	0.09627133
171	0xbdfb9520	-0.12284303
172	0x3df14744	0.11781171
173	0x3ce8e259	0.028428243
174	0xbdccd0c8	-0.10000759
175	0xbc5db477	-0.013531796
176	0x3df202b8	0.11816925
177	0x3b966179	0.0045892564
178	0x3e367c3a	0.17820826
179	0x3dad0de7	0.08449917
180	0x3d0ee162	0.03488291
181	0x3d8bc4d2	0.0682465
182	0x3d828fcb	0.063750826
183	0x3ca20e3a	0.019782174
184	0xbe6a6e01	-0.22893526
185	0xbd4b42bd	-0.049624193
186	0xbdcf09ab	-0.10109266
187	0x3dff5590	0.124674916
188	0xbc465eaa	-0.012107531
189	0x3e218d81	0.15776636
190	0xbd931ec4	-0.071836025
191	0x3d863a39	0.06554074
192	0x3e07e0f4	0.13269407
193	0xbe1a4b3a	-0.15067759
194	0x3dc2c1e3	0.09509637
195	0xbe1450de	-0.14483973
196	0xbe59c6e0	-0.21267271
197	0xbdf1dcac	-0.11809668
198	0x3e4a2e72	0.1974428
199	0x3e30d74c	0.17269629
200	0x3b14a73c	0.0022682687
201	0xbdfe4013	-0.12414565
202	0xbdb78521	-0.08960939
203	0x3e6167e8	0.22012293
204	0xbdfe4e10	-0.12417233
205	0xbde1945f	-0.11014628
206	0x3e352f47	0.17693816
207	0xbe57e709	-0.21084227
208	0x3e0f1c4f	0.13975643
209	0xbe215b65	-0.1575752
210	0x3e035e49	0.12828936
211	0x3dc82c3d	0.09774063
212	0xbe12d7d8	-0.1434015
213	0xbe84d422	-0.25943094
214	0xbd5648cf	-0.05231553
215	0xbde9f347	-0.114233546
216	0x3c89f3d4	0.0168399
217	0xba1cc35e	-0.000598004
218	0xbe4e3626	-0.20137843
219	0xbe2ad2eb	-0.16682021
220	0xbda121c8	-0.078677714
221	0x3cd9a739	0.026568996
222	0xbe23b715	-0.15987809
223	0xbb045d7e	-0.0020197327
224	0x3d0acced	0.03388684
225	0xbe1da8b7	-0.15396391
226	0xbdc8aa9a	-0.09798165
227	0x3dbc2f55	0.09188715
228	0xbd457597	-0.048207846
229	0x3e355713	0.17708997
230	0xbe5b152a	-0.21394792
231	0xbe185891	-0.14877535
232	0x3cdf73c8	0.027276888
233	0x3db5ef3a	0.088835195
234	0xbdbf9091	-0.09353746
235	0x3da2e320	0.07953477
236	0x3e189143	0.14899163
237	0xbdf39278	-0.11893171
238	0xbaced298	-0.0015779315
239	0x3d2e334c	0.04252939
240	0xbd54e88c	-0.051979586
241	0xbe348960	-0.1763053
242	0x3e30b5c8	0.17256844
243	0x3e313fc7	0.17309485
244	0xbdc9b4bb	-0.09848925
245	0x3df39d81	0.11895276
246	0x3d2ba9a0	0.041909814
247	0x3e043ee5	0.12914617
248	0x3c0cb368	0.008587696
249	0xbca4740e	-0.02007487
250	0xbe2d5ac5	-0.16929157
251	0xbe30e982	-0.17276576
252	0xbce181d1	-0.027527722
253	0xbc962a24	-0.018330641
254	0x3e0eeac4	0.13956743
255	0x3e2c826b	0.16846626

layers.0.bias f4 [32]
0	0x3e42473a	0.18972483
1	0xbd727349	-0.059191976
2	0xbd920389	-0.071295805
3	0xbd35ff9b	-0.044433217
4	0xbdd3d688	-0.10343653
5	0x3e3bbdf3	0.18334179
6	0x3db7631a	0.08954449
7	0xbe2ea6fe	-0.1705589
8	0xbda5471e	-0.08070205
9	0x3d60b2cb	0.05485801
10	0xbe47b8db	-0.1950411
11	0x3e06704f	0.1312878
12	0xbdf4df1b	-0.119566165
13	0xbd5cdb90	-0.05392033
14	0x3daced64	0.08443716
15	0xbd84beb1	-0.06481684
16	0x3e18398b	0.14865701
17	0x3de9a533	0.114084624
18	0xbd75785d	-0.05992924
19	0xbe3afda0	-0.18260813
20	0xbe49b4ec	-0.19697922
21	0xbe222975	-0.15836127
22	0x3e1cf559	0.15327968
23	0xbb685929	-0.0035453534
24	0xbd728028	-0.05920425
25	0x3bef0d87	0.0072953138
26	0xbd39e01a	-0.045379736
27	0xbdfd0235	-0.123539366
28	0xbdb246d9	-0.08704919
29	0x3dbe343b	0.09287306
30	0xbdb16be8	-0.086631596
31	0xbd385913	-0.045006823

layers.1.weight f4 [32]
0	0x3f79b8e5	0.9754775
1	0x3f7c073d	0.98448545
2	0x3f757734	0.95885015
3	0x3f8604fc	1.0470271
4	0x3f83b433	1.0289367
5	0x3f8b2c2e	1.0872858
6	0x3f8a9a2c	1.08283
7	0x3f7dc83e	0.9913367
8	0x3f7e8235	0.9941743
9	0x3f828540	1.0196915
10	0x3f7cc9c2	0.9874536
11	0x3f891b81	1.0711519
12	0x3f8345a9	1.0255634
13	0x3f876314	1.0577111
14	0x3f80e26d	1.00691
15	0x3f82a03c	1.020515
16	0x3f89a918	1.0754728
17	0x3f852cd9	1.0404311
18	0x3f871e2c	1.0556083
19	0x3f8c8486	1.0977943
20	0x3f782fcd	0.9694794
21	0x3f868e6d	1.0512215
22	0x3f8c3d65	1.0956236
23	0x3f8219ff	1.0164183
24	0x3f863052	1.0483496
25	0x3f810145	1.0078512
26	0x3f853316	1.0406215
27	0x3f85a1c7	1.0439996
28	0x3f8138ce	1.009546
29	0x3f885e7b	1.0653833
30	0x3f8646ce	1.0490358
31	0x3f85d16a	1.0454533

layers.1.bias f4 [32]
0	0x3cd456c3	0.025920277
1	0xbab66475	-0.0013915437
2	0x3d0ad57b	0.033894997
3	0xbb0af89e	-0.0021205316
4	0x3b5a1a15	0.0033279706
5	0xbc72c005	-0.014816289
6	0xbcdfc06a	-0.02731343
7	0xba22f6db	-0.0006216594
8	0xbd065da9	-0.032804165
9	0x3b946bde	0.0045294603
10	0x3d003674	0.03130193
11	0x3c83603b	0.016037097
12	0xbce9f014	-0.028556861
13	0xbc9336b5	-0.017970422
14	0xbb255f07	-0.0025233643
15	0xbd90b4b0	-0.070657134
16	0xbb35ee33	-0.0027760386
17	0xbca3d1c7	-0.01999749
18	0xbcbf10ff	-0.023323534
19	0xbd1a03ba	-0.03760121
20	0x3b8479e4	0.004042851
21	0xbd27d243	-0.040972006
22	0xbd371fd7	-0.0447081
23	0xbce7ee75	-0.028311947
24	0xbbc91131	-0.0061360826
25	0xbcdbc0a4	-0.026825257
26	0xbd88dbaa	-0.066825226
27	0xbc9d0093	-0.019165313
28	0xbca07333	-0.019586181
29	0x3cb7f673	0.022456383
30	0xbc358ce5	-0.011080955
31	0xbc504138	-0.012710862

layers.1.running_mean f4 [32]
0	0x3efb9264	0.49135125
1	0xbd4653eb	-0.048419874
2	0x3e2fdeb4	0.17174798
3	0xbd852c2a	-0.06502564
4	0xbdc87b5a	-0.097891524
5	0x3e2aad17	0.16667591
6	0x3d959bb5	0.073050894
7	0xbd5ae2cc	-0.053438947
8	0xbed20e68	-0.41026616
9	0x3da496d0	0.08036578
10	0x3d822310	0.06354344
11	0x3dc96575	0.098338045
12	0xbe09cb17	-0.13456379
13	0xbd3a2e7d	-0.04545449
14	0x3d4a05bd	0.04932188
15	0xbde4d486	-0.11173348
16	0x3e38ab3a	0.18034068
17	0x3d81d660	0.06339717
18	0xbdac9707	-0.08427244
19	0xbe5b7b9a	-0.21433869
20	0x3db4f7dd	0.08836339
21	0xbe30b059	-0.17254771
22	0x3e246bd7	0.16056763
23	0x3cda8d87	0.026678814
24	0xbd5f9233	-0.054582786
25	0xbda69586	-0.08133988
26	0xbdbedf19	-0.09319896
27	0xbdc0e446	-0.0941854
28	0xbdd8fe5b	-0.105953895
29	0x3d9aff8e	0.075682744
30	0xbdabe051	-0.08392394
31	0xbd702a1d	-0.058633912

layers.1.running_var f4 [32]
0	0x3def9c0c	0.116996855
1	0x3c29f354	0.010372955
2	0x3d8491a4	0.06473091
3	0x3cb98623	0.02264697
4	0x3ccd8b72	0.025090907
5	0x3cd1167f	0.025523422
6	0x3c9e32c8	0.019311324
7	0x3d077e15	0.033079226
8	0x3dffab2f	0.124838226
9	0x3c8a92fa	0.016915787
10	0x3dc154c1	0.09439994
11	0x3cef7a00	0.029232979
12	0x3c390512	0.011292713
13	0x3c8c7b91	0.017148765
14	0x3c2cf85e	0.010557262
15	0x3c7d6c80	0.015467763
16	0x3d00e51c	0.031468496
17	0x3ca49d90	0.020094663
18	0x3c70fd4f	0.014708831
19	0x3c5f4775	0.0136278765
20	0x3dc26c04	0.094932586
21	0x3c0186d5	0.007905682
22	0x3bc378d6	0.0059653325
23	0x3c64eada	0.013972009
24	0x3bee8933	0.007279539
25	0x3c768609	0.015046605
26	0x3ca5d2ba	0.020242084
27	0x3c37c4ba	0.011216337
28	0x3c46e30c	0.012139093
29	0x3cf199df	0.029492317
30	0x3cb06f75	0.021537522
31	0x3c8e00d4	0.01733438

layers.3.weight f4 [32, 32, 3, 3]
0	0xbd3e43a6	-0.046451233
1	0xbd06fde5	-0.032956976
2	0xbc21aaaf	-0.009867354
3	0x3d2dc74c	0.042426392
4	0x3b4cfc87	0.0031278448
5	0xbbb66987	-0.005566779
6	0x3d02db64	0.03194751
7	0xbd6db878	-0.05803725
8	0x3cf876e3	0.030330127
9	0x3d040e96	0.032240473
10	0x3ce9cea9	0.028540926
11	0x3c51eedb	0.012813295
12	0xbd86afb4	-0.065764815
13	0xbd141644	-0.036154047
14	0xbd40b970	-0.047051847
15	0xbd56886f	-0.052376207
16	0xbd1156f2	-0.035483308
17	0x3d2c36ad	0.04204433
18	0xbc931df2	-0.017958615
19	0xbce06d6c	-0.027395926
20	0xbcd3edde	-0.02587026
21	0xbca57bbf	-0.020200608
22	0x3bd04c6b	0.006356766
23	0xbce2c60d	-0.027682329
24	0xbd116cb4	-0.035504058
25	0x3d4a5623	0.049398553
26	0x3c5416aa	0.012944857
27	0x3d0b69a4	0.034036294
28	0xbd70cfb8	-0.058791846
29	0xbd1bb74a	-0.038016595
30	0x3d0b66e8	0.034033686
31	0x3cade219	0.021225976
32	0xbd9e86dc	-0.07740566
33	0x3d2e59ed	0.04256623
34	0xba23b43c	-0.00062448136
35	0x3a2bc52d	0.0006552514
36	0xbd0978bf	-0.033562418
37	0x3d080c98	0.033215135
38	0xbb96f547	-0.004606876
39	0x3d2b5ab9	0.041834567
40	0x3cc35936	0.02384625
41	0x3d1be053	0.03805573
42	0xbb2803c1	-0.0025637003
43	0xbc567fb1	-0.013091967
44	0x3c619af9	0.0137698585
45	0x3d5f3e70	0.054502904
46	0xbd659e83	-0.05605937
47	0x3c96b6d0	0.018397719
48	0xbd041434	-0.03224583
49	0xbcefa494	-0.029253282
50	0xbd96dbd2	-0.07366146
51	0x3cedc907	0.029026521
52	0x3d067355	0.032824833
53	0xbcc07d0d	-0.023497129
54	0x3cec48fd	0.028843397
55	0xbc0944de	-0.008378236
56	0x3d6fc661	0.0585388
57	0x3c8e50ac	0.017372452
58	0x3d04eb45	0.032450933
59	0xbc46d023	-0.012134585
60	0xbd4595d4	-0.04823859
61	0x3cd941d3	0.026520645
62	0x3b8917e9	0.0041837585
63	0xbcfdb86e	-0.030971732
64	0xbd20611a	-0.039155103
65	0x3c5a80eb	0.0133364005
66	0xbc8d6291	-0.017258914
67	0x3c74a721	0.014932425
68	0x3d380a1f	0.044931527
69	0x3d5bc43f	0.05365395
70	0x3d7b82fa	0.061404206
71	0xbcdf00c9	-0.027222054
72	0x3d2117fa	0.039329506
73	0xbd33daf1	-0.04390997
74	0x3c3612f4	0.011112917
75	0xbd4f4c9c	-0.05061017
76	0xbc9c2195	-0.019058982
77	0x3bab1261	0.005220697
78	0xbcd7e1a2	-0.026352707
79	0xbd6ab852	-0.057304688
80	0xbd1d73fe	-0.038440697
81	0x3c88739d	0.016656691
82	0xbc48464f	-0.012223794
83	0xbd51e27e	-0.05124139
84	0x3cd16d54	0.025564827
85	0xbccddac6	-0.025128733
86	0xbd1ad8f8	-0.037804574
87	0xbd1f3024	-0.03886427
88	0xbccd8a10	-0.025090247
89	0x3d30786b	0.04308359
90	0x3bcc8775	0.0062417337
91	0xbd23e8d0	-0.04001695
92	0xbd3a52cb	-0.045489114
93	0x3cd27826	0.025692057
94	0xbcbb8e7a	-0.022895087
95	0x3cae7483	0.021295791
96	0x3cca4b27	0.024694039
97	0xbd47ed2b	-0.048810165
98	0x3c52ef0a	0.012874374
99	0xbcd8f04d	-0.026481772
100	0xbd8b411c	-0.06799528
101	0xb88efe02	-6.8184e-05
102	0x3d1b3d07	0.037899997
103	0x3bbba7a4	0.0057267714
104	0x3d151be2	0.036403544
105	0xbcdc86dc	-0.026919775
106	0x3ca9c2f6	0.020722847
107	0x3d90b0dc	0.07064983
108	0xbc0b010b	-0.008484135
109	0xbd197cbe	-0.03747248
110	0xbc418b74	-0.011813033
111	0xbbf69e13	-0.007526168
112	0x3c3fb6cf	0.0117013
113	0xbc7d2874	-0.015451539
114	0x3ca9075b	0.02063339
115	0x3d37496d	0.04474776
116	0xbcb826a2	-0.022479359
117	0xbd712d44	-0.05888106
118	0x380d502a	3.369168e-05
119	0xbc17fd6d	-0.00927673
120	0x3d851010	0.06497204
121	0x3d657cc2	0.05602718
122	0xbc4631f9	-0.012096875
123	0xbcbbcad4	-0.022923864
124	0xbd24ecbf	-0.04026484
125	0xbd8a6e33	-0.067593
126	0xbceb55cd	-0.028727436
127	0x3d804408	0.06262976
128	0xbd58d5ef	-0.052938398
129	0x3c9abdc8	0.018889323
130	0x3d3a2120	0.045441747
131	0x3cdaef9f	0.026725588
132	0x3d4c2d6e	0.049848013
133	0x3d3320bd	0.043732394
134	0xbc879aff	-0.0165534
135	0xbceccc45	-0.028905997
136	0xba803fa2	-0.0009784589
137	0x3d1a032b	0.037600677
138	0x3d07caac	0.033152267
139	0x3d2daf04	0.042403236
140	0xbd6d9a55	-0.05800851
141	0x3c5c7780	0.013456225
142	0x3c564312	0.013077514
143	0xbd5a7652	-0.053335495
144	0xbd99bada	-0.07506342
145	0x3c6a055f	0.014283507
146	0x3d7155f5	0.058919866
147	0x3c65a04e	0.01401527
148	0xbd1ef606	-0.038808845
149	0xbc882dc3	-0.016623383
150	0x3d693c48	0.056942254
151	0x3cafd4bf	0.02146375
152	0xbbc53617	-0.006018411
153	0x3c957009	0.0182419
154	0xbd3990a4	-0.045303956
155	0xbcfc83ce	-0.030824568
156	0xbaad9166	-0.0013242185
157	0x3cc1fa03	0.023678785
158	0x3ce425c0	0.027850032
159	0x3d2e4867	0.042549517
160	0xbd1722ff	-0.03689861
161	0x3be82cb5	0.0070854076
162	0x3c6d581f	0.014486342
163	0xbd029e48	-0.03188923
164	0xbd9c0503	-0.076181434
165	0x3d34b893	0.044121336
166	0xbc3e9be6	-0.011633849
167	0x3bf47c78	0.007461127
168	0x3d30a517	0.043126192
169	0x3ccda051	0.025100859
170	0x3c3d9a7f	0.011572479
171	0x3dd829b7	0.105548315
172	0xbdd873f2	-0.1056899
173	0x3d5436c9	0.05181006
174	0x3da389d4	0.07985273
175	0xbd863452	-0.06552948
176	0x3d040910	0.032235205
177	0xbc9814e0	-0.018564641
178	0xbd0a5da3	-0.033780705
179	0xbd972721	-0.0738051
180	0x3d2fff67	0.04296818
181	0xbd62bbd0	-0.055354893
182	0xbd62d496	-0.05537852
183	0x3d237c45	0.039913435
184	0x3b21c657	0.002468487
185	0x3c92f4d2	0.017939005
186	0xbd7ff2d5	-0.062487442
187	0x3cbdaf31	0.023154827
188	0xbd0ed496	-0.034870706
189	0x3d9f67dd	0.07783482
190	0xbacb9881	-0.0015533121
191	0x3d79cdd6	0.060987316
192	0xba220c2a	-0.0006181622
193	0x3c9f3c2b	0.01943787
194	0x3ba8f7ae	0.005156479
195	0xbd87e592	-0.06635584
196	0x3d101c46	0.035183214
197	0xbb53b6b5	-0.0032304947
198	0x3c31188e	0.010809077
199	0x3ca3b648	0.01998438
200	0xbcc0cd44	-0.023535378
201	0x3d3a7bed	0.04552834
202	0xbda8e8fb	-0.082475625
203	0x3b4627b7	0.0030236074
204	0xbc3ac6ae	-0.011399908
205	0xbcdac9e1	-0.026707591
206	0xbcc61c7f	-0.02418351
207	0x3d000c54	0.031261757
208	0x3a0c9eae	0.0005364221
209	0x3cec7e85	0.028868923
210	0xbc2dd2ff	-0.010609387
211	0x3cfc0502	0.030764107
212	0xbd8a0196	-0.06738584
213	0x3c6b569b	0.01436391
214	0x3d276c5a	0.040874816
215	0xbd89104c	-0.066925615
216	0xbc9456b4	-0.01810775
217	0x3ca4e4c4	0.020128615
218	0x3ca8fbf8	0.02062796
219	0x3d2ad5f2	0.04170794
220	0xbd8ea928	-0.06965858
221	0x3c15898f	0.009127035
222	0xbc814766	-0.015781116
223	0xbcc88658	-0.024478123
224	0xbbc13a3f	-0.005896836
225	0x3d0983ec	0.033573076
226	0x3cfbf4c9	0.030756371
227	0xbd36a476	-0.044590436
228	0xbd2b1095	-0.04176386
229	0x3cec754e	0.028864529
230	0xbabfce13	-0.0014633558
231	0x3cf35090	0.029701501
232	0x3b9bac0a	0.0047507333
233	0xbd53bbb3	-0.051692676
234	0x3d226355	0.03964551
235	0xbc80f4de	-0.015741762
236	0xbd8f37da	-0.06993075
237	0x3d9cdb8a	0.07659061
238	0xbd0a4c79	-0.033764336
239	0x3b97ad84	0.004628839
240	0x37e2b4ce	2.7025493e-05
241	0x3d6078ba	0.054802634
242	0x3d371309	0.044695888
243	0xbd1cbf2d	-0.038268257
244	0xbc93f9be	-0.018063422
245	0x3c61b993	0.0137771545
246	0xbaa43c6f	-0.0012530218
247	0xbd6b16d7	-0.05739483
248	0xbc9284c6	-0.017885577
249	0xbb9c153c	-0.0047632735
250	0xbcb82c33	-0.022482013
251	0xbd29e934	-0.041482165
252	0xbbf2c80d	-0.007409102
253	0xbc986ed4	-0.018607534
254	0xbd740741	-0.05957723
255	0xbc991d59	-0.018690752

layers.3.bias f4 [32]
0	0x3cbf0d93	0.023321902
1	0x3d3af8b0	0.045647323
2	0xbd0a0c9c	-0.03370343
3	0x3bd5383a	0.006506947
4	0xbd39616a	-0.045258917
5	0x3d23c530	0.039982975
6	0x3d0e8690	0.034796298
7	0xbcea07c3	-0.028568154
8	0xbd0648f8	-0.032784432
9	0xbc1e9d96	-0.009681126
10	0xbc2d580d	-0.010580075
11	0x3d208f47	0.03919914
12	0xbd21d798	-0.039512247
13	0xbd30ed98	-0.043195337
14	0xbc8e0b4a	-0.017339367
15	0x3d333809	0.04375461
16	0xbd7516d3	-0.05983622
17	0x3c98ef09	0.018668668
18	0xbb8f38b1	-0.004370772
19	0x3d455b4a	0.048182763
20	0xbc391820	-0.011297256
21	0x3d23ea4b	0.04001836
22	0x3d1113b7	0.035419192
23	0x3b67544c	0.0035298048
24	0xbbf86692	-0.0075805867
25	0x3ce5d149	0.028053897
26	0xbd3efc53	-0.046627354
27	0x3d3a4d91	0.04548413
28	0xbd1e8e56	-0.03870996
29	0xbc701a26	-0.014654672
30	0x3cfa52ae	0.030557003
31	0xbbfb0dc1	-0.0076615517

layers.5.weight f4 [64, 32, 3, 3]
0	0xbba51a3d	-0.0050385282
1	0x3ced0fe8	0.028938249
2	0xbd21effe	-0.039535515
3	0xbcd9be47	-0.02657999
4	0x3c00f251	0.007870273
5	0x3d03720c	0.032091185
6	0xbd4b4bbf	-0.049632784
7	0xbd248c32	-0.040172763
8	0xbd07decf	-0.03317147
9	0xbcbe6b62	-0.023244563
10	0x3ccee7ff	0.025257109
11	0x3d55f3db	0.05223451
12	0x3c0f4f17	0.008746884
13	0x3c7a041f	0.015259772
14	0xbcba0ca3	-0.022711104
15	0xbbb2d5af	-0.005457602
16	0xbc399022	-0.011325868
17	0xbcbd7a7e	-0.023129698
18	0xbd4badad	-0.049726177
19	0x3d36f964	0.04467143
20	0x3c96c925	0.01840646
21	0x3c15ac2d	0.009135288
22	0x3d4a9746	0.04946067
23	0x3ba6f660	0.005095288
24	0xbd7d8726	-0.061896466
25	0xbc95f71f	-0.018306313
26	0xbd24ea25	-0.04026236
27	0x3d8eb04b	0.06967219
28	0xbc7dfd6f	-0.015502318
29	0xbd08c394	-0.033389643
30	0x3d2aa1a5	0.041658062
31	0x3d7f6452	0.062351532
32	0xbcf550ce	-0.029945757
33	0xbcdf736a	-0.027276713
34	0x3d573ad1	0.052546326
35	0x3d6115bf	0.05495238
36	0x3d8b8636	0.06812708
37	0x3c15666e	0.009118659
38	0x3d61f443	0.055164587
39	0xbc8cc645	-0.017184386
40	0x3d14673f	0.036231276
41	0xbcbfae80	-0.023398638
42	0x3d02e66a	0.03195802
43	0xbd6dccc0	-0.058056593
44	0xbce4fe0a	-0.027953167
45	0x3d3d6753	0.046241116
46	0xbd2b67ad	-0.04184692
47	0x3d8925a1	0.0669663
48	0xbc35c3b1	-0.01109402
49	0x3c4f2c34	0.012644816
50	0xbd5b0cf0	-0.053479135
51	0xbd859b8e	-0.0652381
52	0x3d279ce0	0.040921092
53	0xbc782f9c	-0.01514807
54	0x3d24eb82	0.04026366
55	0x3c5cc86d	0.01347552
56	0xbd12f61a	-0.035879232
57	0xbb9d2043	-0.0047951057
58	0xbd25b24e	-0.040453248
59	0x3b3b97ea	0.0028624483
60	0x3d541184	0.051774517
61	0x3c91869e	0.017764386
62	0xbd484a22	-0.048898824
63	0xbd8cc23b	-0.06872984
64	0xbd5a4a24	-0.053293362
65	0x3c0eb805	0.008710866
66	0xbc306c50	-0.010768011
67	0xbbdbce75	-0.006707961
68	0x3c2998e5	0.010351394
69	0xbd9315b6	-0.071818754
70	0xbd4a2d0e	-0.049359374
71	0xbbd1b345	-0.0063995444
72	0x3c0e9642	0.008702816
73	0x3c518535	0.012788107
74	0xbda5c763	-0.080946706
75	0xbbcb19a2	-0.006198124
76	0xbc7eac98	-0.015544079
77	0x3d033c68	0.03204003
78	0x3d7dcc1d	0.061962236
79	0x3ccdbb97	0.025113864
80	0xbd302b30	-0.043009937
81	0xbd6008cb	-0.054695886
82	0x3d2aa5d7	0.041662063
83	0x3bc75a24	0.0060837436
84	0xbced7b4d	-0.028989458
85	0xbcbf245c	-0.023332767
86	0xbd247578	-0.04015109
87	0xbd381083	-0.04493762
88	0x3c88cde8	0.016699746
89	0x3d3e33d2	0.04643614
90	0xbd773c5e	-0.060360305
91	0xbd08d9af	-0.033410724
92	0x3d1eaae4	0.038737193
93	0x3d1e9d5b	0.038724285
94	0xbc94759a	-0.018122483
95	0x3b9e7b01	0.0048364406
96	0xbd10e495	-0.035374243
97	0xbd296e7f	-0.041365143
98	0x3bbc3289	0.005743329
99	0xbc749137	-0.0149272
100	0x3d5462a4	0.051851884
101	0xbc3bfbeb	-0.011473636
102	0xbc071551	-0.008244828
103	0xbd67a5b0	-0.056554496
104	0xba88a6ac	-0.0010425649
105	0xbd43eb4d	-0.047831822
106	0xbd698ec8	-0.057020932
107	0x3d565b23	0.05233301
108	0x3c17ed76	0.009272924
109	0x3d1b915c	0.037980422
110	0x3d3f6c51	0.046734158
111	0x3d093161	0.033494357
112	0xbd1d49df	-0.038400527
113	0x3db73fa5	0.08947686
114	0xbd1469c6	-0.036233686
115	0xbd3a2894	-0.045448855
116	0x3cc374df	0.02385944
117	0x3d347ca0	0.044064164
118	0x3d4211e3	0.04738034
119	0x3d2ef061	0.042709712
120	0x3d88c001	0.06677247
121	0xbcf1e0f5	-0.029526213
122	0xbda8a120	-0.08233857
123	0x3d539b84	0.051661983
124	0x3d0610e6	0.03273096
125	0xbd2c420c	-0.042055175
126	0xbaeeaca3	-0.0018209409
127	0xbd59da28	-0.053186566
128	0x3a564d7e	0.00081749994
129	0xbd5ccedd	-0.053908218
130	0xbca51925	-0.020153591
131	0x3c0d0433	0.008606958
132	0x3d02b929	0.031914864
133	0x3d2fd61a	0.042928793
134	0x3d05a1d4	0.032625034
135	0xbd677fa8	-0.056518227
136	0xbd7b5e59	-0.061369274
137	0xbd667156	-0.05626043
138	0x3d00d16e	0.031449728
139	0x3ca0eec3	0.0196451
140	0x3d88dfef	0.06683337
141	0xbcb3392e	-0.021877851
142	0xbccccb27	-0.024999214
143	0x3c46e9c2	0.012140693
144	0x3ce7258f	0.028216152
145	0x3d78aa35	0.060709197
146	0xbc198799	-0.009370708
147	0x3d06abbe	0.03287863
148	0x3d9c0c40	0.07619524
149	0x3d90ba69	0.07066805
150	0xbb1f1590	-0.0024274327
151	0x3d453e49	0.048155103
152	0xbc976b50	-0.018483788
153	0x3d508e2f	0.050916847
154	0x3cd96c77	0.026540978
155	0x3cc1eddc	0.02367299
156	0xbc3ab9de	-0.011396853
157	0x3cd28bf3	0.025701499
158	0xbc0cdf98	-0.008598231
159	0xbcc25fda	-0.023727346
160	0xbcf2143d	-0.029550666
161	0xbbfa6b50	-0.007642187
162	0x3d287106	0.041123413
163	0x3b83f333	0.0040267943
164	0x3bf2c1ab	0.007408341
165	0x3cbb97be	0.022899505
166	0xbc58ae43	-0.013225141
167	0x3d481d37	0.048855986
168	0xbd0c6f24	-0.03428568
169	0xbd46a90e	-0.048501067
170	0x3c611c7a	0.0137396995
171	0x3da7feb8	0.082028806
172	0x3ca3b1e7	0.019982291
173	0xbd04a8df	-0.03238761
174	0x3c28f16d	0.010311467
175	0xbd29a6e8	-0.04141894
176	0x3c3df228	0.011593379
177	0xbd532180	-0.05154562
178	0xbd3acdaa	-0.045606293
179	0xbd1d3fc1	-0.03839088
180	0xbcfb0721	-0.030643048
181	0xbc10a98b	-0.008829485
182	0x3d815e2e	0.063167915
183	0xbd0c09c0	-0.034188986
184	0x3ca78da1	0.020453276
185	0x3d2db7ea	0.042411722
186	0xbd1c66e6	-0.03818407
187	0x3c96d86a	0.018413741
188	0xbd55dd70	-0.052213132
189	0xbcb860a8	-0.022507027
190	0xbc866ec2	-0.016410235
191	0xbd39bdb3	-0.045346927
192	0x3cfe384e	0.031032708
193	0x3be277bf	0.0069112475
194	0xbc82460f	-0.015902547
195	0x3d14abd5	0.036296684
196	0xbcc1f2ee	-0.023675408
197	0x3c8976a9	0.016780214
198	0x3d340ddb	0.043958526
199	0x3c277ad1	0.010222153
200	0x3d9206d3	0.07130208
201	0xbc68f22b	-0.014217894
202	0x3d843e2f	0.06457173
203	0x3d14ee13	0.036359858
204	0x3c210a04	0.009829048
205	0x3be72950	0.0070544854
206	0x3d851f23	0.065000795
207	0xbce02054	-0.027359165
208	0xbd745e55	-0.059660275
209	0x3d27e9f7	0.04099461
210	0x3c4e05fd	0.01257467
211	0xbcf2b4c8	-0.029627219
212	0xb9f504cb	-0.00046733613
213	0xbd645841	-0.055748228
214	0x3d1c235b	0.038119655
215	0xbcdc334f	-0.026879935
216	0x3caff0de	0.02147716
217	0xbc00c3f8	-0.007859223
218	0x3d24c9bd	0.040231455
219	0xbd377288	-0.04478696
220	0xbb0b08f0	-0.0021215044
221	0x3cb47786	0.02202965
222	0x3ca1faec	0.01977297
223	0xbc33b88e	-0.010969294
224	0x3c50cf7e	0.0127447825
225	0xbd855b6a	-0.065115765
226	0xbc70e2d9	-0.014702522
227	0x3d660799	0.05615959
228	0xbd2736f7	-0.040823903
229	0xbd53f7ef	-0.05175012
230	0x3d8403b5	0.064460196
231	0x3b936266	0.004497814
232	0xbbc82bfa	-0.006108758
233	0x3d246349	0.04013375
234	0xbd7409a1	-0.059579495
235	0xbd3d2532	-0.04617805
236	0xbc9bb1fb	-0.019005766
237	0xbca80b25	-0.020513127
238	0xbd348413	-0.04407127
239	0xbc8d234e	-0.017228749
240	0x3d51ae64	0.051191702
241	0x3d0442d9	0.032290313
242	0xbd476a77	-0.048685517
243	0x3d6514f0	0.05592817
244	0xbbcd8cb3	-0.006272876
245	0x3c911da7	0.017714335
246	0xbd0fc748	-0.03510216
247	0x3c06b828	0.008222617
248	0x3c6e6eef	0.014552816
249	0xbcd1af2e	-0.025596227
250	0xbd45c416	-0.048282705
251	0xbd895b87	-0.067069106
252	0x3c28aac4	0.01029462
253	0x3a7ed53b	0.0009721105
254	0x3d199c08	0.03750232
255	0x3adc9825	0.001683001

layers.5.bias f4 [64]
0	0x3caa403e	0.020782586
1	0xbcb3ebb1	-0.021962972
2	0xbd10ca15	-0.03534897
3	0x3be4e762	0.006985591
4	0x3c5d3aa2	0.013502749
5	0xbcf837b3	-0.030299997
6	0x3c5ac2cd	0.013352108
7	0x3b990308	0.004669551
8	0x3ba8c43c	0.005150346
9	0xbb162200	-0.002290845
10	0xbbc18ff3	-0.0059070527
11	0xbd2dcdae	-0.04243248
12	0xbd2a54ae	-0.041584663
13	0xbaec1bec	-0.0018013692
14	0xbbadd9ea	-0.0053055184
15	0xbc7e1f46	-0.015510386
16	0xbcd7b406	-0.026330959
17	0x3c413430	0.011792228
18	0x3c5ceebf	0.013484656
19	0x3c8e1343	0.01734317
20	0xbc50c7da	-0.012742961
21	0x3c354075	0.011062731
22	0x3b261700	0.00253433
23	0xba6baaa8	-0.00089899683
24	0xbd7e3753	-0.06206448
25	0x3b3927b4	0.0028252425
26	0xbd4b0453	-0.04956467
27	0xbd25cae3	-0.04047669
28	0x3be0893d	0.0068522976
29	0xba83ca53	-0.0010054804
30	0x3c98b756	0.018642109
31	0xbcb241f4	-0.021759965
32	0xbc63cb52	-0.013903456
33	0xbc84e4fb	-0.016222468
34	0x3cc9ec68	0.02464886
35	0xbd16f854	-0.036857918
36	0xbc047abf	-0.008085906
37	0x3c78a1b5	0.015175273
38	0xbd6226b3	-0.055212688
39	0xbb955723	-0.0045575066
40	0xbcc093d0	-0.023507982
41	0xbd63c1f7	-0.0556049
42	0x3c9aaefc	0.018882267
43	0xbcf52a29	-0.02992733
44	0xbd3b11c5	-0.045671243
45	0xbcf5772e	-0.029964056
46	0x3cc80e77	0.02442096
47	0xbd2e8dcd	-0.0426157
48	0xbc465077	-0.012104145
49	0xbd6c8e2d	-0.057752777
50	0xbc98c9bd	-0.018650884
51	0xbcfc9f4c	-0.030837677
52	0xbcfeaa8a	-0.031087179
53	0xbabb8eac	-0.0014309487
54	0xbcbbe5d9	-0.022936748
55	0x3c8294ac	0.015940033
56	0x3d0ae75c	0.033912048
57	0xbd10ba9f	-0.035334226
58	0x3c5f08c0	0.013612926
59	0x3d0e43fb	0.0347328
60	0xbd1a260b	-0.037633937
61	0xbc967702	-0.018367294
62	0x3ca0f6fb	0.01964902
63	0x3d45541d	0.04817592

layers.7.weight.mean f4 [64, 64, 3, 3]
0	0xbdb63ede	-0.0889871
1	0x3b96e769	0.004605223
2	0xbce6c5a4	-0.028170414
3	0xbcf39306	-0.029733192
4	0x3da10ced	0.078637935
5	0x3d1971bc	0.03746198
6	0xbaf6b06d	-0.001882089
7	0xbd3c04c3	-0.04590298
8	0x3dc18d64	0.09450796
9	0x3d9d96b4	0.0769476
10	0x3d8221c7	0.06354099
11	0xbd9f9b3d	-0.07793281
12	0xbd30fc30	-0.043209255
13	0x3cdb3352	0.02675787
14	0x3cf9c611	0.030489953
15	0x3c3ba3a9	0.011452594
16	0x3d5c6d95	0.053815443
17	0x3dc55c64	0.09636763
18	0xbcfa03a1	-0.030519309
19	0xbcf18218	-0.029480979
20	0xbd26f589	-0.040761504
21	0x3d885290	0.066563725
22	0x3d063b4d	0.032771397
23	0x3d5a9c05	0.053371448
24	0xbd300ab3	-0.042978954
25	0xbc20c8d2	-0.009813504
26	0x3dda619d	0.106631495
27	0xbcc3e8bb	-0.023914685
28	0xbc38607b	-0.0112534715
29	0x3c8e530f	0.01737359
30	0xbd3f1d1c	-0.04665862
31	0x3d294dcb	0.041333955
32	0x3d21b37e	0.039477818
33	0xbcadc478	-0.021211848
34	0x3a27a931	0.0006395756
35	0x3d82510a	0.06363113
36	0xbbf9c081	-0.007621825
37	0xbb847521	-0.004042283
38	0x3abd10b3	0.0014424532
39	0xbb6ebf96	-0.0036430112
40	0x3da31e4e	0.079647645
41	0x3d97d6c1	0.07414008
42	0xbd4b74ec	-0.049672052
43	0x3d1a88be	0.037728064
44	0x3d8d7f18	0.06909007
45	0xbd6708f0	-0.056405008
46	0xbcf502b4	-0.029908516
47	0x3d1c76ed	0.038199354
48	0xbd49894e	-0.04920321
49	0xbb037805	-0.002006055
50	0xbd0ab42a	-0.033863224
51	0x3d7700f4	0.060303643
52	0xbd30469d	-0.043036092
53	0x3d9244ae	0.07142006
54	0xbd97cae3	-0.074117444
55	0xbb791a0a	-0.0038009905
56	0x3cb36b41	0.021901729
57	0xbe0661d2	-0.13123253
58	0xbc220b4e	-0.009890391
59	0xbdbca8e2	-0.09211899
60	0xbc924533	-0.017855262
61	0xbcc67b33	-0.024228668
62	0xbd35c170	-0.04437393
63	0x3c8c7fc0	0.01715076
64	0x3cd3d3ff	0.025857924
65	0x3ba8411c	0.005134715
66	0xbd0f4b38	-0.034983844
67	0x3cecb757	0.028896017
68	0x3e0c7c02	0.1371918
69	0x3c8175c9	0.015803235
70	0x3c578ff1	0.013156877
71	0x3ddb7af2	0.10716809
72	0xbcc84a71	-0.024449559
73	0x3d5800f0	0.05273527
74	0x3ceda81e	0.029010829
75	0xbda81068	-0.08206254
76	0xbdb161e7	-0.086612515
77	0xbdac4d75	-0.08413211
78	0xbcf152a8	-0.029458359
79	0xbd30ebc2	-0.043193586
80	0xbdb386c5	-0.087659396
81	0xbd0f542a	-0.034992374
82	0x3d08cb8d	0.033397246
83	0xbd6212fe	-0.055193894
84	0xbd9d859e	-0.07691501
85	0x3c47b015	0.012187977
86	0xbd0c7eb5	-0.034300525
87	0xbdb82320	-0.089910746
88	0x3d27f1eb	0.041002195
89	0x3db550ac	0.088532776
90	0x3c815dc7	0.015791787
91	0xbb0d1ebb	-0.002153321
92	0x3d16b58f	0.03679424
93	0xbd875e96	-0.06609838
94	0xbc3dcdf2	-0.011584746
95	0xbda5115f	-0.08059954
96	0x3d828f6f	0.06375014
97	0xbd0b07dd	-0.033943046
98	0xbdd44bbd	-0.103660084
99	0xbc071bcc	-0.008246373
100	0xbcac69ee	-0.021046605
101	0x3cd040dc	0.025421552
102	0x3c56f3e3	0.013119671
103	0x3ba5e7c6	0.00506303
104	0xbd04f3e5	-0.03245916
105	0x3dc79da8	0.097468674
106	0x3d91f47d	0.071267106
107	0x3d27e9d3	0.040994477
108	0x3d1e5c1a	0.038662054
109	0xbd153b86	-0.03643372
110	0xbc9b545a	-0.01896112
111	0x3cf076b6	0.02935348
112	0xbd964fb3	-0.0733942
113	0xbcb3ea28	-0.02196224
114	0x3e0f714f	0.14008068
115	0xbd9c1620	-0.076214075
116	0xbd7ff396	-0.06248816
117	0xbc807a1c	-0.015683226
118	0xbd08ef96	-0.033431612
119	0x3c0c2aec	0.008555155
120	0x3d7ecd94	0.062207773
121	0x3cd0e535	0.02549992
122	0x3db10859	0.0864417
123	0xbcfc1930	-0.03077373
124	0x3d2fab8b	0.042888205
125	0x3dc07bf7	0.093986444
126	0x3c03b965	0.008039807
127	0xbda972d5	-0.082738556
128	0x3c1f29b4	0.009714533
129	0x3d3e24cd	0.046421815
130	0xbd8a94fb	-0.06766697
131	0x3d844f17	0.06460398
132	0x3db0bb4d	0.08629475
133	0x3d37596c	0.044763014
134	0xbdaa619f	-0.08319401
135	0xbda99dea	-0.08282073
136	0x3d91837b	0.07105156
137	0xbd893157	-0.06698864
138	0x3d0daf73	0.03459115
139	0xbd417cf6	-0.047238313
140	0x3c429cb7	0.011878184
141	0xbe092a20	-0.13394976
142	0xbd89849c	-0.06714746
143	0xbc8189fd	-0.015812868
144	0xbcbdab39	-0.023152934
145	0x3d4fadd2	0.050702877
146	0xbcc9b2db	-0.024621418
147	0xbc8861db	-0.016648224
148	0x3d99203a	0.0747685
149	0xbdb626f9	-0.08894152
150	0xbd6907b4	-0.056892112
151	0xbbce66f9	-0.0062988964
152	0x3b80cff9	0.0039310423
153	0xbbdbdbeb	-0.006709566
154	0x3d6466cc	0.055762097
155	0xbc1ab7c8	-0.009443231
156	0xbca90423	-0.020631855
157	0x3df002ad	0.1171926
158	0x3db3af0b	0.08773621
159	0xbd5bfb0a	-0.053706206
160	0xbd285ab1	-0.041102115
161	0x3dbe5201	0.09292985
162	0x3c8bce91	0.017066272
163	0xbd4dcfdc	-0.05024706
164	0xbc8d906a	-0.017280776
165	0x3d6bc910	0.057564795
166	0xbcb3ff01	-0.021972181
167	0x3d976409	0.07392127
168	0x3ca484cb	0.020082852
169	0xbb871ffe	-0.004123687
170	0x3da48876	0.0803384
171	0x3da4d447	0.08048301
172	0x3a2fef8a	0.00067114143
173	0xbb0a2631	-0.0021079893
174	0xbc28618a	-0.010277161
175	0xbce009b6	-0.02734838
176	0xbd8cca21	-0.068744905
177	0x3d8791b8	0.066195905
178	0xbdc44343	-0.09583142
179	0xbce43b27	-0.027860237
180	0x3d51f862	0.051262267
181	0x3d171c43	0.036892187
182	0x3d94392a	0.07237466
183	0xbdda943f	-0.10672807
184	0x3bf86f8d	0.0075816573
185	0xbdd11ddb	-0.102107726
186	0x3c896682	0.016772512
187	0x39c4bbaf	0.00037523868
188	0xbd64c45e	-0.055851333
189	0x3d1d0d8e	0.038343005
190	0xbc917611	-0.017756494
191	0x3d269929	0.04067341
192	0x3d176413	0.036960673
193	0x3d3e80a3	0.046509396
194	0x3d5f810f	0.05456644
195	0x3da8355b	0.08213302
196	0x3d5cacb8	0.053875655
197	0xbd50eb82	-0.051005848
198	0x3c691144	0.014225308
199	0x3ca567a2	0.020191018
200	0xbd000bf6	-0.031261407
201	0xbcd9d707	-0.02659179
202	0x3d8888db	0.06666728
203	0x3cc3c59c	0.023897938
204	0xbbb9c260	-0.0056689233
205	0x3c85248b	0.016252777
206	0x3dd6eaea	0.10494025
207	0xbd45d8d1	-0.048302475
208	0x3ce08822	0.027408663
209	0x3c972b54	0.018453278
210	0xbdd146d1	-0.10218585
211	0xbcae3c7c	-0.021269076
212	0xbdc9f747	-0.098616175
213	0xbd87d05e	-0.0663154
214	0xbd354c7a	-0.044262387
215	0xbddb3fb6	-0.10705511
216	0x3d17f0bd	0.03709482
217	0x3cb63ee0	0.022246778
218	0x3cae1e18	0.021254584
219	0x3dfdd9e3	0.12395074
220	0xbca69f91	-0.020339759
221	0x3e11bc01	0.14231874
222	0xbd207d40	-0.039181948
223	0x3b8fd736	0.004389669
224	0x3d9846f3	0.074354075
225	0x3cd7871f	0.026309548
226	0x3c01c193	0.007919687
227	0xbc1625da	-0.009164298
228	0x3d2a1fd3	0.041534256
229	0x3c7f337c	0.01557624
230	0x3cec9276	0.028878432
231	0xbd9ebf5a	-0.07751341
232	0xbcae6304	-0.021287449
233	0x3ca289cd	0.0198411
234	0x3c8fcce5	0.017553756
235	0xbc8e0934	-0.017338373
236	0x3cf726bf	0.030169843
237	0x3d95db0d	0.07317171
238	0x3d15cfad	0.03657501
239	0x3d01fef0	0.031737268
240	0x3dbb633b	0.09149786
241	0xbbe982bc	-0.0071261805
242	0x3dd95885	0.10612587
243	0xbc5e6344	-0.013573471
244	0x3cbe4d68	0.02323027
245	0xbd4a068f	-0.04932266
246	0xbd480c25	-0.048839707
247	0x3d0d100a	0.034439124
248	0xbdb897eb	-0.09013351
249	0x3d260287	0.040529754
250	0xbd04c3f8	-0.032413453
251	0xbd0952d2	-0.03352625
252	0xb9a054c5	-0.00030580736
253	0x3ca9ada9	0.02071269
254	0xbc7d3b37	-0.015456012
255	0xbcbd1245	-0.02308

layers.7.weight.scale f4 [64, 64, 3, 3]
0	0xbffcd30c	-1.9751906
1	0xc00f3b89	-2.2380087
2	0xc006d520	-2.106758
3	0xc01785c2	-2.367539
4	0xc0035c03	-2.052491
5	0xbffdd974	-1.9831986
6	0xc00c01e8	-2.1876163
7	0xbff8db8b	-1.9441999
8	0xbffd15f9	-1.977233
9	0xbffa9eae	-1.9579675
10	0xc004bc29	-2.0739844
11	0xc002b749	-2.0424368
12	0xc00131ca	-2.018664
13	0xc002e884	-2.0454416
14	0xc001d9e1	-2.0289233
15	0xbff6a8b8	-1.9270239
16	0xc0021c7e	-2.032989
17	0xc000781e	-2.0073314
18	0xbffd0ace	-1.9768922
19	0xbffd08d6	-1.9768322
20	0xbfefc63e	-1.8732374
21	0xc0046365	-2.0685666
22	0xbffd5290	-1.9790821
23	0xbfcf9eac	-1.6220298
24	0xc005a1d2	-2.0880017
25	0xc001fa91	-2.0309184
26	0xc00caa60	-2.1978989
27	0xbffc6532	-1.9718382
28	0xc004ca1f	-2.0748365
29	0xbff5ee25	-1.9213301
30	0xbff6434f	-1.9239291
31	0xbfffd95a	-1.9988205
32	0xc005c5de	-2.0902019
33	0xbffa176f	-1.9538401
34	0xbffc6d06	-1.9720771
35	0xc001f705	-2.0307019
36	0xc00cd6c4	-2.2006083
37	0xc00b1d4b	-2.173663
38	0xbfebd2eb	-1.8423742
39	0xc0099824	-2.149911
40	0xc0122bcd	-2.2839234
41	0xc0111fef	-2.267574
42	0xc0014cfb	-2.0203235
43	0xc0024d81	-2.0359805
44	0xc0047d5d	-2.0701516
45	0xc0098d0a	-2.1492333
46	0xc00a7eec	-2.1639967
47	0xc0030634	-2.0472536
48	0xc0051534	-2.0794191
49	0xc0068f7e	-2.102508
50	0xc0043a0a	-2.0660424
51	0xbff91c21	-1.9461709
52	0xc0016337	-2.0216806
53	0xbff3b803	-1.9040531
54	0xc003daef	-2.0602376
55	0xc00ccd6c	-2.200038
56	0xbff421f5	-1.9072863
57	0xbfdf8d5e	-1.7465017
58	0xbff8c721	-1.9435769
59	0xbff28b89	-1.8948833
60	0xbff9afd8	-1.9506788
61	0xbff1cb45	-1.8890158
62	0xbffbc0b2	-1.9668181
63	0xc0003d3c	-2.0037374
64	0xc00c1e57	-2.1893518
65	0xc0016f3a	-2.0224137
66	0xbfffb2c2	-1.9976428
67	0xbff62db0	-1.9232693
68	0xc00ba12e	-2.1817126
69	0xc0017d53	-2.0232742
70	0xc003cd58	-2.0594082
71	0xc00f9903	-2.243714
72	0xbff8285b	-1.9387316
73	0xc0142907	-2.315004
74	0xbffb41ae	-1.9629419
75	0xc009e59b	-2.154639
76	0xc013298d	-2.299411
77	0xc00a43b0	-2.1603813
78	0xc0029d70	-2.0408592
79	0xbff687ab	-1.9260153
80	0xc00f8a95	-2.2428334
81	0xbff44fb0	-1.9086819
82	0xbfe6d802	-1.803467
83	0xc0069390	-2.1027565
84	0xc00975d5	-2.147817
85	0xbfe3526e	-1.775953
86	0xbfdd35d0	-1.7282047
87	0xbfefce32	-1.8734801
88	0xbff10724	-1.8830304
89	0xc00d446e	-2.2073016
90	0xc0081438	-2.126234
91	0xc007d04a	-2.122088
92	0xc004c737	-2.074659
93	0xc00aad60	-2.166832
94	0xbfe44b64	-1.7835507
95	0xc0031d34	-2.0486574
96	0xbfe830ab	-1.8139852
97	0xbfe88095	-1.816424
98	0xc0041953	-2.0640457
99	0xbff1788f	-1.8864917
100	0xbff3d21e	-1.9048498
101	0xc007ca63	-2.1217277
102	0xc004d99e	-2.0757823
103	0xbfedebe5	-1.8587614
104	0xbff56835	-1.9172426
105	0xc003b0b4	-2.05766
106	0xbfef3afa	-1.8689873
107	0xbff55bca	-1.9168637
108	0xc0014707	-2.0199602
109	0xc01510dd	-2.3291543
110	0xbff3c488	-1.9044352
111	0xbfffc11d	-1.9980808
112	0xc00597ed	-2.0873978
113	0xbffad68d	-1.9596726
114	0xc0045945	-2.0679486
115	0xbff1c3bb	-1.8887857
116	0xbfee85b8	-1.8634558
117	0xbffd8955	-1.9807535
118	0xc00f22b8	-2.236494
119	0xc00d281e	-2.2055736
120	0xbfed620a	-1.8545544
121	0xbffc7620	-1.9723549
122	0xc0000008	-2.000002
123	0xc00eb10c	-2.229556
124	0xc007b8cf	-2.1206548
125	0xc004629d	-2.0685189
126	0xc007fa09	-2.124636
127	0xbffd67e0	-1.9797325
128	0xc004747b	-2.0696094
129	0xbfeaaca8	-1.833394
130	0xc00094b3	-2.0090759
131	0xc006e8d9	-2.107962
132	0xbffac4fb	-1.9591364
133	0xc008236a	-2.1271615
134	0xbffe1186	-1.9849098
135	0xbffd3ded	-1.9784523
136	0xbffc8b54	-1.973002
137	0xc0024d62	-2.035973
138	0xc003cbbb	-2.0593097
139	0xbfe77ac3	-1.8084339
140	0xc00662cd	-2.0997803
141	0xc0081aab	-2.1266277
142	0xc005aa8c	-2.0885344
143	0xc002b4d3	-2.0422866
144	0xc00dfd8b	-2.2186
145	0xc002641a	-2.0373597
146	0xbfe30562	-1.7736018
147	0xc0013c18	-2.0192928
148	0xbfe422c0	-1.7823105
149	0xc0065a1d	-2.09925
150	0xc004c4ee	-2.0745196
151	0xbff8dfcc	-1.9443297
152	0xc0071e2a	-2.111216
153	0xc0050638	-2.0785046
154	0xbffe8780	-1.9885101
155	0xc0056ded	-2.0848343
156	0xc005a074	-2.0879183
157	0xc008647b	-2.1311328
158	0xc012abe9	-2.2917426
159	0xbffc798b	-1.9724592
160	0xc0064338	-2.0978527
161	0xc005ae85	-2.0887768
162	0xbfebfc74	-1.8436418
163	0xbfdc853b	-1.7228159
164	0xbfda17d5	-1.7038523
165	0xc0097727	-2.1478975
166	0xbfe187a8	-1.7619524
167	0xbffdb114	-1.9819665
168	0xc005c7ce	-2.09032
169	0xbff111aa	-1.8833516
170	0xbff351ff	-1.9009398
171	0xbfdd95c3	-1.7311329
172	0xc00bfcfc	-2.187316
173	0xbfed21dc	-1.8525958
174	0xbff51800	-1.9147949
175	0xbff1d9c4	-1.8894582
176	0xc00524c3	-2.0803688
177	0xc0073b8e	-2.11301
178	0xc012e330	-2.2951164
179	0xbffabf55	-1.958964
180	0xbfdaed57	-1.710368
181	0xbfee7351	-1.8628942
182	0xbff149f4	-1.8850694
183	0xbff3ec14	-1.905642
184	0xc004b1f6	-2.0733619
185	0xc00174e1	-2.0227587
186	0xbfeba780	-1.8410492
187	0xbff87c08	-1.9412851
188	0xbffb1dce	-1.9618471
189	0xbfee1217	-1.859927
190	0xc0022922	-2.0337605
191	0xbff8f964	-1.9451108
192	0xbff6d990	-1.9285145
193	0xc00c2957	-2.1900232
194	0xc00b810d	-2.1797516
195	0xc000a9da	-2.010367
196	0xc01876f7	-2.382261
197	0xbffa820b	-1.9570936
198	0xc00e05d2	-2.2191052
199	0xc00adec7	-2.1698472
200	0xc00af30d	-2.1710846
201	0xbff0266b	-1.8761724
202	0xc00b1f1d	-2.173774
203	0xc0044d6d	-2.0672257
204	0xbfd56995	-1.6672846
205	0xbfff7c07	-1.9959725
206	0xc007dd97	-2.1228998
207	0xc006c0bb	-2.1055133
208	0xbfe829c8	-1.8137751
209	0xc000eb1e	-2.0143504
210	0xc00310db	-2.0479038
211	0xc009c575	-2.1526768
212	0xbff9eaad	-1.9524742
213	0xc0088457	-2.1330774
214	0xc000bd74	-2.0115633
215	0xc010a451	-2.260029
216	0xc00ac1ff	-2.1680906
217	0xbfeb41de	-1.8379476
218	0xbfff64ac	-1.9952598
219	0xc00d1286	-2.2042556
220	0xc020e257	-2.5138147
221	0xc00ad96d	-2.1695206
222	0xc00f5229	-2.2393897
223	0xc00a7268	-2.1632328
224	0xc00fbaa9	-2.2457678
225	0xc0084e25	-2.1297696
226	0xc00c783f	-2.1948392
227	0xc0058b63	-2.0866325
228	0xc00557f3	-2.083493
229	0xc001b57d	-2.0267022
230	0xbfecd38c	-1.8502059
231	0xc00096c8	-2.009203
232	0xbfff4539	-1.9943
233	0xc00be307	-2.1857316
234	0xc00e5792	-2.2240949
235	0xbff4f9a9	-1.913869
236	0xc009e2f1	-2.1544764
237	0xbffabb2a	-1.9588368
238	0xc0070e98	-2.1102657
239	0xc0038c4c	-2.055438
240	0xc007d733	-2.1225097
241	0xbff2dee5	-1.8974272
242	0xc009c993	-2.152928
243	0xc0084ae8	-2.129572
244	0xbffa7496	-1.9566829
245	0xc00c3cc3	-2.1912086
246	0xbfe8860a	-1.8165905
247	0xc00631aa	-2.0967813
248	0xc01613fe	-2.3449702
249	0xc006326f	-2.0968282
250	0xbff09caf	-1.8797816
251	0xbfdfbae9	-1.7478915
252	0xbff6cfe5	-1.9282194
253	0xbfeff24b	-1.8745817
254	0xbffb9eb6	-1.965781
255	0xc00e003d	-2.2187645

layers.10.weight.mean f4 [10, 576]
0	0xbe04c1a2	-0.1296449
1	0xbd7a2b03	-0.061076175
2	0xbdcf4026	-0.10119657
3	0x3d87c397	0.06629103
4	0xbd930cea	-0.071801975
5	0x3daad6cd	0.08341751
6	0xbdd3ffa5	-0.10351495
7	0xbd3232dd	-0.04350554
8	0x3d57fc04	0.052730575
9	0x3ce21115	0.027596036
10	0xbd6e2afe	-0.05814647
11	0xbb8eeac3	-0.004361482
12	0x3dda7db3	0.106685065
13	0x3d077b47	0.03307655
14	0xbd2d50ee	-0.04231351
15	0x3e1d2e03	0.15349583
16	0xbd913675	-0.07090465
17	0xbe211d46	-0.15733823
18	0xbd961401	-0.07328034
19	0x3d3af98b	0.04564814
20	0xbd905192	-0.07046808
21	0xbd9e1a47	-0.07719856
22	0xbad9ecbd	-0.001662634
23	0x3db401da	0.08789416
24	0x3d0e5111	0.03474528
25	0x3db6ebf6	0.08931725
26	0x3ddd7ea4	0.108151704
27	0x3db96374	0.09052172
28	0xbd1a44c5	-0.03766324
29	0x3c2d72a4	0.0105864145
30	0x3d4ea2b3	0.05044813
31	0xbdadef85	-0.0849295
32	0xbd4740c4	-0.04864575
33	0xbc239795	-0.00998487
34	0xbd6d16c6	-0.057883047
35	0xbe068808	-0.1313783
36	0xbd4653ac	-0.04841964
37	0x3c3d7a5a	0.011564815
38	0xbdd6c1f6	-0.10486214
39	0x3d8a3263	0.06747892
40	0x3cd52273	0.026017403
41	0x3d5097d2	0.050926037
42	0x3c999aa3	0.018750494
43	0x3d88cc01	0.06679536
44	0xbd2a1d60	-0.04153192
45	0x3da040f1	0.078248866
46	0xbcef2f6a	-0.029197413
47	0x3dc62202	0.09674455
48	0xbd14f30e	-0.036364608
49	0x3dc0e89b	0.09419366
50	0xbd24337a	-0.040088154
51	0xbd784f00	-0.060622215
52	0x3d32e54b	0.043675702
53	0xbd6cb4b8	-0.057789534
54	0xbd8378a0	-0.06419492
55	0xbcc6c8bd	-0.024265641
56	0xbdcb12c2	-0.09915687
57	0xbcd86e99	-0.026419925
58	0xbb7e9737	-0.0038847455
59	0x3e017dab	0.12645595
60	0xbe0cf452	-0.13765076
61	0x3e00bbb7	0.12571608
62	0x3e08c2e7	0.133556
63	0x3d842896	0.06453054
64	0xbbe946d0	-0.007119037
65	0x3de6b8e9	0.112657376
66	0xbdc41fce	-0.09576379
67	0x3dabbcf4	0.08385649
68	0xbd6e67b2	-0.05820436
69	0x3def3d57	0.116816215
70	0x3d95539d	0.072913386
71	0x3d3a3629	0.045461807
72	0x3d7bcaec	0.06147282
73	0xbd2eeafc	-0.042704567
74	0x3dc8c107	0.09802442
75	0xbe15721c	-0.1459431
76	0x3d17606a	0.036957182
77	0xbd711d40	-0.058865786
78	0xbd89adc4	-0.06722596
79	0xbca139f2	-0.01968095
80	0xbd9087d2	-0.07057156
81	0x3d92bab5	0.07164518
82	0xbcbf7b8a	-0.023374338
83	0x3dadc8ad	0.084855415
84	0xbdb16325	-0.086614884
85	0x3c98056a	0.01855727
86	0xbdb77ff7	-0.08959954
87	0xbd0bbeac	-0.034117386
88	0x3d85fb9f	0.065421335
89	0xbdd75789	-0.10514743
90	0x3de4e391	0.11176217
91	0x3b9c5d50	0.004771866
92	0x3d75b4fd	0.059987057
93	0xbdccd606	-0.10001759
94	0x3dc78823	0.09742763
95	0xbd0e79ea	-0.034784235
96	0xbd9948bd	-0.07484577
97	0x3d32205b	0.043487888
98	0xbd027e4b	-0.031858724
99	0x3dbdb850	0.092636704
100	0x3ccf42a1	0.025300326
101	0x3d86c253	0.06580033
102	0xbdd3dc43	-0.10344746
103	0xbb88eac2	-0.004178376
104	0xbddc334f	-0.10751974
105	0xbd9d633a	-0.076849416
106	0x3d8e3739	0.06944127
107	0xbdc1bac0	-0.09459448
108	0xbbcd7510	-0.0062700585
109	0x3d3f3f3b	0.04669116
110	0xbd81b6ad	-0.06333671
111	0xbd5caa9d	-0.053873647
112	0xbd30801a	-0.043090917
113	0xbdb15159	-0.08658094
114	0x3e0355b9	0.1282567
115	0xbd047182	-0.032334812
116	0x3ce1a0fd	0.027542586
117	0x3ca89e25	0.020583222
118	0xbd5c35e9	-0.05376235
119	0x3c2b1b49	0.010443517
120	0xbdeeaef6	-0.11654465
121	0xbdc09fb1	-0.09405459
122	0xbe4045f0	-0.18776679
123	0x3da9d671	0.082928546
124	0x3ce72cf2	0.028219674
125	0x3d84da87	0.06486993
126	0xbda7af5f	-0.08187746
127	0xbd9dee3c	-0.07711455
128	0x3bc46939	0.005993989
129	0x3df679a4	0.1203492
130	0x3c68a7d7	0.014200172
131	0x3dcb55d6	0.09928481
132	0xbbb2bb47	-0.005454454
133	0xbca6671d	-0.02031284
134	0xbe104583	-0.14089017
135	0x3d868d1d	0.06569884
136	0xbbbdb987	-0.005789939
137	0x3daf4982	0.085589424
138	0xbd284e45	-0.04109027
139	0x3c14ce94	0.009082455
140	0xbb919465	-0.004442739
141	0xbda599ca	-0.080859736
142	0x3db85430	0.090004325
143	0xbd4d9507	-0.05019095
144	0xbca88d04	-0.020575054
145	0xbe00df04	-0.12585074
146	0x3d5a00dd	0.05322348
147	0x3dce8eca	0.100858286
148	0x3c95f674	0.018305995
149	0x3d18ada9	0.03727499
150	0xbb9760ae	-0.0046196794
151	0xbd982292	-0.07428469
152	0xbdbaa4d3	-0.09113469
153	0x3d95a080	0.073060036
154	0x3cea55d3	0.028605377
155	0x3d45e0b8	0.04831001
156	0xbd6d4ab9	-0.05793259
157	0x3d5af900	0.05346012
158	0xbdf4546c	-0.11930165
159	0x3e26fae3	0.16306643
160	0x3dced04c	0.10098323
161	0xbe0009ea	-0.12503782
162	0xbceb50a6	-0.02872498
163	0x3d87732c	0.06613764
164	0xbd246514	-0.040135458
165	0x3e269219	0.1626667
166	0x3d98d11d	0.0746176
167	0x3e06d7e2	0.1316829
168	0xbd34912b	-0.044083755
169	0xbcb0fae7	-0.021604015
170	0xbd8e5f91	-0.069518216
171	0x3d308512	0.043095656
172	0x3d28de93	0.04122789
173	0x3bff859b	0.0077979094
174	0xbd0f4c3b	-0.03498481
175	0x3d23d404	0.039997116
176	0x3cba98a6	0.022777867
177	0xbe0ebafb	-0.13938515
178	0x3b7aeea8	0.0038289223
179	0x3ce37b14	0.02776865
180	0x3d26531e	0.04060661
181	0xbd38b6f4	-0.045096353
182	0x3df88dc0	0.12136412
183	0xbe08a3f9	-0.133438
184	0xbd05f617	-0.032705393
185	0xbdda2be4	-0.10652903
186	0xbd5fdce0	-0.054654002
187	0xbc080dfe	-0.008304117
188	0x3d3c54e1	0.045979384
189	0xbdb8cfa9	-0.09023983
190	0x3dc370ed	0.09543023
191	0xbd93c920	-0.07216096
192	0xbd2da1b0	-0.042390525
193	0xbadf4be6	-0.0017036169
194	0x3d69791a	0.057000257
195	0x3d3e55f0	0.046468675
196	0x3c381d47	0.011237449
197	0x3de7120d	0.1128274
198	0x3dd8cb8d	0.10585699
199	0xbcd7a00a	-0.02632143
200	0x3deb17ab	0.11479124
201	0xbd4f81bf	-0.050660845
202	0x3cbaa4c7	0.02278365
203	0xbdf03232	-0.11728324
204	0xbdb645f1	-0.08900059
205	0xbd1b7306	-0.03795149
206	0xbd081cce	-0.033230595
207	0x3d97e322	0.07416369
208	0xbd029242	-0.031877764
209	0x3d9983ce	0.07495843
210	0xbd833076	-0.064057276
211	0x3d8bddec	0.068294376
212	0xbe0de4ad	-0.13856764
213	0xbd6af1c1	-0.05735946
214	0x3c52f550	0.01287587
215	0xbdcb9383	-0.09940245
216	0xbda65737	-0.08122104
217	0xbd67eb61	-0.05662096
218	0x3cf8042a	0.030275423
219	0x3e086855	0.1332105
220	0x3ccb43ea	0.024812657
221	0x3d945cc0	0.07244253
222	0x3e0bb8b9	0.13644685
223	0x3d400bcb	0.046886247
224	0xbe1a6ef9	-0.15081395
225	0x3d222d60	0.039594054
226	0xbc3fbe45	-0.011703079
227	0x3dbc3527	0.091898255
228	0x3d9a1ca0	0.07524991
229	0x3d680680	0.056646824
230	0xbdb7ad39	-0.089685865
231	0xbcc83195	-0.024437705
232	0x3d984b62	0.07436253
233	0xbd722e16	-0.059125982
234	0xbd441bd9	-0.04787812
235	0x3d0aeb0b	0.03391556
236	0xbd2981fe	-0.041383736
237	0x3d6be821	0.057594422
238	0x3bd7d5e9	0.0065867794
239	0x3e17cbf2	0.14823893
240	0xbe0aa560	-0.13539648
241	0x3d243747	0.04009178
242	0x3d82e003	0.06390383
243	0x3da84865	0.08216933
244	0x3d417473	0.047230195
245	0x3daeb6e2	0.08530976
246	0x3c030103	0.007995847
247	0x3d2e65f7	0.04257771
248	0xbd74729d	-0.059679616
249	0xbde031e4	-0.10947016
250	0x3c639b9b	0.01389208
251	0xbddce1fd	-0.10785291
252	0x3d384dde	0.044996135
253	0xbd3b5f7e	-0.045745365
254	0x3d97596d	0.073901035
255	0x3c2f77fb	0.010709758
