examples/FashionMNIST/fmnist_pretrained.pth (torch_old, 348942 bytes, 18 tensors)

layers.0.weight f4 [32, 1, 5, 5]
000000 55 bb 0e 3e 73 d2 52 3e cd e7 33 bd 00 41 ab bd
       0.13938649 0.20588093 -0.043922234 -0.08362007
000010 31 ba b9 3d 0c 18 28 3e 38 f1 24 3d c4 ff be 3d
       0.09068716 0.16415423 0.040269107 0.09326127
000020 0c 85 e9 3d c2 e5 44 3d 03 e8 0d be b6 27 0e be
       0.1140233 0.048070677 -0.13858037 -0.13882336
000030 eb 4d a8 3d c9 ee ae bd 50 c2 46 be 31 10 3a 3c
       0.08217987 -0.085416384 -0.19410062 0.011356399
000040 e9 e1 9c 3d e6 9b 33 3d 48 d9 37 be 63 ac db bd
       0.076602764 0.04384985 -0.1795398 -0.107262395
000050 31 3f 47 be 37 35 08 be e7 49 3f bc 6c bc cd 3d
       -0.194577 -0.1330155 -0.011675335 0.10045704
000060 af 49 c5 3d d8 71 bd bb 3d 58 f2 bd 81 0f ad bd
       0.09633195 -0.0057813935 -0.11833236 -0.08450223
000070 8d b9 e7 bd 50 b7 47 be 40 3c fe bd 7a 9a fa 3d
       -0.11314688 -0.19503522 -0.124138355 0.12236495
000080 e8 79 2b 3e d4 e8 5d be 64 d9 e3 3b d7 47 35 3e
       0.16745722 -0.21670848 0.006953405 0.17703186
000090 72 3d 56 3e 53 db 72 3d 88 71 46 be 03 97 ed 3d
       0.20921877 0.059291195 -0.19379246 0.11601069
0000a0 e1 06 22 bd e4 d1 96 3d 95 85 e6 3d 1a af 95 3d
       -0.03955734 0.07364252 0.112559475 0.073087886
0000b0 7f ce 37 be 34 6f b2 3d d0 62 6b 3d 23 e9 0e 3d
       -0.17949866 0.087126166 0.05746728 0.034890305
0000c0 02 7a 01 3d 3a fb 13 bd 50 df c6 3d e2 02 db bc
       0.031610496 -0.03612826 0.09710562 -0.026734773
0000d0 2d cd 4e be 7e 4e 9a bd eb 39 e9 3d 54 38 ba 3c
       -0.20195456 -0.075345024 0.11388 0.022731937
0000e0 3d 14 24 be ed 72 9b bd b6 ba 47 bc 25 22 ab 3d
       -0.16023345 -0.0759028 -0.012190511 0.08356122
0000f0 3b f2 1b 3e 99 b7 12 bd 3b 7b 1c be d3 e7 d9 3a
       0.15229122 -0.035819624 -0.15281384 0.0016624875
000100 19 68 68 3c 20 56 53 3d 68 e7 a2 3d 31 b3 73 bd
       0.014184975 0.051595807 0.079542935 -0.059497062
000110 37 7f 6f 3c 33 66 b3 3d d1 5b 03 be 10 39 3c 3e
       0.014617733 0.08759727 -0.12827994 0.18381143
000120 63 7d 4c be 19 d0 8a 3d 93 60 0d 3e aa b5 a6 3c
       -0.19969706 0.06777973 0.13806371 0.020350296
000130 01 d4 c8 3d fe da 14 be 11 36 80 be 51 68 1e be
       0.098060615 -0.14536664 -0.2504125 -0.15469481
000140 cd 59 2d 3e 9f a4 29 3b d8 db 1e 3e 3a ad 4e be
       0.16928788 0.0025885475 0.15513551 -0.20183268
000150 5c 11 b7 bc a8 ac 3a bd 72 39 cb bc 4d 28 84 3a
       -0.022347145 -0.045574814 -0.024807665 0.0010082811
000160 bc 9a 29 3e 25 e0 db bd a2 c0 23 3e 97 4c c2 bc
       0.16562933 -0.107361116 0.15991452 -0.023718162
000170 93 19 bd 3d 21 e6 ce 3d 18 26 9e bd 55 e1 94 3c
       0.092333935 0.10102487 -0.077221096 0.018173853
000180 89 07 84 bd bd c0 96 bd 98 f5 d8 ba 13 be 46 3e
       -0.0644675 -0.07360981 -0.0016552685 0.19408445
000190 ad b3 dc bd 26 70 ed 3c d6 3a b7 bc b7 7f 13 be
       -0.10776458 0.02898414 -0.022366922 -0.14404188
0001a0 06 69 95 3d a9 fd b2 bd fd c2 d8 3d a0 31 0f 3e
       0.07295422 -0.08739788 0.10584066 0.13983774
0001b0 ef a3 5b be 32 49 a6 bd 07 b5 0b 3e db 4f 15 3e
       -0.21449254 -0.0811943 0.13643275 0.14581244
0001c0 2a a1 86 3d 7e 16 3f 3e b9 1e 92 3d 7c 70 18 3e
       0.06573708 0.18660924 0.07134766 0.1488666
0001d0 84 58 ac bd 5e b3 c6 bd 1b 86 26 3e 44 8a f0 bd
       -0.084153205 -0.0970218 0.16262095 -0.11745122
0001e0 d1 0b 39 bd 36 85 32 be d4 cd 0f 3e 88 5e e0 3d
       -0.045177285 -0.17433628 0.14043361 0.109555304
0001f0 0a 63 42 be c9 49 5b 3d 48 8d 39 be 0f 44 ea bd
       -0.18983093 0.053537164 -0.18120301 -0.114387624
000200 0b e9 2d bd d7 cf b3 bd 41 90 72 3c ef ba e5 3d
       -0.042458575 -0.08779877 0.014804901 0.112172954
000210 81 14 a8 3d 19 e5 39 be c2 04 40 3d 04 ac 0b 3e
       0.08207036 -0.181538 0.046879537 0.13639838
000220 d7 da a0 3d 90 35 e4 3d 0a 7d 1c 3e 37 65 66 be
       0.078542404 0.11143029 0.15282074 -0.22499548
000230 00 9a 07 bd 15 49 8c 3d 8c 13 61 bd 00 a0 1f 3e
       -0.03310585 0.06849877 -0.054950282 0.15588379
000240 d1 4b 7b 3d 5e 71 76 3d b3 fc 11 3e 2d 9f 04 be
       0.0613516 0.06016671 0.14256553 -0.12951346
000250 bf 0d 30 be df 57 bb bc 97 6b f4 3d d1 b1 2a be
       -0.17192744 -0.022869049 0.11934584 -0.16669394
000260 dd 0f 6f 3d 7e 21 d4 3d 96 c4 0a be 9b 23 23 3e
       0.058364738 0.10357951 -0.13551554 0.15931551
000270 c6 14 34 3e e7 02 2e bc 5e 19 e0 bd 93 79 a0 bd
       0.1758605 -0.010620809 -0.109423384 -0.078356884
000280 cc 5e fc bd 4a e3 e1 3c c4 94 18 3d c9 17 c8 3d
       -0.123227686 0.0275742 0.03725125 0.09770162
000290 b0 14 3d bd 59 4a 90 3d 91 dc 10 3e ac f1 ef bd
       -0.046162307 0.07045431 0.1414664 -0.11716017
0002a0 54 8d 76 bc e7 e7 07 be a8 e1 13 3e 5d b5 0d 3e
       -0.015048344 -0.13272057 0.1444155 0.13838716
0002b0 6e 3f 32 3c 77 28 03 3b 7d c4 5c be 9b d4 56 be
       0.010879381 0.0020013133 -0.2155933 -0.2097954
0002c0 e6 fb 86 bd 6d 20 81 bc b3 d3 27 3e 46 b5 1b be
       -0.065910146 -0.015762532 0.1638935 -0.15205869
0002d0 6f 0b 74 3a 2b 7d a9 bd 83 55 07 3e 50 91 9e bc
       0.0009309565 -0.08275827 0.13216214 -0.0193564
0002e0 6c 18 1a 3e 22 a5 17 3e d7 be 68 be 2e 22 cf 3c
       0.15048379 0.14809087 -0.2272905 0.025284853
0002f0 72 92 f6 3d db 5a 32 3c 92 11 bd 3d 44 7e 5b 3c
       0.12039651 0.010885919 0.09231867 0.013396803
000300 a1 4e 2d be 2a 92 9e 3c cf 7e 53 3e 67 95 22 3d
       -0.16924526 0.019356806 0.20653842 0.039693262
000310 fb cc 3d be 06 0b b2 3d f4 ed e7 bc 07 34 ee bc
       -0.18535225 0.08693509 -0.028311707 -0.029077543
000320 08 13 e7 bd 07 67 0b 3e 1a 42 0e 3e 2b c7 e6 bd
       -0.11282927 0.1361352 0.13892403 -0.11268457
000330 c0 a3 30 be 92 8f c3 3d eb a4 11 bc 5d 08 30 bd
       -0.17249966 0.09548868 -0.008889417 -0.042976726
000340 80 19 50 39 00 b7 8d bc 42 92 23 3e 7d c7 46 3d
       0.00019845925 -0.017299175 0.15973762 0.04853009
000350 af 2c b2 3d 4e 19 e2 bd 72 e7 08 be f2 9b 47 3c
       0.08699929 -0.11039983 -0.1336954 0.012183176
000360 66 39 8e 3b 19 00 f5 bc fa 93 88 bc 20 35 71 bd
       0.0043403385 -0.029907273 -0.016672123 -0.058888555
000370 26 f3 b7 3c 22 5c 95 3d 26 ff e6 3d 8f 67 06 be
       0.02245481 0.072929636 0.112791345 -0.13125442
000380 dd d8 f8 3d 6e 6c a0 bd 7d 8c 10 3e 08 97 15 be
       0.121507384 -0.07833181 0.14116092 -0.14608395
000390 37 8e 66 be e8 c7 d3 bd 4b e0 dc 3d 12 e0 ae 3c
       -0.22515188 -0.103408635 0.10784968 0.02134708
0003a0 b8 fc bb bc f9 b2 43 bd 6e 67 61 3e bd 97 06 bb
       -0.022947654 -0.047778104 0.22012112 -0.002053722
0003b0 d2 1f 4b 3e db c7 f5 bd 9e 91 30 be 71 f7 ac 3c
       0.19836357 -0.1200101 -0.17243049 0.021114083
0003c0 59 aa b8 bd 93 8f 00 3d b9 c2 2a 3e ce 72 5a be
       -0.09016866 0.031386923 0.16675843 -0.21332857
0003d0 22 c9 14 3e e9 62 4f 3e 5b e5 37 3d 1b 89 90 bd
       0.14529851 0.20252575 0.044896465 -0.07057401
0003e0 2b 70 00 be dc c0 63 bc 23 c7 15 3e 2e 5f be bc
       -0.12542789 -0.013900962 0.14626746 -0.023238745
0003f0 59 02 31 3e da 0f ec 3d 17 fd 70 bb 0b 2b ea bc
       0.17286052 0.11526461 -0.0036771947 -0.028584978

layers.0.bias f4 [32]
000000 05 6d b9 3c fc 7b 3a bd 21 98 6a bd b6 d1 ab 3d
       0.022634992 -0.045528397 -0.057273988 0.083896086
000010 17 d6 98 bc 6f 0b af 3d 60 e2 00 be 9b c7 1c 3e
       -0.018656773 0.08547103 -0.12586355 0.15310518
000020 8a f9 92 bd 0f 21 26 3e 81 8b fd bd 58 db e3 3c
       -0.07176502 0.16223548 -0.12380124 0.027814552
000030 e2 75 1d bb 59 ab 3b be a9 c5 8d 3d 59 24 2f 3c
       -0.0024026562 -0.18327083 0.06922466 0.010689818
000040 19 4f 19 bd 97 09 40 3d c8 67 25 3e f1 98 2a 3b
       -0.03742895 0.046884146 0.1615287 0.0026031102
000050 ba 22 1b be bc 56 04 3e 27 c0 bb 3c 38 33 ff 3d
       -0.15149966 0.12923712 0.022918774 0.12460941
000060 aa f4 29 bd d6 5d 24 3c 3c 0d c7 3c ba fd 40 be
       -0.041493095 0.010032138 0.024298303 -0.18846789
000070 60 4b 5f be e3 5d 3e 3e 9a eb d7 bd e7 a1 18 be
       -0.21806097 0.18590502 -0.10542984 -0.14905511

layers.1.weight f4 [32]
000000 9f fb 96 3f 5a 8c 9b 3f 9c f7 83 3f e9 ae 8e 3f
       1.1795539 1.2152207 1.0309939 1.1147128
000010 b2 18 50 3f 95 d7 87 3f 71 90 5f 3f ce c2 6a 3f
       0.8128768 1.0612665 0.87329775 0.917035
000020 3a 89 95 3f ee b9 86 3f e1 d5 94 3f 2f a9 8e 3f
       1.1682503 1.0525491 1.1627771 1.1145381
000030 25 7d 98 3f b1 9a 9a 3f 72 4e 95 3f fb 34 91 3f
       1.1913191 1.2078458 1.1664565 1.1344293
000040 93 27 94 3f 20 5f 9c 3f c5 1b 8d 3f 77 9c 8b 3f
       1.1574577 1.221653 1.10241 1.0907124
000050 d8 39 68 3f 99 cc 94 3f 1a 53 8d 3f d6 9c 9b 3f
       0.9071326 1.1624938 1.1040986 1.2157238
000060 5e 3a 6a 3f b5 58 8e 3f d5 32 89 3f ec 12 8e 3f
       0.9149531 1.1120821 1.0718638 1.1099524
000070 95 00 8e 3f 58 d6 76 3f 03 ef 84 3f 3b fa 93 3f
       1.1093928 0.9642081 1.038544 1.1560739

layers.1.bias f4 [32]
000000 74 ea a4 bd 2e 67 7b 3c ca 5c 4d 3c 76 2d 95 bd
       -0.08052531 0.015344424 0.01253433 -0.072840616
000010 e4 16 8d 3d 40 8c 97 3d 08 ac 6c 3d 9e 49 c3 3b
       0.06889132 0.073997974 0.05778125 0.0059597036
000020 f7 47 c4 3d b9 ad 97 bd 0c 4c e0 bd 07 ec 8e bd
       0.09584039 -0.07406182 -0.10952005 -0.069786124
000030 09 d3 ac bd c7 a6 84 bd 58 25 b6 bd 13 72 de 3d
       -0.08438689 -0.06477123 -0.088938415 0.10861602
000040 94 7f 6f bd 29 81 53 3d ee d9 a6 3d a4 e0 65 bd
       -0.058471277 0.05163685 0.081470355 -0.056122437
000050 a6 6f 5f 3d 79 38 92 bd 64 81 aa 3d 50 fc aa bd
       0.054549836 -0.071396776 0.083254606 -0.08348906
000060 4d e4 24 3c aa 1d 87 bd cb 9f 5d bd fa 48 65 3c
       0.010064197 -0.06597455 -0.05410747 0.01399445
000070 c1 b3 9f bd 5d a3 4d 3d ef a6 c3 bd ae 70 c8 bd
       -0.07797957 0.050204623 -0.095533244 -0.09787117

layers.1.running_mean f4 [32]
000000 5a 7a 71 3c 70 a5 07 bd f1 9a 80 bd 8f 75 a9 3d
       0.014738644 -0.033116758 -0.06279553 0.08274376
000010 96 1e eb 3c 0e e7 c9 3d 40 41 b8 bd 9b 26 28 3e
       0.028701108 0.09858523 -0.089968204 0.16420977
000020 03 ba 5c bd aa 7d 01 3e 6b 62 2c be a2 8c db 3c
       -0.053888332 0.12645593 -0.16834418 0.026800457
000030 f7 46 13 bc f8 9d 4a be 07 f9 08 3d e4 0f 2d 3d
       -0.008989087 -0.19786823 0.033440616 0.042251483
000040 e5 53 02 bd 84 61 84 3d 63 ae 30 3e ba 42 32 bc
       -0.03181829 0.06463912 0.17254023 -0.010880167
000050 3c 61 01 be 8d 1e e6 3d 03 4d 35 3d bd df f1 3d
       -0.12634748 0.11236296 0.044262897 0.11810253
000060 f7 ce ad bc 1c a4 e8 bb 16 89 4d 3c 5e 7b 43 be
       -0.021216853 -0.0070996415 0.012544891 -0.1909003
000070 ab b1 6b be e5 4e 56 3e 9e 6b 13 be f2 da 34 be
       -0.23016994 0.20928533 -0.14396521 -0.17661646

layers.1.running_var f4 [32]
000000 44 cb 89 3c 15 7f 06 3d 57 b3 93 3c 50 ec 95 3c
       0.016820557 0.03283604 0.018029852 0.01830116
000010 fb ce 61 3c 46 00 82 3c 92 f1 0d 3d 00 f2 7a 3c
       0.013782258 0.015869271 0.034654208 0.015316486
000020 ee 6c ab 3c ff ec bf 3c 84 97 2d 3c 42 b0 e9 3b
       0.020925965 0.023428438 0.010595206 0.0071316073
000030 c3 50 4f 3c fb ac 3c 3c 0e c9 64 3c 97 31 a2 3c
       0.012653532 0.011515851 0.013963951 0.019799037
000040 02 f9 a0 3c ad 57 16 3d f5 4e f1 3b 18 53 14 3c
       0.019649986 0.036704708 0.0073641487 0.009053014
000050 55 f9 9a 3c 96 67 90 3c 10 80 75 3c 3a 9d c8 3c
       0.018917719 0.017627519 0.014984146 0.024489034
000060 49 5c ae 3c 0c ed 44 3c d7 5e 8e 3c df 38 1b 3c
       0.02128424 0.012019407 0.017379208 0.009474008
000070 91 8b 86 3c 58 94 a2 3c ae 69 7c 3c c6 06 1f 3c
       0.016423972 0.019846126 0.015406055 0.009706205

layers.3.weight.mean f4 [32, 32, 3, 3]
000000 e4 8f 03 3e 16 2c 08 3e f3 3d 01 3e 75 74 9c 3c
       0.12847859 0.13298067 0.12621288 0.0190985
000010 92 d4 ba 3d b9 00 09 3e 20 2d 0c 3d bd e4 df 3c
       0.09122576 0.13379182 0.034222722 0.02733075
000020 47 73 88 bc a3 58 d7 bd aa 51 52 bd 63 ed b6 bd
       -0.016656531 -0.10514953 -0.051347412 -0.08931997
000030 c6 c0 89 3d dc 4b a4 bd 1d 01 7f bd fc 4a 9b 3d
       0.06726222 -0.080222815 -0.06225692 0.075826615
000040 c6 a7 26 bc a7 ab bc bd 19 42 89 3c 49 77 a0 bd
       -0.010171836 -0.092124276 0.01675515 -0.07835252
000050 ba 18 b6 3c 8e 97 ab bc 58 da 0d bd 71 bf 5b 3d
       0.022228587 -0.02094629 -0.034632057 0.05364937
000060 d5 0b 4f bd ab 4f d1 3c 03 f6 4b 3d d3 fd af bd
       -0.050548393 0.025550684 0.049795162 -0.08593335
000070 e8 63 e4 bd f1 41 d3 3c b2 96 4d bd af 69 91 bd
       -0.11151868 0.02578828 -0.050192542 -0.07100236
000080 17 ee 9a bd 76 43 9f 3d 6d 87 26 3d 84 ba c1 bd
       -0.07564943 0.07776539 0.040656496 -0.09459403
000090 6d fa 70 bd 5c b3 5d bd 83 24 50 bc 97 60 ad bd
       -0.058832575 -0.05412613 -0.012704018 -0.08465689
0000a0 be 85 c4 bd 5c 63 6a bc 53 20 c9 3c e2 0e f5 bd
       -0.09595822 -0.014305916 0.024551546 -0.11965729
0000b0 a7 64 91 bd 02 6f fb ba 03 16 b3 bd 84 d8 a8 bc
       -0.07099276 -0.0019182863 -0.08744433 -0.020611055
0000c0 ea f7 7d 3d 05 1f f2 bc 4c 42 eb bd 12 b4 f8 39
       0.062004007 -0.029555807 -0.114872545 0.0004743641
0000d0 21 02 64 bc 01 c7 af bd 2b e9 23 bd 4a a0 bd 3c
       -0.013916523 -0.08582879 -0.04001729 0.02314772
0000e0 62 84 16 3c 3a 25 3d 3d 19 ad ca bb 04 ca 0b bd
       0.009186836 0.04617808 -0.0061851856 -0.034128204
0000f0 d2 76 fb 3c 32 a7 b7 3b c1 7e 48 bd 9b f5 94 bd
       0.030696306 0.005604648 -0.048949007 -0.07273408
000100 6c aa 96 bd f8 41 95 3c 94 70 4c bd 3d 52 bb 3a
       -0.07356724 0.018219933 -0.04991205 0.0014291477
000110 01 77 2f 3d ab 67 62 bd cb 3e 7c bd cc 57 a8 3d
       0.0428381 -0.055274647 -0.06158332 0.08219871
000120 4b d4 b5 3a 9c 50 94 bc b3 2e 4d bd 91 17 37 3d
       0.0013872472 -0.018104844 -0.050093364 0.04470021
000130 2c db 3c 3c d5 02 0c bd 32 14 d1 3d 81 ea cd 3c
       0.011526864 -0.03418239 0.1020893 0.025136234
000140 f0 15 21 be c1 b1 35 bd 89 29 36 bd 01 9f 82 bd
       -0.15731025 -0.044358972 -0.044473205 -0.06377984
000150 1b b6 51 3d de 6b 8a bb fa ae 03 3b ca 19 10 3c
       0.05119906 -0.0042242846 0.0020093308 0.008795211
000160 d9 fb 7f 3d 28 87 20 3d 99 6c 40 3c 9d 04 88 3d
       0.06249604 0.039191395 0.011744642 0.06641505
000170 34 cb b6 3d 9e 39 44 3d e8 3a e9 3d 65 ab 16 3e
       0.08925477 0.04790651 0.113881886 0.1471382
000180 44 8b b9 3a 51 74 a4 3d 8d 08 e6 3d 0d b4 04 3e
       0.0014155884 0.08029998 0.112321 0.12959309
000190 71 7e d0 3c 79 b8 96 bb 97 c0 0e 3c d4 a5 bc 3b
       0.025450917 -0.0045996276 0.008712909 0.005757073
0001a0 37 35 e1 bc 8e ff 9a bd bc a4 80 3d cb 0d ec 3d
       -0.027491195 -0.075682744 0.062814206 0.11526068
0001b0 5b 5b 05 3e e0 d3 0d 3e 33 ed 1f bb 5d 3c f6 3d
       0.1302313 0.13850355 -0.0024402856 0.12023232
0001c0 29 53 bc 3d 2a e5 d8 bc 79 da 32 3d 61 15 05 bc
       0.09195549 -0.026476461 0.043665383 -0.008122773
0001d0 58 45 73 3d ad df b8 3d 0d 56 0b 3d 92 d5 0f bd
       0.059392303 0.09027038 0.03401761 -0.035115786
0001e0 17 a9 5e 3d 82 0e 36 3d ae 99 58 bd 96 ad 1a 3e
       0.054360475 0.04444743 -0.052880935 0.1510528
0001f0 db 8d d2 3d 9d 54 bd bc 46 77 8e 3d 0d b1 3c 3d
       0.10280963 -0.023111636 0.06956343 0.046067286
000200 ef 6b 5e bc e5 2f fb 3d f4 43 01 3e 66 03 8a 3d
       -0.013575538 0.122649945 0.12623578 0.067389295
000210 c8 d1 e2 3d 16 34 83 3d ec b7 65 3d 6b ea a9 ba
       0.11075169 0.06406419 0.056083605 -0.0012963539
000220 16 f7 ac bd 84 74 b7 3d 6d 38 46 bc 66 28 ea bd
       -0.084455654 0.089577705 -0.012098414 -0.11433487
000230 7f ab 6e bd 3c 3a ef 3d 9d 2c 9c bd 1c ad 1e be
       -0.05826902 0.11681029 -0.07625697 -0.15495723
000240 33 a5 fd 3c d6 8d 14 3e 8a f1 f4 3d 79 c0 cb 3c
       0.030962562 0.14507231 0.119601324 0.024872052
000250 18 c7 3d 3d d0 66 87 bc 9c 39 ac 3c 37 82 bc bd
       0.04633245 -0.016528517 0.021023564 -0.09204524
000260 3d a2 d7 bd 9a 69 83 bc fd 82 bb bc 3a 57 77 bd
       -0.10528991 -0.016041566 -0.022889609 -0.06038592
000270 55 3c 19 3d d1 73 b1 bc f5 00 e4 bd 64 7f 0d 3e
       0.037411053 -0.02166167 -0.11132995 0.13818127
000280 b8 ed 58 3d ec 7c eb bd 3c ce 35 bc e2 8b 82 bd
       0.05296108 -0.11498436 -0.011096533 -0.06374337
000290 70 03 00 be 79 08 5e bc 8f 5f dc bd e6 06 9a bd
       -0.12501311 -0.013551825 -0.10760414 -0.07520847
0002a0 90 bd ae ba 2d c9 fb bd e1 55 9e 3b 27 32 42 be
       -0.001333164 -0.122942306 0.004832015 -0.18964444
0002b0 37 1a 17 be 3a 2e dd bd d9 a8 df bb 05 9d a8 bd
       -0.14756094 -0.10799833 -0.006825548 -0.08233074
0002c0 e7 05 2d bd 2a 08 34 3d 90 d0 43 3c 2b a0 ff bc
       -0.042241957 0.0439531 0.011951581 -0.031204304
0002d0 ce 29 a8 3c 64 b8 66 3d 80 cf bc 3c d0 34 96 bd
       0.020527747 0.056328192 0.023048162 -0.07334292
0002e0 8a 0a 75 bd 3a 70 2d bd 59 d9 dd bd b2 db 78 bd
       -0.059824504 -0.042343356 -0.108324714 -0.060756393
0002f0 c4 d3 9d 3c 6e 27 90 3c fc 54 d7 bd f8 8a 05 bd
       0.019266017 0.017596927 -0.10514256 -0.032603234
000300 ca 67 00 3c 4d 66 bb 3c c5 a4 0c bd ac e0 ff 3d
       0.007837245 0.02287593 -0.034336824 0.12494025
000310 3a ca 57 3d 20 36 16 bd 81 91 8b bd 44 81 d9 bd
       0.052683093 -0.03667271 -0.06814862 -0.106203586
000320 11 f0 15 ba 87 0a 06 3d d3 7d 65 bd 3d eb cb bd
       -0.00057196716 0.032724883 -0.0560282 -0.099569775
000330 e5 d7 b0 3d da 60 c7 3c cf 2d c8 bd 62 28 fa 3d
       0.086349286 0.024338175 -0.09774362 0.12214734
000340 7a 0f 21 3e c1 4e c2 3d 6b fe d5 3c f2 47 f5 3d
       0.1572856 0.09487677 0.026122293 0.11976613
000350 aa 0c 29 3d 5c 8e dc bd f1 7d 47 bd 47 f7 b9 3d
       0.041271843 -0.107693404 -0.04870409 0.090803675
000360 cf 62 63 3c ef 24 0f ba f9 40 cd 3d c8 29 54 bc
       0.013878538 -0.00054605206 0.10022158 -0.012949415
000370 8e 8e fb bc eb 54 e0 3d 24 ea bb bd 15 23 6a bd
       -0.030707624 0.10953697 -0.09175518 -0.057162363
000380 e0 98 a2 bc 41 b1 6d bb 74 42 b9 bc eb 1c a2 3c
       -0.019848287 -0.0036268982 -0.022614695 0.01978918
000390 fc 33 34 3d 82 50 d6 3d 57 0c 21 bd 0a a0 d3 3d
       0.04399489 0.104645744 -0.03931841 0.103332594
0003a0 fe ee 89 3c 0a e1 31 bd ff d9 9e bd 59 11 a9 bd
       0.016837593 -0.043427505 -0.07756423 -0.08255262
0003b0 6b 2a e1 bd 67 c3 f6 3b 63 35 a8 bd ea bf 69 bd
       -0.10994419 0.007530618 -0.08213308 -0.05706779
0003c0 0d b1 06 3d 54 84 b1 3d 14 59 0f bd 36 bb 59 3d
       0.032883693 0.08667818 -0.03499706 0.053157054
0003d0 b1 b2 22 3d dd 93 1a 3c 44 3d 35 3c 49 d8 2f bb
       0.039721195 0.009434667 0.01106197 -0.0026831797
0003e0 73 44 47 bc a4 e1 13 3c c9 72 62 3d 35 cf 22 3d
       -0.012162316 0.009025965 0.05528525 0.03974839
0003f0 5b fd 4c 3b 22 df db 3d 9b 16 74 3d 27 34 3a 3d
       0.0031278941 0.107359186 0.05959187 0.045459893

layers.3.weight.scale f4 [32, 32, 3, 3]
000000 51 40 06 c0 41 1a 0b c0 42 43 ff bf 5f 23 02 c0
       -2.0976756 -2.1734774 -1.99424 -2.0334089
000010 69 a4 f7 bf 3e 62 ff bf 98 f6 14 c0 ba c4 13 c0
       -1.9347049 -1.9951856 -2.327551 -2.3088822
000020 0b 10 f3 bf d3 23 04 c0 84 53 df bf 57 ae 0f c0
       -1.8989271 -2.0646865 -1.7447362 -2.2450159
000030 0d b5 06 c0 af f4 f2 bf 4e 76 02 c0 96 f0 06 c0
       -2.1048005 -1.8980922 -2.0384707 -2.1084342
000040 d6 46 f6 bf 1c c4 ff bf 3d 3e 00 c0 e2 cf fa bf
       -1.9240367 -1.9981723 -2.0037987 -1.9594691
000050 ab d6 0e c0 a0 2f f7 bf fb e0 00 c0 33 76 eb bf
       -2.2318523 -1.9311409 -2.0137317 -1.8395447
000060 7f 87 f7 bf 1c 67 fd bf c8 f1 f7 bf 81 46 01 c0
       -1.9338225 -1.9797091 -1.9370661 -2.0199282
000070 9d 50 f6 bf 2e 06 03 c0 11 05 09 c0 c3 b3 01 c0
       -1.9243351 -2.0472522 -2.1409342 -2.0265968
000080 d4 c2 09 c0 3e e6 0d c0 ff 39 fb bf 50 2b 0d c0
       -2.1525164 -2.2171779 -1.9627074 -2.2057686
000090 a0 8d 08 c0 55 a5 da bf 50 12 07 c0 73 e6 02 c0
       -2.133644 -1.7081705 -2.1104927 -2.0453155
0000a0 a9 93 fd bf 20 4c 0a c0 6d ce 05 c0 16 f6 03 c0
       -1.9810687 -2.1608963 -2.0907242 -2.061895
0000b0 b4 59 03 c0 d2 14 ee bf 36 7b 0b c0 75 7d f0 bf
       -2.05235 -1.8600104 -2.1793952 -1.8788286
0000c0 80 dc f6 bf 7e be 11 c0 e2 82 04 c0 bd 21 07 c0
       -1.9286041 -2.2772517 -2.0704885 -2.1114342
0000d0 9d 34 05 c0 d9 d5 07 c0 74 b3 09 c0 cd f4 da bf
       -2.0813363 -2.1224272 -2.151578 -1.7105957
0000e0 1b 72 de bf 63 c4 04 c0 19 43 fb bf 2f c1 07 c0
       -1.7378572 -2.0744865 -1.9629852 -2.121166
0000f0 7c 77 e1 bf 95 69 05 c0 2d ff 04 c0 f1 75 cd bf
       -1.7614589 -2.0845692 -2.0780747 -1.6051618
000100 7e bc ee bf 84 90 00 c0 cf b0 06 c0 b5 d6 ea bf
       -1.8651273 -2.0088205 -2.1045415 -1.8346773
000110 83 4d 01 c0 8f 8f fc bf ec a6 da bf 34 90 19 c0
       -2.020356 -1.9731311 -1.708219 -2.3994265
000120 8b a9 0c c0 ef 2b fd bf e3 c4 0b c0 45 6f ef bf
       -2.197848 -1.9779032 -2.183892 -1.8705832
000130 75 e6 fb bf 4b 18 08 c0 d9 36 02 c0 da 8a db bf
       -1.9679705 -2.1264827 -2.0345976 -1.7151749
000140 cc 8c f8 bf 82 53 e7 bf 8e e9 fd bf 18 08 03 c0
       -1.9417968 -1.807236 -1.98369 -2.047369
000150 b7 91 08 c0 7b 34 fa bf 93 97 f3 bf e0 d6 f0 bf
       -2.1338937 -1.9547266 -1.9030632 -1.8815575
000160 dc e6 f5 bf fe 2c 03 c0 1e 61 f3 bf 30 fb 05 c0
       -1.9211078 -2.049621 -1.9014013 -2.0934563
000170 66 ad f0 bf 8d 54 f6 bf 4e be 04 c0 7b fe f0 bf
       -1.8802917 -1.9244553 -2.0741153 -1.8827661
000180 54 81 e3 bf 33 38 0e c0 c9 84 05 c0 01 ed 00 c0
       -1.7773843 -2.2221801 -2.0862296 -2.0144656
000190 fa 43 07 c0 98 e7 06 c0 0a 7b 01 c0 08 9f f0 bf
       -2.113524 -2.1078854 -2.0231347 -1.8798532
0001a0 dc 7b ec bf 53 46 ee bf 79 69 fe bf 74 c7 0e c0
       -1.8475299 -1.8615211 -1.9875938 -2.2309237
0001b0 3d 60 0f c0 33 b1 ee bf 00 c0 f2 bf ed b9 0a c0
       -2.240249 -1.8647827 -1.8964844 -2.167598
0001c0 e5 f5 f1 bf 7f 95 e8 bf 09 8b 02 c0 54 8f 08 c0
       -1.8903166 -1.8170623 -2.039736 -2.133748
0001d0 fa 93 e8 bf 27 b5 02 c0 08 2c f7 bf de a0 f9 bf
       -1.8170159 -2.0423067 -1.9310312 -1.9502218
0001e0 ac c1 0b c0 a0 91 0a c0 b0 98 0c c0 cd 75 00 c0
       -2.1836958 -2.1651382 -2.1968193 -2.00719
0001f0 71 64 05 c0 04 91 f6 bf 37 5b fe bf d1 d2 07 c0
       -2.0842555 -1.9263005 -1.9871587 -2.1222422
000200 a7 0c 0e c0 92 af f5 bf 61 19 e6 bf e5 81 08 c0
       -2.2195222 -1.9194205 -1.7976495 -2.1329281
000210 c0 44 0a c0 59 05 f1 bf fc 00 08 c0 6c fe 00 c0
       -2.1604462 -1.8829757 -2.12506 -2.0155287
000220 e6 4d 01 c0 16 fa 0c c0 10 66 08 c0 e9 d4 f5 bf
       -2.0203795 -2.202764 -2.1312294 -1.92056
000230 66 93 f9 bf b1 ce ee bf cb 0b 09 c0 70 ee fb bf
       -1.9498107 -1.8656827 -2.1413448 -1.968214
000240 c9 9d 06 c0 8b c1 f2 bf ac 01 e9 bf cd ad e8 bf
       -2.1033804 -1.8965315 -1.8203635 -1.817804
000250 0e 9b fa bf b8 d2 03 c0 00 59 ea bf eb b7 dc bf
       -1.9578569 -2.0597363 -1.8308411 -1.7243627
000260 cc d6 04 c0 cb 8f 17 c0 4d 89 fd bf 1e be 05 c0
       -2.0756102 -2.3681514 -1.9807526 -2.0897288
000270 87 26 10 c0 2c 9c 02 c0 cb 3f 07 c0 47 b3 0e c0
       -2.2523515 -2.040782 -2.1132686 -2.2296922
000280 61 3e 06 c0 77 a6 eb bf 85 db 10 c0 6f ca 03 c0
       -2.0975573 -1.8410176 -2.2633984 -2.0592306
000290 c3 71 e6 bf ce a3 fe bf 31 d6 06 c0 21 a0 02 c0
       -1.8003467 -1.9893739 -2.1068232 -2.0410235
0002a0 44 6f 05 c0 d8 19 0b c0 40 dd 09 c0 26 af 08 c0
       -2.084916 -2.1734524 -2.154129 -2.1356902
0002b0 ea 92 04 c0 67 48 d9 bf e2 bf f1 bf b5 e4 05 c0
       -2.071467 -1.697522 -1.8886683 -2.0920842
0002c0 cf 0a 00 c0 7c 85 db bf f8 2b 0a c0 45 51 10 c0
       -2.0006597 -1.7150111 -2.1589336 -2.2549603
0002d0 d3 99 13 c0 c0 c0 fe bf fc ab 01 c0 4b d2 0c c0
       -2.3062637 -1.9902573 -2.026122 -2.2003353
0002e0 36 6a fa bf 62 25 08 c0 d3 fe 01 c0 12 4e 04 c0
       -1.9563663 -2.1272817 -2.0311782 -2.067265
0002f0 45 ac 0e c0 ed 8f f2 bf 51 02 07 c0 17 77 04 c0
       -2.2292645 -1.8950173 -2.1095164 -2.0697687
000300 6c d2 16 c0 ef 28 09 c0 9c 76 0a c0 5e 97 09 c0
       -2.3565931 -2.1431234 -2.1634893 -2.1498637
000310 44 2f 04 c0 43 ac fc bf b4 53 05 c0 65 59 fd bf
       -2.0653849 -1.974007 -2.0832338 -1.9792906
000320 32 c1 02 c0 fd fd 0d c0 16 41 fe bf 18 d5 04 c0
       -2.0430417 -2.2186272 -1.9863613 -2.0755062
000330 21 34 08 c0 70 aa f2 bf 39 7f 0b c0 89 04 00 c0
       -2.1281817 -1.8958263 -2.17964 -2.0002768
000340 1a a2 01 c0 a0 99 f3 bf c3 2a 00 c0 e6 06 e5 bf
       -2.025519 -1.9031258 -2.00261 -1.789273
000350 81 48 00 c0 a1 bf e2 bf a9 ee 06 c0 78 54 f7 bf
       -2.0044253 -1.771473 -2.1083167 -1.9322653
000360 e1 a0 0a c0 43 41 0d c0 b6 a7 e5 bf b7 ab 08 c0
       -2.1660693 -2.2071083 -1.7941806 -2.1354806
000370 68 80 03 c0 df 9e f5 bf 50 d5 02 c0 01 30 08 c0
       -2.0547123 -1.9189109 -2.0442696 -2.12793
000380 61 e4 08 c0 5e 17 12 c0 92 6c 06 c0 a7 dc e4 bf
       -2.1389391 -2.2826762 -2.1003766 -1.7879838
000390 5d 34 04 c0 dd 7e 01 c0 d5 b1 01 c0 6c ea fd bf
       -2.065696 -2.0233681 -2.026479 -1.9837165
0003a0 1d 4b f4 bf 6b ff ea bf 8c fa f4 bf 01 d0 02 c0
       -1.9085423 -1.8359197 -1.9138961 -2.0439456
0003b0 9b 6e fd bf b5 32 11 c0 e9 9d fb bf 83 f2 f2 bf
       -1.9799379 -2.26872 -1.9657565 -1.8980259
0003c0 c0 66 fb bf 26 95 ef bf ee e9 f8 bf cd 40 02 c0
       -1.9640732 -1.8717391 -1.944639 -2.0352051
0003d0 92 40 db bf 4d dc 01 c0 9d 4d f8 bf 28 e8 0e c0
       -1.712908 -2.029071 -1.9398686 -2.2329197
0003e0 b0 46 02 c0 5f e1 07 c0 43 da 07 c0 de 89 0f c0
       -2.0355644 -2.1231306 -2.1226966 -2.2427897
0003f0 cb 94 06 c0 45 ad 00 c0 13 78 09 c0 b0 9e ea bf
       -2.1028316 -2.0105755 -2.1479537 -1.8329678

layers.3.bias.mean f4 [32]
000000 24 d5 7b 38 d5 f9 3e 3b 29 0b 61 3b 27 0d 76 ba
       6.0041566e-05 0.002914061 0.0034338927 -0.0009386115
000010 f6 65 e5 39 1d 3d 1e b9 ba a0 c2 3a 52 03 51 3b
       0.0004375425 -0.0001509082 0.0014848926 0.0031892848
000020 38 e5 e2 3a a9 cf e7 39 e1 53 af 3b c5 cb 12 3a
       0.0017310744 0.00044214472 0.0053505753 0.0005599822
000030 b7 96 cc 3a 30 6a 74 ba 2c c8 3b 3b 3f 16 26 3a
       0.0015608881 -0.00093236845 0.0028653247 0.00063357124
000040 d5 69 81 b9 d5 e3 28 3b 93 80 87 3a c1 81 2f 3b
       -0.00024683648 0.0025770564 0.0010338001 0.002678022
000050 50 56 31 3b 58 4c 5f 3a c2 52 fd 39 70 e7 8f ba
       0.0027059503 0.0008518151 0.0004831758 -0.0010979008
000060 a2 29 07 bb 37 45 8f 3b 18 87 14 3b 4f 91 b7 39
       -0.002062418 0.0043722647 0.002266353 0.00035012743
000070 55 f1 30 ba 96 59 8b ba 18 00 f2 3a 8f 19 98 3a
       -0.00067498285 -0.0010631557 0.0018463163 0.0011604297

layers.3.bias.scale f4 [32]
000000 21 00 0b c0 5f 65 0e c0 1d 5e 10 c0 31 d9 0f c0
       -2.1718829 -2.2249372 -2.2557442 -2.2476313
000010 d5 86 10 c0 92 a6 0f c0 d5 21 0f c0 56 ee 10 c0
       -2.2582295 -2.2445416 -2.23644 -2.2645469
000020 1c e1 0f c0 bc 78 10 c0 70 64 10 c0 42 0f 0f c0
       -2.2481146 -2.257369 -2.2561302 -2.2353063
000030 c6 6d 0e c0 63 73 0d c0 8c 54 10 c0 35 6e 10 c0
       -2.22545 -2.2101676 -2.2551603 -2.2567265
000040 20 ee 0f c0 d9 6e 0c c0 a3 6d 0e c0 ec 25 0f c0
       -2.248909 -2.1942656 -2.2254417 -2.2366896
000050 a2 b0 07 c0 ba 0e 10 c0 d7 68 10 c0 67 79 10 c0
       -2.1201558 -2.2508988 -2.256399 -2.2574098
000060 95 73 0c c0 bc 94 0f c0 91 4e 0f c0 08 ab 10 c0
       -2.1945546 -2.243453 -2.2391703 -2.260439
000070 04 0f 10 c0 41 89 10 c0 de bc 0c c0 28 92 0e c0
       -2.2509165 -2.2583773 -2.1990275 -2.2276707

layers.5.weight f4 [64, 32, 3, 3]
000000 2f cb 0e 3d f7 07 83 3d d4 2f f7 3c e9 24 1d 39
       0.03486174 0.063980035 0.030174173 0.00014986437
000010 e0 27 8a bd db 03 4f 3d 26 41 1a 3d 16 15 be bc
       -0.06745887 0.050540786 0.037659787 -0.023203414
000020 6f 97 3a bd 49 e1 86 3c 58 7b e8 3c 7e d4 99 3d
       -0.045554575 0.016464846 0.028379127 0.07511233
000030 b5 c1 de bd 6a 20 21 3d 94 eb 6f 3c 96 f3 bf bc
       -0.108767904 0.039337553 0.014643569 -0.02343158
000040 be 79 62 3d 5f a5 37 bd 4d 4b 29 3d 27 81 09 bd
       0.055291884 -0.044835445 0.041331578 -0.033570435
000050 21 e3 40 bd 5a 41 1a 3c 53 dd 90 3a 8c 64 09 bd
       -0.047091607 0.009414995 0.0011052288 -0.033543155
000060 65 8a ff 3d eb a1 71 3a 97 4f 06 bd 87 44 e7 bb
       0.124775685 0.0009217548 -0.032790747 -0.0070577296
000070 d1 ec 9a 3a b7 84 3f 3d 16 83 f2 3c c4 fa 68 3d
       0.0011819844 0.046757426 0.029603522 0.056879774
000080 8a 8f aa bc a4 60 5c 3d f0 92 ae bb 7f b3 ce bc
       -0.020820398 0.0538031 -0.005327575 -0.025232075
000090 8a d3 51 3d 07 b0 c6 bc 66 c4 74 bd 8c ce 4a bd
       0.05122713 -0.024253858 -0.059757613 -0.049513385
0000a0 64 85 53 bc b5 96 3f bd bf 34 ad 3c 7b 87 68 bd
       -0.012910221 -0.046774585 0.021143315 -0.05676983
0000b0 d1 ba 4d bd 1c 06 7a bc 99 a4 70 3c 24 88 17 bc
       -0.05022699 -0.015260246 0.014687681 -0.009248767
0000c0 e9 34 0c 3d 15 34 e7 bc 5c 73 0d bc 1a 7c 2e bc
       0.034230147 -0.028223077 -0.008633461 -0.010649705
0000d0 2f 6e 13 3c 12 35 e4 3c 39 90 bb bc e9 83 84 bd
       0.008998438 0.027857337 -0.02289592 -0.06470472
0000e0 d0 62 1f 3d 6d 86 b2 3b e5 cd d1 bd 9e 59 f6 bb
       0.038912594 0.0054481537 -0.102443494 -0.0075180074
0000f0 ca 15 8a bd 3e 88 ea bc 76 24 c7 bc e0 76 62 3d
       -0.06742437 -0.028629418 -0.024309378 0.05528915
000100 70 55 67 bd 3b f4 d8 bd 48 67 ef 3b cb 45 50 bc
       -0.056477964 -0.10593458 0.0073060133 -0.012711952
000110 e9 3d 10 ba 7b a7 de 3c 21 05 89 3d 21 ee 29 bd
       -0.00055023894 0.02717947 0.066904314 -0.041486863
000120 b8 e4 1e 3d af 58 95 bc dc fe b6 3c e8 03 99 3b
       0.038792342 -0.018230764 0.022338323 0.004669655
000130 a5 de 38 bc ba 9e 41 bd c2 d8 2b 3d e9 0e 3f 3d
       -0.011283551 -0.047270514 0.041954763 0.04664508
000140 6f cb 63 3d 43 e8 f1 3c d5 cf 95 bd 3b 8b 0a 3c
       0.05561393 0.029529696 -0.073150314 0.008456047
000150 56 28 11 bc ad 47 cb bc 5c b1 74 bd 51 c2 e9 bc
       -0.0088597145 -0.024814451 -0.059739456 -0.02853504
000160 b1 8c d3 3c ab 70 b9 3b 51 f9 12 be 9c 55 01 bd
       0.025823923 0.005659183 -0.14352919 -0.031575784
000170 22 17 35 3d 71 b9 10 be 5c 8f d7 bc 29 26 0a bd
       0.044211514 -0.1413324 -0.026313476 -0.0337278
000180 38 ff 0c bd b5 ba 62 bc 68 4e 8d b9 78 e4 9a 3c
       -0.034423083 -0.01383846 -0.00026952033 0.01890777
000190 98 ed 90 bd 57 ae 8b 3d f2 3b 0c 3d f6 96 30 bd
       -0.070765674 0.06820362 0.034236856 -0.043112718
0001a0 03 f1 21 bd 5f 00 b1 bc 93 d4 6d 3b 01 29 c5 bb
       -0.039536487 -0.021606622 0.0036290034 -0.006016851
0001b0 0d 79 18 bd bb 2a 22 3d a9 c7 cb bb 72 c0 8c bc
       -0.037224818 0.039591532 -0.0062188697 -0.017181609
0001c0 57 9b 87 3c 14 17 19 bd 4b 11 58 bd a2 13 4d bd
       0.016553564 -0.037375525 -0.052750867 -0.05006755
0001d0 c9 3b cd bc 4e ac 7f bc 2b 71 de bc 0a 40 23 bd
       -0.025052922 -0.0156050455 -0.027153572 -0.039855994
0001e0 76 30 9c 3d 7f 9f ed 3c b0 9d 1d bd 1f de cc 3d
       0.07626431 0.029006718 -0.03848046 0.10003304
0001f0 7a 9d c0 3c 98 60 c1 bb 2f a7 1b 3d 22 ca d6 ba
       0.02351259 -0.0059014075 0.038001236 -0.0016387145
000200 67 7b b8 bd 9d 1e a0 3c 33 60 44 bc 2b 08 40 3d
       -0.09007912 0.019545848 -0.011985826 0.04688279
000210 7b c5 dc 3c 30 a1 17 bd 53 e4 19 3d 00 42 55 bd
       0.026949635 -0.037018955 0.037571263 -0.052064896
000220 82 ec 8e bd 39 40 d6 b9 a8 5c a6 bd ae 50 eb bc
       -0.06978704 -0.0004086511 -0.081231415 -0.028724995
000230 ce c9 50 bc e7 a9 25 bd 94 bd 84 ba e6 ae 28 3d
       -0.0127434265 -0.040445235 -0.00101273 0.04118242
000240 85 cc 91 bc da b7 47 3d 8e 89 19 3d ea 71 5e 3a
       -0.017797718 0.04875932 0.037484698 0.00084856024
000250 74 5f 33 bd a5 cb fe 3c f9 3c 62 3d 98 f3 94 3d
       -0.043792203 0.031102965 0.05523393 0.07273024
000260 3c 06 1d bc 72 a7 82 3d 13 72 64 bd 4d ef 8a bd
       -0.009584006 0.06379594 -0.055772852 -0.06783924
000270 52 1f a2 3d 63 62 50 3d dc bf 01 be a8 f8 80 3d
       0.0791613 0.05087508 -0.12670845 0.062974274
000280 e3 b8 18 3d 71 9c 82 3c 13 70 94 bd c6 da a2 bd
       0.037285697 0.015943738 -0.07247939 -0.07951884
000290 cf e8 77 bd 6c 62 2a bd d7 d1 9d 3d 5a 03 6a 3d
       -0.060524758 -0.04159777 0.077060394 0.057132103
0002a0 b1 30 06 bd 1d 82 c0 3c 56 9a a9 bc b7 c9 1b bc
       -0.03276128 0.023499543 -0.020703476 -0.009508542
0002b0 ce e4 c8 bc 72 d8 22 bd 4f 39 67 bd 7a 05 7c 3d
       -0.024523165 -0.0397572 -0.056451138 0.06152866
0002c0 37 cc f0 bb 19 a9 6c bd 52 f7 c2 3c d8 3f 38 3b
       -0.007348563 -0.05777845 0.023799572 0.0028114226
0002d0 4a 2a 19 3d 39 88 49 3d 67 d3 90 bd 4d d6 d2 bc
       0.037393846 0.049202178 -0.07071572 -0.025736952
0002e0 22 0f 7c 3d 75 fd 15 3d 9e f8 43 bc 3a 20 32 bd
       0.06153787 0.03661867 -0.01196113 -0.043487765
0002f0 1e 48 13 bc f0 c6 41 bd 04 94 ed bc 66 b4 74 bd
       -0.008989362 -0.047308862 -0.029001243 -0.059742354
000300 3c ed 0c 3d 04 35 a9 3c 24 54 c5 bc c0 c4 a3 3c
       0.03440593 0.020655163 -0.024087973 0.019991279
000310 32 d5 df 3c 64 64 17 3c 12 1a 68 bc b3 b4 f2 bc
       0.02732334 0.009240244 -0.014166372 -0.02962718
000320 d5 6e 95 3c 4d 4f 00 3d 17 eb 19 bd 9b fd cf 3c
       0.018241325 0.031325627 -0.037577715 0.025389483
000330 5f e6 5c 3b 41 81 93 bd 94 50 57 3d d8 74 74 3b
       0.0033706648 -0.072023876 0.05256708 0.003730109
000340 27 3e 0b 3d cd 8d 54 ba 83 2c 52 3d 47 86 85 3b
       0.03399482 -0.0008108288 0.05131198 0.004074845
000350 61 fa c1 ba 6b f0 1a bd 84 f5 c0 bc bd 8d a9 3c
       -0.001479935 -0.037826937 -0.023554571 0.020697469
000360 c0 0a b6 3c 65 5d 9c 3b 29 e9 77 3d cc f0 2b 3b
       0.022221923 0.0047718757 0.060525093 0.0026236055
000370 b8 10 72 3d a9 50 8c bd 98 0b 5f 3d 85 70 79 3d
       0.059097975 -0.06851322 0.054454416 0.060898323
000380 cc 89 28 3d 0c 36 e7 bd a5 3b cf 3c 53 cf 9b 3a
       0.04114704 -0.112896055 0.025296995 0.0011887349
000390 41 01 0a be a5 cf 75 bd b6 d5 80 bd 65 85 04 be
       -0.13477041 -0.06001248 -0.06290762 -0.12941511
0003a0 04 9d ca bd 01 b9 d8 bc c1 c5 ab 3d e1 7f bc bc
       -0.098932296 -0.026455404 0.08387328 -0.023010196
0003b0 f5 d0 5c bd 1c 7d 0a 3d 5c 9e 9c bc 66 90 84 bd
       -0.053910214 0.03381072 -0.01911848 -0.06472854
0003c0 8b 83 9c 3d 8a 02 b9 3d f6 65 17 bd fc f0 6f 3d
       0.07642277 0.090336874 -0.036962472 0.05857943
0003d0 30 de cb bd 40 35 77 bc 93 ac 57 3d d0 0d 2a 3c
       -0.09954488 -0.015088379 0.052654814 0.01037927
0003e0 04 c5 44 bd a3 9d e2 3d 91 4e 58 3b 24 7e 64 3d
       -0.04803945 0.11065223 0.0033005814 0.05578436
0003f0 cc 32 18 3d d1 5b 4c 3d 5f d8 d8 3c b6 68 13 3c
       0.03715782 0.04989225 0.026470361 0.008997133

layers.5.bias f4 [64]
000000 f1 55 a3 bd 08 e5 67 3d d3 3d cc 3c 3b 3b 6c 3c
       -0.079753764 0.056614906 0.024931824 0.0144184185
000010 31 83 83 bb 25 5f ea bd 90 ae 7c 3c 0f e6 56 bd
       -0.004013442 -0.11443929 0.015422478 -0.052465495
000020 dc 6c 8e bd 97 02 33 bd 10 aa 3c ba 7e 51 5c bc
       -0.06954357 -0.04370364 -0.0007196972 -0.013447164
000030 85 ff 59 3d 7f 84 04 bb 95 be 2d 3a 6a a6 a2 3d
       0.053222198 -0.0020220575 0.0006627825 0.07941897
000040 67 85 23 3c 27 18 4f 3b 20 3e 86 bc e7 07 ed bc
       0.009980536 0.003160009 -0.016387045 -0.028934432
000050 cd ec b9 bc bf a0 bf 3c ae e3 ee bc b2 c0 80 bd
       -0.022695923 0.02339208 -0.0291613 -0.06286754
000060 a0 74 c9 bc 23 c9 76 bd 28 75 00 bb ef db 49 bc
       -0.024591744 -0.060250413 -0.001960108 -0.012320503
000070 b5 e7 8a 3d 55 cf 3f 3d c8 45 72 3d a8 5c 51 3b
       0.06782476 0.046828587 0.05914858 0.0031946097
000080 35 4d 0b 3d be 59 9d 3c 0a 53 46 3d 2e e4 8e bd
       0.034009177 0.019207831 0.048419036 -0.069771156
000090 58 d6 a2 bd b9 bb 32 3d b5 88 58 bd f7 f8 68 3c
       -0.07951039 0.043636058 -0.05286475 0.014219514
0000a0 9c 50 46 bd f8 20 d0 bc fb e9 5b bd 1c e7 64 bc
       -0.04841672 -0.025406346 -0.053689938 -0.013971116
0000b0 e1 2f 48 3d cc 74 22 bd c0 b7 e2 bc d0 fb a1 3d
       0.048873786 -0.039662167 -0.02767551 0.079093575
0000c0 02 33 24 3d c8 cb 86 3d 83 2e 93 3d c2 88 64 bd
       0.040087707 0.06581837 0.07186606 -0.055794485
0000d0 5e 1a 92 bb 82 46 6c bc c8 16 72 bc fb 17 29 bd
       -0.0044587096 -0.014421107 -0.014775939 -0.041282635
0000e0 9e a5 89 3d 7b 03 39 3d df 48 8e bd fa ed e7 bc
       0.06721042 0.045169335 -0.06947493 -0.028311718
0000f0 67 01 85 3c 21 3f 3f 3d 77 5c 14 bd 4f f7 28 bd
       0.01623602 0.046691064 -0.036220994 -0.041251477

layers.7.weight f4 [64, 64, 3, 3]
000000 19 d7 15 bd b0 10 07 3d 57 f6 1b bc a1 76 ac bc
       -0.036582086 0.0329749 -0.009519181 -0.02105266
000010 17 f0 5f 3b 5e ed 1b bd 5d 21 a2 bd e6 dc 71 bd
       0.0034170204 -0.038068168 -0.0791652 -0.059048556
000020 f3 8a 0e bd f9 02 02 3d 59 8d 5f 3c 13 25 4f 3c
       -0.03480048 0.031741116 0.01364454 0.0126431165
000030 22 3d 12 bb 5f b9 02 bc 58 2e 16 3d 93 36 b6 3c
       -0.002231427 -0.007978766 0.03666529 0.02224282
000040 c7 87 31 bb 92 03 b5 bc cc 93 88 bb 2d 33 cc 3c
       -0.0027088986 -0.022096429 -0.0041680094 0.024926746
000050 a7 96 8d 3c 4e 2f e4 3c 89 4d ea 3c e7 dc 80 3c
       0.01728375 0.027854588 0.028601425 0.015730334
000060 66 bd 38 bc f1 30 1a bc be 96 15 3b 57 b4 04 3d
       -0.011275625 -0.009411083 0.0022825445 0.032398548
000070 49 c6 34 bd 5f b9 cf bc 56 06 4d bb 52 e9 62 3c
       -0.044134412 -0.025356947 -0.0031284294 0.013849573
000080 b5 f4 b8 bc 53 a3 9e 3c 3b e9 3f 3d cb 13 85 bc
       -0.022577623 0.019364988 0.046853285 -0.01624479
000090 06 4c ff 3c af 4e cb 3c 88 1c da 3b f2 87 61 bc
       0.03116418 0.024817793 0.006656233 -0.013765322
0000a0 91 fb a9 bc 86 2e 12 3d cd 32 ae 3c 72 93 14 bd
       -0.020749839 0.0356889 0.021264458 -0.036273427
0000b0 fd 9f 56 bc 0d 22 b9 3c f9 34 a5 3c 23 f9 3c bd
       -0.013099668 0.022599244 0.02016686 -0.046136033
0000c0 8c 1b b3 3c b4 d5 5d bb 57 33 ee 3c 9e b2 13 3d
       0.021863721 -0.00338493 0.029077215 0.036059014
0000d0 72 e2 5e bd 32 0c ec 3c d1 51 56 3d d7 42 52 bc
       -0.054415174 0.028814409 0.05232412 -0.012833319
0000e0 0b 2a 27 3b dd a1 41 bd ef 95 19 3c 86 24 8c bb
       0.0025507237 -0.047273505 0.009374126 -0.004276815
0000f0 cf e9 7c bc e7 92 0c bd af 4c 10 bd fe 60 90 3c
       -0.015436604 -0.034319784 -0.03522938 0.017624374
000100 c8 0b 08 3b 91 a4 9a bc fb 36 39 3a bc 8c 98 bd
       0.0020758975 -0.0188773 0.00070653827 -0.07448718
000110 78 23 e9 bc 7d f1 93 bb 3e 8a ea 3c c3 17 39 3d
       -0.028459296 -0.0045148716 0.028630372 0.045188677
000120 91 ca 03 bc f5 56 10 bd 34 3f 1a bd d9 3e df 3c
       -0.008043901 -0.03523918 -0.03765793 0.027251648
000130 83 60 1e 3c 3d 24 af 3c ec 50 76 ba 5e 4c bd bc
       0.009666565 0.021379584 -0.00093962136 -0.023107704
000140 1e 2c b3 bc c3 73 2d bc 5d c5 6b bc 62 29 51 bc
       -0.021871623 -0.010586682 -0.014390317 -0.012766214
000150 aa 19 2b 3d 4d fc 94 bc 42 ee 15 3c d6 73 f3 bc
       0.041772522 -0.018186713 0.009151043 -0.02971832
000160 0d 6f 07 3c aa 76 9a 3c 38 54 f2 39 1d 68 33 bd
       0.008266223 0.018855412 0.00046220585 -0.043800462
000170 41 11 99 3c ef 8c 5c bd 88 b1 af bc 8e 41 42 3c
       0.018684985 -0.053845342 -0.021446958 0.01185645
000180 8d bf 41 3a 6d ec ca bc b0 4b e9 3c 3b 7a 94 bc
       0.0007390909 -0.02477094 0.028478473 -0.01812469
000190 2c 46 00 3a 05 66 5e bc 75 af 19 3b 45 ae d5 3c
       0.0004893269 -0.013574128 0.0023450528 0.026084075
0001a0 bc a4 a6 bd ba d8 37 bd b2 97 04 3d fb 8f 16 3c
       -0.08136889 -0.04488442 0.03237123 0.009189601
0001b0 fe d7 e3 3b 23 db 08 3d 1d 84 ea bc 9a 23 ad bc
       0.0069532385 0.03341211 -0.02862745 -0.02113514
0001c0 65 ea dd 3c c9 b0 2c 3c 98 84 98 3c 09 8f 2e bc
       0.027089307 0.010540196 0.018617913 -0.010654219
0001d0 0e 16 a8 3c 40 7b 23 3c 8c 3c 38 3c c6 3a d2 39
       0.020518329 0.009978116 0.011244904 0.0004009811
0001e0 69 ef 1a bd 16 56 e5 3c 95 df 18 3c 1e 15 49 3d
       -0.037825976 0.02799515 0.00933065 0.049092405
0001f0 ba 63 22 3c 30 a9 f6 bb 1c a2 eb 3c 8a f5 fc bb
       0.009911472 -0.007527493 0.028763823 -0.0077197
000200 8f c2 14 3b 96 ac 8a bc fe 46 25 3d ac 43 57 bd
       0.0022698974 -0.016927999 0.040350907 -0.05255477
000210 54 cc 5d bd ae 96 6e bb d8 95 d2 ba 18 5e 21 bd
       -0.05414994 -0.003640573 -0.0016066385 -0.039396375
000220 0f 69 88 bb 00 69 66 3c 8a 05 72 bc ee 35 f6 3c
       -0.0041629146 0.01406312 -0.014771828 0.030055013
000230 3f 62 08 3b df f1 bc 3c 64 ec 33 3d fa 1b f2 3c
       0.0020810512 0.023064552 0.04392661 0.029554356
000240 7f 4a 80 3c 8e fa 31 3d a3 bd 1d 3b 17 7f 55 3c
       0.015660523 0.04345184 0.002406933 0.013030789
000250 7c ec 05 bc 16 c6 53 bd 97 54 64 bc c0 65 9f 3c
       -0.008174058 -0.05170258 -0.013936183 0.019457698
000260 8a dc f2 3c 56 03 4a 3d cd eb 2a 3d 40 ac e0 3c
       0.029646177 0.049319588 0.041728783 0.027425885
000270 a7 59 6c 3c e5 c1 8b bc 5e 86 7b bc 64 b3 54 bd
       0.014425672 -0.01706023 -0.01535186 -0.051928893
000280 4b 8a 30 bd 60 03 8f bd 5c fe 06 bd 2d f0 d5 bc
       -0.043100636 -0.069830656 -0.03295742 -0.026115501
000290 4f 25 3a bd 52 a0 4a 3c 62 e1 0d bd a9 3d ba 3c
       -0.045445736 0.012367325 -0.03463877 0.02273448
0002a0 2f e9 4f ba de ba e3 3c e0 f7 5c bd 64 5f b5 3c
       -0.00079311704 0.027799066 -0.05394733 0.022140212
0002b0 bc 0c ba 3c 85 74 31 bd 2d bf 4b bc cf 44 1e 3d
       0.02271115 -0.043324012 -0.012435717 0.03863984
0002c0 ab bc 89 bd e6 fe 61 bd bd 40 37 bb c1 f0 54 3c
       -0.06725439 -0.05517473 -0.002796217 0.012996853
0002d0 09 ee 99 bc 30 ee 2d bc 04 cf 70 bc 8f 95 03 bb
       -0.018790262 -0.01061587 -0.014697794 -0.0020078158
0002e0 af d5 1f bd 74 25 5b 3c 77 cf 75 3c 81 81 33 3d
       -0.039022144 0.013375629 0.015003077 0.043824676
0002f0 c0 47 71 bc 79 e6 a2 bb ce 62 e0 bc 93 7e 1d bc
       -0.014726579 -0.004971322 -0.027390864 -0.009612697
000300 ba 71 00 bd 0d f4 08 3d ea 56 ac ba 80 51 97 bc
       -0.031358458 0.03343587 -0.0013148461 -0.01847148
000310 08 43 13 3d 91 ab 2b bc 56 f5 0c bd ba fe 67 3c
       0.035952598 -0.010477916 -0.034413658 0.014159853
000320 c6 8b a0 3c 86 ab aa 3c 91 c3 be 3c 08 00 02 3c
       0.0195979 0.020833742 0.023286613 0.007934578
000330 62 50 31 bd 29 e6 34 bd 58 fb 57 bd c5 19 13 bd
       -0.04328955 -0.04416481 -0.052729934 -0.035913248
000340 5b 49 c7 bc cf d1 52 3c de f0 cd bc a4 a3 2d bc
       -0.02432697 0.012867405 -0.025139268 -0.010598097
000350 94 a8 f8 bc 24 c9 0c 3a 1e 87 ed ba 55 48 ac 3c
       -0.030353822 0.00053705485 -0.0018121933 0.021030584
000360 fd 96 71 3c c1 fe 06 3c 92 ca 3b bc 4b 47 ee 3c
       0.014745471 0.008239449 -0.011461871 0.02908673
000370 de 1d cf 3c 65 32 85 3c 7f b1 05 bd 9e 4f 88 bc
       0.025282796 0.016259382 -0.032639977 -0.016639527
000380 e8 29 b8 bc ee b9 e8 bb 15 b8 37 bd 68 8c 12 bd
       -0.02248092 -0.0071022427 -0.04485329 -0.035778433
000390 c8 71 75 3c e5 75 a0 3b bd 71 0c 3d 74 fe 96 3b
       0.014980741 0.0048968666 0.034288157 0.00460797
0003a0 70 ed c1 3c 9f 2e eb 3c 6f 61 94 3c df 1b 8b 3c
       0.02367279 0.028708754 0.018112866 0.016981063
0003b0 9b 1f 01 3d ff d4 05 3c 74 cb 1c 3c a2 3a 3b bc
       0.031524282 0.008168458 0.009569991 -0.011427553
0003c0 13 89 59 bd b7 9a cd bc 76 37 a2 ba c6 fc 45 ba
       -0.05310924 -0.025098188 -0.0012376148 -0.000755262
0003d0 af 6a 56 bc f1 61 c4 bc 7c 07 0b bd 46 c3 8a bd
       -0.013086959 -0.023972483 -0.033942685 -0.06775527
0003e0 b5 eb e6 3a f3 d4 9f bc 11 b9 20 bd e9 84 f0 bb
       0.0017617854 -0.019510722 -0.039238993 -0.007340063
0003f0 4e fa 08 3d 7e 87 83 bc 74 9b 0e bd 3f d7 b0 3c
       0.033441834 -0.016055819 -0.03481622 0.021587012

layers.7.bias f4 [64]
000000 6e 71 c6 3c e9 da 35 3d d6 73 21 bd 5f 1d 0f bd
       0.02422401 0.044398222 -0.03941711 -0.03494012
000010 0b 79 42 bd e5 63 e8 bc df a1 e5 3c 6c a8 59 bd
       -0.047478717 -0.028367946 0.028031288 -0.053139135
000020 f3 13 47 bd 42 92 51 bd 7e cf 6b bc 2e 13 9d 3c
       -0.04860301 -0.051164873 -0.014392732 0.019174185
000030 5c da 61 bd 05 1f 04 3c 6c 76 08 3b b0 fe 08 3d
       -0.055139884 0.008064036 0.0020822538 0.033446014
000040 12 7e 00 3c 58 04 12 bd 87 68 85 3c 74 38 40 bd
       0.0078425575 -0.035648674 0.016285194 -0.046928838
000050 20 e9 19 3c 36 4f 28 bb 83 0f ac 3c dc 32 58 3c
       0.00939396 -0.002568198 0.02100349 0.01319572
000060 f8 a2 0c 3c a9 fa 07 bc ab 23 e4 bc d4 5b 19 3d
       0.008583777 -0.008299508 -0.027849039 0.03744109
000070 23 75 65 3d 49 d3 92 3b 33 28 ac 3c 8e 05 82 bd
       0.056019913 0.0044807536 0.021015262 -0.06348716
000080 c7 bb 35 3d a3 4e a7 3c 5b a9 06 bd 25 b2 7e bc
       0.04436853 0.02042324 -0.032876354 -0.015545403
000090 2f 4b 05 3c 25 30 60 3d e7 a7 a0 bb 57 8c b4 3c
       0.008135601 0.054733414 -0.004902828 0.022039576
0000a0 67 48 28 bd 4f c4 88 3b 71 67 44 3c 83 e9 ae 3c
       -0.041084673 0.0041737924 0.011987553 0.021351581
0000b0 f2 b0 09 bc ae dd bc bc 86 d6 89 bc 73 2e 97 bc
       -0.008404003 -0.023054924 -0.016825926 -0.018454766
0000c0 95 57 99 3c f4 f2 e4 bb ad 37 d4 bc e1 4f 76 3c
       0.01871852 -0.00698697 -0.025905455 0.015033693
0000d0 82 cd 0e 3c 08 c5 8d 3b f5 51 09 bd ac 2a 41 bc
       0.008715989 0.0043264665 -0.033525426 -0.011789959
0000e0 45 ad 07 3d eb d2 37 bd 85 e9 5f bd c3 33 99 bd
       0.033124227 -0.04487888 -0.05466606 -0.07480576
0000f0 1a 58 40 3d aa cc e4 3b 52 92 09 3d d5 99 99 3c
       0.04695902 0.0069824057 0.033586808 0.01875011
