examples/FashionMNIST/fmnist_pretrained.pth (torch_old, 348942 bytes, 18 tensors)

layers.0.weight f4 [32, 1, 5, 5]
000000 87 ac cd 3d 47 84 c4 3d 5a a6 82 bd 7b 5f 11 be
       0.100426726 0.095955424 -0.06379385 -0.14196579
000010 8b 0f 12 3d 29 78 f3 bd b6 7a 10 bd 93 d6 12 be
       0.035659354 -0.11888153 -0.035273276 -0.14339666
000020 0f a5 31 be 74 bb b9 3d 78 3c 03 3e 1e db b6 bd
       -0.17348121 0.09068957 0.12816036 -0.08928512
000030 27 fa c0 bd 1c 60 00 be 99 73 db bd b6 16 90 3d
       -0.09422713 -0.12536663 -0.10715408 0.07035582
000040 64 07 f3 3b a9 3e 13 3d b7 12 29 3e 2f a1 69 3d
       0.0074166525 0.03594843 0.16511045 0.057038482
000050 9b b5 ad 3d 90 44 b5 3d 9a cf 85 bd 3d 3d 23 3e
       0.08481904 0.08850968 -0.065337375 0.1594133
000060 cf 1e 97 bd b9 1a 84 3d 78 74 4f 3e 3e 72 73 bd
       -0.07378923 0.064504094 0.20259273 -0.05943512
000070 d1 a0 ad 3d 59 d0 76 bd 06 9b be bc 3e 72 d5 bd
       0.08477939 -0.06025729 -0.02326728 -0.104221806
000080 f2 71 ed 3d 2a 91 70 bd 2a b6 0b 3e 5a 58 0f be
       0.11593999 -0.05873219 0.13643709 -0.13998547
000090 1d b4 a3 bc de a6 26 be 17 c8 6a bd e4 d1 a2 3d
       -0.019983346 -0.16274592 -0.057319727 0.0795019
0000a0 65 01 1a 3e b6 a8 2a be 4b 28 d1 bd ca ee 80 3d
       0.15039594 -0.1666592 -0.102127634 0.062955454
0000b0 76 39 94 bc b0 86 1a 3e 43 03 9e bd 2a 7c a7 bc
       -0.018093806 0.15090442 -0.07715466 -0.020444948
0000c0 c0 c6 16 be 93 03 f6 3d bf f2 7c bd 1d 0d 18 3e
       -0.14724255 0.120124005 -0.06175494 0.14848752
0000d0 6b e1 95 bd 18 07 60 bc 9d e4 11 be 72 f0 a8 bd
       -0.07318386 -0.013673566 -0.14247365 -0.08248986
0000e0 ae 4a 59 be 7d d7 bb bd c2 ee 53 3d d3 ba f6 3a
       -0.21219894 -0.091719605 0.05174137 0.0018823989
0000f0 67 54 db bd d3 18 11 3c 05 4c c9 b9 80 b3 24 be
       -0.10709458 0.008856016 -0.00038394346 -0.16084099
000100 67 aa f7 3d c9 e1 2a 3e 34 2d e5 bd b1 2c 82 bd
       0.120930485 0.16687693 -0.111902624 -0.063561805
000110 a7 eb e0 bc f2 06 47 3e 28 98 4a bd 5b 18 32 3e
       -0.027456118 0.19436243 -0.049461514 0.17392103
000120 7b b2 81 3d eb be 2a bd e2 e6 e7 3d de d0 01 be
       0.063328706 -0.04168598 0.11323334 -0.12677333
000130 a0 ee d2 3c 83 40 e4 3d a3 45 97 3c aa 2b ee bc
       0.02574855 0.11145117 0.018465823 -0.029073555
000140 cb 3e 40 3e 8c 14 9a 3d 69 72 e6 bd c9 01 0b 3e
       0.18773954 0.0752345 -0.11252291 0.135749
000150 f8 21 10 3e 54 b6 39 bc 46 92 9b bd 18 e9 08 3e
       0.14075458 -0.011334974 -0.07596259 0.13370168
000160 e1 04 29 be 57 c7 2d be 49 50 51 39 bd c1 1b bc
       -0.16505767 -0.16970573 0.00019961702 -0.00950664
000170 b2 d9 dd 3d 08 56 89 3d 68 6a 74 be 8c 0c d6 3c
       0.10832538 0.06705862 -0.23868716 0.02612903
000180 04 72 47 3e 4e 3a 03 be 74 3b 5c bd 96 3b 69 bd
       0.19477087 -0.1281521 -0.053767636 -0.05694159
000190 e5 3a 88 bd 41 67 1b be 8a 93 13 be 6e 55 b0 3d
       -0.06651858 -0.15176107 -0.1441175 0.086100444
0001a0 d3 ef 31 bd 86 59 b4 3c ad 02 2d bd 26 18 3f bc
       -0.043441605 0.022015344 -0.04223888 -0.011663472
0001b0 3a 92 f0 3d b4 11 85 bd f9 b1 2a 3e b3 04 04 3e
       0.117466405 -0.06497517 0.16669454 0.12892418
0001c0 cd df 24 be 75 20 15 3e 63 6a 75 3d 0d 7c 33 3d
       -0.16100998 0.14563163 0.05991591 0.043819476
0001d0 4f 08 13 bc fa 51 1d be 3e 11 03 be 88 b3 44 3b
       -0.008974149 -0.15363303 -0.12799546 0.0030014236
0001e0 4f a5 71 3e f8 93 15 be ad f7 a5 bd ec 2c 6f 3c
       0.23598216 -0.14607227 -0.08103881 0.014598113
0001f0 79 f0 a1 3d 80 81 40 3e 3a 18 8c bd 4f cc 25 bd
       0.07907195 0.187994 -0.06840558 -0.040478047
000200 c2 c6 65 bc 2b 1d 8e 3d de c8 54 3e 02 95 b6 3d
       -0.014024438 0.06939157 0.2077975 0.0891514
000210 1e 93 ab bd b7 ff 87 3d 00 96 2b 3d f8 f6 d3 bd
       -0.0837767 0.066405706 0.041891098 -0.1034984
000220 18 9d 2d be 6e ba c8 3d 23 d1 1f 3e 47 d2 c7 3c
       -0.16954458 0.09801184 0.15607123 0.02439226
000230 9e 4f e1 bd d7 09 f1 bd c4 a2 65 be ba c1 ea bd
       -0.11001514 -0.11769455 -0.22425371 -0.11462732
000240 e1 42 7f 3c 7b b9 af bd 68 ff e0 bd 7c 44 1b bd
       0.01557991 -0.085802995 -0.10986215 -0.03790711
000250 75 e7 a9 3c 22 74 1e 3e c3 e9 36 3e 28 09 9b 3d
       0.02074025 0.15473989 0.1786261 0.07570106
000260 80 03 8a 3d f5 f4 37 3e 5f 6c ee bd cd 68 5e 3c
       0.06738949 0.17964537 -0.11641764 0.013574791
000270 1e 05 e8 bd c9 c2 91 3c 8e 29 b9 3d 7e b8 1f bd
       -0.11329101 0.017793076 0.09041129 -0.038994305
000280 51 23 cc 3d 80 bf f6 bd ef 56 22 be a1 e8 0c 3e
       0.099676736 -0.120482445 -0.15853475 0.13760616
000290 4d 6b 6f bc 75 50 cf 3d 16 a9 28 be 87 36 23 be
       -0.014612985 0.10122768 -0.16470751 -0.1593877
0002a0 55 a9 32 be 84 86 0c be 1d 13 d4 3d 95 7f 2c bd
       -0.17447408 -0.13723189 0.10355208 -0.04211386
0002b0 fe d9 99 bc d2 ab 53 bd 9a 2b 27 3e 0a ef ae bd
       -0.018780705 -0.051677532 0.16325226 -0.08541687
0002c0 e6 47 3f 3e b0 8d 19 3e 1b 65 3c 3d 3e c0 f1 3d
       0.18679771 0.14995456 0.04599486 0.118042454
0002d0 08 d2 b7 bd 7a e7 d4 3d 97 3e 8d 3d 5e bb 3f be
       -0.08975607 0.10395713 0.06896704 -0.18723819
0002e0 1a 35 64 be 6f 7d d6 3d 44 e6 2e 3b b4 31 96 bd
       -0.22285882 0.10473143 0.0026687542 -0.07333699
0002f0 71 74 11 be e1 b3 aa bd df ff ce 3d f7 23 fe 3d
       -0.14204575 -0.083350904 0.10107397 0.124092035
000300 53 a1 31 3e c8 2b 55 bd 88 7b b0 bd 45 7b d9 bd
       0.17346697 -0.052043706 -0.08617312 -0.10619215
000310 10 fc 82 bd dc 82 2f bc 53 be 15 be 42 ac 0e 3e
       -0.06395733 -0.010712352 -0.14623384 0.13932899
000320 3a 4a 11 bd 78 8f 14 bb f5 10 aa 3d 18 02 f7 3d
       -0.03547118 -0.0022668522 0.083040155 0.12060946
000330 fb e4 99 3d 04 82 23 be bc 11 8c 3d 96 b4 0a 3e
       0.07514378 -0.15967566 0.0683932 0.1354545
000340 8e 7e db bd a0 08 00 be 18 43 33 be 4b 62 59 3e
       -0.10717498 -0.1250329 -0.17506063 0.21228902
000350 15 70 1c 3e b8 43 15 be 95 98 13 3c d3 4b 65 3c
       0.15277131 -0.14576614 0.009008546 0.013995129
000360 08 c0 3c 3e 14 64 06 3e f4 de 0f be 0f fc c6 bd
       0.18432629 0.13124114 -0.14049894 -0.09716045
000370 ac 29 20 3e f5 03 1a be af 6f 26 be 51 7c 95 3d
       0.15640897 -0.15040572 -0.16253541 0.07299102
000380 a5 4d 34 bd e4 55 e1 bc 50 18 35 3e ce f4 8c bd
       -0.04401936 -0.027506776 0.17685056 -0.0688263
000390 d3 71 a5 3b 61 8c 2f 3e f2 42 de bd c0 17 99 3d
       0.0050489693 0.17143394 -0.108526126 0.07475233
0003a0 f5 93 a7 bd c7 65 53 bc 7b 1c 0b 3e d6 c8 b9 bd
       -0.081825174 -0.012902684 0.13585083 -0.090715095
0003b0 7c 0c e2 bd cd a0 0d be ce e5 4e be 20 f3 2b be
       -0.110375375 -0.13830872 -0.20204851 -0.16791964
0003c0 78 4a 8f bd 90 e9 a0 3d c0 e8 14 3e bd 5f 07 be
       -0.06996626 0.078570485 0.14541912 -0.13220115
0003d0 63 9e 13 3e 16 53 89 3d 05 a3 86 3c 97 26 92 3d
       0.14415888 0.067053005 0.016435156 0.07136267
0003e0 9c a0 c3 bd 6f 4b 1f 3d f8 84 b6 3d f8 97 61 bd
       -0.09552118 0.0388903 0.089120805 -0.05507657
0003f0 95 04 b3 3d 67 38 2b 3d 17 43 fb bc 86 8a 18 be
       0.08741108 0.041801836 -0.03067164 -0.14896592

layers.0.bias f4 [32]
000000 ae 82 0a 3e 57 c8 03 3e 03 f1 ef bc 39 c6 9b bb
       0.13526413 0.12869392 -0.029289728 -0.0047538546
000010 ee 94 ba bd 99 80 dc 3c 59 80 b6 3d 17 d3 26 3e
       -0.09110437 0.026916789 0.08911199 0.16291462
000020 09 7d 0e 3e 95 93 a6 3d 0c ef 99 bc 30 59 29 be
       0.13914885 0.08133618 -0.018790744 -0.16537929
000030 d8 51 0e 3c 48 55 98 bd 89 cc 9d 3d e3 c0 24 3e
       0.008686505 -0.07438141 0.077050276 0.16089205
000040 fb bc 74 3b d0 6f 99 bd 1c 6d 90 bd b7 ec 0b be
       0.0037344086 -0.0749203 -0.07052061 -0.13664518
000050 df f0 49 be 11 86 11 3e a9 7d f5 bb 3c f8 77 bc
       -0.19720791 0.14211299 -0.0074917865 -0.015134867
000060 8e be 90 3c 02 a8 73 3b 22 da 2e 3e 95 d7 0f be
       0.017668989 0.0037178998 0.17075399 -0.14047082
000070 30 38 4a 3e 71 c0 f0 bb d4 d3 9a 3c 32 c8 e7 bd
       0.19747996 -0.0073471596 0.018899836 -0.11317481

layers.1.weight f4 [32]
000000 51 77 8d 3f eb 73 90 3f eb 3b 7f 3f 73 77 87 3f
       1.1052037 1.1285375 0.997008 1.0583328
000010 01 10 86 3f d8 72 8f 3f 42 53 8a 3f e2 99 88 3f
       1.0473634 1.1206923 1.0806658 1.0671961
000020 41 73 80 3f c4 03 81 3f df 25 82 3f 53 fc 96 3f
       1.0035173 1.0079274 1.0167807 1.1795753
000030 0b 67 89 3f cf f5 92 3f cd bc 84 3f e3 fe 81 3f
       1.0734571 1.1481265 1.0370117 1.015591
000040 17 74 8f 3f c3 5c 88 3f 77 12 81 3f 0b 1b 8d 3f
       1.1207303 1.0653309 1.008376 1.1023878
000050 ca 1c 93 3f 58 0b 91 3f e4 2a 71 3f 05 97 7d 3f
       1.1493161 1.1331587 0.9420607 0.9905856
000060 f9 d0 7c 3f 17 57 85 3f 7b 88 8c 3f 13 25 88 3f
       0.98756367 1.0417203 1.097915 1.0636314
000070 99 a0 64 3f 0a 11 90 3f af d2 90 3f 20 72 8d 3f
       0.8930755 1.12552 1.1314296 1.1050453

layers.1.bias f4 [32]
000000 ae 91 b9 bd 22 8d c9 bd 94 6b bb bd d1 8d 56 3d
       -0.09060989 -0.09841372 -0.09151378 0.05238134
000010 bb 8e c7 bd 7e d5 9d bd b7 e7 cc bd 58 5f 2f 3c
       -0.097440206 -0.07706736 -0.100051336 0.010703884
000020 db 46 8c 3d f0 d3 f1 bd 16 33 e9 bd 3d 0d 38 bd
       0.06849452 -0.11808002 -0.11386697 -0.0449345
000030 4c 89 b6 3c dc 65 a6 bd 1a 07 83 3d 3e 67 b2 3d
       0.022282265 -0.08124897 0.06397839 0.08711098
000040 72 3b 8d bd c7 88 a3 3c 8c 95 47 3c ee b9 59 bd
       -0.06896104 0.019962681 0.012181651 -0.053155832
000050 3a ef b3 bd fd 44 30 3d 4f da 83 3d 59 fe 82 3d
       -0.08785863 0.043034542 0.064381234 0.06396169
000060 67 82 88 3d 93 ad b2 bd c1 c7 dc bd 5f f1 b8 bd
       0.06665497 -0.08724513 -0.107802875 -0.09030413
000070 11 29 33 3d 22 4b 13 bd 0c a1 f0 ba ad cd 5a bd
       0.043740336 -0.035960324 -0.0018358543 -0.053418804

layers.1.running_mean f4 [32]
000000 97 0c d1 3d 6a 67 df 3d 16 a8 a8 bd cc 8a be 3b
       0.102074794 0.109083965 -0.08235185 0.0058148857
000010 23 00 f3 bd 3b db a4 bc c8 c5 66 3d 77 d5 1a 3e
       -0.118652605 -0.020124068 0.056340963 0.15120493
000020 a9 bd 22 3e 2c 8c d2 3c fd 6d 8e bd 71 58 34 be
       0.15892662 0.025701605 -0.06954572 -0.17611863
000030 09 5c ab 3c 35 62 a8 bd c3 5c e5 3d 74 37 42 3e
       0.02091791 -0.082218565 0.111993335 0.18966466
000040 85 6d 38 bc 36 3c b3 bd e7 70 9d bd 8c 05 0e be
       -0.01125658 -0.08751719 -0.0768755 -0.13869303
000050 2d 45 59 be b5 8f 10 3e 11 e5 67 3b b6 a2 94 3c
       -0.21217795 0.1411732 0.0035384337 0.018143993
000060 08 a1 b1 3c 8c ce d6 bc 6b 51 14 3e c4 1b 2e be
       0.021683231 -0.026221536 0.14484183 -0.17002779
000070 50 c6 86 3e c8 29 a9 bb 58 b0 20 3c f6 81 dd bd
       0.26323175 -0.0051624514 0.009807669 -0.10815804

layers.1.running_var f4 [32]
000000 59 17 99 3c 2c cc 20 3c e2 df a0 3c e8 c4 70 3c
       0.01868789 0.009814303 0.019638006 0.014695384
000010 e8 22 6f 3c cb 0e de 3c 7a 08 a2 3c 95 0f a4 3c
       0.014595725 0.027106663 0.019779433 0.020026961
000020 fd 3d 75 3c 81 ef 71 3c 47 3c 47 3c 1b cc fa 3c
       0.014968392 0.014766575 0.012160367 0.030614903
000030 11 ae cf 3c d6 8d a0 3c f1 e7 e6 3c 8f 0d 7a 3c
       0.025351556 0.019598883 0.02818677 0.015262022
000040 fc 07 b8 3c d3 75 8f 3c c8 58 e1 3c 58 dc 8a 3c
       0.022464745 0.017512238 0.027508155 0.016950771
000050 9e 0e 51 3c f2 af e4 3c bc 7e 89 3c a6 28 b6 3c
       0.012759833 0.027915929 0.016784064 0.02223618
000060 b0 37 82 3c 8e 6a aa 3c 2c 71 0c 3c 89 14 46 3c
       0.015895694 0.020802762 0.008571904 0.012089857
000070 dc 5a 5f 3c a6 bb e1 3c 0e 70 ab 3c 1e bc 90 3c
       0.013632502 0.027555298 0.020927455 0.017667826

layers.3.weight.mean f4 [32, 32, 3, 3]
000000 99 e5 82 bd ff db 81 bd 5d 6e 15 bd 5f 2b b6 bc
       -0.063914485 -0.06340789 -0.036482204 -0.022237478
000010 1d 4f 49 bc c0 ec 60 bd f6 72 04 be f9 6f 91 bd
       -0.0122869285 -0.054913282 -0.12934479 -0.07101435
000020 24 b0 ee bd 17 5d 5a bd bb 97 bd bd c2 3f 09 3c
       -0.1165469 -0.053311434 -0.09257456 0.008377017
000030 d1 1f cf bd 7c 88 b8 bb 22 ad 2e bd 09 90 90 bd
       -0.101134904 -0.0056315046 -0.04264558 -0.070587225
000040 55 d8 46 3d a6 29 2e bd 00 c6 17 bd df 04 a1 bd
       0.048546154 -0.042520188 -0.037054062 -0.07862257
000050 3d 15 99 bd e8 be fa bc 00 e2 73 bd 10 1f 60 bd
       -0.07474754 -0.03060861 -0.059541702 -0.054717124
000060 13 82 e9 bd 56 ce ba bd 27 c6 ed bd 22 9f 9d 3d
       -0.11401763 -0.09121387 -0.1161006 0.07696368
000070 50 12 d1 3c c0 60 cc 3d 68 ab 1e 3d 00 8e ba 3d
       0.025521427 0.09979391 0.038737684 0.091091156
000080 35 a2 c6 3c 7f d7 3b 3d d6 01 3d 3d 16 75 04 3c
       0.024247268 0.04585981 0.04614433 0.008084556
000090 43 8b 9a bd e7 b8 c0 3c cc 2d 40 bd 1c 1f db bd
       -0.07546093 0.023525668 -0.046918675 -0.10699293
0000a0 07 fb 7b bd ab ff ea bd 64 0c a5 bd 1d c7 f5 bc
       -0.061518695 -0.11474546 -0.08059004 -0.030002171
0000b0 d1 2c 28 bd ca a2 96 bd f5 f0 ce bc b0 74 c4 bc
       -0.041058365 -0.07355268 -0.025261382 -0.023981422
0000c0 9a 25 ca bd 7a 61 46 bd 43 1f 86 bd 8e 93 9e 3d
       -0.09870453 -0.048432805 -0.065489314 0.077429876
0000d0 71 93 af 3d c8 d0 73 3d ed 5b db bd 95 ca ef bd
       0.08573044 0.05952528 -0.10710893 -0.11708561
0000e0 cd bb b8 bd b7 8e b2 bd cc 77 1b bd c6 c9 ea bd
       -0.09020195 -0.08718627 -0.037956044 -0.114642665
0000f0 47 be 37 bd a1 28 82 3c e5 9c 44 bd cd 53 4a 3b
       -0.044859197 0.015888514 -0.04800119 0.0030872703
000100 9a c7 cc bb b2 71 a1 3d e0 87 bd 3c d6 02 94 ba
       -0.0062493803 0.07883014 0.02313608 -0.0011292349
000110 74 f5 95 3d 22 44 66 3c 87 89 e0 3c 6a 1c 20 3d
       0.07322207 0.01405433 0.027409328 0.039089598
000120 da d3 79 3b a9 a6 91 3d a0 15 b4 3d 72 f2 a2 3a
       0.0038120658 0.07111866 0.08793187 0.0012431873
000130 18 a1 14 3d 75 13 4e 3d 21 be 1a 3d 39 e6 8c 3c
       0.036286443 0.050311524 0.037778977 0.017199622
000140 d9 44 ee 3d 70 4c 4e bc e2 7c a7 bb 5e cf 70 bc
       0.116342254 -0.012591466 -0.0051113227 -0.014697878
000150 64 8b 83 bd e6 4f 7a 3c b6 a1 13 bd b6 cf fd bd
       -0.06423071 0.015277838 -0.03604289 -0.12393133
000160 2c 9b ee bd 12 91 cd bd be 2e b4 3b bb 22 a6 3c
       -0.116506904 -0.100374356 0.005498736 0.020280233
000170 4f b5 1c bd 65 28 9e 3c b1 1a 70 bc 6e 98 02 3b
       -0.038258847 0.019306371 -0.014654801 0.001992728
000180 31 69 64 bd 49 e3 b8 bd 42 d7 c3 bb 12 c0 0c be
       -0.05576438 -0.09027726 -0.0059765885 -0.13745144
000190 c5 4a a2 bd 77 48 58 3b 41 b8 a7 bd a9 fc bb bd
       -0.079244174 0.0033002177 -0.081894405 -0.091790505
0001a0 24 83 9b 3a e1 b9 85 3c 51 d3 d6 3c 48 07 42 3d
       0.0011864644 0.016323986 0.02622381 0.047370225
0001b0 73 34 f4 3c a2 18 2f 3d 78 c0 84 3d b1 45 65 bd
       0.029810166 0.0427481 0.06482023 -0.055974666
0001c0 a3 22 44 3d 5c c3 15 3d 99 f7 ca 3d 81 72 fa 3d
       0.047884595 0.036563262 0.09910507 0.12228871
0001d0 d7 1d aa 3d ee f1 95 bd c8 76 74 bd da f5 43 3d
       0.08306473 -0.07321535 -0.05968359 0.047841884
0001e0 5d 9b f8 bc 09 59 42 3c 32 da 23 bc d6 aa d3 bd
       -0.03034752 0.011862048 -0.010000752 -0.10335319
0001f0 33 7b c0 bc 6b 2c f3 bc c9 5c c6 3c d8 2e 8f 3d
       -0.023496246 -0.029684266 0.024214165 0.069913566
000200 be 0b a4 3d e0 04 8c 3d e0 88 38 3c 32 13 0a 3d
       0.08010052 0.06836867 0.011263102 0.033709712
000210 2c 1b 20 bb 28 46 a5 bc 3a 91 60 3d a6 1a 43 3d
       -0.0024430258 -0.020175055 0.054826 0.047632836
000220 60 ee ba 3d d4 5d 48 3d b6 c3 5f 3d db ab c7 ba
       0.09127498 0.048917606 0.054630004 -0.0015233712
000230 02 d3 bb ba 87 49 17 3e 0a 8e dc 3d c0 65 47 3d
       -0.0014329853 0.14774142 0.10769279 0.04868102
000240 71 65 fc bd 0c 6d 81 bc b8 d2 9d bb 06 ec 32 bc
       -0.12324036 -0.015799068 -0.0048163794 -0.01092053
000250 70 d8 bc bb 27 2b 6c 3c a0 5f 18 bd ac 4a d8 bd
       -0.005763106 0.014414585 -0.03720057 -0.105611175
000260 71 11 51 bd 97 57 dc 3d 33 2a 9e 3d 83 bf 14 3d
       -0.051042024 0.10758894 0.077228926 0.036315452
000270 41 8b 7c 3c 4a 43 fc ba 53 49 0a bc 6f 77 18 bd
       0.01541406 -0.0019246128 -0.008440333 -0.037223276
000280 79 d9 f1 bb e1 70 fb bc ee e7 7d b9 b2 ed 14 bb
       -0.007380661 -0.030693473 -0.00024214361 -0.0022724685
000290 a0 47 b8 3c 8f fe dc 3c db f8 f8 3b 49 a4 35 bd
       0.022495091 0.026976852 0.0075980253 -0.044346128
0002a0 bc 1d aa 3b 9a 10 8c 3d d0 5c af 3d 2c 7b 8f 3d
       0.005191533 0.06839104 0.085626245 0.07005915
0002b0 ce 93 b7 3d 4a fb a3 bc bf e1 22 3d 90 dc 80 ba
       0.089637384 -0.020017285 0.03976607 -0.0009831358
0002c0 ef c1 83 3d 3f 7c 8c bd ff d8 b7 bc 70 c7 76 bc
       0.06433474 -0.068596356 -0.022442339 -0.015062198
0002d0 cb c3 0d be b5 91 e6 bd cf 24 98 3c 7b c3 59 bd
       -0.1384422 -0.1125826 0.01857224 -0.05316494
0002e0 0c eb b0 bc 7a 02 cd b9 18 8b 0b be 08 a9 7c bd
       -0.021596454 -0.00039102492 -0.13627279 -0.06168464
0002f0 a7 ce 15 bd 9e 73 9f bc 23 bc 16 3d d9 a0 bc 3d
       -0.036574032 -0.01946431 0.036800515 0.09210367
000300 75 cb 65 bc 1c 9c cb bc 60 e4 93 3d ca 6d bf bb
       -0.014025559 -0.024854712 0.072212934 -0.0058419453
000310 2a e2 d5 3b 69 33 a6 3d 7e dd 25 3c 7e 17 5f 3d
       0.006527205 0.081152745 0.010123609 0.054465763
000320 39 e1 a3 3d de fd 92 3d 8d 00 84 3d a6 8f 40 3d
       0.08001942 0.071773276 0.064454176 0.047011994
000330 65 d8 67 bd fa 33 17 bd c3 e9 25 bd 6b ae 7f 3c
       -0.056602854 -0.036914803 -0.040506136 0.015605549
000340 5d 15 0b 3d 39 3f 88 3d f1 4f c7 3d fd f6 2e 3d
       0.03395592 0.06652684 0.097320445 0.042716015
000350 67 db 45 3b 71 ed f9 bc d4 e8 0c bd 80 4f 7a bc
       0.0030190588 -0.030508729 -0.03440173 -0.015277743
000360 9f a6 0f 3d ee a2 ea 3c e6 82 c2 3d e7 a9 8e bb
       0.03507101 0.028642144 0.09497623 -0.00435375
000370 bf e8 8a 3c 03 e2 8f 3d 1c 4d 1d 3e 2c 08 0a 3e
       0.016956685 0.0702553 0.15361446 0.1347968
000380 57 01 0c 3d b6 fb 49 3d 00 d1 37 bd 18 e8 9f 3c
       0.034180965 0.049312316 -0.044877052 0.01951985
000390 a6 30 1c bd b7 d8 81 bd 60 65 4e bc 27 a3 ea bd
       -0.038132332 -0.06340163 -0.012597412 -0.114569
0003a0 74 8a 67 bd 88 4c dc bd 4b 36 9a bd b1 a6 b6 3b
       -0.056528524 -0.10756785 -0.07529887 0.0055740704
0003b0 99 9f f2 3c 0f 67 0c bc db e2 01 bd 35 bd d4 bc
       0.029617118 -0.008569493 -0.031710487 -0.025969127
0003c0 0b d1 b2 bd 79 f5 8c 3c 19 83 3d bd e5 17 63 3c
       -0.08731278 0.017206894 -0.046267603 0.013860677
0003d0 b5 9e f0 bc 64 6d d9 bd 87 00 3a bc e9 fc ba bc
       -0.029372552 -0.10616568 -0.011352665 -0.022825675
0003e0 2b 49 b5 bd 43 51 f0 bd 24 94 cf bd 73 d5 d4 bc
       -0.08851846 -0.117342494 -0.101356775 -0.025980687
0003f0 a8 21 7f 3d b6 dd 94 3c b7 b1 1d 3d dc 13 03 3d
       0.062287956 0.018172126 0.03849956 0.03200136

layers.3.weight.scale f4 [32, 32, 3, 3]
000000 8a bd e2 bf ec 43 1b c0 76 35 04 c0 7f 3a e4 bf
       -1.7714093 -2.4260206 -2.065763 -1.7830352
000010 40 84 eb bf 01 92 f5 bf 3e df 19 c0 fb c6 d8 bf
       -1.8399734 -1.9185182 -2.4042506 -1.6935724
000020 12 f5 04 c0 cd 3b 04 c0 0d 75 00 c0 58 1d f7 bf
       -2.077458 -2.06615 -2.0071442 -1.930583
000030 60 7e 04 c0 90 81 ef bf 54 28 00 c0 cf 68 f6 bf
       -2.0702133 -1.8711414 -2.0024614 -1.9250735
000040 ee 2f f1 bf a0 bd 03 c0 4f 9c f4 bf 8a 82 05 c0
       -1.8842752 -2.0584488 -1.9110202 -2.0860925
000050 71 4e 0a c0 50 26 02 c0 a8 0a f1 bf c0 de 09 c0
       -2.1610377 -2.0335884 -1.8831377 -2.1542206
000060 4b 97 fe bf 5c 65 fd bf b3 ae f5 bf 63 1c 0a c0
       -1.9889921 -1.9796557 -1.9193939 -2.1579826
000070 02 1b 01 c0 34 73 0b c0 8a d0 e7 bf dd c1 06 c0
       -2.0172734 -2.1789064 -1.8110516 -2.1055825
000080 89 a4 09 c0 59 73 00 c0 6d e0 fc bf 43 72 e9 bf
       -2.1506674 -2.0070403 -1.9755989 -1.8237995
000090 16 20 ec bf 23 77 06 c0 d1 b4 04 c0 ca 5e fa bf
       -1.8447292 -2.1010215 -2.0735362 -1.9560177
0000a0 bd a2 ff bf 46 88 f1 bf 6d 0c 04 c0 0b 72 f3 bf
       -1.9971539 -1.8869712 -2.0632584 -1.9019178
0000b0 2b ac 0b c0 c0 26 04 c0 13 ab e5 bf 97 bb f6 bf
       -2.1823833 -2.064865 -1.7942833 -1.9275998
0000c0 21 22 00 c0 a6 52 f6 bf 77 c1 0e c0 71 56 07 c0
       -2.002083 -1.9243972 -2.2305582 -2.114651
0000d0 4c 78 09 c0 3b 65 fe bf 47 1c 0c c0 70 93 01 c0
       -2.1479673 -1.9874643 -2.189226 -2.0246239
0000e0 c7 8a 0d c0 af 01 fb bf b7 94 04 c0 76 80 ef bf
       -2.2115953 -1.9609889 -2.0715768 -1.8711078
0000f0 a2 15 11 c0 8d 95 04 c0 7d 4a f7 bf f6 98 00 c0
       -2.2669454 -2.0716279 -1.9319607 -2.009336
000100 65 4e f7 bf ac 6d f3 bf ec 57 08 c0 85 91 f1 bf
       -1.9320799 -1.9017844 -2.1303663 -1.8872534
000110 56 aa ff bf 42 5d 19 c0 37 e8 00 c0 e6 cb 01 c0
       -1.9973857 -2.396317 -2.0141733 -2.02807
000120 55 f7 00 c0 6b 78 02 c0 bb 85 00 c0 86 ff 02 c0
       -2.015096 -2.0385997 -2.0081623 -2.046846
000130 58 a2 fe bf c9 6b e7 bf 41 71 07 c0 0c 8d fa bf
       -1.9893293 -1.8079768 -2.1162875 -1.9574294
000140 b7 5c 05 c0 c7 47 f3 bf c8 6f f5 bf 66 20 f1 bf
       -2.0837839 -1.900628 -1.9174738 -1.8838012
000150 f9 a4 0d c0 b9 7f f6 bf 20 18 0e c0 0f a6 ef bf
       -2.2131941 -1.9257728 -2.2202225 -1.8722552
000160 b9 46 03 c0 b9 2b f5 bf a7 bb 05 c0 c5 74 07 c0
       -2.0511916 -1.9153968 -2.0895784 -2.116502
000170 07 7e fa bf 5e ea 00 c0 bb 38 0c c0 01 61 e5 bf
       -1.956971 -2.0143046 -2.1909626 -1.7920228
000180 f0 7c e0 bf 8d b7 f8 bf 0f cb 0e c0 6a ee 07 c0
       -1.7538128 -1.9431015 -2.2311437 -2.1239266
000190 f5 6f 00 c0 b0 36 04 c0 f5 87 ef bf 4b 17 ef bf
       -2.0068333 -2.0658379 -1.8713366 -1.8678983
0001a0 39 c6 fe bf 86 e9 f5 bf 0b 08 0c c0 2e 9e 00 c0
       -1.9904243 -1.9211891 -2.187991 -2.0096545
0001b0 66 a9 00 c0 dc cf f8 bf 00 ca 00 c0 c7 27 15 c0
       -2.0103393 -1.9438434 -2.012329 -2.3305528
0001c0 09 00 ff bf f2 d4 fb bf 58 f7 04 c0 6d 52 fa bf
       -1.9921886 -1.9674361 -2.0775967 -1.9556404
0001d0 16 84 06 c0 cf c4 f8 bf 21 70 07 c0 f2 1d f2 bf
       -2.101812 -1.9435061 -2.1162188 -1.8915389
0001e0 7c e8 02 c0 ab 8a ff bf ee 01 02 c0 73 d5 ec bf
       -2.0454397 -1.9964193 -2.0313678 -1.850264
0001f0 63 df e9 bf 4d 0f 00 c0 a3 17 08 c0 30 77 04 c0
       -1.8271297 -2.000934 -2.1264427 -2.0697746
000200 fe 97 09 c0 72 03 04 c0 9b d6 e7 bf 4d e0 0b c0
       -2.1499019 -2.0627103 -1.8112367 -2.1855652
000210 a6 f0 08 c0 65 71 0b c0 83 05 04 c0 4a 4b ec bf
       -2.139688 -2.178796 -2.0628364 -1.8460476
000220 d7 e1 f4 bf 2d 89 ea bf 5d 74 f2 bf de a5 e4 bf
       -1.9131421 -1.8323113 -1.8941761 -1.7863119
000230 85 f5 f6 bf 8c 8e fb bf a9 14 0a c0 2d a2 06 c0
       -1.9293677 -1.9652877 -2.157511 -2.1036484
000240 53 0e 02 c0 84 1d ec bf a6 fa f3 bf 8d ef ee bf
       -2.0321243 -1.8446507 -1.9060867 -1.8666855
000250 1d 62 e9 bf ce 16 03 c0 b2 37 0b c0 0b 8b 09 c0
       -1.8233067 -2.048267 -2.1752744 -2.1491115
000260 b1 6f 01 c0 a3 75 03 c0 8b 00 0b c0 2f a2 01 c0
       -2.022442 -2.054055 -2.1719081 -2.025524
000270 99 94 f1 bf b0 2a ef bf 01 34 05 c0 5d b2 fe bf
       -1.8873473 -1.8684902 -2.081299 -1.9898182
000280 73 46 00 c0 63 1d fd bf e4 80 fb bf f7 b1 e8 bf
       -2.0042999 -1.9774593 -1.9648709 -1.817931
000290 a5 85 0a c0 2d 50 01 c0 30 16 df bf 18 35 f1 bf
       -2.164407 -2.0205185 -1.7428646 -1.8844328
0002a0 c2 0b e6 bf 5c 60 06 c0 12 c0 09 c0 35 e9 00 c0
       -1.7972338 -2.0996313 -2.152348 -2.0142338
0002b0 86 d2 03 c0 de 3e f1 bf 18 46 03 c0 aa b6 ff bf
       -2.0597243 -1.884731 -2.0511532 -1.997762
0002c0 19 4c 07 c0 d0 76 f3 bf 98 e0 e9 bf 57 61 0a c0
       -2.1140196 -1.9020634 -1.8271666 -2.1621912
0002d0 b2 f0 ea bf 0a 4f 00 c0 06 5b 0c c0 b6 5e f9 bf
       -1.8354704 -2.0048242 -2.1930556 -1.9482028
0002e0 4e 7d 00 c0 4c ae de bf 5f f0 06 c0 78 38 fd bf
       -2.007648 -1.7396941 -2.108421 -1.9782858
0002f0 36 27 0c c0 49 7f 01 c0 93 63 07 c0 14 cd f3 bf
       -2.1898932 -2.0233939 -2.1154525 -1.904696
000300 71 32 e2 bf f2 ff f9 bf fb d3 09 c0 53 47 00 c0
       -1.7671643 -1.9531233 -2.1535633 -2.0043533
000310 a7 58 d9 bf ae 77 f6 bf 15 1e 04 c0 fa 67 ee bf
       -1.698018 -1.9255273 -2.064336 -1.8625481
000320 da 7b 1b c0 d7 09 0a c0 0b cd ef bf 3e dc 01 c0
       -2.4294343 -2.1568506 -1.8734449 -2.0290675
000330 1f 82 04 c0 70 9d 05 c0 f6 7c 09 c0 08 52 ff bf
       -2.070442 -2.0877342 -2.148252 -1.9946909
000340 7d 44 f5 bf ea 99 f3 bf 1c 65 fc bf 67 8d fc bf
       -1.9161526 -1.9031346 -1.9718356 -1.9730653
000350 39 72 ee bf c7 7d 0a c0 2c 23 ea bf 7c a1 03 c0
       -1.8628608 -2.1639268 -1.8291984 -2.0567312
000360 4d b0 00 c0 f2 b6 0c c0 f0 06 18 c0 b0 f4 09 c0
       -2.0107605 -2.198666 -2.3754234 -2.1555595
000370 59 77 04 c0 76 0b 06 c0 7d e2 04 c0 74 b7 03 c0
       -2.0697844 -2.0944495 -2.0763237 -2.058072
000380 ea fd e4 bf 63 1c fe bf 40 19 ea bf aa b7 11 c0
       -1.7889988 -1.9852413 -1.8288956 -2.276835
000390 71 1d 06 c0 1e 92 11 c0 28 90 00 c0 57 f6 08 c0
       -2.095547 -2.2745433 -2.0087986 -2.1400354
0003a0 78 b5 02 c0 c9 48 06 c0 06 d6 ff bf 80 33 ea bf
       -2.042326 -2.0981925 -1.998719 -1.8296967
0003b0 ed 1c d9 bf f6 c8 16 c0 e5 1d ea bf 6b b2 f3 bf
       -1.6961952 -2.3560157 -1.8290373 -1.9038824
0003c0 80 ba 03 c0 ac df 00 c0 af 1e 02 c0 39 83 0d c0
       -2.058258 -2.0136518 -2.0331228 -2.2111342
0003d0 24 9a 08 c0 4c 42 eb bf 52 3b 02 c0 ec f6 05 c0
       -2.134408 -1.8379607 -2.0348706 -2.093196
0003e0 36 7d 06 c0 fb f8 04 c0 64 c7 f0 bf 85 6f ed bf
       -2.1013923 -2.0776966 -1.8810849 -1.8549658
0003f0 42 a1 ed bf cc 4e ff bf cf ce f0 bf 98 75 03 c0
       -1.8564837 -1.9945922 -1.8813113 -2.0540524

layers.3.bias.mean f4 [32]
000000 c7 10 90 3a 29 04 ba 3a 3a 76 87 39 c5 e8 b7 3a
       0.0010991328 0.0014191914 0.00025837292 0.0014031163
000010 fb c1 b3 3a 3c 61 c9 3a 4f 09 d0 3a 32 a0 36 3b
       0.0013714427 0.0015364061 0.0015871915 0.002786648
000020 df 35 08 3b db ae 34 3b 81 68 fd 39 88 8c 14 3b
       0.0020784063 0.0027570042 0.00048333782 0.002266677
000030 29 70 3f 3a 18 33 96 3a 2d f0 b5 3a 05 bc 2b 3a
       0.0007302785 0.0011459319 0.0013880782 0.00065511494
000040 0e 97 bc b7 69 45 d6 3a 1b b0 87 3b df df 27 3b
       -2.2481687e-05 0.001634759 0.0041408665 0.0025615615
000050 d6 6c 39 3a 56 f4 40 3b d0 2b 38 38 3a 56 b8 38
       0.0007073408 0.002944251 4.3909822e-05 8.789865e-05
000060 5c 7c cc 3a 12 46 b3 b8 5a ab 7a 3a dc 0a 83 3b
       0.0015601027 -8.548437e-05 0.00095622765 0.0039990973
000070 ac b6 a6 39 86 6f c9 3a df f1 ce 3a 6e b5 e5 3a
       0.00031798088 0.001536832 0.0015788636 0.0017525384

layers.3.bias.scale f4 [32]
000000 ed 71 0f c0 2c e7 0f c0 74 c6 07 c0 51 cb 0a c0
       -2.2413285 -2.2484846 -2.1214876 -2.1686594
000010 cb 31 05 c0 3d 3f 05 c0 76 a3 0f c0 15 e8 06 c0
       -2.0811641 -2.0819848 -2.2443519 -2.1079152
000020 54 ad 0e c0 79 4d 02 c0 b1 cc 0d c0 b2 11 06 c0
       -2.229329 -2.0359786 -2.2156184 -2.09483
000030 ef 08 03 c0 2e 0a 0d c0 f2 75 0a c0 80 c2 0d c0
       -2.0474203 -2.2037463 -2.1634488 -2.2149963
000040 32 86 0c c0 51 62 10 c0 3e 05 08 c0 1d 8f 0c c0
       -2.1956906 -2.2560008 -2.12532 -2.196235
000050 96 26 0e c0 f5 91 0e c0 34 1d 11 c0 46 2f 0c c0
       -2.221105 -2.2276585 -2.2674074 -2.1903853
000060 80 a5 0f c0 c8 03 0f c0 b5 47 0e c0 3c 54 0d c0
       -2.2444763 -2.2346058 -2.2231266 -2.2082663
000070 c5 55 0d c0 73 b9 0f c0 63 fb 0d c0 30 d8 07 c0
       -2.20836 -2.245694 -2.2184684 -2.12257

layers.5.weight f4 [64, 32, 3, 3]
000000 4a ff 20 bd 0f 82 86 bd c8 d8 5d bd 95 2e e5 ba
       -0.039305963 -0.065677755 -0.054161817 -0.0017485196
000010 00 aa 89 3b 5a 77 2c 3d 83 a1 78 bc 0e 91 c4 bc
       0.004201174 0.04210601 -0.015175226 -0.023994949
000020 48 f3 85 3d 61 5e 83 bc b8 f9 c6 3c fa 70 5b 3c
       0.06540543 -0.016036214 0.024288997 0.013393635
000030 36 ce d5 bc 2b 33 ad bd c1 c1 56 3c 7d ed ed bc
       -0.026099306 -0.08457025 0.013107718 -0.029043907
000040 40 34 59 bc 39 04 b3 bb 8c ee 93 bb 5c 49 75 bd
       -0.013257086 -0.00546315 -0.004514521 -0.059884414
000050 e5 92 09 bc f1 24 01 39 3c d4 ac bc c9 30 67 bd
       -0.008396839 0.0001231616 -0.021097295 -0.05644301
000060 af 5a 06 bd 17 d6 2e 3d f6 1f a0 3d a4 68 03 bc
       -0.032801326 0.04268464 0.07818596 -0.008020554
000070 fe a3 01 3d f1 d9 5c bd 5b 5e 97 bc e8 33 75 bd
       0.031650536 -0.053918783 -0.01847761 -0.059863955
000080 ce da 95 3d da 0a 80 bd 63 eb 4f bc bc d9 11 3d
       0.07317124 -0.0625207 -0.012690398 0.03560804
000090 8a 0b c4 bc c7 64 06 3d 54 10 86 bd 8d 1f 83 3b
       -0.023931284 0.032810953 -0.06546083 0.004001564
0000a0 f0 26 82 bd 8e 3e 4e 3d 1d 94 77 bd c4 75 80 3c
       -0.06355083 0.050352626 -0.060443986 0.015681155
0000b0 ed 64 91 3c eb 20 9e bb 04 33 c3 3b cf 07 3f bc
       0.01774832 -0.0048257015 0.0059570093 -0.011659577
0000c0 9f 62 16 bd 6d 2b 2a 3d da 58 0a bc c0 bf a5 bc
       -0.036715146 0.04154532 -0.008444035 -0.020233035
0000d0 9e 3c 7b 3d 38 60 05 3d 69 61 09 3d 28 6c 4e bd
       0.061337106 0.032562464 0.033540163 -0.050396115
0000e0 02 2b d9 3c a6 e9 72 3b 61 12 28 bd db 5d 83 bc
       0.026509766 0.0037065535 -0.041033152 -0.016035965
0000f0 29 89 c6 3c 2b 2e 1e 3c 67 97 86 3c e4 ff a7 bc
       0.024235325 0.009654562 0.016429616 -0.02050776
000100 33 cf 80 bd 85 04 b4 3c 47 43 e8 bc 87 7a 6e bd
       -0.0628952 0.021974811 -0.028352393 -0.05822232
000110 3c 14 a2 bc d7 80 5b bd 68 2c 3f bd d8 81 9d 3d
       -0.01978504 -0.053589668 -0.04667321 0.07690781
000120 ac 07 20 bd e0 a2 2c bc d4 c7 c2 3c 69 18 87 bd
       -0.039069816 -0.010536879 0.023776926 -0.06596453
000130 1f 01 88 3d 05 82 83 bc 03 f4 55 3d 07 f0 92 3d
       0.06640839 -0.01605321 0.05223466 0.07174688
000140 b2 be da 3c d3 a5 22 3c 34 82 c9 bc ff 7b e7 bc
       0.026702259 0.009927231 -0.024598219 -0.028257368
000150 7e 9a 12 3d 99 2b a9 bb 53 6c e4 3c 2a 86 3d 3d
       0.035791866 -0.005162668 0.027883684 0.046270527
000160 4a e3 d4 bc 71 da 94 3c 6a 8a cf 3b 22 9a 3e 3d
       -0.025987286 0.018170567 0.006333639 0.04653371
000170 cd 86 81 bd c4 80 92 bc 9b 6e 2a bd e5 07 2e 3d
       -0.06324539 -0.017883666 -0.041609388 0.042487998
000180 12 0b d0 3b c3 7f 9f bb c9 9b 2a bd 1f a6 79 bd
       0.006348976 -0.0048675253 -0.041652475 -0.06094944
000190 5c 32 b9 39 cc e2 d5 39 31 7a 43 bd f2 c8 a6 3c
       0.0003532347 0.00040795503 -0.047723953 0.02035949
0001a0 ae 6a 9f bb 78 f9 be bd b1 81 f3 3c 79 e6 2f 3d
       -0.004865012 -0.09324926 0.029724928 0.042944405
0001b0 72 35 58 3d 98 b6 a0 bc c1 9a 1f bd 94 33 a3 3d
       0.052785344 -0.019618317 -0.038965944 0.07968822
0001c0 d8 1f 55 3b ee 7c 21 3d 82 fe aa 3c 6a 08 1d 3c
       0.00325202 0.039425783 0.020873312 0.009584526
0001d0 fa c4 b5 3c dd dd 94 bd 54 bc 3c 3c e3 70 d8 3c
       0.022188652 -0.072688796 0.01151951 0.026421016
0001e0 76 1e 39 bd 27 5c 89 bb 1b 43 64 bc 5d 13 86 bd
       -0.045195065 -0.0041918936 -0.013932015 -0.06546662
0001f0 0b 9e 22 bd ae f9 8c 3d 17 82 c4 bb 3b 22 32 bd
       -0.039701503 0.0688356 -0.005996953 -0.043489676
000200 3a b4 e6 bc 84 61 e8 3c 1b 1b 2c bd 6b a7 48 bd
       -0.02816211 0.028366812 -0.042018037 -0.048987787
000210 c0 0f 22 3d f9 08 96 3d 6b e5 e4 3c b8 c0 12 3d
       0.0395658 0.0732593 0.027941426 0.035828322
000220 2c ae 5f bd ce 10 de bb a7 26 2e 3d 4e fe 1b 3d
       -0.054609463 -0.0067769056 0.04251733 0.03808432
000230 b6 95 37 bd f2 50 e9 bc 97 36 10 bc 0a 1a 98 3b
       -0.04482051 -0.02848098 -0.008802078 0.004641776
000240 0c ca c6 3b de b2 b9 bc b9 dc 12 bc 7b 16 91 3b
       0.0060665663 -0.022668298 -0.008963757 0.0044277287
000250 05 85 9e bb c7 65 bc bc 57 12 36 3d c9 fa bb bc
       -0.0048376345 -0.02299775 0.044451084 -0.022946732
000260 e4 c5 32 bb 4b 55 59 bd f9 3a 60 bc ea cc 32 3b
       -0.0027278597 -0.053059857 -0.013685935 0.0027282783
000270 81 69 0f 3d 3d db f7 3c 0b 3d 2c bc 05 96 4f bb
       0.035012726 0.030255908 -0.010512601 -0.0031675112
000280 c5 c7 00 bc e5 3c d9 bb 2c 5a 56 3d 7a d5 a8 bc
       -0.007860129 -0.0066295736 0.05233209 -0.020609606
000290 6f 5b 2c 3d b4 c6 a7 3c 80 d6 cb 3c 07 d7 36 bd
       0.042079385 0.020480491 0.024882555 -0.04463866
0002a0 55 54 b3 3c 6b 3b cc 3b 4d 46 5a bd 28 5c 83 bc
       0.021890799 0.006232669 -0.0532897 -0.016035154
0002b0 fa b8 e1 3a 0e 81 51 bd 90 cd 52 3d 35 65 89 3c
       0.0017221265 -0.051148467 0.05146557 0.016771892
0002c0 1a ba 0f 3d df d0 69 3d b8 2a 7d 3d 4a 7a 85 bc
       0.03508959 0.05708396 0.061808318 -0.016293664
0002d0 d1 71 93 bd 1c 5a 4e 3d ae 76 12 ba b5 71 19 bd
       -0.07199443 0.050378904 -0.00055871427 -0.037461955
0002e0 6e 6a 5d 3d 62 3a 33 bd 45 91 24 3c 22 ed c4 3c
       0.054056577 -0.04375685 0.010044401 0.024038855
0002f0 a9 23 1e 3d 62 f7 1a 3d c6 1b 11 3d a7 0b 5b bb
       0.038608227 0.03783358 0.035426877 -0.0033423693
000300 63 49 e0 3c 99 34 2b 3d e3 d8 08 bd 03 ae fc 3c
       0.027378744 0.041798208 -0.033409964 0.030844694
000310 05 50 0d bd bb 34 f1 3c 1f 8e fc bc f3 3d 81 bd
       -0.03450014 0.02944409 -0.030829487 -0.06310644
000320 63 18 5d 3c fd 75 62 3d a1 a3 89 bd e0 60 14 3c
       0.013494584 0.055288304 -0.06720663 0.0090563
000330 a6 67 0f 3d ef 69 9e bd 6b 3e 9b bc 76 3d 0f bc
       0.035010956 -0.07735049 -0.018950662 -0.008742681
000340 f1 87 be 3c a3 95 36 bd de 61 25 3d 54 5e 89 bd
       0.023258181 -0.0445763 0.040376537 -0.06707445
000350 6e 48 f6 bc a1 c9 d3 3c 38 dd 86 39 ad 57 98 bd
       -0.030063834 0.02585298 0.00025723292 -0.07438598
000360 c3 b3 48 bd 70 19 e0 3c 3d 6b 48 bd f0 2d 13 bd
       -0.04899956 0.02735588 -0.048930395 -0.03593248
000370 1c e6 6d bd 8a 71 88 bd d4 94 80 bc b0 3a 8d bd
       -0.058080778 -0.06662281 -0.015695967 -0.068959594
000380 1e 61 c4 bd cc ba 5f bd 39 d2 ca 3b ce 3b f9 3b
       -0.09588836 -0.054621503 0.0061896113 0.007606006
000390 66 03 28 bd e5 08 d0 3b ff ac 72 3d 86 e4 84 3c
       -0.041018866 0.0063487166 0.059247013 0.01622225
0003a0 3f db 16 3d 1a 02 ad 3d ab 27 79 3c fb 98 50 bd
       0.036830183 0.084476665 0.0152072115 -0.050927144
0003b0 f4 68 94 3c b9 84 44 bd d0 49 66 bb 4c 21 b5 bd
       0.018116452 -0.047978137 -0.003513921 -0.088442415
0003c0 fa 75 22 bd f3 22 72 bb 76 29 65 3c 5b 2e d7 3b
       -0.039663292 -0.00369471 0.013986936 0.0065668053
0003d0 ca b6 f2 bc 46 ee 2e bd c1 da 7c bd 70 47 7a 3d
       -0.029628176 -0.042707704 -0.061732057 0.061103284
0003e0 7b 8b 07 bb 4d f1 85 bd d8 06 ae 3d 4a 9f a2 3d
       -0.0020682502 -0.06540165 0.08497399 0.07940538
0003f0 2f 18 06 3d 08 5e 05 bb 57 ce 49 3d e1 25 58 3c
       0.032737907 -0.0020350236 0.049269047 0.013192625

layers.5.bias f4 [64]
000000 75 ac 84 bc 6d cb 5d bd c5 b4 4d 3c 3d 4d d6 bb
       -0.016195515 -0.05414908 0.012555306 -0.0065399692
000010 54 e7 0e bd 19 7e 15 bd 13 37 61 bd 95 a7 7e bd
       -0.03488858 -0.03649721 -0.054984163 -0.062171537
000020 56 4d 08 bc d3 c6 4f bc 54 ff 2e bd a9 06 e2 bc
       -0.00831922 -0.012681681 -0.04272397 -0.027591066
000030 bf 06 b5 3c 9c 07 b4 bc d3 9d 1d bb 78 06 0b bc
       0.022097943 -0.021976285 -0.002405037 -0.008485429
000040 b8 4a 87 bb f3 45 3c 3b 1a 93 d1 bb 95 f8 7e 3c
       -0.00412878 0.0028728216 -0.0063957097 0.015562196
000050 16 18 7f 3d 2a e9 3a bc de 21 bb 3d ee 16 92 bb
       0.06227883 -0.01140813 0.09137319 -0.0044583
000060 37 de 8f 3d 22 a9 19 bd b2 82 f3 bc 5d f3 93 3d
       0.07024806 -0.037514813 -0.029725406 0.07224152
000070 fd 56 d3 3d 81 2b 47 3d f7 7f 28 bd be 77 9b 3c
       0.10319326 0.048625473 -0.04113766 0.018977996
000080 09 89 5d bc 9c 66 61 bd 24 f8 48 ba 41 32 0f bd
       -0.013521441 -0.055029497 -0.00076663704 -0.034960035
000090 70 04 a7 3c 9a ed a2 bd 2e 77 ad 3c 1c af 59 3d
       0.020387858 -0.07955475 0.021174993 0.053145513
0000a0 e6 63 74 bb 49 10 f0 bc a4 14 6b bd d9 c2 c3 3d
       -0.003729099 -0.02930464 -0.05739273 0.095586486
0000b0 80 9b 9c bb 40 27 97 bd d0 dd 30 3d 58 00 ea bc
       -0.004779279 -0.07380533 0.043180287 -0.028564617
0000c0 24 ac c8 3c 9b 85 eb 3b 5e 3d fa bb 66 ab 48 bd
       0.024496146 0.007187558 -0.00763671 -0.048991583
0000d0 7b ec 83 3c 46 da 14 3d 94 49 29 bd 98 db 91 3c
       0.016103974 0.036340974 -0.041329935 0.017804906
0000e0 0e 5e ba 3d 3e c0 b2 3c 5f 63 87 bc ab d6 bb bc
       0.09099971 0.021820184 -0.016526876 -0.02292951
0000f0 54 c2 a6 3c f5 03 9f bd f3 a8 97 3b a0 2c 5e bd
       0.020356335 -0.077644266 0.0046282946 -0.054241776

layers.7.weight f4 [64, 64, 3, 3]
000000 ea ac 2d bc a5 23 1f bd a5 c7 60 bc 26 f5 a9 3b
       -0.010600308 -0.038852353 -0.013719474 0.0051866947
000010 7f b9 07 bd db b6 19 bc c0 fa 1b 3c 13 94 3a 3d
       -0.033135887 -0.009381975 0.009520233 0.04555137
000020 2f 8e 49 3d 42 6d d1 3a 09 cf b0 3c 95 44 38 3d
       0.049207862 0.0015977996 0.021583097 0.04498728
000030 24 87 16 3d 61 0e 2b 3d e1 9c 2e bb c7 ef 4d 3d
       0.036749974 0.04176176 -0.00266438 0.050277498
000040 37 bd 5e 3d b1 a1 29 3c b5 9f f4 3c 92 a7 9a 3c
       0.054379668 0.010353492 0.02986131 0.018878732
000050 57 e4 4b bd 15 df b3 3d b5 1c 15 bd c9 2a 80 3c
       -0.04977831 0.08782784 -0.03640433 0.015645402
000060 e6 9b 93 bc fb 87 06 37 a3 45 87 3d 01 ef 06 bd
       -0.018018674 8.018683e-06 0.06605079 -0.032942776
000070 be f4 de 39 12 da 00 3d 00 ef 16 39 0a ce 9e 3c
       0.00042525487 0.031457968 0.00014394149 0.019385356
000080 41 9a 93 3c 9c 39 5d bd 86 10 e3 3c 0d 33 88 bc
       0.01801789 -0.05401002 0.02771784 -0.016625905
000090 17 06 fc 3d d8 80 48 bc 84 4a e5 bb 04 ab 32 3d
       0.12305849 -0.01223775 -0.0069974083 0.043620124
0000a0 99 dc a8 bc 4d d6 16 bd 9d 41 1b 3d a3 d8 3b bd
       -0.020613002 -0.036825467 0.03790437 -0.045860898
0000b0 17 37 4d 3d f6 e4 37 bc 16 3e ee bc 32 88 24 bd
       0.050101366 -0.011224022 -0.02908234 -0.04016895
0000c0 3e d6 e9 3b a8 2d bb 3c 90 ec 7f bc 2b 04 f2 3c
       0.0071361354 0.022848919 -0.015620366 0.029543003
0000d0 c6 b4 c4 bc da 63 02 3d ca df 93 3c 36 59 8a bc
       -0.02401198 0.031833507 0.018051047 -0.016888242
0000e0 f2 3b d4 bc 4d 6f 2e bd dd 5b d9 3c e8 5c 01 bd
       -0.02590749 -0.042586613 0.026533062 -0.031582743
0000f0 54 c6 3b bc 8c 93 c3 3c 7e 49 3e bc 8f f4 33 bc
       -0.011460859 0.023874067 -0.011614202 -0.0109836
000100 03 5e 96 3c dd b1 6e 3b 65 db 8b bd e1 d7 7b 3c
       0.018355375 0.0036421933 -0.068289556 0.015371294
000110 9f 69 c4 3c f7 81 3a bd 6f 38 a2 3c 5c b9 a2 bc
       0.023976145 -0.0455341 0.0198023 -0.019863777
000120 57 85 d4 3c 49 3e 47 bd 25 71 7c 3c ec fc a1 bc
       0.025942488 -0.048643384 0.015407835 -0.019773923
000130 e5 ed 77 3c 36 83 ca 3c e5 f4 66 3d 75 07 15 3b
       0.015132402 0.02472077 0.056385893 0.002274004
000140 b9 42 cd bb c5 6f ab 3c df 56 1d 3d 7f a3 45 3d
       -0.0062640575 0.02092732 0.038412925 0.048251625
000150 06 04 39 3c 99 90 5f bd bc 0c 5a 3c 14 94 07 3d
       0.011292463 -0.05458126 0.0133087 0.033100203
000160 6a b4 39 3c 61 1a 5e 3b 57 72 18 bc 5c 3e c1 3c
       0.011334518 0.0033890235 -0.0093046045 0.023589306
000170 f2 7c b3 bc 97 d3 26 3c 98 0b ac 3c 21 e7 20 3c
       -0.021910165 0.010182283 0.021001622 0.00982073
000180 68 4e fc bb 5e 2a d1 b9 d9 ee a3 3c 07 61 16 bb
       -0.0076997764 -0.00039895152 0.020011352 -0.0022946016
000190 8b 62 b6 bc 20 fc 05 bc 6b e8 a3 bc 9d 63 4b bb
       -0.022263786 -0.008177787 -0.020008286 -0.0031034716
0001a0 a2 a1 8a 3b 34 87 47 bd e6 12 eb bc ae 47 bc 3b
       0.004230694 -0.048712924 -0.028695535 0.0057458496
0001b0 5b 53 52 3d 25 83 f3 3c 1c b2 f2 3c 06 57 2a bc
       0.051349025 0.02972562 0.029625945 -0.010396725
0001c0 91 3c 2a bc ed a3 2f 3b df a2 42 3d 7b 53 1d 3d
       -0.010390417 0.0026800588 0.047518607 0.03840969
0001d0 14 e8 84 bb 1b e8 ea bc 2b 1a 6c bd 61 ef 01 3d
       -0.004055986 -0.02867513 -0.057642143 0.03172243
0001e0 00 1e cd bc e4 58 5b 3c fb 33 fb 3c f5 99 92 bd
       -0.02503872 0.013387892 0.030664435 -0.07158271
0001f0 44 3a 1f 3d 9c 16 47 bc 4b 45 73 3d bf 28 83 3c
       0.038873926 -0.012151387 0.059392255 0.01601064
000200 04 2f 62 3d 14 aa 88 3c 3d 9c 97 bd 7f 86 e6 bb
       0.05522062 0.016682662 -0.07402847 -0.007035076
000210 1a 2c 43 bd 88 35 82 bc db 4c 00 bc 0a 9c 0c 3d
       -0.04764948 -0.015894666 -0.007830824 0.034328498
000220 7f 6c 6d 3d 52 0c 0a bd 76 c3 8f 3d cd 9f 4d bd
       0.057964798 -0.033703156 0.07019703 -0.050201226
000230 f8 e7 9d bc bf b7 b7 3b 7d c8 1b 3d 56 0a 39 3d
       -0.01927565 0.005606621 0.038032997 0.045175873
000240 2e ac 6d bc 3b 30 0b bd 46 97 84 3c 0a eb 0a bc
       -0.014506383 -0.033981543 0.016185414 -0.008478889
000250 b3 b9 49 bd 3d 11 d1 bb 6d 87 0b bc e5 02 34 3d
       -0.049249362 -0.006380229 -0.008516175 0.043948073
000260 fb 7e 75 3d ae 29 6e bc 89 d3 29 3c ea ae 83 3d
       0.05993555 -0.014536304 0.010365375 0.064298466
000270 f2 ce 54 3d 34 b0 39 3c 50 1b 3f bd c4 e7 ed 3c
       0.05195517 0.011333514 -0.046656907 0.029041179
000280 68 eb d7 bc 36 4d 61 bc e0 52 b3 3c 55 3a 54 3b
       -0.026357368 -0.013751319 0.021890104 0.0032383401
000290 04 3c 1f 3b 7b 4b 1f 3b 81 fc 0f 3d 7a 93 19 3d
       0.0024297247 0.0024306464 0.035152916 0.03749416
0002a0 af 0a 1a 3d 0d f7 9d 3c 44 ac 84 bd 70 5b 24 3c
       0.037607845 0.019282842 -0.064781696 0.010031566
0002b0 53 32 39 bc b6 41 37 bc 89 b2 b5 3b 75 b2 0f bc
       -0.011303502 -0.0111851 0.0055449647 -0.008770575
0002c0 28 05 9e bb 24 fd 88 3a 51 76 41 3d 81 b5 19 bc
       -0.004822392 0.0010451418 0.047231976 -0.009381653
0002d0 d4 6c 99 3c 48 fe 56 3c 63 39 41 3d 7c a7 ba bc
       0.018728651 0.013122149 0.04717387 -0.02278494
0002e0 2c f1 76 3c b3 70 8a bc ea af 02 bd 38 17 3e bd
       0.015072148 -0.016899442 -0.031906046 -0.046408862
0002f0 93 5b 32 3b ce a5 ac 3d 0a c2 07 bc e6 9c a9 3c
       0.0027215227 0.08430062 -0.008286009 0.020704698
000300 61 77 2c bb 5a c2 57 3d 48 99 75 bc 26 3a 4d bd
       -0.0026316273 0.052675582 -0.014990158 -0.050104283
000310 81 89 24 bc 53 26 13 3d 6c a1 87 bd f6 69 94 3d
       -0.010042549 0.03592522 -0.06622586 0.07246773
000320 9d 30 2c bb 57 da 19 3b c5 3a 32 bd 99 f8 b6 3b
       -0.0026274093 0.0023476088 -0.04351308 0.0055838344
000330 4d 48 0b bd 2b fd ad 3c 6e 00 f1 3c 0a 2d 41 3d
       -0.0340045 0.021238884 0.02941915 0.047162093
000340 c4 95 39 bd 04 a2 0f bc 49 13 03 bc 47 f8 04 3d
       -0.045308843 -0.008766655 -0.008000203 0.03246334
000350 97 2c 98 3b cd 27 0c 3c c9 88 37 bc 1f 5f b3 bb
       0.0046439874 0.008554411 -0.011202046 -0.005473986
000360 0c 7d 0d bd 65 48 23 3d 20 4e bc bc 63 2d c4 bc
       -0.034543082 0.039863963 -0.022986472 -0.023947423
000370 2e 3c 08 3c 79 99 45 3c ba 8b 48 b9 7d 19 a1 bc
       0.008315129 0.0120605165 -0.00019125539 -0.019665474
000380 b5 c6 8b bd 10 81 bb bc 92 ce 28 bd 2d 95 0f bc
       -0.0682501 -0.02288869 -0.041212626 -0.008763594
000390 e0 af 19 bd 48 e5 4d bc 0f d0 4a bc fc 39 1f bd
       -0.037521243 -0.012566872 -0.012378707 -0.038873658
0003a0 c0 e1 a4 3c 29 5d bd 3c 24 0b fc 3c 14 28 19 3d
       0.020127177 0.023115711 0.030767031 0.037391737
0003b0 b1 69 42 3d 2a af da bc f8 12 21 bd 1e 49 bb bc
       0.047464076 -0.026694853 -0.03932473 -0.022862013
0003c0 a5 86 92 3d de a1 d4 3c 58 c8 85 3d c4 70 77 bd
       0.07154588 0.02595609 0.06532353 -0.060410276
0003d0 89 f8 2a bc cd ad a6 3c 33 d1 0c bd 05 73 d1 3c
       -0.010435232 0.020346547 -0.034379195 0.02556754
0003e0 4b 2c 92 3c 38 bd 2e 3c 7d fb 2c 3c 95 80 94 3d
       0.017843386 0.01066523 0.010558006 0.072510876
0003f0 2c 7c 86 3c 63 3e a5 3a b8 0c 97 bd 6b 20 0c 3c
       0.016416632 0.0012607094 -0.07375473 0.008552651

layers.7.bias f4 [64]
000000 6f 91 d3 ba cc 57 67 bd 58 aa c5 3b 6e 61 23 b9
       -0.0016141365 -0.056480214 0.0060322694 -0.00015581187
000010 e4 f8 0f 3d af 86 ce 3b 07 b1 26 3c 43 91 06 3d
       0.03514947 0.0063026766 0.010174043 0.032853376
000020 b0 4d 45 bd f2 af 2b bd fa ca 0e bb 4d 10 a7 bc
       -0.04816979 -0.04191584 -0.0021788464 -0.020393515
000030 30 da be bc 8e d2 93 bc ab bc eb 3a 25 a7 12 bd
       -0.0232974 -0.018044736 0.0017985305 -0.035803933
000040 cf 3e e4 3c c9 0a e3 bc 3f 56 6f bc d2 b9 fb 3c
       0.02786198 -0.027715104 -0.014607965 0.030728254
000050 9c 79 c7 ba 9c 73 a0 3a 99 89 4e 3c d5 b1 e3 3c
       -0.0015218738 0.0012241486 0.012606048 0.027794758
000060 dc e2 f8 3b 19 f9 bb bc 65 50 f7 bc 05 47 5b bd
       0.007595403 -0.022945927 -0.030189702 -0.053534526
000070 8b e6 af 3c 64 69 a3 3c 09 84 d2 3b 44 51 19 3d
       0.021472236 0.019947715 0.006424431 0.037431017
000080 0c 3c d0 bc 56 a9 77 bc 88 7e ce bc d1 f4 0b bc
       -0.025419258 -0.015116056 -0.02520682 -0.0085422555
000090 85 8e fc 3c 56 fe 84 bc 95 38 18 bd d0 13 d6 3b
       0.030829677 -0.016234558 -0.037163336 0.0065331236
0000a0 39 05 1d bd 6d fa cb 3c 1d d0 e5 3c 8d 11 01 3d
       -0.03833506 0.024899686 0.028053338 0.03151088
0000b0 12 a8 32 bd 8c ae 03 3d 3a 08 f9 bb d5 2f 96 3c
       -0.043617316 0.032148883 -0.0075998576 0.018333355
0000c0 85 8e c1 bc 17 39 ba bc b2 7e 67 3b f4 88 6f 3c
       -0.023627529 -0.0227323 0.003532332 0.0146200545
0000d0 42 7b 32 3c be 48 33 bc b0 49 c3 bc 3a 92 80 bc
       0.010893645 -0.010942636 -0.023838848 -0.015694726
0000e0 42 c4 19 3d 0f d0 7e bc dd f0 07 3c 19 a4 8b bc
       0.03754068 -0.015552535 0.008297172 -0.017046021
0000f0 9b 85 30 bd ac ac d8 bc 34 c6 26 bc 63 2e e4 bc
       -0.043096166 -0.026449524 -0.010179091 -0.02785415
