examples/FashionMNIST/fmnist_pretrained.pth (torch_old, 348942 bytes, 18 tensors)

layers.0.weight f4 [32, 1, 5, 5]
000000 c5 94 eb 3c 17 f3 80 bd 8b e6 db 3c d1 b1 23 3e
       0.028757462 -0.06296366 0.02684333 0.159858
000010 8a 36 8e 3d 27 9f de 3d dd 68 91 bd b1 ae 21 be
       0.06943996 0.108702 -0.07100079 -0.15789296
000020 4e 37 da 3d 8e 07 25 3e fc 05 f0 3d 4d 1b cb bd
       0.1065508 0.16116163 0.117198914 -0.099173166
000030 82 ba 6b be dc 20 8c 3d a9 5d 09 be 3d fe f6 bd
       -0.23020366 0.06842205 -0.13414635 -0.12060211
000040 8f cd 23 3e 8d aa 9e bd 08 31 0e be 64 09 c7 bd
       0.15996383 -0.07747374 -0.13885891 -0.09718588
000050 51 3c 51 3d 33 a9 34 3e 3d 74 8f 3d f9 65 aa bd
       0.051082913 0.1764267 0.070045926 -0.08320231
000060 eb ce 06 be 1e 3e b2 bc 57 c6 30 be a4 1e 36 be
       -0.1316487 -0.021758135 -0.1726316 -0.17785126
000070 82 7b b4 bd a2 ee 0d bd 6e a0 4b 3d fd 20 ce bd
       -0.0881262 -0.034651406 0.049713545 -0.10064886
000080 9d 66 b0 bd 11 5f 8a be dc 66 11 3e 0a 8a 0c 3e
       -0.08613322 -0.27025655 0.14199394 0.13724533
000090 d9 d8 44 3e 2c 11 94 3d 30 22 75 bd 62 82 06 3e
       0.19223346 0.07229838 -0.059847057 0.13135675
0000a0 66 30 cb bb 35 ab 1c 3e 4a 1f 0f 3e 8e 9e fa bd
       -0.006200838 0.15299685 0.1397678 -0.12237273
0000b0 b8 ee 2f bd 82 9b 00 bd 05 3b e2 bd 35 c9 10 bd
       -0.04295227 -0.031398304 -0.11046413 -0.035348136
0000c0 08 b2 1a 3e 1f 13 c9 3d 80 bc a9 3c 0a f3 a4 3d
       0.15106976 0.098181 0.020719767 0.080541685
0000d0 52 15 31 be c0 3d a6 3d e9 13 0a be 9a bd 09 be
       -0.1729329 0.08117247 -0.13484158 -0.13451234
0000e0 98 b9 1f be 07 8c 07 bd 41 c0 29 3e 24 1f 41 be
       -0.15598142 -0.033092525 0.16577245 -0.18859535
0000f0 09 77 4d bc 6c 36 e8 bd b3 fb cd 3d bb 13 eb bd
       -0.012540587 -0.11338505 0.100577734 -0.11478373
000100 8c e2 48 3e 2c e6 02 3e cd a0 f4 bd 27 93 b3 bd
       0.19617671 0.12783116 -0.11944733 -0.087683015
000110 f1 94 28 3e 11 f4 10 3e 9a 26 4f bd e1 89 0a 3e
       0.16463067 0.14155604 -0.050573923 0.13529159
000120 cd 94 c8 3b 3e 24 e2 3d eb 90 85 bd f0 7f 85 bb
       0.006121254 0.11042069 -0.065217815 -0.004074089
000130 ff 9d 42 3d 5f d4 68 bb 52 24 82 3d 88 75 a9 3d
       0.047513958 -0.0035526974 0.06354584 0.082743704
000140 56 a3 51 3c 1e 48 ed 3d 88 0b 63 bb e7 bb 02 be
       0.01279529 0.11586021 -0.0034644324 -0.12766992
000150 0d a1 19 be 8d 58 00 be 12 3d fb bd 91 ad 6c bd
       -0.15002842 -0.1253378 -0.122675076 -0.057782713
000160 67 b0 70 be 8a 1a 8b bd 50 41 de 3d 89 66 53 3d
       -0.23504792 -0.06792171 0.10852301 0.051611457
000170 61 82 8d 3d d4 e7 41 be 5f 11 97 3d bf 50 e6 3d
       0.069096334 -0.18936092 0.0737636 0.1124587
000180 5f a2 3d 3e c7 83 95 bd 69 52 a7 bd 3c fd 53 3e
       0.18518971 -0.07300525 -0.08170015 0.2070207
000190 9e ed bb bc b4 c3 88 3d 45 cd a3 bc 0b 4e f8 3d
       -0.022940453 0.066779524 -0.019995341 0.121242605
0001a0 6b c4 ad bd 33 93 f5 3d 71 45 23 be 43 56 31 3e
       -0.084847294 0.11990967 -0.15944459 0.17318062
0001b0 f4 e9 92 3d 5d d5 5a 3b eb 0f a8 bb c7 2f 81 3a
       0.07173529 0.0033391335 -0.0051288507 0.0009856158
0001c0 b9 c1 d0 3d aa a9 0a 3e 6c f9 a1 bd 5b 7f 98 be
       0.101932 0.13541284 -0.079089016 -0.29784665
0001d0 b9 76 4b be 47 d5 5f bc 28 d8 0b 3e f9 f2 e3 3d
       -0.19869508 -0.013661689 0.13656676 0.11130328
0001e0 0d 75 81 be 8c d7 8a 3c 11 ab 5c 3d 08 61 44 bc
       -0.25284615 0.016948484 0.05387408 -0.011986025
0001f0 6f f4 f4 3d 36 dd 56 be 75 87 3b ba 07 49 24 be
       0.119606845 -0.20982823 -0.00071536686 -0.16043483
000200 8a ac 06 be 98 40 97 3d 55 19 be b8 78 25 13 3e
       -0.13151756 0.07385367 -9.0646245e-05 0.14369762
000210 b0 f6 78 3d f4 4e 21 be ab 01 01 3e e1 a0 ab 3d
       0.060782135 -0.15752774 0.12598293 0.083802946
000220 84 2c 62 bd 10 10 bd 3d a5 38 69 3d 07 7d 0a 3e
       -0.055218235 0.09231579 0.056938786 0.13524257
000230 d9 94 f5 3d 78 c2 51 3e 30 66 90 3d 6e d5 84 bc
       0.11991281 0.2048434 0.07050741 -0.016215052
000240 a6 19 03 3d 58 12 9a bd 37 a5 0a bd e0 90 3d be
       0.032006882 -0.0752303 -0.033848967 -0.18512297
000250 9d f9 dd bc 1b da a2 3d d2 9e 17 3e 48 39 69 3c
       -0.027096564 0.079517566 0.14806679 0.014234848
000260 75 b8 32 3e 66 cf fc bd c1 65 5f bd 07 63 23 3e
       0.17453177 -0.123442456 -0.0545404 0.15955745
000270 95 42 0a be 88 12 7d bd 41 39 dd 3d 7a fe 0c 3e
       -0.13501962 -0.06178525 0.10801936 0.1376895
000280 8d 0d 08 3d 6e 5d a4 bc 7c f8 0b be af ea d9 3c
       0.033216048 -0.020064082 -0.13669008 0.026601164
000290 2f df d0 3d 11 51 22 be 36 8f 49 be 04 fe 48 bd
       0.10198819 -0.15851237 -0.19683537 -0.049070373
0002a0 ac 88 c2 bd d0 ae e4 3d ab 0c c2 bc e2 14 82 3c
       -0.09498724 0.11166155 -0.023687681 0.015879098
0002b0 8e 6c 0e be 93 00 c7 bc 2c 5e 1c 3e 61 14 34 3e
       -0.13908598 -0.024292266 0.15270299 0.17585899
0002c0 f1 4c 01 3e 3a c5 29 bc dd 67 44 3c 72 ef a9 bd
       0.12627007 -0.010361964 0.011987654 -0.08297624
0002d0 05 ae 19 3e 8e a1 05 be 60 34 36 3e ac 05 5d 3d
       0.1500779 -0.1304991 0.17793417 0.053960487
0002e0 05 7f 83 bd 18 3c ae bc 1b 41 3e be 81 c0 c1 bd
       -0.064207114 -0.02126889 -0.18579523 -0.09460545
0002f0 36 cd 30 3e 6a 44 fd 3d af 4a d9 bc 69 f3 35 be
       0.17265782 0.123665646 -0.02652487 -0.17768635
000300 9b 7c 5a be b1 01 41 bd 87 cd 35 3d 5a a8 01 3d
       -0.21336596 -0.047120754 0.04438546 0.031654693
000310 a5 66 11 be f6 f8 2b be 4c fa 13 3e 8a 43 08 3e
       -0.14199312 -0.1679419 0.1445095 0.13307014
000320 1c d7 49 be 04 d2 b7 3d 4a 23 f5 3c cd ab c8 3d
       -0.19710964 0.08975604 0.029924054 0.097983934
000330 a1 69 00 be a4 4c e2 bd 69 e0 5e 3d d8 d7 4a 3d
       -0.12540294 -0.11049774 0.054413233 0.04952225
000340 95 8b c3 bd 4d fa 1e be 77 97 53 3d 57 a5 10 be
       -0.095481075 -0.1552517 0.05165812 -0.14125572
000350 8b b5 1d be df 8d 1b 3e 2b a4 3b 3d 09 60 d8 3d
       -0.15401284 0.15190838 0.04581086 0.10565192
000360 65 27 53 3c 39 1f 02 3e 83 a1 4c 3e 22 1c 80 bd
       0.01288781 0.12707223 0.19983487 -0.06255366
000370 af 40 f1 bc 1c 3d 5e be ce 01 da 3d e9 91 9e 3d
       -0.029449789 -0.21702999 0.106448755 0.07742674
000380 00 b7 bc 3d be 07 cc 3d b2 01 e8 bd 3f 86 03 be
       0.09214592 0.09962414 -0.11328448 -0.1284418
000390 b2 e4 ec bd 62 f4 c2 bd 2e c3 86 3d 22 a4 3b bd
       -0.11567058 -0.095192686 0.06580196 -0.045810826
0003a0 c6 62 79 be 05 ff 93 3d 97 8d 0c 3e 6e 3b eb bd
       -0.24354085 0.072263755 0.13725887 -0.11485945
0003b0 4b bc 55 3e de 6d 95 bc 48 1a 34 bd 30 40 89 3a
       0.2087261 -0.018240865 -0.043970376 0.00104714
0003c0 ca 8c 4b 3d 61 ef 43 3e a2 e2 28 be a4 34 c7 3c
       0.049694814 0.19134285 -0.16492704 0.024317093
0003d0 28 6c 0f 3e 41 a0 d9 3d f5 f6 21 bd 01 1b 54 bd
       0.14006102 0.10626269 -0.039542157 -0.051783565
0003e0 f7 2c e5 3d b4 c2 14 bd be 65 0e 3b fa 87 48 bd
       0.11190217 -0.036318496 0.0021728124 -0.048957802
0003f0 d6 2f 0b 3e 4b 5b ad bd f4 83 63 bd c9 10 b9 3d
       0.13592467 -0.084646784 -0.055545762 0.09036405

layers.0.bias f4 [32]
000000 bd be a2 3d 5a 56 db bd ea f1 6c bb da f0 60 be
       0.07946537 -0.1070983 -0.0036154934 -0.21966878
000010 b0 4f 19 3d 19 8d ef 3c 10 ce ab bc 7c 0a 33 be
       0.03742951 0.029242085 -0.020972282 -0.17484468
000020 b8 9c 7d 3c e3 b7 10 3e 2f c2 7d 3d 12 eb 56 bd
       0.015479259 0.14132647 0.061952766 -0.052470274
000030 da 81 2c 3e 7f 70 ac bd 06 34 08 3e df 0c 4f be
       0.1684641 -0.084198944 0.13301095 -0.20219754
000040 ae 69 61 bd d9 18 02 be 4b 4e 3d be e0 e5 10 be
       -0.055032425 -0.12704791 -0.18486898 -0.1415019
000050 a7 31 14 3e ac 15 cc 3d 37 f4 a0 3d a5 2e c6 3d
       0.14472066 0.09965071 0.0785908 0.096768655
000060 8d 9f 90 bd ae 1a 16 be 90 58 36 3e 79 5a 3a 3d
       -0.07061682 -0.14658615 0.17807221 0.045496438
000070 17 18 26 be b8 49 99 3d d0 e2 8c bd 15 84 df 3d
       -0.16220127 0.07484764 -0.068791986 0.109138645

layers.1.weight f4 [32]
000000 4f 58 9d 3f 41 b4 89 3f d9 c4 96 3f c3 16 9b 3f
       1.2292575 1.0758134 1.1778823 1.2116321
000010 81 6a 87 3f d7 da 51 3f 7c c4 97 3f 78 7d a0 3f
       1.0579377 0.8197455 1.1856837 1.253829
000020 28 1a 72 3f 7f 8d 8f 3f 95 55 98 3f 53 c6 a5 3f
       0.9457116 1.1215056 1.1901118 1.2951149
000030 8a e1 98 3f 12 0c a6 3f b8 31 94 3f 25 0e 95 3f
       1.1943829 1.2972434 1.1577673 1.1644942
000040 2e 65 91 3f fe e4 88 3f e4 29 4b 3f 82 cf 9d 3f
       1.1359003 1.0694883 0.79360795 1.2328951
000050 b8 e6 88 3f f6 6d 95 3f b1 ef 82 3f 77 ca 9f 3f
       1.069541 1.1674182 1.0229398 1.2483662
000060 cb 31 4d 3f 5d ff a5 3f 52 df 79 3f a6 05 9d 3f
       0.80154103 1.2968556 0.97606385 1.2267349
000070 f0 c9 99 3f af a9 84 3f 27 2e 90 3f f4 fc 9d 3f
       1.2014751 1.0364283 1.1264085 1.234282

layers.1.bias f4 [32]
000000 be 8b c8 bd ef 3d 93 bd 08 bc e9 3c 18 7b 9c bd
       -0.09792279 -0.07189547 0.028532043 -0.07640666
000010 13 21 4e 3d f7 d8 00 3c 4d 05 06 bd b9 a5 9b bc
       0.05032451 0.007864228 -0.0327199 -0.018999921
000020 78 2f 07 3d 96 be 9f bd f2 ae a0 3c 06 0c c9 bc
       0.033004254 -0.07800023 0.01961467 -0.024541866
000030 b4 b7 2f bd d1 0a 2e bc 64 81 6c bd 37 7e 8a bd
       -0.042899802 -0.010622696 -0.057740584 -0.06762355
000040 e3 e0 47 3d 73 8e 12 3c 4e 87 a7 bb 56 d2 01 bc
       0.048798453 0.008945095 -0.005112565 -0.007923683
000050 5d 2a 37 bc d2 8c 82 bd 45 af 1a 3d c2 c5 8f bd
       -0.011179534 -0.063745156 0.037764806 -0.07020141
000060 2c 82 03 bd 31 aa 04 bd 7c 45 08 bc f9 0d d8 bd
       -0.032106563 -0.03238887 -0.008317348 -0.1054954
000070 e7 fc 9e bc cd 4a bb 3c ad 5b ac bd cc 5f 2e 3c
       -0.019407703 0.022862816 -0.08415923 0.010642957

layers.1.running_mean f4 [32]
000000 18 51 36 3d 1b bc 01 be 61 0b 71 bc a4 52 83 be
       0.04451093 -0.12669413 -0.014712186 -0.25648987
000010 50 23 83 3d 44 cc ce 3d 21 e4 10 bd f4 8c 3e be
       0.0640322 0.10097554 -0.03537381 -0.18608457
000020 db 53 b1 3c 8e cd 12 3e 03 f9 69 3d 3f ab 8f bd
       0.02164643 0.14336225 0.05712224 -0.070150845
000030 7b 63 20 3e 31 c3 8d bd 04 4d e1 3d d6 c0 50 be
       0.15662949 -0.069219954 0.11001018 -0.20386061
000040 d9 83 26 bd a1 c7 d8 bd 00 bf 49 3e af 26 14 be
       -0.040653083 -0.10584951 0.19701767 -0.14467882
000050 6a 7b 14 3e 7b ed af 3d df 1e 9c 3d b6 ca ac 3d
       0.14500204 0.08590218 0.07623076 0.084371015
000060 c5 c2 1d 3e 65 13 15 be 39 01 48 3e 22 f3 8e bc
       0.1540633 -0.1455818 0.19531716 -0.01744992
000070 9f 5f 18 be f4 be aa 3d e0 7e c5 bd 57 28 df 3d
       -0.14880227 0.08337203 -0.0964334 0.10896366

layers.1.running_var f4 [32]
000000 10 ea 70 3c ff 7e a4 3c fe 70 68 3c 67 4e af 3c
       0.014704242 0.020080088 0.014187096 0.02139969
000010 c7 8e 10 3d 12 69 8b 3c 51 31 a7 3c 04 f1 c9 3c
       0.035292413 0.017017875 0.020409258 0.024651058
000020 1e f7 6b 3c 19 d8 77 3c 5d 1d 3c 3c 97 71 8b 3c
       0.014402179 0.015127205 0.01148161 0.017021937
000030 5c 04 4b 3c e8 94 a4 3c 66 5e a6 3c a5 b6 8b 3c
       0.012391176 0.020090535 0.020308685 0.017054865
000040 62 ae 6d 3c 8a 66 be 3c 83 6c 24 3e 33 9e 09 3d
       0.014506908 0.023242254 0.16057019 0.033598136
000050 bf 4a 38 3d 7f 5b 6f 3c 02 c4 40 3c fa 28 6b 3c
       0.04499316 0.014609217 0.011765482 0.014353031
000060 f3 52 97 3d 32 1e 70 3c b1 1b 09 3d 72 88 02 3d
       0.07388868 0.014655637 0.033473674 0.031868406
000070 36 cf 53 3d 95 b1 a3 3c d7 07 15 3c d7 ca 06 3d
       0.051711284 0.019982139 0.009096107 0.032908287

layers.3.weight.mean f4 [32, 32, 3, 3]
000000 d4 c3 31 3e 1f 54 2b 3e 09 70 76 3e 49 95 0f 3d
       0.17359859 0.16731308 0.24066176 0.03505448
000010 41 f2 3e 3d 51 2a d3 3d e0 e0 85 bc 36 84 1f 3d
       0.04661775 0.103108056 -0.01634258 0.038944446
000020 19 6b f8 3d 70 c1 4c bd ab 76 3e ba e4 7b 64 bd
       0.12129802 -0.049989164 -0.0007265608 -0.055782214
000030 91 fc 6e 3d 83 6f 12 3d 24 8f 0b 3e a6 e1 6a 3e
       0.058346335 0.035750877 0.13628823 0.2293764
000040 51 ef 82 3d 46 20 1d 3c e5 8b 8d bd 1b b4 a5 bb
       0.06393302 0.009590214 -0.069114484 -0.0050568706
000050 ce 94 82 3d 8d 32 0f 3e 29 42 1a 3e 4c 5a fc 3d
       0.063760385 0.13984127 0.150643 0.1232191
000060 5c 5a d5 3d 20 0f bf 3d 59 96 08 3e e3 e3 45 3e
       0.10417625 0.09329057 0.13338603 0.19325213
000070 1c f5 0f 3e 5d bb 26 3e 12 89 4f 3e fc 03 a2 3d
       0.14058346 0.16282411 0.20267132 0.07910916
000080 85 13 c6 3d 1d 44 32 3d 49 a6 9a 3d b8 57 34 3e
       0.09671692 0.04352199 0.075512476 0.17611587
000090 6c 21 4b bc ca 49 9e 3d bf 22 8c bc 5d 2c f7 bd
       -0.012398105 0.07728918 -0.017106412 -0.120690085
0000a0 43 27 d7 3c 71 3d 98 bd a2 ca cd bd ca 22 75 bb
       0.026263839 -0.07433594 -0.10048415 -0.003740477
0000b0 07 18 3c bc 23 7f c5 bc ae 8e 0b be 9d 79 d5 bd
       -0.011480338 -0.024108475 -0.13628647 -0.104235865
0000c0 78 3d 53 bd 19 6b 68 bd 1b 3a fd 3c 9b 6d ff 3d
       -0.051572293 -0.05674276 0.030911496 0.124720775
0000d0 24 65 3e bc 63 43 fc 3c c3 fb 7a 3d 0f 2a 8b 3d
       -0.0116207935 0.030793851 0.061275255 0.067951314
0000e0 a5 5b 6d 3d 62 1b 86 bb d9 52 19 bd a5 04 85 bd
       0.057948727 -0.0040926198 -0.037432525 -0.064950265
0000f0 f7 77 66 3b f6 e2 d9 bd 8b 69 4c 3b ae d0 e1 3c
       0.003516672 -0.106389925 0.0031190838 0.027565327
000100 fc 79 2a 3d 97 b0 44 3d 19 1f 16 bd 81 c2 48 3d
       0.04162024 0.04801997 -0.03665075 0.04901362
000110 f2 59 4c bd 45 48 5e bd 82 a4 08 be 0a b7 b0 bd
       -0.049890466 -0.05426814 -0.13344005 -0.08628662
000120 54 30 a2 bb a7 42 b6 3d 68 7c a8 3b 60 20 3c bd
       -0.004949609 0.08899432 0.0051417835 -0.045929313
000130 5f cd 8a 3d 96 d2 60 3d 0b fc 87 3d 9c ee 49 3e
       0.06777453 0.05488833 0.0663987 0.19719929
000140 2f b2 e0 3d 93 b8 51 bd 4c d4 a6 3a 04 2f 87 3c
       0.10971486 -0.051201414 0.0012728064 0.016501911
000150 be 11 26 3e e1 64 40 3d d8 a2 2f 3e db ed 5b 3e
       0.16217706 0.046971206 0.17151964 0.21477453
000160 eb bf d6 3d f0 67 8f 3d 40 ae 34 bd 90 20 13 3c
       0.10485824 0.070022464 -0.04411149 0.0089799315
000170 da 46 a4 3d c5 7a b5 bc cd e5 65 3e 3e 4e 59 3d
       0.08021326 -0.022153268 0.22450943 0.053053133
000180 39 1b b2 bd 9e 53 42 3d ac be 8c 3c d9 fa 19 3e
       -0.086965986 0.047443025 0.017180763 0.15037097
000190 4d b0 33 3e 22 bf da 3d 10 1d ad 3c 86 51 a6 bd
       0.17547722 0.10680987 0.021132022 -0.08121018
0001a0 5a c3 08 bb 31 5c 2b 3d 14 1c 50 bc 08 3b 61 3c
       -0.0020868392 0.041835967 -0.012702007 0.013746984
0001b0 ed 54 6c 3e 5d 18 06 3e 11 a5 02 3e 36 94 07 3e
       0.23079272 0.13095231 0.1275828 0.13240132
0001c0 67 88 26 3d 04 10 a7 3c db 70 35 bd 77 37 4f bc
       0.040657427 0.020393379 -0.04429708 -0.012647501
0001d0 d1 d1 a0 3d e5 4c b8 bc cf 06 7f 3d 99 70 51 3d
       0.07852519 -0.022497604 0.062262353 0.051132772
0001e0 34 7c 89 bd 07 92 0b bb 90 6d b1 3d b0 d9 73 3d
       -0.06713143 -0.0021296756 0.086634755 0.059533775
0001f0 91 95 72 3c 94 72 4b 3c e7 f1 9e 3b e2 27 b4 3d
       0.014806167 0.012417454 0.0048506144 0.087966695
000200 f1 54 5d bc 3a bc 1d be 58 43 a0 3c 6d d7 68 bd
       -0.013509021 -0.15403834 0.019563362 -0.05684607
000210 ea aa 2c be 19 54 b1 bd 32 dc f9 bd ad a4 21 3d
       -0.16862074 -0.086586185 -0.12200202 0.039463688
000220 87 b4 ba 3c 42 60 81 3c f9 5b 66 3d c6 40 a5 3d
       0.02279116 0.01579297 0.056240056 0.08068995
000230 fd b8 c3 3d ff cf 99 3d 0a 1a be bd 57 56 05 bc
       0.09556768 0.07510375 -0.0928231 -0.008138261
000240 01 bd 02 bd c4 c7 15 3d 31 7e 7e 3d d0 7b 95 bd
       -0.03191853 0.036567464 0.062132064 -0.07299006
000250 5d 49 21 3e a8 24 99 3d 0d 65 1c 3e 0b a8 55 3d
       0.15750642 0.07477695 0.15272923 0.05216221
000260 27 e8 fd 3c 73 b6 ea bc 89 c4 0c bd 97 a3 75 3d
       0.030994488 -0.028651452 -0.034367118 0.059970465
000270 ef 50 45 bd f2 7b a6 3b 10 49 14 3d f0 b0 9a 3d
       -0.048172887 0.0050806934 0.03620249 0.075532794
000280 00 fc 28 3c 4c fc a9 3c de b1 bf bc 92 4d 6b bd
       0.010313988 0.020750187 -0.023400243 -0.057447024
000290 6c 09 eb 3b aa 72 bd bc 19 78 24 bd 47 8e 06 bd
       0.007172754 -0.023125965 -0.040153597 -0.03285053
0002a0 ee 32 90 3c 66 8f 02 bc fa 2e 45 3d c3 b1 0b 3c
       0.01760241 -0.007968759 0.048140503 0.008526268
0002b0 07 35 95 3d f6 76 82 3d 60 2a 79 bd b4 9c 3c bd
       0.07285505 0.06370346 -0.060831428 -0.04604788
0002c0 7c 97 36 bd 30 cd 9a bd 9e 79 ee bc d0 7e c2 bd
       -0.04457806 -0.07558668 -0.029110726 -0.09496844
0002d0 4d b1 2b bd 2b a4 66 3b 28 74 39 3d c3 ad 93 bd
       -0.041917134 0.0035193067 0.04527679 -0.07210877
0002e0 23 ce b1 3d d6 2d 20 bc 29 f9 03 be b6 d5 d8 bc
       0.086818956 -0.009776553 -0.12888016 -0.026469093
0002f0 22 07 77 bc 61 14 4f 3d 13 f0 3a bb b1 14 bc 3d
       -0.015077384 0.050556544 -0.0028524443 0.09183634
000300 ce 30 80 3e 8a da a8 bc 5b b5 d5 3b f1 61 59 3e
       0.25037235 -0.02061202 0.0065218634 0.21228768
000310 1b c7 bf 3d 55 3e 00 3e 43 f2 10 3d ce a0 90 3d
       0.09364148 0.12523778 0.03538729 0.07061921
000320 6a 58 2e 3d 37 15 29 3c 13 a3 16 be 0b 86 3b bd
       0.042564787 0.010319999 -0.14710645 -0.04578213
000330 ce 18 b5 3c 19 e4 9a bb 18 b5 d5 3c 30 7f 96 3d
       0.022106554 -0.0047268984 0.026087329 0.07348478
000340 31 fd 5a 3d 14 4b d3 3d 18 b6 1a 3e 82 98 b0 bd
       0.05346412 0.103170544 0.15108526 -0.086228386
000350 64 bb d3 3d 55 8d 9e 3d 10 3d d8 3d 6b b7 3d 3d
       0.10338476 0.07741801 0.10558522 0.0463175
000360 55 8a 96 bd a5 a7 2b bd 02 92 05 bd 37 2a 1e 3d
       -0.073506035 -0.041907925 -0.032609947 0.038614478
000370 13 1d ef bd 82 2e 96 bb 34 a3 b8 bc 9c 4f 96 bc
       -0.11675467 -0.004583181 -0.022538759 -0.018348508
000380 09 be 97 3d 19 a8 fb 3d 6f 7a e8 3d 21 87 87 3d
       0.07409293 0.122879215 0.11351477 0.06617571
000390 2c b8 01 3e d5 3f c8 3b d0 2a 86 3c 25 9b db 3c
       0.12667912 0.006111125 0.016377836 0.026807377
0003a0 62 6f 90 bc af f4 5e 3d e5 8c aa bc 30 ce 2c bd
       -0.017631236 0.054432567 -0.020819137 -0.042188823
0003b0 e5 21 8e 3d ab 1f 29 bd f4 c7 60 bc 5f 55 c2 3c
       0.069400586 -0.041289967 -0.013719548 0.023722349
0003c0 75 e8 e5 3c 5a b6 cb bd 4d 75 5c 3d ae 0b 08 3e
       0.028064946 -0.0994689 0.053822804 0.13285705
0003d0 ec 37 82 3d 1c bc ea 3d 7f 45 13 bd 09 78 95 bd
       0.063583225 0.1146166 -0.03595495 -0.072982855
0003e0 f9 6e 02 bd 6b f4 ca bd 32 1c d0 bd 51 03 c6 bc
       -0.031844113 -0.099099 -0.10161628 -0.024171503
0003f0 30 a9 d5 bc 8d 42 8e bc 91 58 10 3d d1 07 84 3d
       -0.026081651 -0.017365718 0.035240714 0.06446803

layers.3.weight.scale f4 [32, 32, 3, 3]
000000 e3 46 11 c0 e6 04 10 c0 81 63 e8 bf 00 02 fd bf
       -2.2699516 -2.250299 -1.8155366 -1.9766235
000010 8b 17 ef bf 8e ef fe bf e1 e5 14 c0 a7 33 14 c0
       -1.867906 -1.9916856 -2.3265307 -2.3156526
000020 64 e5 00 c0 eb e8 0a c0 a4 65 0f c0 c9 7b dd bf
       -2.014001 -2.1704662 -2.2405787 -1.7303401
000030 ad df 02 c0 2f 64 0b c0 58 af 0e c0 3e 60 fe bf
       -2.044902 -2.1779897 -2.2294521 -1.9873121
000040 b6 4b fe bf d9 5b 09 c0 40 91 0f c0 db 99 01 c0
       -1.9866855 -2.146231 -2.2432404 -2.0250156
000050 f6 25 fe bf 97 94 09 c0 48 99 15 c0 04 b3 05 c0
       -1.9855335 -2.1496942 -2.3374805 -2.0890512
000060 08 ec 03 c0 8e 60 04 c0 14 bd 03 c0 15 b2 0c c0
       -2.0612812 -2.0683932 -2.0584154 -2.1983693
000070 fe 85 06 c0 3b 5c ef bf 4c 69 ff bf 96 49 15 c0
       -2.1019282 -1.8700022 -1.9954009 -2.3326163
000080 d1 4e df bf 30 c7 00 c0 4b e4 f7 bf cf 18 d7 bf
       -1.7445928 -2.0121574 -1.9366544 -1.6804446
000090 4c 58 ef bf 05 66 fa bf ef 57 01 c0 d5 ac ff bf
       -1.8698821 -1.9562384 -2.020992 -1.9974619
0000a0 25 b0 14 c0 e7 34 fa bf 00 48 fa bf 1a b0 0b c0
       -2.323251 -1.9547395 -1.9553223 -2.1826234
0000b0 9b 3d 00 c0 f3 b9 f0 bf 15 75 00 c0 1a 7a 02 c0
       -2.00376 -1.8806747 -2.0071461 -2.0387025
0000c0 c9 15 08 c0 e7 94 0c c0 54 2e 0d c0 9a 75 11 c0
       -2.1263297 -2.1965883 -2.2059526 -2.2728028
0000d0 3f e6 fe bf 76 ee df bf d7 5a 12 c0 af 3e fd bf
       -1.9914016 -1.7494648 -2.2867944 -1.9784755
0000e0 07 e0 fc bf e4 94 00 c0 9b d6 03 c0 9d 3a 01 c0
       -1.9755868 -2.0090876 -2.0599735 -2.0192025
0000f0 1e 01 0c c0 e1 49 04 c0 1f 88 05 c0 ae 27 09 c0
       -2.1875682 -2.0670092 -2.0864332 -2.1430469
000100 98 be e5 bf 96 21 f7 bf 3c 70 00 c0 3c 24 06 c0
       -1.794879 -1.9307125 -2.0068502 -2.0959616
000110 4d ad 15 c0 d5 e6 09 c0 bc 58 0c c0 db f6 fe bf
       -2.3387024 -2.1547139 -2.192916 -1.9919084
000120 83 1f 0b c0 ea 55 ff bf 37 7a e6 bf 16 01 00 c0
       -2.1737983 -1.9948094 -1.8006047 -2.0000663
000130 da 5f 02 c0 89 fb f5 bf ad ae 09 c0 76 d0 ec bf
       -2.0371003 -1.9217387 -2.1512864 -1.8501117
000140 b4 76 07 c0 77 12 04 c0 b1 d0 f2 bf 7a 62 05 c0
       -2.11662 -2.063627 -1.8969938 -2.0841355
000150 76 d1 06 c0 17 a6 07 c0 0c 8a 09 c0 ba 44 03 c0
       -2.1065345 -2.1195123 -2.1490507 -2.0510697
000160 bd 7c 01 c0 70 d3 01 c0 27 04 f2 bf 40 a0 02 c0
       -2.0232384 -2.0285301 -1.8907517 -2.041031
000170 65 49 03 c0 eb aa f2 bf 06 08 07 c0 73 29 e5 bf
       -2.0513546 -1.895841 -2.1098647 -1.7903274
000180 59 e8 ff bf 20 98 de bf 45 de 0a c0 c3 39 08 c0
       -1.9992782 -1.7390175 -2.1698163 -2.1285255
000190 dc a6 ea bf a6 7e 0f c0 8c d6 00 c0 8c 25 14 c0
       -1.8332171 -2.242105 -2.013095 -2.3147917
0001a0 5f 8f 05 c0 fb 97 ff bf 21 0a 04 c0 7d 2c f4 bf
       -2.0868757 -1.9968256 -2.0631182 -1.9076077
0001b0 85 58 f5 bf c0 99 f9 bf 53 4c 13 c0 27 80 0a c0
       -1.9167639 -1.9500046 -2.3015335 -2.1640718
0001c0 bb 98 00 c0 4b 66 02 c0 02 6f fd bf 4d 82 fe bf
       -2.009322 -2.0374935 -1.9799502 -1.9883515
0001d0 b3 00 1c c0 3d 8b 09 c0 a3 48 04 c0 51 22 02 c0
       -2.4375427 -2.1491234 -2.0669334 -2.0333445
0001e0 77 11 03 c0 6b a7 03 c0 df dd 01 c0 8a 13 06 c0
       -2.047941 -2.0570934 -2.029167 -2.0949426
0001f0 f8 b9 00 c0 c8 ec e7 bf a4 46 02 c0 07 b8 00 c0
       -2.0113506 -1.8119135 -2.0355616 -2.0112321
000200 dd 72 11 c0 57 a3 08 c0 d6 ad 05 c0 33 85 06 c0
       -2.2726357 -2.1349695 -2.088735 -2.1018798
000210 84 9a 07 c0 f9 41 05 c0 f8 0d 02 c0 d2 74 e9 bf
       -2.118806 -2.0821517 -2.0321026 -1.8238776
000220 a3 fa 02 c0 c3 01 05 c0 67 32 f9 bf c2 41 05 c0
       -2.0465477 -2.0782325 -1.9468507 -2.0821385
000230 78 9b e5 bf ba 4f 09 c0 97 b7 f4 bf 23 9e ef bf
       -1.793807 -2.1454911 -1.9118527 -1.8720134
000240 a2 41 09 c0 08 2f ee bf d7 91 f7 bf 37 6d 02 c0
       -2.144631 -1.8608103 -1.9341382 -2.037916
000250 d1 d2 e8 bf 2f 44 f7 bf 03 f3 f1 bf bb 2c f8 bf
       -1.8189336 -1.9317683 -1.8902286 -1.9388651
000260 bd 08 08 c0 43 80 19 c0 2a 51 ff bf 95 55 02 c0
       -2.1255333 -2.3984535 -1.9946644 -2.0364735
000270 4e e5 00 c0 58 c7 ea bf ec 15 04 c0 72 f6 04 c0
       -2.0139956 -1.8342085 -2.063838 -2.0775418
000280 6e df 07 c0 e5 7d f5 bf 0c bd ff bf 0c 9f 00 c0
       -2.123012 -1.9179045 -1.9979568 -2.0097075
000290 9a 04 00 c0 12 57 0d c0 d7 77 02 c0 62 5f 05 c0
       -2.0002809 -2.2084394 -2.0385644 -2.0839467
0002a0 2e 08 e4 bf ef ca 0c c0 87 37 0b c0 41 ba f7 bf
       -1.7814996 -2.199886 -2.1752641 -1.9353715
0002b0 23 22 eb bf 0c 63 07 c0 45 b4 0e c0 f4 f3 0b c0
       -1.8369793 -2.1154203 -2.2297528 -2.1867647
0002c0 b1 cb f9 bf 55 7f 07 c0 84 61 f7 bf db 78 01 c0
       -1.9515287 -2.1171467 -1.9326634 -2.0230014
0002d0 10 74 fe bf 71 48 14 c0 00 b9 ed bf 95 60 01 c0
       -1.987917 -2.3169215 -1.8572083 -2.02152
0002e0 62 77 01 c0 dc 69 05 c0 a2 66 fe bf 81 dd fc bf
       -2.0229115 -2.0845861 -1.9875071 -1.9755098
0002f0 b1 e8 07 c0 7e c9 0c c0 d7 9a fd bf 11 bc 01 c0
       -2.1235774 -2.199798 -1.9812878 -2.0271037
000300 1b 15 06 c0 54 e7 ff bf 27 60 f0 bf 1c 08 e9 bf
       -2.0950382 -1.9992471 -1.8779343 -1.82056
000310 07 1a fb bf e6 4e fb bf 13 2b f3 bf 68 18 ee bf
       -1.9617318 -1.9633453 -1.899752 -1.8601198
000320 cf d1 ef bf 80 c6 eb bf 7e b6 fe bf 5b c1 00 c0
       -1.8735904 -1.8419952 -1.9899442 -2.0118015
000330 6c 72 01 c0 d2 50 14 c0 0c bd 0f c0 43 e2 f5 bf
       -2.0226088 -2.3174329 -2.2459135 -1.9209675
000340 96 ad d9 bf 9d 2d 01 c0 60 49 e6 bf 97 7e df bf
       -1.7006099 -2.018409 -1.7991142 -1.7460507
000350 7b 7f 07 c0 d2 d3 04 c0 10 48 0a c0 35 53 0a c0
       -2.1171558 -2.0754285 -2.1606483 -2.1613286
000360 40 86 0d c0 fa 7b fb bf 2e 70 f8 bf 02 18 03 c0
       -2.211319 -1.964721 -1.9409235 -2.0483403
000370 d2 3c 0f c0 ab 36 de bf 13 31 0c c0 4d 35 10 c0
       -2.2380872 -1.7360433 -2.1904953 -2.2532532
000380 9e b0 f5 bf 18 95 e6 bf 78 32 08 c0 90 1b 09 c0
       -1.9194524 -1.801425 -2.1280804 -2.1423073
000390 15 19 0a c0 8b e7 01 c0 bb ea 0a c0 17 fd dd bf
       -2.157781 -2.0297573 -2.1705768 -1.7342862
0003a0 e8 e0 e4 bf 45 dd 05 c0 9b d9 0d c0 d5 6e d8 bf
       -1.7881136 -2.0916302 -2.2164066 -1.6908823
0003b0 54 42 06 c0 84 36 10 c0 40 9f e1 bf 19 40 0d c0
       -2.0977983 -2.2533274 -1.7626724 -2.2070372
0003c0 4e 8a f8 bf 6a 6b f7 bf 34 1a fd bf e9 36 f6 bf
       -1.9417207 -1.9329655 -1.9773622 -1.9235507
0003d0 93 ae 0a c0 d1 10 01 c0 81 76 fd bf 61 b2 04 c0
       -2.1669052 -2.0166514 -1.980179 -2.0733874
0003e0 60 a8 04 c0 ef e7 df bf 8b 9d e7 bf 6a 37 10 c0
       -2.0727768 -1.7492656 -1.8094953 -2.2533822
0003f0 ff 2a e0 bf 1e f7 18 c0 86 e8 06 c0 7f d6 fe bf
       -1.7513121 -2.3900828 -2.107942 -1.9909209

layers.3.bias.mean f4 [32]
000000 ef 14 03 3b e0 75 10 3b bf 03 61 3a 1b 99 89 3a
       0.002000149 0.0022042915 0.0008583627 0.00104979
000010 e7 d0 48 3b 41 69 09 3b 2f 70 8a 3a 20 e7 84 3a
       0.0030642094 0.0020967277 0.0010561998 0.0010139681
000020 23 94 81 3a 34 e1 1a 3b a3 eb 88 b9 26 4a a0 3a
       0.0009886067 0.0023632767 -0.00026115504 0.0012229129
000030 87 77 30 3b 62 93 f4 39 6a 39 d3 3a c4 5a 7a 3a
       0.0026926713 0.00046649115 0.0016115133 0.00095502683
000040 ee c0 84 36 bb b4 3c 3a e9 ef 0b 3b 31 88 99 ba
       3.9563665e-06 0.0007198562 0.0021352714 -0.0011713562
000050 ca 57 89 3a 24 9c e4 b9 75 f7 ff 39 19 af fa 3a
       0.0010478434 -0.00043603883 0.0004882176 0.001912567
000060 60 6b d2 3a 2a 0e b6 b8 d1 1c 07 3b 9e 8c 5a 3a
       0.0016053729 -8.6810745e-05 0.002061654 0.00083369936
000070 50 58 a5 3a 8f 5f 92 ba 78 e9 16 3b 4e e2 0d 3b
       0.001261482 -0.0011167395 0.0023027342 0.002164978

layers.3.bias.scale f4 [32]
000000 0f 52 10 c0 c2 20 11 c0 2c c7 10 c0 0d 31 0c c0
       -2.2550085 -2.2676244 -2.2621565 -2.1904938
000010 c2 d8 0f c0 70 ef 0f c0 ee 23 10 c0 b9 eb 0f c0
       -2.2476048 -2.248989 -2.252193 -2.2487624
000020 a7 ec 0f c0 11 51 10 c0 c0 37 10 c0 eb 1d 10 c0
       -2.248819 -2.254948 -2.2534027 -2.251826
000030 e1 7f 10 c0 e7 53 10 c0 c6 63 10 c0 dc 7a 10 c0
       -2.257805 -2.255121 -2.2560897 -2.2574987
000040 13 33 10 c0 28 70 10 c0 8d 42 0a c0 f7 b8 0e c0
       -2.2531173 -2.2568455 -2.160312 -2.2300394
000050 65 02 10 c0 ac ce 0f c0 0b 64 0f c0 a5 7e 10 c0
       -2.2501462 -2.2469893 -2.2404811 -2.2577298
000060 15 1d 0e c0 24 e0 0f c0 dc 90 10 c0 5f 6b 07 c0
       -2.220525 -2.2480555 -2.2588415 -2.1159284
000070 1f 08 10 c0 9a 79 10 c0 cc a3 10 c0 ec 17 10 c0
       -2.2504957 -2.257422 -2.2599974 -2.25146

layers.5.weight f4 [64, 32, 3, 3]
000000 e5 15 a3 3c eb ce b2 bc 61 f2 80 3c 66 7c 88 bd
       0.019907901 -0.021827182 0.015740575 -0.06664352
000010 74 49 a0 bc 2b af 6e 3c d4 b4 80 bd 4a 98 f6 bc
       -0.019566275 0.0145681305 -0.0628449 -0.030101914
000020 a7 d3 28 bc f1 9f 0a 3c b7 d9 6c 3c 8b 3d c5 bc
       -0.010304368 0.008460985 0.014456204 -0.024077198
000030 d7 da cd bc f0 5b 3b bd e8 d5 a1 bd fb 1f 2c bd
       -0.025128765 -0.045741975 -0.079021275 -0.042022686
000040 1f 40 03 bc 78 7b 89 3d cb 1b 5b 3d 4d 2e de bd
       -0.008010893 0.06713003 0.053493302 -0.10848675
000050 67 1d 0d 3b 08 5b 29 3d 66 82 25 bd 54 f4 85 3d
       0.0021532418 0.04134658 -0.04040756 0.065407425
000060 cb 30 5a 3d 52 4c cb bc 0d 3e b1 bd da aa a0 3c
       0.05326919 -0.024816666 -0.08654413 0.019612718
000070 84 56 83 bd f6 ff 51 bc f9 76 32 bd 88 30 17 bc
       -0.06412986 -0.0128173735 -0.043570492 -0.009227879
000080 a0 a0 92 bd 6c 63 67 bc bc 2f eb 3b be 14 94 3d
       -0.07159543 -0.014122825 0.0071773212 0.07230519
000090 d5 a2 04 bc e7 10 d6 bd 0d 70 99 3d fd de 54 3d
       -0.008095463 -0.104524426 0.07492075 0.05197047
0000a0 84 01 2c bc 87 9e 02 3d d7 34 82 3c dd 49 6c bd
       -0.010498408 0.031889465 0.015894337 -0.05768763
0000b0 cf 46 99 bd 91 07 56 bd c0 02 59 bd d4 6d a9 bc
       -0.07484209 -0.05225331 -0.05298114 -0.020682253
0000c0 5a 9f 9d bc dd 29 e8 3b 06 16 b8 3b 37 e9 02 3d
       -0.019241024 0.0070850686 0.00561786 0.031960692
0000d0 b2 16 88 bd 91 56 8f bd c2 33 9e bd 9c 2f ab 3d
       -0.06644954 -0.06998933 -0.07724716 0.0835869
0000e0 2c 32 c5 3c f7 50 71 bd 97 52 d0 3b ed 5d 33 bd
       0.024071775 -0.058915105 0.0063575017 -0.043790746
0000f0 45 d9 36 bd 56 04 b7 bc 14 dc 9e bc 16 e4 23 bd
       -0.044640798 -0.022340935 -0.01939205 -0.04001244
000100 b9 cc 9e bc 52 a4 00 ba 42 2f c5 3c 4e da 78 bd
       -0.019384729 -0.0004907298 0.024070386 -0.060755067
000110 8b 85 da 3c 1f de 2a 3d 56 dc 75 3d b3 2c 00 3d
       0.026675006 0.041715737 0.06002458 0.03129263
000120 21 e1 81 bc 69 fc a0 3c cd ab 6a 3d 5e 90 5e 3d
       -0.01585442 0.019651609 0.05729275 0.054336898
000130 60 b8 0d bd d7 73 9d bd 1e 6e 1e bd 4b c5 ac bd
       -0.03459966 -0.0768811 -0.038679235 -0.08436068
000140 ea fb 3d bd fd 5c 6c 3c 37 f5 da 3c fc 33 0f 3d
       -0.046382822 0.014426467 0.026728256 0.034961686
000150 29 1c b4 39 f7 b1 84 3d de 9b 46 bd a3 9d 57 bc
       0.00034353256 0.064792566 -0.04848849 -0.013160142
000160 42 04 64 3c 15 3b 58 3d 7b e4 bc bc 44 c5 9b bc
       0.013917031 0.05279072 -0.023058167 -0.019014962
000170 6f 32 e8 3c 54 a2 b5 3a f4 e6 cf 3c a1 05 82 bd
       0.028344361 0.0013857582 0.025378682 -0.0634873
000180 c1 10 95 bc b9 c4 86 bd 80 be 88 bd 27 42 0f bd
       -0.018196465 -0.065804906 -0.0667696 -0.034975197
000190 0c e2 01 3d 2f 5c 28 bd ca 48 a2 bd df 61 bd 3c
       0.031709716 -0.041103538 -0.0792404 0.023117958
0001a0 ec c7 a6 bc 0d 1d 3f bc 17 97 2d 3d 49 8c cd bd
       -0.020359002 -0.011664641 0.04238042 -0.10036523
0001b0 9e 71 a3 3c 2b f2 42 bd 4a cb 61 ba 5d 94 a8 bb
       0.019951638 -0.04759423 -0.0008613361 -0.0051446394
0001c0 7d fb 81 bd 5d ed 1d bd f1 68 31 bd 7d 4e ff bc
       -0.06346796 -0.038556445 -0.04331297 -0.031165356
0001d0 3f 57 07 3c 5c 92 0a 3d 09 17 3c 3c b1 08 46 3d
       0.008260547 0.033830985 0.011480101 0.048348133
0001e0 74 c4 e2 bc 06 38 81 3b ec 94 b0 3c dc b2 86 3d
       -0.027681567 0.003943446 0.021555386 0.065770835
0001f0 a6 dc 5c bd 91 cf 1d bd 6b 2a 03 3d 38 53 07 bd
       -0.053921364 -0.03852803 0.032022875 -0.033038348
000200 a4 7c 7f bb c3 23 7f bd 34 a9 cf 3c da 91 4e 3a
       -0.0038984204 -0.062289964 0.025349237 0.000788001
000210 e0 a8 86 3a 56 a9 1f bc 04 fd 0e 3c 04 d0 9f bd
       0.0010273717 -0.009744963 0.008727316 -0.07803348
000220 9b a1 7e bc 1c a5 48 bd 1e 7f bb 3c a6 c4 f0 3b
       -0.015541459 -0.048985586 0.022887763 0.007347661
000230 b9 fa 85 bc 25 26 80 3c 29 55 9f bc 36 84 fe bb
       -0.016354905 0.015643189 -0.019449787 -0.0077672256
000240 f6 b7 bb bb 38 8e 00 3d c0 ef 35 3d 76 91 ec bc
       -0.005728717 0.03138563 0.044418097 -0.028877955
000250 7b 95 d2 3c c9 e2 de 3c 4a e1 5b bc 98 b8 6d 3c
       0.025706043 0.027207749 -0.013420412 0.014509343
000260 02 e7 82 3d f7 7d 75 bd e9 a5 db bc 9b 9f a5 bb
       0.063917175 -0.059934583 -0.02681251 -0.005054427
000270 4c 05 e6 bc c1 00 6d bd f8 1a fb 3c f2 99 e6 bc
       -0.028078698 -0.057862047 0.030652508 -0.028149579
000280 0f ef 9f 3d 3c 5d 74 bc ad 7e 01 bd b1 0f 29 39
       0.07809269 -0.014914807 -0.031614948 0.00016122941
000290 71 8c 81 bc 4b 3c e0 bb 2a d1 8c bd b5 72 a2 3b
       -0.015814038 -0.006843125 -0.068758324 0.004957522
0002a0 70 5a d3 bc fb 08 0d bd 1e ad c2 3d 46 29 1b bd
       -0.02579996 -0.034432393 0.09505676 -0.03788116
0002b0 ed 8f 1f 3d c5 72 88 bc ff 86 74 bc 6f b4 66 bd
       0.038955618 -0.016656289 -0.014924764 -0.05632442
0002c0 b7 e0 ed bc ce 72 21 bd e9 26 8d bc 7c c4 36 bd
       -0.029037816 -0.039416127 -0.017230468 -0.044620976
0002d0 8f e9 42 3d dc fe 93 bc 56 8f bf 3d 56 9a 6f 3d
       0.04758602 -0.018065862 0.09353511 0.058496796
0002e0 2e d9 5c bd 9a ec 14 3b a0 84 b0 bc fd 27 ce 3c
       -0.053918056 0.0022724033 -0.021547616 0.025165552
0002f0 f8 0d 75 bc d8 93 25 bd 0b 0c 18 bd 15 9a e9 3c
       -0.014956944 -0.040424198 -0.03712086 0.028515855
000300 d4 c4 d2 3b fa 94 24 3d 08 f7 ec b8 4b 2b 41 bd
       0.006432155 0.040181138 -0.0001129937 -0.047160428
000310 20 0d 31 bb 37 7e 71 bd 8a 9a 95 3c 7c 24 5d bd
       -0.002701588 -0.05895826 0.018262167 -0.053989872
000320 93 f0 42 3c f3 70 7f bd e8 c1 37 3c 2f 7e 36 3d
       0.011898178 -0.062363576 0.011215664 0.04455393
000330 eb f6 e7 3c fa a7 93 bc 47 8c ea 3c 20 8b be bd
       0.028315982 -0.018024433 0.028631343 -0.0930388
000340 8b ab 14 bd 34 3d 25 bd c4 d5 35 3c 3a 84 76 bc
       -0.03629641 -0.04034157 0.011098329 -0.015046174
000350 87 9e ac bc e4 b1 e1 3a 9a e4 04 3d 87 a1 9a 3d
       -0.021071685 0.0017219153 0.032444574 0.0755034
000360 20 82 37 bd 94 5b 66 bc a5 99 50 3d 70 d7 11 bc
       -0.04480183 -0.01405992 0.050927777 -0.008901462
000370 6a ef 32 39 2c 75 0f 3d ae 74 83 bd f3 d4 7e bc
       0.00017064592 0.035023853 -0.06418739 -0.015553701
000380 d8 c6 b7 bc 29 06 cc bc 43 4b 64 bd 9a 65 f1 3b
       -0.022433683 -0.024905281 -0.055735838 0.007366848
000390 6f 2d 75 bd 96 34 3d bd e8 59 40 3d de da d2 bc
       -0.059857782 -0.046192728 0.04696074 -0.02573913
0003a0 1b ca 2a 3d 79 00 6b bd d5 94 06 3d 77 41 39 3b
       0.04169665 -0.057373498 0.03285678 0.002826778
0003b0 fa 54 79 bd 51 aa 4c 3c 0e 3e 45 bb 1b 36 ad ba
       -0.060872056 0.0124917785 -0.0030096802 -0.0013214977
0003c0 3c 12 34 3d 86 a3 2b bc 72 23 b2 3d 87 59 aa bb
       0.043962702 -0.010475999 0.08698167 -0.005198661
0003d0 a3 c5 a7 bc 91 90 7b bd 1e ae a6 bc 79 da c7 3b
       -0.020479983 -0.061417166 -0.020346697 0.006099042
0003e0 dc e0 bf 3c 02 e5 97 bd ee 71 aa bd c3 14 5c 3d
       0.023422651 -0.07416727 -0.083225116 0.053730737
0003f0 16 03 24 bc fc ed 4e bd f5 72 d4 bb 44 e5 50 bc
       -0.010010501 -0.05051993 -0.0064834305 -0.012749974

layers.5.bias f4 [64]
000000 e8 6c 81 3c bc b3 9b bd 02 2a 8c 3d 4f 75 91 bc
       0.015799 -0.07602641 0.0684395 -0.017756132
000010 11 a9 67 3d 69 0a 64 bb e1 69 23 be ab 52 b6 3c
       0.05655772 -0.0034796244 -0.15958358 0.022256216
000020 c8 a0 a0 bc 03 d3 28 3c c2 cc 39 bd 90 26 e1 bc
       -0.019607916 0.010304215 -0.045361288 -0.027484208
000030 23 22 2b 3d 7e bf a9 bc 83 e5 ae 3c f9 94 9d bd
       0.041780602 -0.020721193 0.021349674 -0.0769443
000040 a1 ba a5 3d 44 d0 89 bd 3a 9e 7c bd de a4 b2 bd
       0.08092237 -0.06729177 -0.061674334 -0.08722852
000050 c6 60 0f bd 85 bf 99 b8 48 3c 8f 3c 9e e2 df 3c
       -0.0350044 -7.331282e-05 0.017484799 0.02732974
000060 1d 0b 9d 3c 2c 82 73 bd b4 d2 4a bd 6a da 98 3d
       0.019170338 -0.059450313 -0.04951735 0.07463534
000070 84 f2 9a 3c de b4 54 bc bc 3d 8e bc e7 97 f4 3c
       0.018914469 -0.012982575 -0.017363422 0.029857589
000080 e5 fe 8d bd 9f 34 08 bd 18 05 26 3c d3 f1 ad bd
       -0.06933383 -0.03325331 0.01013305 -0.0849339
000090 31 14 67 3b a6 71 34 3d 29 e9 05 bc 29 6b 1d 3d
       0.0035259838 0.044053696 -0.0081732655 0.038432274
0000a0 38 f2 3f bb bc 16 e4 bc ed 7d 1d bd 09 22 31 3d
       -0.002928866 -0.027842872 -0.03845017 0.04324535
0000b0 b8 68 f7 bd 21 33 57 bc 0f a1 e3 3c 9a b8 dc 3b
       -0.120805204 -0.013134749 0.02778676 0.0067358734
0000c0 05 bf af 3d ff e0 8e bd 81 ca e2 3c 6a b3 47 bd
       0.08581356 -0.06976508 0.027684452 -0.048755087
0000d0 af dd 8f bd 39 73 a9 bc 72 50 bb 3d 7e 33 7a bd
       -0.07024705 -0.020684825 0.09146203 -0.061084263
0000e0 1d 24 e4 bb bc c7 d1 3d ff de 2a bd cc 21 b5 3d
       -0.006962313 0.102431744 -0.041716572 0.08844337
0000f0 56 75 0d bd 0b 73 72 bb ad 84 8d bd c3 2f 48 3c
       -0.03453573 -0.003699484 -0.069100715 0.0122184185

layers.7.weight f4 [64, 64, 3, 3]
000000 c2 81 38 bc b8 7e 0e 3d ee 93 a9 3c f8 9d 5f bd
       -0.011261405 0.034788817 0.020700421 -0.05459401
000010 34 f8 70 3c 53 3e 0b 3d f2 fe 4c bd 03 38 0d bb
       0.014707614 0.033994984 -0.050047822 -0.0021548278
000020 1c 43 b3 3c ee d3 24 bd ec 06 02 3d 13 a9 1c 3b
       0.021882586 -0.040241174 0.031744882 0.0023904487
000030 2f af c2 b9 95 06 14 bd cd 54 2a 3d 80 70 bd bc
       -0.00037133085 -0.03613909 0.04158478 -0.023124933
000040 1d c1 f1 bc 14 61 03 3d d1 7e 3c bc 92 f9 5a 3b
       -0.029511029 0.032075003 -0.011504845 0.0033412916
000050 99 d7 f2 3b f3 c6 38 3d f5 36 b2 bc 55 48 ec bc
       0.007410955 0.045111608 -0.021754721 -0.028843084
000060 a2 88 63 bd 30 a5 0e 3d 6e e4 e8 3a 65 87 e0 bb
       -0.055550225 0.034825504 0.0017768273 -0.006852078
000070 81 88 3f bc f6 80 e8 3c 62 c1 b6 bc b4 74 50 3b
       -0.01169026 0.028381806 -0.022309009 0.0031807842
000080 f3 e2 53 3d 5d 99 c7 ba 0f 26 ae 3c 97 87 13 3d
       0.051730108 -0.0015228201 0.021258382 0.03601798
000090 65 1d 02 bd 26 60 bb bb 1e 75 64 bc 32 db 21 bc
       -0.031766314 -0.005718249 -0.013943939 -0.00987892
0000a0 aa 0c 82 3d be f4 9f 3d 10 99 4b bd 0e d5 57 3b
       0.06350072 0.07810353 -0.04970652 0.0032933387
0000b0 cd b8 1b 3d 74 ea d6 3c 55 0b 02 bd a3 65 c5 bc
       0.038018037 0.026234843 -0.03174909 -0.024096316
0000c0 53 b6 ab 3b 1c 71 e0 bb 39 c8 d1 bc af fb 75 bd
       0.0052402406 -0.006849421 -0.025608169 -0.060054477
0000d0 80 c5 5c 3d 7a fd 58 bc 3f 7e 3c 3d 75 ff 1e bd
       0.05389929 -0.013244027 0.046018835 -0.03881784
0000e0 4d da e9 3c fc b1 67 bd 81 ad 59 bc f6 d3 1a bd
       0.028546477 -0.056566224 -0.013285995 -0.037799798
0000f0 48 db ee bc a3 82 5c 3d 55 1d 58 3b a9 84 86 3c
       -0.029157296 0.053835522 0.0032976468 0.01642068
000100 16 09 95 bc 44 e5 a6 3c 41 52 24 3d 88 55 16 bd
       -0.01819281 0.020372994 0.040117506 -0.036702663
000110 d6 74 11 bd 7d 67 f8 3c 05 ae 08 bb 6d 4c 57 3d
       -0.035511814 0.030322785 -0.0020855677 0.05256312
000120 ed 11 00 bb 04 c8 89 3c 2d e7 ef 3a 1c 52 1c 3d
       -0.0019541935 0.016819008 0.0018303149 0.038164243
000130 bd 64 c1 bc 5c 20 12 3d 56 9a 5d 3d 05 4f da 3c
       -0.023607606 0.03567539 0.054102264 0.026649008
000140 82 ac 46 bc 08 6e eb bc 8a 0c 3a bc 45 68 e0 3c
       -0.01212609 -0.02873899 -0.011355529 0.02739347
000150 e5 06 ae bc 4f 18 53 3d bb 21 96 bc 85 fe 13 3d
       -0.021243522 0.051536854 -0.01832663 0.0361314
000160 bb f2 d3 3c c8 ed 32 3d ee ee e2 bc ea 5b d5 bb
       0.025872579 0.043683797 -0.027701821 -0.006511201
000170 63 b1 5f bd 7e 1c 1f 3d 78 b0 99 bd f4 8b b0 ba
       -0.05461253 0.03884553 -0.07504362 -0.0013469444
000180 01 69 ab ba 43 82 04 bd 05 df 34 bc 62 82 21 bc
       -0.0013077558 -0.03235079 -0.0110395 -0.009857746
000190 e2 db 7c 3c 11 06 18 3d e2 1b 1f bd 21 88 59 bd
       0.0154332835 0.03711516 -0.03884495 -0.05310834
0001a0 e5 e1 d9 bc 72 f2 5c 3b 84 2f 31 3c ef 70 08 3b
       -0.026596973 0.0033713845 0.010814551 0.0020819267
0001b0 5d 26 04 bd 46 f2 9d bd d0 00 2b 3d 6d 87 5b bc
       -0.03226315 -0.077122256 0.04174882 -0.013398987
0001c0 83 5d cd bb 12 a6 95 3b 5b 77 9e 3c 11 e5 69 bc
       -0.006267251 0.0045669163 0.019344022 -0.014275805
0001d0 0d 21 04 bd 69 36 a2 bc 8e 0a 19 3c 3b 01 89 bc
       -0.032258082 -0.019801335 0.009340895 -0.01672422
0001e0 6a de 5c bd 68 32 9f bd b7 c3 01 bc 33 53 29 3c
       -0.053923048 -0.07773286 -0.007920197 0.010334778
0001f0 55 ba 42 3c 20 4d 0a bc de 21 de bc 6e 76 26 bc
       0.011885245 -0.00844124 -0.027115759 -0.010160072
000200 f4 02 56 3d e7 c2 47 3c 3f 1a 03 bd b2 f4 28 3d
       0.05224891 0.012192464 -0.032007452 0.041248985
000210 5d 3b 1e bc 2b 64 49 bd 3d 19 f3 3a 80 6e 8e bc
       -0.009657708 -0.049167793 0.001854695 -0.017386675
000220 7b c7 85 3c 00 67 02 3d e2 11 26 bd 0c fa bf bb
       0.016330471 0.03183651 -0.040544398 -0.0058586653
000230 67 93 11 bd 79 10 14 bc ae 05 15 bb 4c 7c cb 3c
       -0.035540964 -0.0090371305 -0.002273898 0.024839543
000240 67 6a e6 ba a7 90 86 3d f7 ce ce bb 7b 1a b0 bd
       -0.0017579318 0.06570559 -0.006311293 -0.08598801
000250 17 da fe 3b d4 e8 46 bd 5d 39 1e bd 21 7c 19 3c
       0.007777463 -0.048561886 -0.038628925 0.009367974
000260 0b 80 22 3d 55 58 8f 3c f9 25 22 3c e8 c4 81 3c
       0.039672893 0.017498175 0.009896749 0.015840963
000270 95 74 2e bd 30 37 88 3d fb 76 05 bd 09 6f a6 bd
       -0.04259165 0.06651151 -0.03258417 -0.08126647
000280 05 93 8f bc 1a 23 2f 3d 69 95 cd 3c 26 d8 40 3d
       -0.017526159 0.042758085 0.025095658 0.047081135
000290 35 0a cb bc e7 49 04 3d aa a8 9f bc 69 88 93 3c
       -0.02478514 0.03229704 -0.019489605 0.018009381
0002a0 c8 04 0c 3c 38 3c d8 3c 07 bb a1 ba 86 c6 20 3c
       0.008546062 0.026395902 -0.0012339064 0.009812957
0002b0 38 e5 87 3c 42 2e c9 bc 4d d5 11 bb 8d 5c d6 ba
       0.016588792 -0.02455819 -0.0022252381 -0.0016354487
0002c0 c4 b3 75 3b 23 19 9c bc b8 2c 5d bc f8 40 90 3d
       0.0037491182 -0.019054955 -0.013499431 0.07043642
0002d0 52 30 52 3d 5a b7 09 bc fa 68 4a bd f2 57 87 bd
       0.051315613 -0.008405531 -0.04941652 -0.06608571
0002e0 bb 08 97 3d 92 8c 82 3b 65 f8 8c 3c a1 ec 5e bd
       0.07374712 0.0039840424 0.017208287 -0.054424886
0002f0 3c 64 7d bd ad d3 2f 3c ec 0f 9f bc 93 00 60 3c
       -0.06186317 0.01073162 -0.019416772 0.013672012
000300 90 c0 a4 3b aa 55 8f bd 26 3a 08 3d 5c c1 b8 bc
       0.005027838 -0.06998761 0.03325858 -0.022553138
000310 b7 cf 16 bd eb 41 fe bc 74 34 c5 3c 9d da 11 bd
       -0.036819186 -0.031037292 0.024072863 -0.035608876
000320 bd 99 f1 bc 25 ce be b8 1e 04 8a bb 9f d2 0b 3d
       -0.029492253 -9.0983034e-05 -0.0042119166 0.03413641
000330 c6 95 65 bb 72 a9 78 bc 3a d6 95 3c 1b 11 09 bc
       -0.00350319 -0.015177118 0.018290628 -0.008365895
000340 33 43 02 bd 61 71 76 bc 29 52 c9 bc 9d 04 cd bc
       -0.031802367 -0.01504168 -0.02457531 -0.025026614
000350 51 56 3e bb 3e 38 97 3c af d4 90 3c 6a 3f 4c bc
       -0.0029043148 0.018459436 0.01767954 -0.012466291
000360 23 9c 08 3d b0 bc 82 ba 66 6d 45 bc 3d 53 58 bd
       0.03335203 -0.0009974446 -0.012050008 -0.052813757
000370 8f 91 c7 bc 80 39 ce 3c 85 25 ab bb 36 4b 26 b9
       -0.0243614 0.025173903 -0.0052229785 -0.00015859012
000380 23 63 2e bd d2 3f 87 b9 c5 24 68 bd ba da 6b 3c
       -0.042575013 -0.00025796756 -0.05667569 0.01439541
000390 40 c2 06 3d 74 f1 27 3d 78 a2 3b bd 82 b9 51 bc
       0.032900095 0.041001752 -0.04580924 -0.012800576
0003a0 41 8e 5e 3b eb 90 18 3d 2b b5 10 3c 84 d8 b5 3d
       0.0033959302 0.03724758 0.008832256 0.08879188
0003b0 5c bb 53 3c 94 bf cd 3c c9 26 af bc be d4 1d bd
       0.012923088 0.025115766 -0.021380799 -0.038532965
0003c0 d7 97 7c bc e4 44 a2 3c 32 97 3a bb a6 54 6c bc
       -0.015417061 0.01980824 -0.0028471467 -0.014424479
0003d0 3d e6 ae bc 30 23 28 3b 65 89 d9 bc 76 c8 da bc
       -0.02135002 0.002565574 -0.026554773 -0.026706915
0003e0 4d e7 e1 bc 0d 55 e9 3c c3 59 df bc 4f e3 78 bd
       -0.027576113 0.028482938 -0.027264481 -0.060763653
0003f0 1a e5 07 3c 31 37 79 3b e5 3d fe bc 5e c7 07 bb
       0.008294368 0.0038027281 -0.031035373 -0.0020718197

layers.7.bias f4 [64]
000000 79 76 82 bd 4e ed be 3c 55 e6 9e 3b b5 6c 8f bc
       -0.06370253 0.023306515 0.004849235 -0.01750789
000010 37 3f 27 3c c2 ba 32 bc 8e 8d 53 bd ee 03 93 3c
       0.010207943 -0.010908784 -0.05164867 0.01794621
000020 a3 13 9e 3b 8d 5e 0c 3d d4 59 82 bd 0d 60 47 3d
       0.004824118 0.03426986 -0.063647896 0.048675586
000030 27 07 52 bd 3e 74 04 bd 48 84 26 3d a8 88 fd 3c
       -0.051276352 -0.03233742 0.040653497 0.030948952
000040 ce af fe 3c cb 5a 5f bd d9 01 aa 3c 29 1b 40 bb
       0.03108969 -0.054529946 0.020752834 -0.0029313064
000050 85 6c 1b 3d bf bd 9d bc 5d bf 40 3d 76 5e 3b bc
       0.03794529 -0.019255517 0.0470575 -0.011436095
000060 6d 3c 33 bd df 20 53 bc 2f 4b 49 bd 97 26 e9 bc
       -0.0437588 -0.012886255 -0.049143966 -0.028460784
000070 ef c2 37 3d 9e e0 7c 3c 8f 9f 10 bd 6d 36 b4 bc
       0.044863638 0.015434412 -0.035308417 -0.021998608
000080 ca 5a 4a bc 58 f7 4c bc 19 16 f9 bc 9a f0 b6 bc
       -0.012350747 -0.012510143 -0.030406045 -0.022331525
000090 03 2a 1c 3d 7d 28 06 3d 06 83 b1 bc de 98 89 3c
       0.038126003 0.032753456 -0.021668922 0.016796526
0000a0 5e b2 9f 3a 7b e9 f6 3b f4 04 34 bd a7 98 65 bd
       0.0012183895 0.0075351573 -0.043950036 -0.056053784
0000b0 ac ac b4 bc 12 f4 67 3d eb 3e b0 bc 41 c2 27 3d
       -0.022054993 0.056629248 -0.021514377 0.04095674
0000c0 a3 02 a3 bc 38 c7 4c 3b de 19 22 bd 15 4c 73 bc
       -0.019898718 0.0031246673 -0.03957545 -0.014849682
0000d0 f2 bc 72 bc 42 6e 8b bc 17 51 38 bb 1e aa 01 3d
       -0.014815556 -0.017020348 -0.0028124505 0.031656377
0000e0 59 a3 a7 bc ae 28 5b bd 44 6f 58 3d 1a 6a c4 3b
       -0.020463632 -0.053505592 0.052840486 0.0059940936
0000f0 bd 8b ae bc 84 41 95 bc 6a 23 d1 bc 4c a9 8c bc
       -0.021306867 -0.018219717 -0.025529582 -0.01717057
