examples/FashionMNIST/fmnist_pretrained.pth (torch_old, 459662 bytes, 18 tensors)

layers.0.weight f4 [32, 1, 5, 5]
00000000: 945b 293e 0583 34bd 0849 9f3b 19b5 e0bd
00000010: c271 e7bd 5f39 923d e089 c5bd 77ca 5ebe
00000020: f1f1 0abe e5f0 323d 64d9 73bd 02e9 85be
00000030: 03e9 873d 239a 783c e0d2 803c 6498 fcbd
00000040: 4d96 953d 3d84 dabd b1dc 95bd 5a63 82bb
00000050: ee3b abbd f5b1 173d 8103 febd 267e 393d
00000060: b2b9 bbbd ee2c 0dbe 4523 85bd c843 263e
00000070: 3b63 283d f96e 6abd ad8b 40be 58ab 9fbc
00000080: 8c77 963d 0fbe 623c f2d5 f03c d586 233e
00000090: 0cba 143d cfd3 bbbd 67f9 f73d a9bb a8bd
000000a0: 312f aebd 3db3 e4bd 5dbd 343e c260 f73d
000000b0: 4f1c e2bb fd4f b3bd f136 1f3d 7f10 173e
000000c0: 5606 18be 1c7d e7bc 1821 72bd e9a3 44be
000000d0: ac21 73bd 1e90 333e 3f49 8a3d 6e4d 21be
000000e0: 0c94 f73b 0b3d b93d 3267 46bc 7ad1 04be
000000f0: b7ff 00be cf0c 90bd 9ec8 c33d a8ff 893d
00000100: 0a45 d13b aa92 25bc 8fa4 ab3d 40e3 dd3d
00000110: 0535 153e 8154 aabd 5aaf fd3d d4a2 3d3d
00000120: b0c7 cebc f3b9 5a3c ed87 c43c 993a 4bbd
00000130: cf2c fabd 4fc9 11bd b304 19be 111e 12bb
00000140: cf53 ac3d 20ff c5bd db35 73bc 4a6a 543d
00000150: f499 b8bb 0233 3cbe d748 943d 4cc3 733d
00000160: d8dd 043e bf38 d3bd c0e4 0dbe 304b b93d
00000170: 1581 2a3d f741 293d fc56 103c fc28 a63c
00000180: 15d4 9cbd d78b f6bc de6d c23d dcb8 1e3e
00000190: 9124 1f3e 2273 2bbc e325 60be 14df 38be
000001a0: ab25 fabb 230c d8bb 22b2 1d3e 2693 843d
000001b0: 102e 24be 934b 0d3e fdd8 7b3d fa7e 0f3e
000001c0: 3d4c 34be 2d60 023e 858a b6bd 8c69 f6bd
000001d0: cdb1 72bd bd8f e23c b2d7 9dbd efbe 9d3d
000001e0: 185a 9bbd 46ee c83d 320c 213e 1f5c 5bbd
000001f0: 6864 093d 8dc0 f0bd 1530 2d3d da92 9c3d
00000200: d209 253d ad71 03be 8f1d 503d d15c 1bbe
00000210: e1b9 923d 8af2 4b3d a6e8 a4bd a134 3fbe
00000220: cb88 a83d e6cc 313d e305 38be e869 3ebe
00000230: d2f5 fbbd fc6d febd 9253 673e 2d1c 53be
00000240: 7ba1 49bd 2b82 f6bd 491b cbbc 05bb 93bd
00000250: 3ec4 193e ddfa 3c3e 7791 9c3c 057a 673c
00000260: a7c4 403e 919c 27bd ae6d 24be a45d 163e
00000270: 49ad bc3b 0bb9 ec3d 9911 873d 4347 9ebd
00000280: dc21 34be 81b4 3a3e 06d2 833d 57ef 41be
00000290: c352 06bd 286e 123e 19c4 4abe c53a 30be
000002a0: 43fa 85bb acd6 de3d c800 973d de2d 1a3d
000002b0: 1c70 57be 41ca 923d d4c4 3b3e 0658 c7bd
000002c0: 19bb f63d 7d85 543d 2e38 393c 0bae 213d
000002d0: 43f4 d23d 296a 3ebe 7bd8 913d b626 79bc
000002e0: 3fe3 aebd fba3 0b3e bece bbbd ace6 0a3e
000002f0: 5809 0b3e d544 cb3d 9c15 e3bd ff0e 20be
00000300: 080d e73d 0c6b e63c a02b db3d 106c 063e
00000310: d662 0abe 9185 4dbd 5645 f5bd 4c53 51be
00000320: eb81 0abe 9d89 283e 3ff5 663d 98b3 70be
00000330: 2d1b 1dbd 2f85 adbd 0064 d8bd fc9b 9f3c
00000340: 4c96 c0bd a6c0 3d3e 4a6a af3d 7991 02be
00000350: f498 093d 34b5 193e ce65 cebd 5a2b 133d
00000360: ba02 17bd 9a0e b33d c410 77bd ba41 4fbd
00000370: 6559 153e 4357 c5bd 32da 7fbd a26c 283e
00000380: 725d 02bd f652 273d 2c1e c8bd ee15 953d
00000390: 23e9 38bc bb0f 353d b9a9 033e 61f9 0b3e
000003a0: 517f 30be c2d7 cc3d 129c d23c 35c8 00be
000003b0: 5b33 45be 6de4 23be cf42 2a3e 5081 9d3d
000003c0: 1eb5 1ebe 30be 5cbe e120 ad3b 627a 523d
000003d0: bbe6 893d 4c98 f2bd 758e 243d a244 1a3e
000003e0: 862d 1e3e fa86 283d ae98 5d3c f80f c83d
000003f0: ad6e 5abd 2aaf 05be 1598 e53d e23c 2b3d
0.1653884 -0.044070262 0.004861001 -0.10972042 -0.113009945 0.07139849 -0.09645438 -0.21756922
-0.13568856 0.043686766 -0.05953349 -0.26154333 0.0663624 0.015173468 0.015725553 -0.12333754
0.07304058 -0.10669754 -0.07317484 -0.003979129 -0.0836104 0.037034947 -0.12403012 0.04528632
-0.09166278 -0.1378667 -0.06500868 0.16236794 0.04111026 -0.057234738 -0.18803282 -0.019490883
0.073470205 0.013839259 0.029398892 0.15969403 0.03631024 -0.09171259 0.121081166 -0.08238918
-0.08505095 -0.111669995 0.17650361 0.12079002 -0.0069003473 -0.08755491 0.038870756 0.14752387
-0.14846167 -0.028257899 -0.059113592 -0.19203152 -0.059358284 0.17535445 0.06752252 -0.15752193
0.0075554904 0.09044846 -0.012109565 -0.12970534 -0.12597547 -0.07033693 0.09559749 0.06738216
0.006386404 -0.010105768 0.083809964 0.1083436 0.14571007 -0.08316899 0.12386961 0.046297863
-0.025241703 0.013349998 0.023990596 -0.04961643 -0.12215578 -0.035592373 -0.14943199 -0.0022295753
0.08414423 -0.09667802 -0.014844383 0.051859178 -0.005633587 -0.18378833 0.072404556 0.05951242
0.12975252 -0.10313558 -0.13856792 0.09047544 0.04162701 0.041322675 0.008809801 0.020283215
-0.07657639 -0.030095978 0.09493612 0.15500206 0.15541293 -0.0104644615 -0.21889453 -0.18053848
-0.007633885 -0.0065932437 0.15399984 0.06473379 -0.16033196 0.1379836 0.061486233 0.14013281
-0.17607208 0.12732 -0.08913139 -0.1203185 -0.059251595 0.02765643 -0.07707156 0.07702433
-0.075855434 0.09811072 0.15727308 -0.05355465 0.03354302 -0.11755476 0.042282183 0.07645197
0.04029257 -0.12836333 0.05080944 -0.15172125 0.0716436 0.04979185 -0.08052187 -0.1867242
0.08229216 0.043408297 -0.17970996 -0.18595088 -0.12302746 -0.124233216 0.22590473 -0.20616217
-0.049226265 -0.12036546 -0.024793284 -0.072134055 0.15016267 0.18455072 0.019112332 0.014128213
0.18825017 -0.040920798 -0.16057464 0.14684159 0.005757962 0.11558732 0.06595153 -0.07728436
-0.17591041 0.1823292 0.06436543 -0.18938957 -0.03279377 0.14299834 -0.19801368 -0.17209919
-0.0040886714 0.10880789 0.07373196 0.0376414 -0.2103886 0.07167483 0.18336803 -0.09733586
0.12047405 0.051885117 0.011304898 0.03947262 0.103004955 -0.18595184 0.071213685 -0.015206983
-0.085394375 0.13636772 -0.09170292 0.13564557 0.13577783 0.09925238 -0.11088106 -0.1563072
0.112817824 0.028127216 0.1070168 0.1312716 -0.13514265 -0.050176207 -0.119761154 -0.20441931
-0.13526122 0.16458745 0.05638623 -0.2350601 -0.038355995 -0.084726684 -0.105659485 0.019483559
-0.09403667 0.18530521 0.08565195 -0.12750806 0.033593133 0.1501053 -0.100780115 0.035930015
-0.036867835 0.087430194 -0.060318723 -0.05059979 0.14584883 -0.096357845 -0.062463947 0.1644769
-0.031827398 0.040850602 -0.0977138 0.072795734 -0.011286053 0.044204455 0.12857713 0.13669349
-0.17236067 0.1000209 0.025709186 -0.12576373 -0.19257872 -0.16005106 0.16627048 0.0769068
-0.15498778 -0.21556926 0.0052834605 0.051386245 0.067334615 -0.118454546 0.04017492 0.15065244
0.15447053 0.04114435 0.013525171 0.09768671 -0.053328205 -0.13055101 0.11210648 0.04180611

layers.0.bias f4 [32]
00000000: 3f7c 343c 03ae ddbd d397 12be d787 51be
00000010: 5162 bf3d 643e 503e e26b a1bd 95bd 23be
00000020: 11c7 1d3e c6c7 0d3e 2e25 b2bd d50f afbc
00000030: d9d5 f23c 2b5a 03be ed9d 1fbd 6471 e43d
00000040: dbc7 0cbe 2e40 273e b327 12be 5a84 83bc
00000050: 8101 273e fcf3 e9bd bc3f 61bd d556 39be
00000060: d280 243e a6de aabd 4a8e 1d3e d63a 3c3e
00000070: fdf4 153e 9066 023e 10f2 12be e560 81bc
0.011015951 -0.10824206 -0.14315729 -0.20461975 0.09344924 0.203363 -0.07881905 -0.15990289
0.15407969 0.13845739 -0.08698498 -0.021369854 0.029642986 -0.12827365 -0.03896897 0.1115444
-0.13748114 0.16333076 -0.14272957 -0.016054321 0.16309167 -0.114234895 -0.054992422 -0.1809953
0.16064766 -0.08343248 0.1538631 0.18381819 0.14644237 0.12734437 -0.14350152 -0.015793273

layers.1.weight f4 [32]
00000000: 38c7 853f f479 893f a1e2 7e3f 6a8f 833f
00000010: 17d6 8b3f 9495 813f 9353 863f 4526 823f
00000020: 677e 903f a77d 8c3f f37c 823f 5d44 913f
00000030: fa28 843f fca8 863f 8767 823f 7661 8b3f
00000040: 9a1a 793f 0dda 883f cb21 8b3f 331b 853f
00000050: b5cc 8d3f 30ad 803f a032 8b3f f46f 853f
00000060: 0b3a 853f d019 923f 93af 853f f799 873f
00000070: de33 803f 8370 873f a828 8d3f 9dab 8b3f
1.0451422 1.0740342 0.9956456 1.0278141 1.092471 1.0123773 1.0494255 1.0167929
1.1288575 1.0975846 1.0194381 1.1348988 1.0325005 1.052032 1.0187844 1.0889118
0.97306216 1.0691544 1.0869688 1.0398926 1.1078097 1.0052853 1.0874825 1.042479
1.0408338 1.1414127 1.0444206 1.0593861 1.0015829 1.0581211 1.1028032 1.0911747

layers.1.bias f4 [32]
00000000: 7f46 aebb b2af 163d f435 6f3c faa5 3b3c
00000010: f4c1 c2ba 35a3 313c 60b5 023d 2980 1c3d
00000020: 7302 a3bd fce8 583d 95a2 98bd 2ac7 21bd
00000030: 2ff3 49bd 5ff6 3bbd 6476 55bd 23e1 4dbd
00000040: 5ebe 343d 7161 babb ae53 c43c 7cb9 42bd
00000050: 2a09 38bd aa65 4f3d c9ff cd3b 8dbb 35bd
00000060: dfb9 10bc 38fe 81bd 883e f63c c210 5cbd
00000070: f284 0fbd 29be 6bbd 2fd2 95bc a8d2 66bd
-0.0053184624 0.03678865 0.014600266 0.011453146 -0.0014858828 0.010842134 0.031911254 0.03820816
-0.079594515 0.052956566 -0.07452885 -0.03949658 -0.049304184 -0.045889255 -0.05211486 -0.050263535
0.04412686 -0.0056878855 0.023965683 -0.047540173 -0.044930615 0.050634064 0.0062865955 -0.044368315
-0.008833378 -0.063473165 0.030059114 -0.05372692 -0.035038896 -0.057554398 -0.0182887 -0.05635324

layers.1.running_mean f4 [32]
00000000: 93ca 9bbe 56e4 cdbd c17d d0bd 68f5 79be
00000010: 98f2 c03d c4d6 84bb 8c0e 17bd 8927 1abe
00000020: 376c f33d 4337 1c3e c8df febd 1d97 0dbd
00000030: fb68 edbd cd18 f1bd 7d7d 43bd bcd6 b03d
00000040: c91b 843e 16ac 1e3e 5bdf 15be b4da 29bd
00000050: 530b 193e 0249 723e 0548 35bd 9378 74be
00000060: 7d4e 423e 0c74 d0bd a7e4 0b3e e24d 1d3e
00000070: 675e 1dbe e5ca e13d 2d3d 2fbe a1ff 27bd
-0.3042799 -0.10053317 -0.10180236 -0.24410021 0.09421271 -0.0040539224 -0.036879107 -0.15054144
0.11885875 0.15255456 -0.12445027 -0.03456794 -0.11592289 -0.117723085 -0.047727097 0.08634707
0.25802448 0.15495333 -0.14635985 -0.041468337 0.14945726 0.23660663 -0.044258136 -0.2387412
0.18975253 -0.10178384 0.13661443 0.15361741 -0.15368043 0.11025027 -0.1711318 -0.04101527

layers.1.running_var f4 [32]
00000000: 19b2 e93d eff4 363c c171 8f3c 04cc 733c
00000010: 51a2 0e3c cbef 603d 3d28 2b3c 5d32 353c
00000020: 27b8 ce3b d4b6 fb3c b05f 3b3c 2f28 a13b
00000030: 87bf 1d3d 35e0 a43c bde8 213c 8644 893c
00000040: 1be3 2e3e 6475 403c ff4d c23c d9a5 a43c
00000050: a367 5d3c 45b5 0d3e e2a5 4b3c c186 a13c
00000060: 84a3 623c 503e 033c 6495 1c3c 31b4 073c
00000070: 1e5b cc3d c628 1c3c 190a aa3c 5be3 923c
0.114109226 0.011166795 0.017510297 0.014880184 0.008705691 0.054916184 0.010446605 0.011059371
0.0063085738 0.030726828 0.011436388 0.0049181203 0.038512733 0.020126441 0.009882149 0.016756307
0.17078821 0.011746738 0.023718832 0.020098614 0.013513478 0.1383868 0.012429686 0.019717576
0.0138329305 0.008010462 0.009557102 0.008282707 0.09978317 0.0095312055 0.020756768 0.017930677

layers.3.weight f4 [32, 32, 3, 3]
00000000: d197 fa3b 9f80 97bc 204e 813c 34e9 3abc
00000010: 8d8c d0bc c398 813d cca7 35bd b6d5 30bd
00000020: 74f9 b13c c41b 603d e156 833d b156 673d
00000030: cf8c 7439 1ee1 3abb 5d37 7e3d 240c e53b
00000040: c14b 133d bec3 85bb 0234 453d 0666 133d
00000050: 356d cb3c 9e10 6c3d 535e 173d 946a 11bd
00000060: ea1e c3bc 919c 6dbd 188b a43c bfd8 6e3d
00000070: 8448 43bd 9b9e df3c 0c01 883d 45af fe3c
00000080: b0cb 783d ad25 6d3d 0093 0dbd 08e3 213d
00000090: 23c1 1dbd ae1b 9dbd 1dc6 96bd b41c 33bc
000000a0: 0404 3a39 cc4f 53bc 2833 07bd 2f0c 6bbd
000000b0: 4fb9 efbc ed5d 37bc 3764 40bd 4f28 64bb
000000c0: fec8 a63c 3cc7 b93c 20a7 033d 403e 013d
000000d0: 8cbb 1abd 1fcf 293d d26a 1cbd d4ba 523d
000000e0: 7a2a febc 3d11 88bd 2d3f 8a3c 7611 7fbc
000000f0: 55ab 313d fc7b 73bd 3a28 753b 916e e3bc
00000100: a7bd e8bc ebe1 babc 8c57 fabc 1b69 16bd
00000110: 6444 533c b834 2dbd d8f8 4d3c 85b2 153d
00000120: 9d8e 5abd 2ea7 f3bc 9093 8bbd 131b 1e3d
00000130: ffe7 e9bc 1cda d03c 7a26 0a3d 8999 94bd
00000140: 0465 153d 9e66 05bd 99c4 3ebd e614 cebb
00000150: 3064 b03c ab5a 3d3b 847f c6bb 53eb 873c
00000160: 524f 063d 93c6 6ebd 06dd 1dbb b0a6 36bd
00000170: bcf9 593a 2db9 fdbc df54 743d ca0a 25bd
00000180: a5d0 36bc 7a44 02bd 7779 4a3d 9732 4fbd
00000190: 0c50 ea3a eb3b f0bc 4e21 0fbd b25e 183d
000001a0: 0946 a6bd 957a 1ebd 1256 c9bc 0dd1 98bd
000001b0: f574 2ebd 27e2 103d 0b8a c93c f150 c5bc
000001c0: 40cb 153b a203 d8bc ee24 18bd e53f 2b3c
000001d0: b382 5dbd 8962 333d 82ed e1bc 48a7 143d
000001e0: 8676 333d 0263 3c3d 6604 4f3c a771 d73c
000001f0: d8b8 a23c 5e0a 1d3d 8690 cb39 dce5 033b
00000200: 1ad7 9a3d 4e6f 293d 0511 dabc ca3a 573c
00000210: 9296 963d 9661 623d 1949 97bc cfee 3cbd
00000220: 4182 3bbd 5cb4 83bc 419e 843d eaf9 72bd
00000230: 9066 a33c 97db 433d af17 373c 1b66 ca3d
00000240: 4181 bcbc 2866 2b3d d9dc 60bc 20ed bd3c
00000250: 17ba d93b ab9d 80bc 5a3a c9bc 5134 243d
00000260: 947d 783b 428e d93d 195a 3bbc 00d4 14bd
00000270: a5b8 54bc 828a b7bd 5cf9 e6bd f6dc a0bd
00000280: 5e12 8bbd c8e6 b83b 8177 7fbd 9f92 e8bc
00000290: e803 0abd a80e 4dbc 5064 48bd 6235 023d
000002a0: 5886 9e3d 7753 a3bc fac3 7fb9 d191 493b
000002b0: bf67 3f3d 2373 85bd 2069 513d 3ccf fa3c
000002c0: 2404 7abd 5401 a53c a465 f23b ae17 903d
000002d0: c242 c8bb 0e5d 113d 799b 893c ccda 103d
000002e0: ba90 243d 49ca 7ebc 1c26 7dbc 25fb 313c
000002f0: ceaa 553d f2fa 09ba 748c df3c fced 3ebd
00000300: 90af e83b 87a0 6cbd 033a cc3c 31f1 20bd
00000310: 000f 54bb d695 c63c dc92 8bbd f87f 3a3d
00000320: 4ab8 babd b927 a639 ca8b 2c3d 5799 593c
00000330: eaec 3f3d 1edd 5dbc 7391 3cbb cd8c ad3a
00000340: fd2c 533c a8b9 3d3d 49b1 4c3c 4eeb 063c
00000350: acf3 e4bc 2f0a 8cbd 77a0 9ebc 9ca4 753d
00000360: c8bc 8e3d 6545 bdbc a111 1cbc bf81 00bc
00000370: 890d 243d 488c 94bd aa33 493d 020f a63b
00000380: 14e6 a53c fcf2 26bc b2b8 07bd ec81 033c
00000390: a2f1 0a3b 5eba bdba 5d49 f1bc ae65 133d
000003a0: 83bb 283d a169 6abd 5718 773d 056e 8a39
000003b0: 32fc fcbc 7fa9 79bc 4dde c5ba c18c fbbc
000003c0: 0701 1a3d f9c5 963c 5b7b f3bc 4f6f 933c
000003d0: 1979 373d f812 8ebd 48b8 6a3d f4b4 99bc
000003e0: d354 3b3c 890b a4bc 9b58 34bd 6f00 cebb
000003f0: 6016 253b 338e 7b3c 8ca1 f5bc fc43 303d
0.0076474925 -0.018493949 0.015784323 -0.011408139 -0.025457645 0.06327965 -0.044349477 -0.04317256
0.021725394 0.05471398 0.06413055 0.05647916 0.00023322109 -0.0028515528 0.062064517 0.0069899727
0.035960916 -0.004082172 0.0481453 0.03598597 0.024832347 0.057633035 0.03695519 -0.03550203
-0.023818452 -0.05801064 0.020085856 0.058312174 -0.04767658 0.027297309 0.06640825 0.031089434
0.060741127 0.05789726 -0.03456402 0.039523154 -0.038514268 -0.07671295 -0.07362006 -0.010932136
0.00017739838 -0.012897443 -0.03300777 -0.057384666 -0.029263167 -0.011191827 -0.046970572 -0.0034814065
0.020359512 0.02267801 0.032141805 0.031553507 -0.037776515 0.04145729 -0.03818781 0.051447704
-0.031026114 -0.06643913 0.016875828 -0.015568128 0.043376286 -0.059444413 0.003740801 -0.027762683
-0.028410746 -0.022812804 -0.030559324 -0.03672133 0.012894724 -0.042286605 0.012571536 0.036547203
-0.053358663 -0.029742803 -0.06815255 0.03860004 -0.028553007 0.025494628 0.0337281 -0.07255847
0.03647329 -0.032568567 -0.04657421 -0.0062891124 0.021532148 0.0028893154 -0.0060576815 0.016591704
0.03279049 -0.058294844 -0.002408804 -0.04459256 0.00083151064 -0.030972088 0.059651252 -0.040293492
-0.011158143 -0.031803586 0.049432244 -0.050585356 0.0017876639 -0.029325446 -0.03494387 0.037199683
-0.08118827 -0.038691122 -0.024577174 -0.07461748 -0.042592008 0.035371926 0.024601957 -0.024086447
0.0022856742 -0.02636892 -0.037144594 0.010452245 -0.054079723 0.043795142 -0.027579073 0.036292344
0.043814205 0.04599286 0.012635326 0.02629931 0.019863531 0.038339965 0.00038826856 0.002012602
0.075605586 0.041365914 -0.026619444 0.013136575 0.07352938 0.055268846 -0.018467473 -0.046126183
-0.045778517 -0.016077213 0.06475497 -0.059320368 0.019946367 0.04781684 0.01117508 0.09882756
-0.023010852 0.04184547 -0.013724529 0.02318436 0.006644498 -0.015700182 -0.024563957 0.040088955
0.0037916647 0.10622837 -0.011435055 -0.03633499 -0.012983476 -0.08961965 -0.1127803 -0.07854645
-0.06790613 0.0056427456 -0.062369827 -0.028390227 -0.03369513 -0.012515701 -0.04892379 0.03178919
0.07740468 -0.01993726 -0.00024391702 0.003075708 0.0467298 -0.06516101 0.051125646 0.030616395
-0.061039105 0.020142235 0.0073973704 0.070357665 -0.006111474 0.035489134 0.016797768 0.03536491
0.040177085 -0.015551158 -0.0154509805 0.0108631 0.052164845 -0.0005263529 0.027288653 -0.04661368
0.007101007 -0.05777028 0.024930006 -0.039292518 -0.0032357574 0.02424137 -0.068151206 0.045532197
-0.091171816 0.00031691583 0.0421255 0.013281188 0.0468568 -0.013541488 -0.0028773218 0.0013240814
0.012889144 0.046319634 0.01249344 0.008234812 -0.027948223 -0.0683788 -0.019363625 0.059971437
0.06969601 -0.023104379 -0.009525687 -0.007843434 0.04005197 -0.07253319 0.049121536 0.005067707
0.020251311 -0.010189768 -0.033135124 0.008026581 0.0021201153 -0.0014475097 -0.029453928 0.03598564
0.04119445 -0.05722964 0.060325947 0.00026403382 -0.030881975 -0.015238165 -0.0015096158 -0.030706765
0.037598636 0.018404948 -0.029721906 0.017997412 0.044793222 -0.06937212 0.05730465 -0.018763043
0.011433798 -0.020025032 -0.044029813 -0.006286673 0.0025190338 0.015353727 -0.029984258 0.043033585

layers.3.bias f4 [32]
00000000: e715 52bd b492 af3d a6b5 8bbd bde5 77bd
00000010: a807 f13c ad01 bcbc cb7d 573b 87ad 2dbd
00000020: 7c95 9f38 c4e4 3c3c 34ab 14bd 1398 9cbd
00000030: 1480 993c eb1e 5abd 67cd 87bb e8b0 8ebd
00000040: 3f36 2b3d 9362 12bd c3ab a93a cb20 1dbc
00000050: 5a5a 65bd 12f1 953c 34ff 91bc 5727 c1bc
00000060: 9aa6 9abd 0f98 103c 9c04 983c a84f 87bd
00000070: ca0e 44bc b148 ebbc a228 053d 2fe9 89bd
-0.05129042 0.08572903 -0.06821756 -0.06052183 0.029422596 -0.022950018 0.0032881375 -0.042401817
7.6095545e-05 0.011529151 -0.036296085 -0.07646193 0.01873783 -0.053252142 -0.004144359 -0.06967336
0.04179978 -0.03573854 0.0012944866 -0.009590338 -0.05599437 0.018303428 -0.017821886 -0.023578329
-0.07551308 0.008825316 0.018556885 -0.0660699 -0.011966417 -0.028721185 0.032509454 -0.06733929

layers.5.weight f4 [64, 32, 3, 3]
00000000: 02dd 33bc 68f5 fc3c fe35 993d 0417 1d3d
00000010: 1101 fdbc 8299 a33d 994b 6abb 2096 cb3c
00000020: 3eb1 57bc 0a4e 393d aefa 0abb 56be 783d
00000030: 37b2 26bc 3d5c d13a 5479 71bc 1a29 09bd
00000040: 1e37 c4bc c2b1 41bd cdeb 453c 8095 73bd
00000050: 6281 9cbc d16e 213c 947a bf3a cfb6 65bc
00000060: dec0 2dbd 5972 563d 8a29 2cbd cc00 7bbd
00000070: 7765 16bd 6951 a4bc 893e 783c 1b83 16bd
00000080: 74ae c7bc 32dd 99bb 34e9 533d 9f31 dabc
00000090: 2625 45bd 7472 413d 93f9 553c 5325 c4bc
000000a0: 29d2 ba3b 7bfc 08bd e4da 7abc 3cd3 39bd
000000b0: fed7 163d 6b59 22bd 59f4 93bc a6ff bfbc
000000c0: e29f 43bd b0dd 003d 5f77 493d 5588 673d
000000d0: 8b67 ccbc a12d 003b 52e7 fcbc 9230 6a3d
000000e0: 1ff1 c93c 1a27 fabc 5386 b33c d1a3 15bd
000000f0: 7f65 0abc a83e 58bd 4959 ba3b 12e0 58bd
00000100: 632c 47bd 19a5 bdbb 234c f03c 29c5 8ebc
00000110: 5963 a6bd e3b5 803c 33cc 03bd f1d8 e0bb
00000120: 0271 553d 7ad5 093d 807b 30bb feb5 17bd
00000130: 303b 523d 3349 47bd 2ec6 4fbc 9a41 45bd
00000140: 13a1 613c d072 0fbd 6fdb 683d 3bf9 1b3c
00000150: 2b41 a83c 5c20 6d3c 83f5 a03c 56af a0bc
00000160: cd02 183d a97c 253c 70e2 93bc 681c 06bc
00000170: 635e 51bd 3fec 7a3c 28df 6c3d 38c1 68bd
00000180: 9a52 a4bc 947e 96bb ca30 81bd cf4d 81bd
00000190: 1ece d93c 2bc2 acbc b294 10bd ac02 fa3b
000001a0: 3485 95bc cc23 9d3c d790 afbb 26df a7bc
000001b0: d465 73bb e64e 57bd 529c 96bd aa1d 0f3d
000001c0: b253 74bc a5eb 7b3c 54e6 bd3b d86f 513d
000001d0: 316a 61bd 01a7 94bd 14d1 823c 2d41 2bbd
000001e0: 68df eabc 8e10 a5bb d08d 30bc 18ca 4a3d
000001f0: c63a cebc 8247 57bc c387 66bd c656 173d
00000200: 51a6 f2bb b4b4 2c3d ff3a c6bb 6b7e 623d
00000210: ca83 363b 93af 503d e11a 073d 31cf 8c3c
00000220: cf00 4fbd 34e9 edbc cb51 38bc ffe0 343d
00000230: 18ae 633c 9d0e 1c3d fe12 34bd 6eab b9bc
00000240: 5cb6 50bd 4f00 cd3c dc0a 823c ebc2 e2bb
00000250: 21f3 683c fe4d 643d 9ea7 433d b56c 093d
00000260: e217 0ebd 3b35 44bd 2e57 dfbc f672 58bd
00000270: 984f 823d ff5e 34bb 8f73 49bd eced 0e3d
00000280: a25b a3ba d121 503d 91e3 36bc 3640 85bd
00000290: 21ec 4cbd b132 74bc c34d fd3c 2a29 013b
000002a0: b043 07bc 6922 58bd f2a0 d03c 1e77 0cbd
000002b0: 86f8 0b3a 82d5 f7bc 50bb 52bd 4b94 3f3c
000002c0: 7976 743b ea2a 7bbd 39b7 fcbc 9c7e 263d
000002d0: c6a2 8abd 8566 d5bc c18f 73bc c926 3c3d
000002e0: 40bb 7a3d 3a57 073d 993c 383c f2e4 ddb9
000002f0: 7f7d 0dbd 709f 06bd 106b 97bc 798e 1cbd
00000300: 1b5c 99bd ab92 2ebd d2a3 443d c33f cbbc
00000310: 85a2 0e3d b3e2 883c c842 ce3c 811a d83c
00000320: a933 883d d770 9dbd 83a2 6e3c c1c9 0c3d
00000330: 927d 13bc 7183 933d 97a4 463d 91d0 c73c
00000340: c11b 08bd a1a3 96bd dfa5 90bd 8379 70bc
00000350: fe87 80bc 1e09 28bd e172 c6bc efe2 173d
00000360: a7bb b13d 0c9b fc3c e048 3ebc cbab 80bb
00000370: b4ed 94bc 5c2d 33bb d910 11bc 6440 49bd
00000380: 3b61 b3bd e4ad e6bc b427 87ba 50fe f03c
00000390: 7699 1ebd 0fe0 0f3b f88f 3bbd 9fb1 e33c
000003a0: a1d0 293c 4ca2 06bd 9bf8 4bbd 07c7 923c
000003b0: bed0 d1bc b7b6 9d3c 7b1c 0f3d 71ae fabc
000003c0: 1b16 273d c788 f7bc 7145 3cbc 3eaf abbd
000003d0: b72a eb3c 2e52 ca3c d85c 54bd 71a2 61bd
000003e0: e25e cdbc a938 79bc f335 793d a4d1 f53c
000003f0: a3bc 83bd 394e 803b 8bdb 49bb 52ae e3bc
-0.010977985 0.030878738 0.07481001 0.038352028 -0.030884298 0.07988264 -0.0035750626 0.024851859
-0.013164816 0.04524044 -0.0021206546 0.060728393 -0.010174326 0.0015972924 -0.0147384 -0.033486463
-0.023952063 -0.047288664 0.012080145 -0.059468746 -0.019104663 0.009853081 0.0014608675 -0.014020636
-0.04242026 0.052355144 -0.042031802 -0.061280057 -0.03671786 -0.02005835 0.015151628 -0.036746126
-0.024375178 -0.004695558 0.05173607 -0.02663499 -0.04813113 0.04722829 0.013059991 -0.023943579
0.0057013226 -0.03344391 -0.015310977 -0.045367464 0.03682708 -0.039636057 -0.01806085 -0.023437332
-0.047759898 0.031461418 0.049186107 0.0565265 -0.024951717 0.0019558447 -0.03087202 0.057175227
0.024651108 -0.030536223 0.021914637 -0.03653318 -0.00844705 -0.05279413 0.005686913 -0.052948065
-0.048626315 -0.0057875034 0.02933318 -0.017427998 -0.08124418 0.01571173 -0.03217716 -0.006861799
0.052109726 0.033650853 -0.002692908 -0.037038796 0.051325977 -0.048653793 -0.012681527 -0.048158266
0.013771313 -0.035021603 0.056849893 0.00951987 0.020538887 0.014473047 0.01964832 -0.019614857
0.037112046 0.010100522 -0.01805231 -0.0081854835 -0.051115405 0.0153151145 0.057830006 -0.056824893
-0.020058919 -0.004592726 -0.06308134 -0.06313669 0.026587542 -0.02108868 -0.035298057 0.007629713
-0.018251993 0.019182108 -0.0053578424 -0.020492148 -0.0037139552 -0.052565478 -0.073540345 0.0349404
-0.014912533 0.015376006 0.0057952795 0.051132053 -0.055032913 -0.07258416 0.015968837 -0.041810203
-0.028670982 -0.005037374 -0.010775998 0.049509138 -0.02517451 -0.013139607 -0.056281816 0.036947988
-0.0074050804 0.04216452 -0.0060495134 0.055296343 0.0027849548 0.05094869 0.032984618 0.01718864
-0.05053788 -0.029041864 -0.01124997 0.044159885 0.013896488 0.038099874 -0.043963425 -0.022664752
-0.05095516 0.025024561 0.015874319 -0.0069202087 0.014218123 0.05573844 0.047767274 0.033550937
-0.034690745 -0.047902327 -0.02726325 -0.05284401 0.063628376 -0.0027522442 -0.04918247 0.03489487
-0.0012463222 0.0508135 -0.0111626545 -0.06506388 -0.050029878 -0.014904664 0.030920869 0.0019708374
-0.008255884 -0.05276719 0.02546737 -0.034293287 0.0005339462 -0.030253176 -0.051448166 0.011693071
0.003730206 -0.061320223 -0.030849086 0.040648088 -0.06769328 -0.026049862 -0.014865817 0.045935426
0.06121373 0.03304217 0.011244916 -0.00042322982 -0.03454351 -0.032866895 -0.018483669 -0.03822181
-0.07488271 -0.042620342 0.048007794 -0.024810677 0.03482296 0.016709661 0.025178328 0.026379826
0.066504784 -0.07687538 0.014565113 0.034372095 -0.009002106 0.07202805 0.04849681 0.024391444
-0.033229593 -0.073554285 -0.070628874 -0.014677408 -0.015689846 -0.04102432 -0.0242247 0.037081655
0.0867837 0.03083565 -0.011614054 -0.0039267293 -0.018179752 -0.0027340269 -0.008854114 -0.049133673
-0.087587796 -0.02815909 -0.0010311515 0.02941814 -0.03872057 0.0021953618 -0.045791596 0.027794657
0.010364682 -0.032869622 -0.049797636 0.01791717 -0.025612231 0.019252164 0.03493927 -0.030600758
0.040792566 -0.030216588 -0.0114911655 -0.08383034 0.028706891 0.02469739 -0.051846355 -0.055086557
-0.025069658 -0.015211263 0.060842466 0.030007191 -0.06432464 0.003915575 -0.0030801024 -0.027793083

layers.5.bias f4 [64]
00000000: aaf4 6b3c eb4b 2dbd b0cc 813c 25d5 df3c
00000010: dccf 2a3b 2566 43ba 906b 89bd b1ce a6bc
00000020: 3344 023d 7d60 2abd 1a83 593c 1ad5 99bc
00000030: 0df4 0b3d 563b 3e3c 13f4 cc3c 87ba 083d
00000040: d814 1ebd 0621 f5bc c583 19bc d151 f7bc
00000050: 9471 383d 48cd d13c 16bb 56bd e9de 18bd
00000060: 89b0 5abd a1ba b6bc f812 3b3c 8e53 5bbd
00000070: 4149 803c 9642 dc3a 11ac 71bc 6e69 523d
00000080: c99e 7abd eb32 bebc 00ca 47bd 75b5 04bd
00000090: 2483 893b b4d0 dfbc 27fe dc3c 0b72 43bc
000000a0: 5307 993b 0d76 10bd b29c b8bc 8db5 333c
000000b0: 3ca8 a13a c2a0 c43b 7972 46bd 7f0a 983c
000000c0: f117 c53c 87f4 fdbc 56a6 d43c 990b 2dbd
000000d0: cbb2 77bd 4153 00bb 185a 50bd 1a17 243d
000000e0: c9ef 04bd 4805 10bd 5423 4a3d 30ca 68bb
000000f0: cbf7 a1bc ab48 063d 217f 34bb 5ee2 a4bc
0.014401594 -0.04230873 0.015844673 0.027323315 0.0026063835 -0.00074538804 -0.06709969 -0.02036223
0.03180332 -0.041595925 0.013275886 -0.018778373 0.03416829 0.0116108265 0.025018727 0.03338101
-0.038594097 -0.029922973 -0.009369795 -0.03019038 0.04503019 0.025610581 -0.052424513 -0.03732196
-0.053391013 -0.022305788 0.011418097 -0.05354648 0.01565993 0.0016804512 -0.0147504965 0.051370077
-0.061186586 -0.023217639 -0.048776627 -0.032399613 0.0041965414 -0.027321197 0.026976658 -0.011929045
0.0046700626 -0.035268832 -0.022535656 0.010968578 0.0012333463 0.006000609 -0.048449013 0.018559692
0.024059268 -0.031000389 0.025958221 -0.04224739 -0.060473245 -0.0019580873 -0.05086717 0.040061094
-0.03245524 -0.035161287 0.049350098 -0.0035520904 -0.019771477 0.032784145 -0.0027541595 -0.020127472

layers.7.weight.mean f4 [64, 64, 3, 3]
00000000: 62de 5cbc fe1e 7c3d 24a0 0d3d 0fb0 623d
00000010: b406 0dbc f35d 97bb ccd0 8e3d 11d1 9ebc
00000020: 9f5b be3d 1def 08bd 65be 1abd 29ff 033d
00000030: e445 093d ac5f 5c3d 736a 7c3d 6a33 93bd
00000040: 8eca c43b 3b9f 8e3c 406d 873d 0d7e c1bb
00000050: 99ac cb3c e816 d33b 882d f7bc 54ad a1bd
00000060: 2b91 bc3c 248b e7bd c125 66ba 7038 27bd
00000070: fbb3 8dbc 63a0 f9bd 33e6 b3bd f2a1 1fbd
00000080: ef13 89bc d227 5bbd 535c 273d 2480 613d
00000090: 4dc5 36bd e69b ebbc 8160 a3bd d76e ecbb
000000a0: b42b f9bc 0c00 e63a 3029 573c 3a17 383d
000000b0: adda a4bc a41b e73c c5dd 42bd 5441 06bd
000000c0: f8da 1c3d 0323 a53d a5d0 78bd 7181 793d
000000d0: a1f2 c23d 658a eebc 3df9 debd 0fd9 2a3e
000000e0: cbf1 ce3d 52f7 c0bc 19ec b83c 9a54 9b3c
000000f0: 41c1 1ebd 2c25 85bd bda3 003c 8e5a 4dbd
00000100: 2eb5 72bc 24d5 ff3b 5904 373d 27f4 b23d
00000110: 9c79 0cbc 115b a33c fcbd 143d 77ac 42bd
00000120: 1bd9 2abc 4153 a33d 5f98 523d 18df c73a
00000130: 8a88 873c bc7b 903d aa3c 12bc 8bb8 b23c
00000140: a2ae b53c 3f2f a03c 96fa a4bd 9876 9bbd
00000150: 7d48 2a3c fd23 63b8 b2b5 8bbc 0d6d c93c
00000160: 3453 66bc 443a a9bd 1884 8ebc 865e 8fbd
00000170: 6d17 48bc 67d0 8cbd b489 cebc 7495 64bd
00000180: e6bc c0bc a5d2 63bc 7804 99bd 6adb 85bd
00000190: 2e51 b33d 9bfd 7c3d 8f10 273c ffd7 b0bb
000001a0: 6808 cc3d 33da 7a3b 53d5 11bc c119 353d
000001b0: c8a8 c43b 6f0e f7bd 5e54 373d 968c 0a3d
000001c0: dbbf 1cbe d93d 99bd 6e00 793c f6d3 d9bb
000001d0: f4ad b3bd 56f9 4bbd 1050 6fbd 1243 d0bc
000001e0: e966 16bc c3d3 3ebc 4f09 00bd f359 b9bc
000001f0: 9aeb 4e3c 2306 a8bc 6718 ad3d 9ecc 4d3d
00000200: e391 803d c83a 6a3d 995b 7abc f552 0f3c
00000210: ca2e f2bb b5f7 84bd 2fb9 28bb 6916 f1bc
00000220: 0495 4cbd 1108 90bd 20af bcbd 5bcd 50bd
00000230: ee96 a1bd 2e84 58bd 2baa c93d aece 2dbc
00000240: 8ee2 30bc 9cd4 d83d fba1 433d e018 18bd
00000250: ca3e 05bd 14ef b53c 0e22 113d 06f1 85bd
00000260: eb07 953d 4e8a fa3c ce87 43bd b91d 17bc
00000270: edca 563c 6418 583a 4b40 f6bc 1f01 b3bc
00000280: bfa4 e33c e009 40bd b852 d7bc b20b 223d
00000290: ceed 903d bbf6 91bc 67c0 5abb 68f0 503d
000002a0: e09c 70bd 5a1b 73bb ff20 623d 86cd 5e3d
000002b0: 8d0c fbbc c054 ad3d 028f cdbc e3c6 65bd
000002c0: e17e c0bb 9da9 76bd 436b e7bb a9dd 7b3d
000002d0: d503 923d 29c5 7f3d 4fce 543d 595a 423d
000002e0: a71a b03b 047c 08bd f399 a6bc d647 193c
000002f0: dcde 05bd 9684 53bd 9e93 fcbd 17f2 adbc
00000300: b2b6 efbd 1663 a4bd b4c6 8fbd 7eb7 fdbd
00000310: 533d a1bd a65c 76bd de45 9fbc 5717 813d
00000320: 24c2 d7bc 05c0 6d3d 822e c03d 7817 bb3d
00000330: 6eb7 703d e876 24bd b2fe 1e3e 68bf 143d
00000340: 8662 c9bd 8fec adbc dc32 c73d 5880 bdbc
00000350: eb36 f53c 0452 413d 7f77 52bd 405d cdbc
00000360: d6a5 333d 1bd1 8b3d 1201 3f3d 7116 17bb
00000370: 97e4 bebc 2e1d 0c3d 2d0b 6b3c e842 89bc
00000380: 57fd 263e ee0c 1ebd 010d 063d e895 803d
00000390: c94c 97bc e346 c73c 439f 8c3d e50f 013e
000003a0: 5f30 cc3d 0c4a 1f3e aa5e 0c3d 0623 c73c
000003b0: ad41 ac3c cf94 06bc a59d eebc 803b f63c
000003c0: 4c00 023d 520f e53a d98b 8e3d 3a00 a9bd
000003d0: 1982 5abb e295 c63c f174 89bd c94d 863d
000003e0: 9e0b a5bc a0ef 0c3d 1545 6d3d 58b3 09bd
000003f0: be50 db3a 23e9 4abd cb8a 19bd e19f 20bd
-0.013480755 0.061552994 0.03457655 0.055343684 -0.008607555 -0.004619354 0.069734186 -0.0193868
0.09294819 -0.03343116 -0.03777923 0.03222576 0.03351392 0.053802177 0.061624955 -0.07187541
0.0060055917 0.017409911 0.06612635 -0.005904919 0.024862574 0.0064419396 -0.030173078 -0.07894388
0.02301844 -0.11305836 -0.00087794295 -0.040825307 -0.017297735 -0.121887945 -0.087841414 -0.038972802
-0.016733138 -0.053504772 0.04085953 0.055053845 -0.044621754 -0.028760862 -0.07977391 -0.0072153616
-0.030416347 0.0017547621 0.013132378 0.044944026 -0.020123804 0.028211422 -0.047574777 -0.032777146
0.038294762 0.080633186 -0.060745854 0.06091446 0.09518934 -0.029118726 -0.10887382 0.16684364
0.10104712 -0.023555432 0.022573518 0.01896124 -0.03875852 -0.065012306 0.007851538 -0.050135188
-0.014813704 0.0078073908 0.04468188 0.087379746 -0.008573916 0.019940885 0.036313996 -0.047527757
-0.010427739 0.07974864 0.051414844 0.0015248982 0.0165446 0.070548505 -0.008925596 0.021816513
0.022177998 0.019553779 -0.08055608 -0.07590979 0.010393259 -5.4154534e-05 -0.017054413 0.024588132
-0.014057923 -0.082630664 -0.017396972 -0.07000451 -0.012212616 -0.06875687 -0.025212146 -0.055806592
-0.023527574 -0.013905202 -0.074715555 -0.065359905 0.08755718 0.061765295 0.010196819 -0.0053968425
0.09962541 0.003827703 -0.008900958 0.044214014 0.0060015656 -0.120633 0.044758193 0.03382548
-0.15307562 -0.074825 0.015197856 -0.006647582 -0.08773413 -0.049798332 -0.058425963 -0.025422607
-0.009179809 -0.011647168 -0.031258877 -0.022625899 0.012629414 -0.020510739 0.0845192 0.050243966
0.06277826 0.057184964 -0.015280628 0.008747806 -0.0073908316 -0.06492559 -0.0025745144 -0.029429631
-0.0499468 -0.070327885 -0.0921309 -0.050977092 -0.07890116 -0.05286043 0.0984691 -0.010608358
-0.010796202 0.10587427 0.0477619 -0.037133098 -0.032530583 0.022208728 0.035432868 -0.06540112
0.07276901 0.030583527 -0.047736935 -0.009223395 0.013109905 0.00082433806 -0.030059954 -0.02185112
0.027788518 -0.046884418 -0.02628456 0.039561935 0.07076608 -0.017817846 -0.003337884 0.05101052
-0.058743358 -0.003709516 0.05520725 0.05439522 -0.030645633 0.084634304 -0.025092606 -0.056097876
-0.0058745 -0.06022035 -0.007062347 0.06149069 0.07129637 0.062443886 0.051954564 0.047449443
0.005374271 -0.033321396 -0.02033708 0.009355506 -0.03268324 -0.051640116 -0.12332843 -0.021233601
-0.11704768 -0.08026712 -0.070203215 -0.12388514 -0.07873025 -0.06014695 -0.019442495 0.0630328
-0.02633769 0.058044452 0.09383871 0.09135336 0.058768682 -0.04015246 0.15526846 0.03631535
-0.09833245 -0.021230964 0.097264975 -0.023132488 0.029933413 0.047197357 -0.05138349 -0.02506888
0.043859325 0.06826993 0.04663188 -0.0023054148 -0.02330236 0.034207515 0.014345926 -0.016755536
0.16307579 -0.03858655 0.032727245 0.06278592 -0.018469231 0.024325794 0.06866314 0.1260372
0.099701636 0.1555559 0.034269966 0.024308693 0.02102741 -0.00821419 -0.029127905 0.030057669
0.031738564 0.0017475879 0.069602676 -0.08251996 -0.0033341704 0.024241392 -0.06711758 0.06557805
-0.020147141 0.03440821 0.05792721 -0.0336183 0.0016732437 -0.049538743 -0.03748588 -0.039214972

layers.7.weight.scale f4 [64, 64, 3, 3]
00000000: 8b8a 05c0 88b4 0ac0 a588 08c0 837b eabf
00000010: a600 f6bf daf1 fbbf 6085 0fc0 c2a8 13c0
00000020: 46ff 03c0 b579 0fc0 8ed9 17c0 3fd0 07c0
00000030: 3b5c f3bf 1786 0cc0 d99a 0fc0 5335 f7bf
00000040: ab98 04c0 8848 01c0 d737 08c0 3ab4 eebf
00000050: c9ad 07c0 a1bf f4bf 0610 f6bf 82f8 e1bf
00000060: e77f e0bf 7125 0bc0 9a23 fdbf 8fc9 ecbf
00000070: 3a80 0ec0 eed0 eebf dc15 f9bf e4d6 03c0
00000080: b1a0 febf 1db8 fdbf 878d f6bf 1ad6 02c0
00000090: 69f7 10c0 7325 ffbf da5e f0bf 55bd d5bf
000000a0: 875a f7bf 1702 0bc0 489c 09c0 c2ae dbbf
000000b0: 445c 01c0 1add 08c0 8d3e 05c0 e0e9 13c0
000000c0: c5ca fbbf 83a8 22c0 e3e5 f4bf d4b0 e0bf
000000d0: b205 ffbf 9216 efbf 24f5 07c0 d756 02c0
000000e0: 9297 02c0 06cd 0cc0 1f18 f3bf 126a fbbf
000000f0: ab94 edbf 89f2 04c0 6df2 e8bf 54bc 0cc0
00000100: 1042 06c0 714f 03c0 1a79 11c0 986c 08c0
00000110: 28c3 09c0 ca6a f7bf 5161 09c0 b3e2 00c0
00000120: 1088 05c0 d974 0ec0 5587 f7bf 81e9 fdbf
00000130: 3808 04c0 5797 03c0 4f57 05c0 aa73 f6bf
00000140: 8d84 01c0 660e 06c0 c734 02c0 5bf6 07c0
00000150: bf9c 02c0 79b2 ebbf b692 f5bf 7a64 04c0
00000160: 04ab 0cc0 b7e9 04c0 c7a4 16c0 f2c5 13c0
00000170: 9376 04c0 9e48 06c0 c0c9 e9bf ccbf 0bc0
00000180: d0bc e7bf 0151 0bc0 f3de 0bc0 0906 e7bf
00000190: 530f f6bf 45ae 19c0 f8f3 07c0 1a7d efbf
000001a0: 1c5f efbf 8f28 09c0 b471 07c0 75a1 fdbf
000001b0: aeb6 f3bf ac74 f2bf 089c eabf 2e58 e7bf
000001c0: 8ac3 00c0 d899 e7bf 1c21 f5bf 9b00 f3bf
000001d0: f02b ebbf 0e90 06c0 f9cf febf e4e4 f9bf
000001e0: 9d3a f9bf 0ae2 c1bf aede f9bf 2070 ffbf
000001f0: d284 dfbf 8233 e8bf f4f6 00c0 fb36 e4bf
00000200: 8cbd eebf fdaa 02c0 4cdb febf 9c16 fcbf
00000210: d5e2 f4bf 4672 cabf 1620 f6bf 36f1 efbf
00000220: e098 f5bf 3bdd ecbf 27bb 03c0 5ed3 01c0
00000230: 8b35 00c0 5480 f8bf 865f d9bf 7f50 f4bf
00000240: f889 12c0 f008 03c0 6968 01c0 b832 05c0
00000250: 535e f3bf 611f ecbf 4d39 dcbf 8888 0ac0
00000260: 3e95 edbf 96d1 0ac0 31a6 0ac0 a59b 00c0
00000270: 6568 f8bf 5f76 f7bf 88ca fdbf fd96 edbf
00000280: 5a14 e8bf d621 02c0 0870 06c0 f0f8 05c0
00000290: 645d 0bc0 e3f2 e0bf 2c29 e2bf fb57 01c0
000002a0: 99f7 05c0 202c f8bf a5d7 00c0 722d 00c0
000002b0: 4688 ecbf 7b1a 09c0 45d9 03c0 6cf6 eabf
000002c0: 5b3d f7bf 84c0 14c0 437d 0fc0 3b1c ffbf
000002d0: 027d debf 3cc7 f2bf 3aec ffbf 12d8 02c0
000002e0: 62dd fdbf b129 12c0 fce1 15c0 e8de d4bf
000002f0: 23e8 12c0 0098 0bc0 b414 03c0 d865 e9bf
00000300: 6ad1 f3bf 27e6 0ec0 7d1f d6bf f00f f2bf
00000310: 1e1d 01c0 57d5 03c0 4e99 08c0 3c35 fbbf
00000320: 078f 15c0 7902 f4bf bf57 03c0 8cd7 e1bf
00000330: c83a 0ec0 6c7e 15c0 b655 07c0 721f 0ec0
00000340: 57f0 01c0 a5d3 02c0 519f f5bf 2faf fbbf
00000350: 5f45 0bc0 b3b5 06c0 9b6a 0ec0 5d05 fbbf
00000360: 2efb e8bf 4187 ffbf 3df5 e9bf fe34 fdbf
00000370: c6e7 0bc0 8ecd f4bf 5727 01c0 2428 eabf
00000380: 450c 00c0 8030 d3bf d17f 02c0 87a2 05c0
00000390: 6b1f 03c0 e5aa fdbf d5bb 06c0 95d4 09c0
000003a0: 0f52 ddbf 9631 02c0 ff16 0cc0 676d f3bf
000003b0: 0a6c 09c0 d1a0 f0bf 550b f5bf b8af f6bf
000003c0: 53ce 02c0 2907 dfbf 8b6f f8bf c3a1 0ac0
000003d0: 2c88 fabf 0585 13c0 78de efbf 47d2 ddbf
000003e0: 819f 12c0 4493 f3bf d212 0fc0 2b91 f6bf
000003f0: 3d73 03c0 001a f4bf 2f56 f8bf 9afc 02c0
-2.086581 -2.1672688 -2.1333401 -1.8318943 -1.9218948 -1.9683182 -2.2425156 -2.3071752
-2.0624557 -2.2418034 -2.3726535 -2.1220853 -1.9012522 -2.1956842 -2.2438262 -1.9313148
-2.071818 -2.020052 -2.1284082 -1.8648751 -2.119982 -1.912098 -1.922364 -1.7653964
-1.7539033 -2.1741602 -1.977649 -1.8499011 -2.2265763 -1.865751 -1.9459796 -2.059991
-1.9892789 -1.9821812 -1.9261941 -2.0443177 -2.2651007 -1.9933304 -1.8778946 -1.6698405
-1.9324502 -2.1720026 -2.1501637 -1.7162707 -2.0212564 -2.138495 -2.0819428 -2.3111496
-1.9671255 -2.5415351 -1.9132656 -1.7553964 -1.9923613 -1.8678763 -2.1243372 -2.0365503
-2.040501 -2.2000136 -1.8991736 -1.9641745 -1.8560995 -2.0773032 -1.8198982 -2.1989946
-2.0977821 -2.0517237 -2.2730165 -2.131628 -2.1525364 -1.9329464 -2.1465647 -2.0138366
-2.0864296 -2.2258818 -1.9338175 -1.9836885 -2.0630016 -2.056112 -2.083454 -1.9254048
-2.0237153 -2.0946288 -2.0344713 -2.1244113 -2.040817 -1.841384 -1.9185398 -2.0686326
-2.197938 -2.0767648 -2.3538072 -2.3089566 -2.0697372 -2.0981822 -1.8264694 -2.1835814
-1.8104496 -2.176819 -2.1854827 -1.8048717 -1.9223427 -2.4012616 -2.1242657 -1.8710053
-1.87009 -2.1431005 -2.116315 -1.9814898 -1.9040124 -1.8941855 -1.8328867 -1.8073785
-2.0119348 -1.8093824 -1.9150729 -1.898456 -1.8372784 -2.1025424 -1.9907218 -1.9522977
-1.9471012 -1.5147107 -1.9521081 -1.9956093 -1.7462409 -1.8140719 -2.0150728 -1.7829279
-1.8651595 -2.0416863 -1.9910674 -1.96944 -1.9131724 -1.5816123 -1.9228542 -1.8745487
-1.9187279 -1.8505014 -2.0582979 -2.0285258 -2.003268 -1.9414163 -1.6982276 -1.9087065
-2.289671 -2.0474205 -2.0219977 -2.0812206 -1.901316 -1.8447076 -1.7204987 -2.1645832
-1.856117 -2.169042 -2.1663935 -2.0094998 -1.9406859 -1.9332999 -1.9827433 -1.8561703
-1.8131211 -2.0333152 -2.1005878 -2.093319 -2.177575 -1.7574123 -1.7668815 -2.020995
-2.0932372 -1.9388466 -2.013162 -2.0027738 -1.8479087 -2.1422412 -2.060136 -1.8356452
-1.9315599 -2.3242502 -2.2420204 -1.993049 -1.7381899 -1.8967052 -1.9993966 -2.044438
-1.9833186 -2.2837946 -2.341918 -1.6630526 -2.2954185 -2.1811523 -2.0481386 -1.8234205
-1.9048283 -2.2327974 -1.672836 -1.8911114 -2.0174022 -2.0598962 -2.134357 -1.9625621
-2.3368547 -1.9063255 -2.0522306 -1.7643905 -2.2223377 -2.3358412 -2.1146064 -2.2206693
-2.0302942 -2.0441678 -1.9189245 -1.9662837 -2.176109 -2.10484 -2.2252567 -1.9611012
-1.8201654 -1.9963151 -1.8277966 -1.9781797 -2.1860213 -1.912523 -2.018026 -1.82935
-2.0007489 -1.6499176 -2.0390513 -2.088045 -2.0487926 -1.9817778 -2.1052144 -2.1536
-1.7290667 -2.0342765 -2.1889036 -1.9017762 -2.1472192 -1.8799077 -1.9144083 -1.9272375
-2.043843 -1.742406 -1.940904 -2.1661232 -1.9572806 -2.3049939 -1.8739767 -1.7329797
-2.2909853 -1.9029317 -2.2355237 -1.9263052 -2.0539086 -1.9070435 -1.9401301 -2.0466676

layers.7.bias.mean f4 [64]
00000000: 3174 dabb bb45 d7ba 9798 a9bb 75e5 fabb
00000010: 045e 8bbb 9303 29bc 076e eb3b bc88 163a
00000020: 3545 d3bb e346 32bc a094 1ebc b04d 2ebc
00000030: d920 24bc 6de9 9ebb 8b90 eabb aeb8 5cbb
00000040: a2ca 3abc 08d2 2abc 9b83 c5bb 4695 ccba
00000050: 96b9 02bc 550b b5bb cdd1 86bb 173d 86bb
00000060: dff9 9fbb 09dd 17bc 3473 01bb c6a9 5dbb
00000070: d541 e5bb d101 bdbb 0a89 9abb 1f71 08bc
00000080: 1f49 fdbb 6f85 b1bb ba4c 6fba ca24 92bb
00000090: 2df8 38ba c1c8 fbbb 171b 16bb 7a5e debb
000000a0: 4341 64bb 7823 ddbb 80fa 41bc aaf7 11bc
000000b0: 61b6 48bc 5a9e 4bba 5774 abbb 6604 23bc
000000c0: 5a77 36bc 277b 1bba 6149 01bb 710e 58bb
000000d0: 5683 0bbb ec85 33ba 3ea1 12bb 1509 1ebc
000000e0: 31a7 0dbc 21f3 ebbb f8ea e5bb c0b4 95bb
000000f0: af7c c7bb 3197 a6bb 21c6 0ebb 7f19 2cbb
-0.006666683 -0.001642398 -0.005175661 -0.007656748 -0.004253151 -0.010315794 0.007184747 0.0005742421
-0.006447459 -0.0108811585 -0.00967899 -0.010638639 -0.010017597 -0.004849604 -0.007158344 -0.0033679414
-0.0114008505 -0.010426052 -0.0060276515 -0.0015608452 -0.007978817 -0.0055250325 -0.0041143657 -0.004096638
-0.004882082 -0.0092690075 -0.0019752504 -0.0033823117 -0.006996373 -0.005768039 -0.0047160434 -0.008327751
-0.007729664 -0.005417518 -0.00091285596 -0.004459952 -0.0007056024 -0.007683844 -0.002290433 -0.006786165
-0.0034828938 -0.006748613 -0.011839509 -0.008909145 -0.012250514 -0.00077674317 -0.0052323746 -0.009949779
-0.011136854 -0.0005931132 -0.0019727575 -0.0032967592 -0.0021288 -0.0006848264 -0.002237394 -0.00964572
-0.008645819 -0.007200614 -0.007016536 -0.004568666 -0.0060878615 -0.0050839414 -0.0021785574 -0.0026260314

layers.7.bias.scale f4 [64]
00000000: e64d 08c0 8ee5 05c0 0f4b 01c0 52c6 0bc0
00000010: fbe6 08c0 3503 03c0 da85 0dc0 05e6 0ac0
00000020: 324f 05c0 3098 07c0 3393 07c0 ccf8 08c0
00000030: b379 0dc0 7f71 0cc0 4045 06c0 c569 09c0
00000040: 024d f1bf be8a 06c0 ca3b 07c0 2546 09c0
00000050: 6350 04c0 7b92 09c0 b36d 08c0 52ba 03c0
00000060: afca 08c0 d74a 0ec0 16ae 11c0 0533 0ec0
00000070: 7691 04c0 f7f1 0bc0 f604 00c0 5979 0bc0
00000080: 4edd 06c0 fccc 0bc0 177a 11c0 0265 0bc0
00000090: ca6c 0ac0 ffe0 12c0 a7f4 0ac0 10e9 0cc0
000000a0: 9969 06c0 03f8 0cc0 c97f 0cc0 fabb 0cc0
000000b0: ff97 0ec0 bfbf 02c0 4ca6 05c0 f4a9 0fc0
000000c0: b0f7 13c0 2a7b 06c0 b4fb 0cc0 c626 01c0
000000d0: c98c 16c0 ad2a 08c0 429e 0bc0 30d2 0dc0
000000e0: f972 02c0 1fda 18c0 52c9 07c0 f16d 08c0
000000f0: a46e 0ec0 4091 07c0 8e67 06c0 3d4e 05c0
-2.1297545 -2.092136 -2.0202062 -2.1839795 -2.139098 -2.0470707 -2.2112947 -2.1702893
-2.0829587 -2.1186638 -2.1183593 -2.1401854 -2.210553 -2.1944273 -2.0979767 -2.1470807
-1.8851626 -2.1022182 -2.1130242 -2.1449063 -2.0674064 -2.1495655 -2.1316955 -2.058247
-2.1373708 -2.2233179 -2.2762504 -2.221864 -2.0713782 -2.1866434 -2.0003028 -2.1792815
-2.1072574 -2.1843863 -2.2730768 -2.17804 -2.16289 -2.2949827 -2.1711824 -2.201725
-2.1001952 -2.2026374 -2.1952994 -2.1989732 -2.228027 -2.0429533 -2.088275 -2.244748
-2.3119926 -2.1012673 -2.2028627 -2.0179915 -2.3523428 -2.1276047 -2.1815343 -2.2159538
-2.0382674 -2.388313 -2.1216626 -2.1317103 -2.225503 -2.1182404 -2.1000705 -2.0829003

layers.10.weight.mean f4 [10, 576]
00000000: 6500 e2bc 7055 09be d6c9 b13a 6e0a 253e
00000010: 5da9 423d 67a4 bb3d 9988 913d 4622 eb3d
00000020: 743b 2dbe 1d36 41bd 70e5 cfbd a046 5f39
00000030: 79ae 333e 233d 0abd 6f99 313e 89d3 3bbd
00000040: e1b7 a8bd 2d46 6e3c 349b e8bd ab35 d0bd
00000050: 0eb1 6abd ec48 433e 40a4 69bd bc0f b93d
00000060: d802 9b3d 71e2 f9bd 0345 cfbd 8d8f 523d
00000070: d2f4 233d 57ff c2bd c378 3cbe a22b 533d
00000080: 8a99 7d3d b1df 47be 2508 1e3e 5094 583e
00000090: 1b4d 51bc 0493 d9bc 08c1 7abd cf74 0f3e
000000a0: 53f6 263d b556 843d 0a16 2abd fdfa bb3d
000000b0: 0483 2abd 371e 8cbd 2213 ad3a eb6e 183c
000000c0: 2a4f 213e 17f1 173c cb7a d83d db6a b0bd
000000d0: 7252 733c c75e 12be 60e5 af3d c8ad e63d
000000e0: f811 e63d 9f73 f5bd 91ed d3bd 5435 7ebd
000000f0: dc0b aa3d e7b3 37bd 82d5 153d 05c5 12bc
00000100: 5250 34bd 1a05 d13b 9472 0a3d 8158 64bd
00000110: 05cc d5bd 022f 513e d8a8 1cbd ef4d 0abe
00000120: c182 40bc ae3d 2cbe fbb1 8a3d 6dfd a43d
00000130: 9392 c73c 8afe 1e3e 474e 07be ac33 de3c
00000140: 521d fcbd 621e d4bd b00b b13d 7191 18be
00000150: 1d62 6e3c 6357 123e 4d69 293d 881b 953d
00000160: 33e7 45bc c430 853d 507c aebd 7a88 3d3d
00000170: 9a44 ebbd be81 b2bd 13c6 95bc 3355 4fbd
00000180: d907 533d 15e0 fabb 0b4c c63c e971 e3bd
00000190: de72 803d b993 0bbe 9e84 183e 4490 9e3c
000001a0: 24e0 203e fac3 08bd da82 89bd 7b7a 11be
000001b0: 6ae2 7bbc bcb6 373d 2624 88bc 7e3f febd
000001c0: 6eb6 a23d cb09 af3d 3f52 ef3b f85a 4a3e
000001d0: 4bc7 3f3e 6640 093d a21a 023d 3d0e 823d
000001e0: 1554 8cba c206 bb3d 1270 133e 9a2d 12be
000001f0: 4633 ff3d 300b 153e e074 0b3e fd1f e33b
00000200: bcf6 073e 8272 08bc 69a2 d5bd 9778 44be
00000210: a7ae 24be 64a7 b3bd 899f 96bd addc b0bd
00000220: 3957 1a3e b6b9 dcbc 2967 9ebd b599 a53b
00000230: e151 16bd 3e80 ad3d 18dc 8f3d 6b89 bc3d
00000240: 04f5 cabd 9160 233e a618 b8bd 5717 b9bd
00000250: 730f 85bc 5cc4 b6bd 4ed7 1f3d 4640 30bd
00000260: 8425 243e bafc 86bd b32d 553c 2e61 a0bd
00000270: ec9a 883d 8441 283c e06d c53d 0baa 0f3d
00000280: db56 90bb 04ab 0b3e cf12 b8bc bb1d 79bd
00000290: cea7 5a3c 6b9b 973d 1d44 1b3b e6aa a23d
000002a0: b067 03bd e007 aabd 897d 5bbd 69e6 adbd
000002b0: f7a6 00bd 771d 363d d256 973d 5170 9dbd
000002c0: 3a1f 013e 061e 103d b433 f9bd d341 7a3d
000002d0: 0996 b73d a934 b13d d063 da3b 667a a63d
000002e0: 2efd fc3c 3768 db3d a182 dbbd 4a7f d3bc
000002f0: afa5 5fbd 3640 01bc d173 7ebd e976 1cbd
00000300: d61a b73d ec28 c83d 865a afbb b1af b83d
00000310: 0d71 66bd f97d 33bd 3c56 2c3d 42cd 23be
00000320: 710b babb b023 d23d 5443 5a3d a382 353e
00000330: 92f9 36be 82ee 023e 97b0 07bc fdee b63d
00000340: ce2b 8c3c 80d0 7a3d 4782 fdbc 1566 37bc
00000350: efce 72bd f19e 25be 2136 c23d 1d2e cebc
00000360: ce3d a4bd 5378 56bd ee72 423d cb8a fc3c
00000370: 2ff4 abbd 0b84 95bd 5c02 393e a0d8 c6bd
00000380: e3e4 f2bc 44a8 17be 8e2a f93d 2f52 9fbd
00000390: e9eb ae3d b522 fc3d 1ff6 a93d 4f30 e23d
000003a0: 7076 7abd 30ff 943c b9b2 c3bd 643e 6fbd
000003b0: cf1a ccbd 52b0 c73d 6f9f c7bc 003f 693d
000003c0: 1e61 043e 228a aebd 242b 963d 986e e13d
000003d0: d430 b6bd 3b60 d3bd 19c7 5ebd 26ea 893d
000003e0: ed30 fabd 1a08 a1bd f579 34be dfaa c53d
000003f0: 23ca f4bd 3ded 14bc d03a 30be 7ae2 06bd
-0.027588079 -0.13411498 0.001356418 0.1611726 0.0475248 0.09162217 0.07106132 0.114811465
-0.16917211 -0.047170747 -0.101511836 0.00021293247 0.17547025 -0.03374971 0.17343687 -0.045856033
-0.08238197 0.014543098 -0.11357728 -0.10166486 -0.05729776 0.19070786 -0.057041407 0.09036204
0.07568902 -0.122013934 -0.10120585 0.051406432 0.0400284 -0.095213585 -0.18405442 0.051555283
0.061914004 -0.19518925 0.15432794 0.21150327 -0.012774731 -0.02655936 -0.061219245 0.14009403
0.040762257 0.064618506 -0.041524924 0.091787316 -0.041628852 -0.068417005 0.0013204555 0.009303789
0.15752855 0.009273789 0.10570296 -0.08614131 0.014851199 -0.14293967 0.08588672 0.11263615
0.11233896 -0.119849436 -0.103480466 -0.062062576 0.08303043 -0.044849303 0.03658057 -0.008958106
-0.044021912 0.006378782 0.033800676 -0.055748466 -0.10439304 0.20428088 -0.03824696 -0.13506292
-0.011749924 -0.16820404 0.06772228 0.0805615 0.024361884 0.15526786 -0.13213454 0.027124248
-0.1231028 -0.103573576 0.08644807 -0.14899231 0.014549759 0.14291148 0.04136019 0.07280642
-0.012079048 0.06503442 -0.085198045 0.046272732 -0.11487694 -0.087161526 -0.018282926 -0.05061836
0.051521156 -0.007656107 0.024206182 -0.11105711 0.06271909 -0.1363057 0.1489434 0.0193559
0.15710503 -0.033390023 -0.06714411 -0.14206879 -0.015373806 0.044852003 -0.0166188 -0.12414454
0.07944952 0.0854679 0.0073035057 0.19761264 0.18728368 0.03350868 0.03176368 0.06350372
-0.0010706211 0.09132148 0.1439822 -0.14275208 0.124609515 0.14555049 0.13618803 0.0069313035
0.13277715 -0.008328082 -0.10431368 -0.19186626 -0.1608225 -0.087721616 -0.07354648 -0.086358406
0.15072335 -0.026944023 -0.0773452 0.0050537237 -0.03669918 0.08471726 0.070244014 0.09205898
-0.09910014 0.15954806 -0.08989076 -0.09037655 -0.016242718 -0.08924171 0.03902369 -0.043030046
0.16029936 -0.065911725 0.013011384 -0.078310356 0.06670174 0.010269526 0.096400976 0.035074275
-0.004404885 0.13639456 -0.022469906 -0.06081937 0.013345672 0.074026905 0.0023691722 0.079427525
-0.032081306 -0.08302283 -0.053586517 -0.08491213 -0.03140923 0.044461694 0.073896065 -0.07687438
0.12609568 0.035184883 -0.12168065 0.06109793 0.08964164 0.08652622 0.0066647306 0.081288144
0.030882444 0.10713237 -0.10718275 -0.025817532 -0.054601368 -0.007888844 -0.06212217 -0.03819934
0.089406654 0.0977343 -0.0053513674 0.090178855 -0.056260157 -0.04382131 0.042074427 -0.15996268
-0.0056776335 0.10260713 0.053286865 0.17725615 -0.17868641 0.12786296 -0.008281848 0.08932302
0.017110731 0.061233997 -0.03094591 -0.011193772 -0.05927938 -0.16173913 0.094829805 -0.025168473
-0.08019601 -0.052360844 0.047472887 0.0308279 -0.08396184 -0.07300576 0.18067306 -0.09709287
-0.029650157 -0.14810282 0.1216632 -0.07779347 0.0854109 0.12311307 0.08298897 0.110443704
-0.061148107 0.01818809 -0.09555573 -0.05840911 -0.09966051 0.09750427 -0.024368016 0.056944847
0.12927672 -0.085224405 0.07332447 0.11007422 -0.08896032 -0.10321089 -0.054389093 0.067341134
-0.12216363 -0.078628734 -0.17624648 0.09651732 -0.11952617 -0.009089765 -0.17209935 -0.03293083
