examples/Simple/simple_pretrained.pth (torch_old, 84755 bytes, 8 tensors)

layers.0.weight f4 [100, 1]
0	0x3ec604c9	0.38675526
1	0x3f48e772	0.7847816
2	0x3e25d8e8	0.16196024
3	0x3f12f5d7	0.5740637
4	0x3f3c8108	0.73634386
5	0x3e97221b	0.29518208
6	0x3ee4a2d2	0.44655472
7	0x3dc0fd70	0.09423339
8	0xbef28835	-0.47369543
9	0x3d40e20e	0.047090583
10	0xbf6eac68	-0.9323182
11	0x3dec7ad2	0.115468636
12	0xbe4131c8	-0.18866646
13	0xbf60fa63	-0.8788206
14	0xbdad79c1	-0.08470488
15	0x3ed79cf1	0.42111924
16	0xbea37f9b	-0.31933293
17	0xbf6a8766	-0.9161285
18	0x3ea18efc	0.315544
19	0x3f665352	0.89970887
20	0xbf43072c	-0.7618282
21	0xbf57abd9	-0.84246594
22	0xbdc9f4ed	-0.09861169
23	0xbe80c5cb	-0.25150904
24	0x3e5d7337	0.21625982
25	0x3ed03389	0.40664318
26	0xbeeb6a3f	-0.45979497
27	0x3ef7b7f1	0.48382524
28	0xbe24a6ae	-0.16079208
29	0x3f55c3b6	0.83501756
30	0x3f5c3684	0.86020684
31	0x3f30fca3	0.69135493
32	0x3f267425	0.6502097
33	0x3f243d79	0.641563
34	0xbef6f307	-0.4823229
35	0x3d7d10e0	0.06178367
36	0xbf28af04	-0.6589205
37	0xbede5040	-0.434206
38	0x3eb09594	0.3448912
39	0x3e91c9b5	0.28474203
40	0xbe046008	-0.12927258
41	0x3f3d9411	0.74054056
42	0xbe83149d	-0.25601664
43	0x3e7ef1f9	0.24896993
44	0x3ecfe887	0.40607092
45	0x3ef50d66	0.47861785
46	0x3ec38e0a	0.38194305
47	0x3f369c4a	0.7133223
48	0xbed242ab	-0.4106649
49	0x3d8e0620	0.06934762
50	0xbf33c5a5	-0.70223457
51	0x3f4ef83c	0.80847526
52	0x3eb48909	0.352608
53	0xbf4ebd3a	-0.80757487
54	0x3f01f30c	0.50761485
55	0x3f58e7ba	0.84728587
56	0xbed9fa85	-0.42573944
57	0xbf4b7d35	-0.79487926
58	0xbce111cb	-0.027474305
59	0x3f5fea3d	0.87466794
60	0x3f609049	0.8772016
61	0xbf300671	-0.6875983
62	0x3f6a705b	0.9157769
63	0xbd11b4b4	-0.035572723
64	0xbf800169	-1.000043
65	0x3f565014	0.8371594
66	0xbe96bbbf	-0.29440114
67	0xbe9fc32a	-0.31203586
68	0xbe9e925a	-0.30971032
69	0x3ea664c9	0.32498768
70	0xbf6af688	-0.91782427
71	0xbf427247	-0.75955623
72	0x3deb569c	0.11491129
73	0xbef48fd7	-0.4776599
74	0x3f6c24cf	0.92243665
75	0xbd040137	-0.03222772
76	0x3f500d9e	0.8127078
77	0x3f2ea2d3	0.682172
78	0x3de4f34e	0.11179219
79	0xbf10fc60	-0.56635094
80	0x3e7dfa85	0.24802597
81	0x3ee89837	0.4542863
82	0x3f3a20d4	0.7270634
83	0x3e1550b2	0.14581564
84	0xbe8b1ca1	-0.2717028
85	0xbf7578d6	-0.95887506
86	0x3efe8994	0.4971434
87	0x3ef1c27b	0.4721869
88	0x3f2958f4	0.66151357
89	0xbf545fc8	-0.8295865
90	0xbf5f1ee9	-0.8715654
91	0xbf733297	-0.9499907
92	0x3e31661a	0.17324105
93	0xbdd8246d	-0.10553823
94	0xbee8f846	-0.45501918
95	0x3f26b62a	0.6512171
96	0xbf08e26e	-0.53470504
97	0xbf690684	-0.9102557
98	0x3f13a712	0.57676804
99	0xbf7ac8b4	-0.979625

layers.0.bias f4 [100]
0	0xbf0624ff	-0.524002
1	0x3f02b94d	0.51063997
2	0x3f68ec9d	0.90986043
3	0x3ea0d59e	0.31412977
4	0x3e4bc23b	0.19898312
5	0x3efdfd62	0.49607378
6	0xbf7ab5f3	-0.9793388
7	0xbec20dd8	-0.37901187
8	0x3e6cf89d	0.23141713
9	0x3f91c30a	1.1387646
10	0x3ee95c08	0.45578027
11	0x3f122320	0.57084846
12	0x3f655bb7	0.8959307
13	0x3f8aeb99	1.0853149
14	0x3eec95c0	0.46208
15	0x3e357285	0.17719467
16	0xbf383876	-0.7196115
17	0xbee7faa6	-0.45308417
18	0xbf2c1650	-0.67221546
19	0xbf050a97	-0.51969284
20	0xbf9c1e89	-1.2196819
21	0xbdc8ec70	-0.09810722
22	0x3f201518	0.62532187
23	0x3f91b0e9	1.1382114
24	0xbf01097b	-0.5040509
25	0xbf560d77	-0.83614296
26	0x3ee6b575	0.45060316
27	0x3eac197a	0.33613187
28	0xbdb55416	-0.08853929
29	0xbe207d35	-0.15672763
30	0xbef24de2	-0.47325045
31	0x3f13a7d0	0.57677937
32	0xbf43e580	-0.76522064
33	0x3f8c6df9	1.0971061
34	0x3f34edb2	0.70675194
35	0x3ed639b9	0.41840914
36	0x3f1876b3	0.5955612
37	0xbf42edda	-0.7614418
38	0x3da5f9b1	0.081042655
39	0xbf2b3ce6	-0.668898
40	0x3f5aa1b9	0.8540302
41	0x3f57d37a	0.8430706
42	0x3f9282d1	1.1446172
43	0xbd59611c	-0.053071126
44	0x3ea59f69	0.32348183
45	0xbef1e0b5	-0.4724175
46	0x3f25634b	0.64604634
47	0xbe36e4e4	-0.17860752
48	0x3f322eed	0.69602853
49	0xbf14763a	-0.579929
50	0xbf9847e6	-1.1896942
51	0xbf39a605	-0.7251895
52	0x3f0ddd90	0.554162
53	0xbf45f265	-0.7732299
54	0x3f23c11d	0.6396654
55	0xbb6e83c7	-0.0036394463
56	0x3ef98645	0.48735252
57	0xbf8f4c9f	-1.1195258
58	0x3f80a487	1.005021
59	0x3efc9f5b	0.4934033
60	0xbf475c48	-0.77875185
61	0x3dbc72ef	0.09201609
62	0x3f06ad1d	0.526079
63	0x3f96fb84	1.1795506
64	0x3ccb736c	0.02483531
65	0xbf6a89a4	-0.9161627
66	0x3e9a8242	0.30177504
67	0xbf33fefa	-0.7031094
68	0x3eef90a3	0.46790037
69	0xbf54c062	-0.8310605
70	0xbf26c721	-0.65147597
71	0x3f736e14	0.9508984
72	0xbe9ad24d	-0.30238572
73	0xbed302e0	-0.4121313
74	0xbf813eb6	-1.0097263
75	0x3f745e59	0.95456463
76	0xbdd81bd7	-0.10552185
77	0xbf8a818c	-1.0820785
78	0x3f74629b	0.9546296
79	0x3f7845a5	0.9698127
80	0xbf071eb8	-0.5278125
81	0x3f43f2bf	0.76542276
82	0xbf3576ba	-0.7088429
83	0x3eaab936	0.3334443
84	0xbf1e4b99	-0.618341
85	0xbe93a8cb	-0.28839716
86	0x3df0aebb	0.11752077
87	0xbdf9d3ba	-0.12198587
88	0x3f31544f	0.6926927
89	0xbf04691f	-0.517229
90	0x3cb2ba9c	0.021817498
91	0xbf615d82	-0.88033307
92	0xbee891a0	-0.45423603
93	0x3f220ab0	0.6329756
94	0xbf3e8dc7	-0.74435085
95	0xbf233bf0	-0.6376333
96	0xbf7abbe2	-0.97942936
97	0xbec4314a	-0.38318855
98	0xbec1c82b	-0.3784803
99	0xbef1985c	-0.47186553

layers.2.weight f4 [100, 100]
0	0xbd00a50d	-0.031407405
1	0xbd80be0e	-0.0628625
2	0x3d23a892	0.039955683
3	0xbd60acba	-0.054852225
4	0x3d09282e	0.033485584
5	0x3e0c26d1	0.13686682
6	0xbdbb2a15	-0.09138886
7	0xbdad0f6a	-0.084502056
8	0xbcd176f0	-0.02556941
9	0xbc6b526c	-0.014362913
10	0x3cabcd99	0.02097206
11	0x3c1f1b74	0.009711135
12	0xbd401073	-0.046890687
13	0x3d9e2e07	0.07723623
14	0x3d35ff01	0.044432644
15	0x3dbab620	0.09116769
16	0x3e8c8890	0.2744794
17	0xbc5fced4	-0.0136601515
18	0xbdb9b9ce	-0.090686426
19	0xbd38a631	-0.045080367
20	0x3dcff98a	0.10155018
21	0x3b1f685d	0.002432368
22	0xbd15413c	-0.036439165
23	0x3d8bbc18	0.068229854
24	0x3c97c6bd	0.018527383
25	0xbcbffe14	-0.023436584
26	0x3d1ef6ff	0.038809773
27	0xbcf28994	-0.029606618
28	0x3cc62472	0.0241873
29	0xbd91f477	-0.07126706
30	0x3ca4f7cc	0.02013769
31	0x3d5ce0e0	0.053925395
32	0xbd18ac82	-0.03727389
33	0x3e17b309	0.1481439
34	0xbc0d27ad	-0.0086154165
35	0x3d80f196	0.06296079
36	0x3d87d547	0.06632476
37	0x3de5afc4	0.11215165
38	0xbc8baf90	-0.017051488
39	0x3d92a2e6	0.07159977
40	0xbd4d1228	-0.050066143
41	0xbceb9e04	-0.028761871
42	0x3d11a5a8	0.035558373
43	0x3d36021d	0.04443561
44	0x3d963eba	0.07336183
45	0xbda3159a	-0.079631045
46	0x3c879feb	0.016555747
47	0xbd06fcb6	-0.032955848
48	0xbca05b41	-0.019574763
49	0xbd16593c	-0.036706194
50	0x3d852d52	0.06502785
51	0x3ddb846f	0.10718619
52	0x3e01ea32	0.12686995
53	0x3de13e29	0.10998184
54	0x3e058fb2	0.13043097
55	0x3df0c08a	0.11755474
56	0xbd97df6f	-0.074156635
57	0x3d9db995	0.077014126
58	0x3c5fa35f	0.013649791
59	0x3ded55d9	0.1158864
60	0x3df75050	0.12075865
61	0xbd32b244	-0.04362704
62	0xbbefc9d5	-0.0073177614
63	0x3d5aec5a	0.05344806
64	0x3dc05060	0.0939033
65	0xbd9b11ff	-0.07571792
66	0x3d5c4365	0.05377521
67	0x3e6c6116	0.2308391
68	0x3923e8a2	0.00015631554
69	0xbdff6d5f	-0.12472033
70	0xbd0407fa	-0.03223417
71	0x3cc667fd	0.024219507
72	0xbca5bffc	-0.020233147
73	0xbd6b853a	-0.0575001
74	0xbda949a3	-0.08265998
75	0x3c78f078	0.015194051
76	0x3dee73c8	0.11643177
77	0xbce7b30c	-0.028283618
78	0x3cd09f6c	0.025466643
79	0xbda0e6a0	-0.07856488
80	0xbdac8230	-0.08423269
81	0xbb4db7f3	-0.003139016
82	0x3c545eaf	0.012962027
83	0x3ab88c19	0.0014079838
84	0x3d933319	0.071874805
85	0xbb9bb149	-0.0047513586
86	0x3dd4c6a0	0.10389447
87	0xbcfbea49	-0.030751364
88	0x3d1d7aab	0.038447063
89	0xbd7ddd19	-0.061978433
90	0xbd852734	-0.06501618
91	0x3cb7a54a	0.022417683
92	0x3d2abf9b	0.041686635
93	0x3cabff32	0.02099571
94	0x3d7cd2db	0.061724525
95	0x3c5397f6	0.012914648
96	0x3e01864a	0.12648883
97	0x3d2f8009	0.042846713
98	0x3d0b3dc8	0.033994466
99	0x3da2e6d9	0.07954187
100	0xb9729beb	-0.00023137002
101	0xbc8dc6fe	-0.017306801
102	0xbd7f319b	-0.062303167
103	0x3df591cf	0.119907014
104	0x3d1dc7b7	0.03852054
105	0xbcce6f2a	-0.025199492
106	0x3e892627	0.2678692
107	0x3dacda8b	0.08440121
108	0x3d51e97d	0.051248062
109	0x3de5d893	0.11222949
110	0x3d4a9a2a	0.04946343
111	0xbc97cb7b	-0.018529644
112	0xbcfc0c62	-0.030767623
113	0x3db63b55	0.088980354
114	0x3cfcb262	0.030846778
115	0xbbc90234	-0.006134296
116	0xbd8797d1	-0.066207536
117	0xbd1ebf2a	-0.038756527
118	0x3cdfe916	0.027332824
119	0x3d319103	0.043351185
120	0x3a1befe9	0.000594853
121	0x3d813a59	0.06309957
122	0xbd567e37	-0.05236646
123	0x3d72720e	0.059190802
124	0x3e13384a	0.14376941
125	0x3e64a88f	0.22329925
126	0xbd94d07a	-0.07266326
127	0x3e043dd6	0.12914214
128	0xbdb3592c	-0.087572426
129	0x3d991755	0.07475153
130	0xbd6669cd	-0.056253243
131	0x3df8dad9	0.12151117
132	0x3e0880a9	0.1333033
133	0x3db86ca0	0.090050936
134	0x3a95e579	0.0011436186
135	0xbc751942	-0.014959635
136	0x3dd3f8a7	0.10350161
137	0xbdab68a1	-0.08369566
138	0x3cf506da	0.029910494
139	0x3e843418	0.25820994
140	0xbce03b64	-0.02737207
141	0x3b0e3b84	0.0021702955
142	0x3d8a0d31	0.06740797
143	0x3dbd08e9	0.09230215
144	0x3dcba541	0.09943629
145	0xbd3fb0fa	-0.046799637
146	0x3cc13760	0.023585975
147	0x3cc3a757	0.023883505
148	0x3b37ce7e	0.0028046663
149	0xba150d00	-0.0005685836
150	0xbd4af33d	-0.049548376
151	0x3dca7b23	0.09886768
152	0x3d5a00fb	0.05322359
153	0x3b3ddb5b	0.0028969857
154	0x3dbc4a30	0.09193838
155	0x3dbbbaa3	0.091664575
156	0x3d5b5acb	0.053553384
157	0xbdf7d83a	-0.12101789
158	0xbd92c360	-0.07166171
159	0x3cd16eba	0.025565494
160	0x3d03a083	0.032135498
161	0xbd75fe40	-0.060056925
162	0x3ba251d5	0.004953603
163	0x3dc8247f	0.09772586
164	0xbcd2fbd6	-0.02575485
165	0xbcec8136	-0.028870206
166	0xba5afb68	-0.00083535025
167	0xbe26e084	-0.16296583
168	0x3d0934d1	0.033497635
169	0x3e7abf65	0.24487074
170	0xbcd5acf8	-0.026083454
171	0xbce552d7	-0.027993603
172	0x3e5eba54	0.21750766
173	0xbdb06407	-0.08612829
174	0x3e0d9b69	0.13828816
175	0x3c89445b	0.016756227
176	0x3d9477f3	0.07249441
177	0x3c852f98	0.016258046
178	0x3dc8c92a	0.09803994
179	0x3dd27a12	0.10277189
180	0x3e787c28	0.24266112
181	0x3d994744	0.07484296
182	0x3d011bf3	0.031520795
183	0x3caa1b0c	0.02076485
184	0xbe1c76fc	-0.15279764
185	0x3b9a5d03	0.004710795
186	0x3d3eeedd	0.046614517
187	0xbd8bb275	-0.06821147
188	0x3d9aef87	0.075652175
189	0xbd61b205	-0.055101413
190	0xbddcf84d	-0.10789547
191	0xbd6f587b	-0.05843399
192	0x3e252908	0.16128933
193	0x3db074c4	0.08616021
194	0xbc900897	-0.017582221
195	0xbb8ca314	-0.0042919014
196	0x3ad71c12	0.0016411564
197	0x3cc40d26	0.02393205
198	0xbd5571f9	-0.052110646
199	0xbde73dc1	-0.112910755
200	0xbd4cd2c8	-0.050005704
201	0xbd9525d0	-0.07282603
202	0x3dc7c741	0.097548015
203	0x3dc10cde	0.09426282
204	0xbd669edb	-0.05630384
205	0x3deb07a1	0.114760645
206	0x3dc6484e	0.0968176
207	0xbdb49f1b	-0.088194095
208	0xbd3db25f	-0.046312686
209	0x3dc60aef	0.09670054
210	0x3dc04da2	0.09389807
211	0x3d9614ec	0.07328209
212	0x3de43d6a	0.11144526
213	0x3b30934a	0.002694326
214	0x3dd86a2e	0.10567127
215	0xbcb70b35	-0.022344211
216	0x3e696898	0.22793806
217	0x3d61a263	0.055086505
218	0x3d349235	0.044084746
219	0x3d07ce84	0.033155933
220	0x3d226dc7	0.039655473
221	0xbdb3f4c2	-0.08786918
222	0xbd1b6c66	-0.037945174
223	0xbd5214f4	-0.051289514
224	0x3da452eb	0.08023628
225	0xbd6ea701	-0.058264736
226	0xbc270208	-0.010193355
227	0x3d8a4703	0.06751826
228	0x3d8ce767	0.06880074
229	0x3c0b1472	0.008488761
230	0x3dbd75a0	0.09250951
231	0x3d8bac10	0.06819928
232	0xbd8eeab3	-0.06978359
233	0x3dc268ee	0.0949267
234	0xbd0afa22	-0.03392995
235	0x3d842d19	0.06453914
236	0x3bd064a3	0.006359653
237	0x3e2255cc	0.15853041
238	0x3d73b7cd	0.059501458
239	0x3da8d682	0.08244039
240	0x3db56464	0.088570386
241	0x3d8bac04	0.06819919
242	0x3dce0884	0.10060218
243	0x3d7ec285	0.062197227
244	0x3d92cbaa	0.07167752
245	0x3c8da0f9	0.017288672
246	0xb94b9ecf	-0.0001941875
247	0xbca706c9	-0.020388978
248	0x3c7f65c2	0.015588226
249	0xbd6cc78a	-0.057807483
250	0x3e064af0	0.13114524
251	0xbc7081eb	-0.014679412
252	0x3c8d0457	0.017213983
253	0x3d864f3b	0.06558081
254	0x3dfb66b4	0.122754484
255	0x3d568be4	0.052379504

layers.2.bias f4 [100]
0	0x3c5217d1	0.012823061
1	0xbcfc7ae2	-0.030820314
2	0x3dad0d25	0.08449773
3	0x3d39a95e	0.045327537
4	0xbcab38a1	-0.020901026
5	0xbc999d75	-0.01875184
6	0xbdcba505	-0.09943584
7	0x3d07c2e8	0.03314486
8	0x3c2d9b84	0.01059616
9	0x3daaa95f	0.08333086
10	0xbe71f3dc	-0.23628181
11	0xbd158240	-0.03650117
12	0xbc67b070	-0.014141187
13	0xbaaa309a	-0.0012984455
14	0xbd32326d	-0.04350512
15	0xbd2f550f	-0.042805728
16	0x3dc949c1	0.098285206
17	0xbde4b897	-0.1116802
18	0xbdd50bf3	-0.1040267
19	0xbe5497f3	-0.20761089
20	0xbda7a99f	-0.081866495
21	0xbd35f777	-0.044425454
22	0xbcdf2d96	-0.027243417
23	0xbc165214	-0.009174842
24	0x3cead2eb	0.028665027
25	0xbb35dcf9	-0.0027750118
26	0x3d3b1da6	0.04568257
27	0xbd313322	-0.043261655
28	0xbd2b1e15	-0.041776735
29	0x3c42a683	0.01188052
30	0xbdc8cea4	-0.098050386
31	0x3dc437ac	0.09580931
32	0xbd0ed7c0	-0.034873724
33	0x3da1e1e3	0.079044126
34	0xbb8d7afd	-0.00431764
35	0x3d9b74f3	0.07590666
36	0x3ce925a9	0.02846034
37	0xbd6d0e7a	-0.057875134
38	0xbd69a16c	-0.05703871
39	0xbd1cb1fb	-0.038255673
40	0xbbaef9e0	-0.005339846
41	0xbdc78e2e	-0.097439155
42	0x3da04229	0.07825119
43	0xbe1c7dcb	-0.15282361
44	0x3d4fc03a	0.05072043
45	0xbcdb43ec	-0.026765786
46	0xba933f04	-0.001123399
47	0x3d807b11	0.06273473
48	0xbe89bd57	-0.26902267
49	0x3ded9fe7	0.116027646
50	0x3dc4c664	0.096081525
51	0x3d2a5f9f	0.041595098
52	0xbc6b8088	-0.014373906
53	0xbd70a260	-0.058748603
54	0xbd1a7098	-0.037705034
55	0xbe4e94f3	-0.20174007
56	0xbda83667	-0.082135014
57	0x3d888e6a	0.06667788
58	0xbe4f8314	-0.20264846
59	0x3c831b9e	0.01600438
60	0xbb01ff26	-0.0019835918
61	0xbdc1db01	-0.094656
62	0x3d87ab13	0.06624427
63	0x3db2c1c6	0.087283656
64	0xbd857be0	-0.06517768
65	0xba039085	-0.00050187885
66	0x3d8a1ab9	0.06743378
67	0x3c7a1d94	0.015265841
68	0xbdf41f4c	-0.11920032
69	0xbe6b406b	-0.22973792
70	0xbd04b9b5	-0.032403667
71	0xbe166311	-0.14686228
72	0xbcc9146e	-0.024545874
73	0xbd89fd75	-0.06737796
74	0x3d8917e8	0.06694013
75	0x3db4631f	0.08807968
76	0x3d8472e1	0.06467224
77	0xbbaa3051	-0.005193748
78	0x3bee0a37	0.0072644013
79	0xbe7757f2	-0.24154642
80	0xbc38b746	-0.011274165
81	0x3e13a03a	0.1441659
82	0x3d952fc1	0.07284499
83	0x3d3b47b9	0.045722697
84	0xbc1c6180	-0.00954473
85	0x3ce882ec	0.02838274
86	0xbd17c136	-0.037049495
87	0x3c1ba1dd	0.00949904
88	0x3b8b7fe0	0.0042571872
89	0xbe4cbe66	-0.19994506
90	0x3dddbc90	0.10826981
91	0xbd4e9769	-0.050437365
92	0x3db15f8d	0.08660803
93	0xbe23e994	-0.16007072
94	0xbe8054af	-0.25064608
95	0x3d75466b	0.05988161
96	0xbb8758ab	-0.004130443
97	0xbd6782b9	-0.05652115
98	0xbdcbafeb	-0.09945663
99	0x3da9f29f	0.082982294

layers.4.weight f4 [100, 100]
0	0xbd51cfe4	-0.05122365
1	0xbd971981	-0.07377911
2	0x3d72260d	0.05911832
3	0xbdbd37e3	-0.09239175
4	0xbb861a1c	-0.004092468
5	0xbd4983a5	-0.04919781
6	0x3db295c1	0.087199695
7	0x3d8cf48d	0.06882582
8	0x3c2079e5	0.009794687
9	0x3b86f67f	0.00411874
10	0xbd8338d3	-0.06407323
11	0x3d96fa7c	0.07371995
12	0x3c8ef93f	0.017452834
13	0x3d699fd8	0.057037205
14	0x3c92d754	0.017924942
15	0xbdb388e9	-0.08766348
16	0xbda5d1a1	-0.08096624
17	0xb9be9fca	-0.00036358676
18	0xba867e0a	-0.0010260951
19	0x3d74b622	0.059744008
20	0xbd8a97b5	-0.06767217
21	0xbdb55cf3	-0.08855619
22	0xbd347b3b	-0.044062834
23	0xbd9e79d5	-0.07738081
24	0xbb14d6aa	-0.0022710958
25	0x3daa36e4	0.08311251
26	0xbd0bc8f0	-0.034127176
27	0xbcd3a232	-0.025834177
28	0xbd6edd96	-0.05831679
29	0x3c46b9a1	0.012129218
30	0xbdd59111	-0.1042806
31	0x3cf65d29	0.03007372
32	0xbc578251	-0.013153628
33	0x3d6b686c	0.05747263
34	0xbd7a6219	-0.06112871
35	0xbdcda59d	-0.10041354
36	0x3d3fcdea	0.046827234
37	0xbd0046f3	-0.031317662
38	0x3d46ab63	0.04850329
39	0x3c2d5374	0.010578979
40	0xbc8279a0	-0.015927136
41	0xbd746b8a	-0.05967287
42	0xbdc816a2	-0.09769942
43	0xbdb92dc1	-0.0904193
44	0xbc873fa8	-0.016509846
45	0xbd15f1f6	-0.036607705
46	0xbd89a5b7	-0.06721061
47	0xbd80a29c	-0.06281015
48	0xbdb4df0d	-0.08831606
49	0x3bdf1fcf	0.006809212
50	0xbd3e59e2	-0.046472438
51	0xbd92b417	-0.07163256
52	0xbdb37b9b	-0.0876381
53	0xbb5974c9	-0.0033181182
54	0xbd0ae24a	-0.033907212
55	0xbc78f23f	-0.015194475
56	0xbd85639f	-0.06513142
57	0x3cf0dedd	0.029403144
58	0xbd565e2f	-0.052335914
59	0xbda04d59	-0.07827253
60	0xbcea4e81	-0.028601887
61	0x3d612735	0.05496903
62	0xb9985e00	-0.00029061735
63	0xbd6da072	-0.05801434
64	0xbb8109e0	-0.003937945
65	0x3d3dc4b7	0.04633018
66	0xbcea35d5	-0.028590122
67	0xbd3d6ada	-0.04624448
68	0x3cfaa992	0.030598436
69	0xbb14bdcb	-0.0022696133
70	0x3da32b22	0.07967211
71	0xbdcb06ca	-0.09913404
72	0x3d88cbd0	0.06679499
73	0x3d775ed6	0.060393177
74	0x3d851b5a	0.064993575
75	0x3d7e2549	0.062047277
76	0xbd875df0	-0.06609714
77	0x3bbf80b3	0.0058441996
78	0x3db30ebb	0.08743044
79	0x3c4775b2	0.012174057
80	0x3db894df	0.0901277
81	0xbd819ec1	-0.06329108
82	0x3db6c236	0.089237615
83	0x3d38b0ce	0.04509049
84	0xbcc442e8	-0.023957685
85	0x3bedc730	0.007256411
86	0x3bd374cf	0.0064531337
87	0x3d71cc3b	0.05903266
88	0xbd3cc97e	-0.046090595
89	0xbb76e541	-0.0037673267
90	0xbd6e43f0	-0.05817026
91	0xbdd4e022	-0.103943124
92	0x3cff4300	0.031159878
93	0x3d11c5dd	0.035589088
94	0x3d4e3205	0.05034067
95	0x3d9149a5	0.07094125
96	0x3d262c8d	0.04056983
97	0xbdd03f10	-0.10168278
98	0xbd272b23	-0.040812623
99	0x3d5dff74	0.054198697
100	0x3b467072	0.0030279425
101	0xbcdddbff	-0.027082441
102	0xbd2d7462	-0.04234732
103	0x3d98f79b	0.07469102
104	0x3d8f29fa	0.06990428
105	0xbd2a658a	-0.04160074
106	0x3cf8cbe4	0.03037066
107	0x3d8212ee	0.06351267
108	0x3d0e5b94	0.034755304
109	0xbd6f8e55	-0.058485348
110	0xbc34a48c	-0.011025559
111	0xbdd80eae	-0.10549675
112	0x3c90fc60	0.017698467
113	0xbadc178a	-0.0016791683
114	0x3d34fae2	0.044184573
115	0x3daa5e55	0.08318774
116	0x3baeb9ab	0.005332192
117	0xbd9f709a	-0.07785149
118	0x3da1a7c6	0.07893328
119	0x3d8d6dfc	0.069057435
120	0xbdb04eab	-0.08608755
121	0x3d6ee47c	0.05832337
122	0xbbf7e2f0	-0.007564895
123	0x3c0ca989	0.008585342
124	0x3b6d7fae	0.0036239433
125	0x3d5b210f	0.053498324
126	0xbcd621a0	-0.02613908
127	0xbcaaff4f	-0.020873694
128	0x3d0f24ce	0.03494721
129	0xbb7e169e	-0.0038770805
130	0xbc9d860d	-0.01922896
131	0x3c284dc0	0.010272443
132	0xbda8cf20	-0.08242631
133	0x3d8bd01f	0.06826805
134	0xbb15b137	-0.0022841224
135	0xbca40dc0	-0.020026088
136	0x3d2418c0	0.040062666
137	0xbc9fb44b	-0.01949515
138	0xbc9bb45e	-0.019006904
139	0x3d93ccef	0.07216822
140	0x3d8af9ab	0.06785902
141	0xbd18c7ef	-0.037300047
142	0x3da4d1ec	0.08047852
143	0x3d86e3d4	0.065864235
144	0x3daedce5	0.08538226
145	0xbcba3cb4	-0.022734024
146	0xbaec3290	-0.001802044
147	0xbbb92ba5	-0.005650955
148	0x3cfac824	0.030613013
149	0x3db48714	0.088148266
150	0x3d3c2a5e	0.045938842
151	0x3d1e2686	0.038610958
152	0xbdd2c848	-0.10292107
153	0x3dba0229	0.09082443
154	0xbd203774	-0.039115384
155	0xbd976f53	-0.0739428
156	0x3d8a19de	0.06743215
157	0xbd1e51cd	-0.03865223
158	0xbd3a6814	-0.045509413
159	0xbdb0b81a	-0.086288646
160	0xbd9eee00	-0.07760239
161	0xbdbfb478	-0.093605936
162	0x3d11cb22	0.035594113
163	0x3d180f3b	0.0371239
164	0xbdccc345	-0.09998182
165	0xbc368fbb	-0.011142666
166	0xbdd515de	-0.104045615
167	0x3dbef5c2	0.09324218
168	0x3c83a388	0.016069189
169	0xbd382cde	-0.044964664
170	0x3db4943e	0.088173375
171	0xbcbc5351	-0.022988947
172	0xbd44df6a	-0.048064627
173	0x3c75d655	0.015004714
174	0x3c9f07d1	0.019412907
175	0x3c1a39c0	0.009413183
176	0xbd4446f0	-0.047919214
177	0xbd9d1302	-0.07669641
178	0x3d6270f6	0.05528351
179	0xbd7dca56	-0.06196054
180	0x3d67a1ac	0.056550667
181	0xbddb9bfb	-0.1072311
182	0xbdd96d78	-0.10616583
183	0xbcbbcf8a	-0.02292611
184	0x3d2eae3a	0.042646624
185	0xbcb4832c	-0.022035204
186	0xbc401358	-0.011723362
187	0x3da3e0f0	0.08001888
188	0xbcd0ac2e	-0.025472727
189	0xbdc14402	-0.094367996
190	0x3dadfb87	0.08495241
191	0x3d38183b	0.044944983
192	0x3da9284f	0.082596414
193	0xbc242281	-0.010017992
194	0xbc756024	-0.014976535
195	0xbd50d770	-0.050986707
196	0xbdab47bc	-0.083632916
197	0xbc091719	-0.008367323
198	0xbdc709ad	-0.097186424
199	0x3bf04928	0.0073329397
200	0xbd60f993	-0.054925513
201	0x3d4df7f2	0.050285287
202	0xbdbb0f07	-0.091337256
203	0xba403f00	-0.00073336065
204	0x3d8df5d9	0.06931657
205	0xbdb727b7	-0.08943122
206	0xbd3a2fcd	-0.045455743
207	0xbb5c7860	-0.0033641085
208	0x3d7fb6ea	0.0624303
209	0xbd0c0eaa	-0.034193672
210	0xbd015c70	-0.031582296
211	0xbb3bea60	-0.0028673634
212	0xbd81c53d	-0.06336448
213	0xbc12b7d0	-0.008954957
214	0xbd64b693	-0.05583818
215	0x3dc3a569	0.09553034
216	0xbd1101d4	-0.035402134
217	0x3caf5b98	0.02140598
218	0xbcd90ca0	-0.026495278
219	0xbdb6ab80	-0.0891943
220	0x3dc51e75	0.0962495
221	0x3cdfdca4	0.02732689
222	0xbd92ecd0	-0.07174075
223	0xbca647b4	-0.020297863
224	0xbdabb910	-0.08384907
225	0xbd9d4a62	-0.07680203
226	0xbd617663	-0.055044543
227	0x3d32308a	0.04350332
228	0x3ce37b04	0.02776862
229	0xbcfc04ec	-0.030764066
230	0xbd8bb064	-0.06820753
231	0x3d4797a6	0.048728608
232	0xbd56acc3	-0.052410852
233	0x3d30ed92	0.043195315
234	0xbcd7f8f4	-0.026363827
235	0xbd0c57ea	-0.03426353
236	0xbd8fef6a	-0.070280865
237	0xbd08ff9a	-0.033446886
238	0x3d4b9202	0.04969979
239	0x3dc6bb81	0.09703732
240	0x3da2da49	0.07951791
241	0x3d800ca9	0.06252415
242	0x3d9f7919	0.077867694
243	0xbce95574	-0.02848313
244	0x3d09e8e6	0.033669375
245	0x3d48d2e2	0.04902924
246	0xbc7185a8	-0.014741339
247	0xbdc25d73	-0.0949048
248	0x3d880b8b	0.06642827
249	0xbd9b5be8	-0.07585889
250	0x3dc3e159	0.09564466
251	0xbd295d5d	-0.041348804
252	0x3d925655	0.07145373
253	0x3cdac0a4	0.026703186
254	0x3daf2ed5	0.085538544
255	0xbd9d239e	-0.07672809

layers.4.bias f4 [100]
0	0xbc953e09	-0.018218057
1	0xbda07bff	-0.078361504
2	0xbd1f0dad	-0.0388314
3	0x3c8bcd8d	0.017065788
4	0x3d74f6be	0.059805624
5	0x3d0cd532	0.034383006
6	0xbda4cb0b	-0.0804654
7	0x3cd28d73	0.025702214
8	0xbdce8968	-0.10084802
9	0x3c1b0559	0.009461724
10	0x3c1b4465	0.009476756
11	0xbe3a0333	-0.18165283
12	0x3aefdba6	0.0018299713
13	0xbe17cfcd	-0.14825363
14	0xbc10eb38	-0.008845143
15	0xbd6684ba	-0.05627892
16	0xbd24bd54	-0.04021962
17	0x3cba592a	0.022747595
18	0x3b5715a4	0.0032819295
19	0xbc374528	-0.011185922
20	0x3d59315a	0.05302558
21	0x3d1bfa06	0.038080238
22	0x3d3c77f5	0.046012837
23	0xbcf1c2ac	-0.029511772
24	0xbd64739a	-0.05577431
25	0xbdca93f5	-0.09891502
26	0x3dc504b9	0.096200414
27	0x3d6744aa	0.056461968
28	0xbc9d04f4	-0.0191674
29	0xbd88fee5	-0.06689242
30	0x3d1bf21d	0.038072694
31	0xbc02177b	-0.0079401685
32	0xba003be2	-0.0004891736
33	0xbcde735d	-0.027154619
34	0xbd740d9a	-0.059583284
35	0x3cb91bd4	0.022596277
36	0xbd6efbe6	-0.058345698
37	0x3d362f2b	0.044478577
38	0xbdc04e0e	-0.09389888
39	0xbcce0aee	-0.025151696
40	0x3cb04534	0.021517374
41	0xbd54a532	-0.051915355
42	0x3d1c10d3	0.038101982
43	0x3cd04eee	0.025428262
44	0x3ceed7f7	0.029155714
45	0x3caad219	0.020852135
46	0x3cb302fc	0.021852009
47	0x3db3441d	0.08753226
48	0xbd11fc1b	-0.035640817
49	0xbdd5da33	-0.10442009
50	0xbcabde13	-0.020979917
51	0x3d6173ae	0.05504196
52	0xbc6638de	-0.014051644
53	0xbc2c5003	-0.010517123
54	0xbd2c4677	-0.042059388
55	0xbdbb33dc	-0.09140751
56	0x3d1faf36	0.038985454
57	0x3da30dda	0.07961626
58	0xbd2cd884	-0.042198673
59	0x3c8ddb62	0.017316524
60	0xbd5d2d2d	-0.05399816
61	0x3d757a92	0.059931345
62	0x3d02de50	0.031950295
63	0xbc737e0e	-0.014861597
64	0x3c2567ce	0.01009555
65	0xbcfb93e5	-0.03071017
66	0x3ca4c94c	0.020115517
67	0xbd993e0b	-0.07482537
68	0xbd938029	-0.07202179
69	0x3cf3d61e	0.029765185
70	0xbd6a8e40	-0.057264566
71	0xbc3a49b9	-0.011370116
72	0xbd96a1e8	-0.073551
73	0x3d9e6dc7	0.07735782
74	0x3db66c8d	0.08907423
75	0xbcd2a855	-0.025715033
76	0xbe80bc14	-0.25143492
77	0x3d647c0c	0.055782363
78	0x3d63ed47	0.055646207
79	0x3d84d1ec	0.06485352
80	0xbcd5b181	-0.026085617
81	0x3db3667b	0.08759781
82	0x3b43b74e	0.0029863897
83	0x3c0c037e	0.0085457545
84	0xbd3f611d	-0.046723474
85	0xbcd2b0e7	-0.02571912
86	0x3c0ad8e0	0.008474559
87	0x3db2bb38	0.087271154
88	0x3e0408e3	0.12894015
89	0x3d9c0bee	0.07619463
90	0xbd3bc134	-0.04583855
91	0x3d80b4fa	0.062845185
92	0x3d0359f2	0.0320682
93	0x3d822383	0.063544296
94	0xbd347952	-0.044061013
95	0x3dcfc8c5	0.101457156
96	0x3dff62c8	0.12470013
97	0x3d0472b3	0.03233595
98	0xbd488a17	-0.048959818
99	0xbd3cf54c	-0.04613237

layers.6.linear.weight f4 [4, 100]
0	0xbc985bc3	-0.018598443
1	0xbc4985b8	-0.012299947
2	0x3c251e28	0.010077991
3	0x3d8cc715	0.068739094
4	0xbd891e85	-0.06695274
5	0xbc5172c0	-0.012783706
6	0x3d8b7b48	0.068106234
7	0x3d38449f	0.044987317
8	0x3d782f4a	0.060591973
9	0x3e59e682	0.21279338
10	0x3cb0a130	0.021561235
11	0xbeda7c20	-0.42672825
12	0x3e02ab3b	0.12760632
13	0xbea935e6	-0.33048934
14	0xbddece67	-0.10879212
15	0xbd937daa	-0.07201703
16	0xbecb8fb0	-0.39758062
17	0xbd88cd04	-0.066797286
18	0xbeccb6fe	-0.39983362
19	0xbda6941d	-0.08133719
20	0x3d0c193e	0.03420376
21	0x3eabaf10	0.33532
22	0x3ea0e227	0.3142254
23	0x3d9097cf	0.07060205
24	0x3d79b19e	0.060960405
25	0x3b251860	0.002519153
26	0x3dae6d9a	0.085169986
27	0x3e34baf1	0.17649437
28	0x3ceb9ee4	0.028762288
29	0xbcdff534	-0.027338602
30	0xbd4a82fb	-0.04944132
31	0xbd21f5cb	-0.039541047
32	0xbd8d4dfa	-0.068996385
33	0x3e4b909c	0.19879383
34	0xbda4840c	-0.080329984
35	0x3dbc89bf	0.092059605
36	0x3ce4d5af	0.027933924
37	0x3bb80c68	0.0056167133
38	0xbdd3c247	-0.1033979
39	0x3db680f2	0.08911313
40	0x3e7a3203	0.2443314
41	0xbec0cbe1	-0.37655547
42	0x3e5f4e16	0.21807131
43	0x3d219210	0.039445937
44	0x3d847289	0.06467158
45	0xbea5c7fb	-0.32379135
46	0xbcfe6f94	-0.031059064
47	0xbda776a2	-0.08176924
48	0xbed964b3	-0.4245964
49	0xbe8207ff	-0.25396726
50	0x3dfa144b	0.12210902
51	0xbda7a0cd	-0.08184967
52	0xbde5949b	-0.11209985
53	0x38e399fc	0.00010852885
54	0xbc1ee089	-0.009697088
55	0x3c7a8825	0.015291248
56	0x3bd91de5	0.006625878
57	0x3da8ea07	0.08247762
58	0x3dbf664c	0.093456835
59	0x3eb5752a	0.35440952
60	0xbd87e9cc	-0.0663639
61	0xbe623b5e	-0.2209296
62	0xbd74606c	-0.059662268
63	0x3bd38982	0.006455601
64	0x3de24508	0.11048323
65	0x3e96f171	0.2948108
66	0xbd39db7d	-0.045375336
67	0xbe992944	-0.29914296
68	0x3d09cd00	0.03364277
69	0xbea8af40	-0.32946205
70	0x3e8e1521	0.27750495
71	0x3c6e9add	0.0145632895
72	0x3e940a9b	0.2891434
73	0x3dd729b2	0.105059996
74	0x3e5eb50d	0.21748753
75	0xbe9db570	-0.30802488
76	0xbee376b4	-0.444265
77	0xbe832dab	-0.2562078
78	0x3d4c6421	0.049900178
79	0xbe92bd5e	-0.286601
80	0x3e52af9b	0.205748
81	0x3e88ce0f	0.2671971
82	0x3dfc0f60	0.1230762
83	0xbe5629f2	-0.20914438
84	0x3c864857	0.016391916
85	0xbd64d05d	-0.055862773
86	0x3d404922	0.046944745
87	0xbea0e794	-0.3142668
88	0xbe2944c4	-0.16530138
89	0xbddc5d1c	-0.10759947
90	0x3d8eb3f5	0.06967918
91	0xbdbdf64a	-0.092754915
92	0x3c25d2d3	0.010121065
93	0x3cf13965	0.029446313
94	0x3ca3e62c	0.020007215
95	0xbe67273c	-0.2257356
96	0xbebc86d8	-0.36821628
97	0xbe25d829	-0.1619574
98	0x3d835ef9	0.06414599
99	0x3d7a58cc	0.06111984
100	0x3d95a8e8	0.07307607
101	0xbc5414f7	-0.0129444515
102	0x3da41a1d	0.08012793
103	0xbd2bcc36	-0.041942798
104	0xbd6f55ce	-0.05843144
105	0xbd554783	-0.052070152
106	0xbcdb15d2	-0.026743803
107	0x3d90b692	0.070660725
108	0xbd79a7f9	-0.060951207
109	0xbdc67363	-0.09689977
110	0xbdbcb3ff	-0.09214019
111	0xb93f9a65	-0.00018272696
112	0x3b86a86b	0.0041094325
113	0xbc1b5eb9	-0.009483033
114	0xbd353437	-0.04423925
115	0x3d9753f0	0.07389057
116	0x3d4745bf	0.0486505
117	0xbbd1590f	-0.0063887904
118	0xbd394492	-0.04523141
119	0x3daddffd	0.08489988
120	0xbd36a357	-0.044589367
121	0xbc82953f	-0.015940307
122	0x3e0fed8e	0.14055464
123	0x3d562701	0.05228329
124	0x3cca6566	0.024706554
125	0xbd5593ea	-0.052143015
126	0xbdd4dceb	-0.10393699
127	0xbcf1b2f7	-0.029504282
128	0x3cf66884	0.030079134
129	0x3db8b4b7	0.090188436
130	0x3d5877fc	0.0528488
131	0xbb1ca720	-0.0023903325
132	0x3bd5577c	0.006510673
133	0x3ba8957b	0.0051447726
134	0x3dad219d	0.08453677
135	0xbca3ea00	-0.02000904
136	0x3d37e95c	0.044900283
137	0xbcb7621f	-0.022385655
138	0x3d8b173e	0.067915425
139	0x3b3b9be8	0.0028626863
140	0xbdc675a6	-0.096904084
141	0x397d5c61	0.00024162374
142	0xbde86206	-0.113468215
143	0x3d591d3d	0.0530064
144	0x3d0e1b21	0.03469384
145	0x3d3e386d	0.04644053
146	0x3db17c6c	0.0866631
147	0x3d5c5875	0.053795297
148	0xbc21a37f	-0.009865641
149	0xbc08c91d	-0.00834873
150	0x3e2a5ba1	0.16636516
151	0x3dc00fcf	0.09378015
152	0xbd9f6eea	-0.07784827
153	0x3db1c83e	0.08680771
154	0x3d8ea0ca	0.06964262
155	0x3d1b1aa1	0.037867192
156	0x3d870958	0.06593579
157	0x3d31b771	0.043387834
158	0x3c2678b9	0.010160618
159	0xbd6d4fde	-0.057937495
160	0xbdaa2d1a	-0.08309384
161	0xbdff989c	-0.1248028
162	0x3c63f8d2	0.013914304
163	0xbdcd2a7b	-0.10017868
164	0x3d49a11f	0.049225923
165	0xbd4b8e2d	-0.049696136
166	0xbce4d0f4	-0.027931668
167	0xbc33144d	-0.010930133
168	0x3cef10d4	0.029182829
169	0xbd3e26c4	-0.04642369
170	0x3b639da1	0.0034731405
171	0xbde4574f	-0.11149465
172	0xbc8f3f2f	-0.017486183
173	0xbd2fc5b4	-0.042913154
174	0xbdf020bc	-0.117249936
175	0xbd386c89	-0.045025382
176	0xbd906f9c	-0.07052538
177	0xbdb5f9ab	-0.08885511
178	0x3c084d46	0.008319205
179	0xba818fd1	-0.000988478
180	0x3d00eebc	0.031477675
181	0xbd933bab	-0.07189115
182	0xbe430ef2	-0.1904867
183	0xbd038a0d	-0.032114077
184	0xbdedf396	-0.11618726
185	0x3da87e28	0.082271874
186	0x3d047cfb	0.032345753
187	0xbdbb10b5	-0.09134046
188	0xbdaa6c2b	-0.08321413
189	0xbcbffa1a	-0.023434687
190	0x3d8ecc69	0.06972582
191	0x3d9f0dff	0.077663414
192	0xbbe40c24	-0.006959455
193	0xbce5fa0f	-0.028073339
194	0xbd808bb1	-0.06276644
195	0xbcda2c6a	-0.026632506
196	0x3c93a58f	0.01802328
197	0x3d4118ac	0.04714267
198	0x3dbb15bb	0.09135004
199	0xbd0d220b	-0.034456294
200	0xbca3fee2	-0.020018999
201	0x3d5e49e1	0.054269675
202	0xbdba964f	-0.091107
203	0x3cc4ab24	0.024007387
204	0xbd91a3e6	-0.07111339
205	0xbc6847d0	-0.014177278
206	0xbb2c6722	-0.002630659
207	0x3c253675	0.010083784
208	0x3d8a6127	0.067568116
209	0xbc79dff6	-0.01525115
210	0xbdb306da	-0.08741541
211	0x3c5f52f2	0.013630616
212	0xbd50ff2c	-0.0510246
213	0xbbdc653b	-0.006725935
214	0xbd4dfd84	-0.0502906
215	0xbdca685c	-0.09883186
216	0xbd47b88e	-0.04875999
217	0xbd71cb3f	-0.05903172
218	0xbd3ba740	-0.0458138
219	0x3cb395ec	0.021922074
220	0xbc031f40	-0.008003056
221	0xbdde8908	-0.108659804
222	0x3e26218b	0.16223733
223	0x3dbea3f8	0.09308618
224	0x3ceb7f44	0.028747208
225	0x3d984db1	0.074366935
226	0xbcfe14d1	-0.031015785
227	0x3dcd4b9e	0.100241885
228	0xbbeeed00	-0.007291436
229	0xbda788ee	-0.08180414
230	0x3db16c3f	0.086632244
231	0x3db4c47e	0.088265404
232	0x3d8deac0	0.06929541
233	0xbb7e675c	-0.0038818931
234	0x3d6a996c	0.05727522
235	0x3caa4b20	0.020787776
236	0xbd958f19	-0.07302684
237	0x3d1e73f3	0.038684797
238	0x3d6f0556	0.058354698
239	0x3da5548d	0.080727674
240	0x3cd5adc9	0.026083844
241	0x3d2c7f4c	0.042113587
242	0xbd8be08b	-0.068299375
243	0x3c24d78c	0.010061156
244	0x3dab0676	0.08350842
245	0xbcf109c7	-0.029423608
246	0x3d405906	0.0469599
247	0xbd605f70	-0.054778516
248	0x3cc889a5	0.024479697
249	0xbc6f46b7	-0.014604262
250	0x3d9674de	0.073465094
251	0x3da90b03	0.082540534
252	0x3d5c7a1e	0.053827398
253	0x3bb9cf07	0.0056704315
254	0xbd1a8f9b	-0.03773461
255	0x3da8d49d	0.08243678

layers.6.linear.bias f4 [4]
0	0x3d89ebe2	0.06734444
1	0x3d2ce5e1	0.042211417
2	0xbd946d2d	-0.07247386
3	0x3d8b95e7	0.06815701
