examples/Simple/simple_pretrained.pth (torch_old, 84755 bytes, 8 tensors)

layers.0.weight f4 [100, 1]
0	0xbe84d27b	-0.25941834
1	0x3eae374e	0.3402657
2	0x3e015e90	0.12633729
3	0x3f779ace	0.9672059
4	0x3f001d5a	0.50044787
5	0xbea84287	-0.32863256
6	0x3dbdcf90	0.09268105
7	0x3f0a1716	0.53941476
8	0x3f601836	0.8753694
9	0xbf44294b	-0.7662551
10	0xbe8348d0	-0.2564149
11	0x3d01a700	0.031653404
12	0xbef496c7	-0.47771284
13	0xbf572db5	-0.8405412
14	0xbe4d959c	-0.20076603
15	0xbc4c2300	-0.0124595165
16	0x3f23a176	0.63918245
17	0x3ef6b64c	0.48185956
18	0x3ece91d8	0.40345645
19	0x3ef490f8	0.47766852
20	0x3d857a60	0.06517482
21	0x3f152432	0.58258355
22	0x3da987fb	0.08277889
23	0xbebce030	-0.3688979
24	0x3f00db49	0.503346
25	0x3d9e4750	0.077284455
26	0xbf62b8e3	-0.88563365
27	0xbf18b109	-0.59645134
28	0x3e1023c2	0.1407614
29	0x3f448180	0.767601
30	0x3e0df40c	0.13862628
31	0x3f4f997d	0.8109358
32	0xbde1d2e0	-0.11026549
33	0xbf67944a	-0.90460646
34	0xbf6f52b0	-0.93485546
35	0xbea6e8ce	-0.3259949
36	0x3f125fd7	0.5717749
37	0xbefb3b10	-0.490685
38	0x3d9d0667	0.07667237
39	0xbe2dabe8	-0.16960108
40	0x3e075386	0.13215455
41	0xbf052935	-0.52016
42	0x3e74d01e	0.23907515
43	0x3e84f706	0.25969714
44	0x3eaf59db	0.34248242
45	0xbe945051	-0.28967527
46	0x3d876a30	0.066120505
47	0xbdb420b6	-0.087953016
48	0x3eb14da5	0.3462955
49	0xbf4b1c6c	-0.79340243
50	0x3eeb72f0	0.45986128
51	0x3f21c8cd	0.6319702
52	0xbe11d9d2	-0.14243248
53	0xbf79fdfc	-0.97653174
54	0x3f736fb9	0.9509235
55	0x3f37fb2e	0.71867645
56	0x3eff776a	0.49895793
57	0x3f17c809	0.59289604
58	0xbefb22a6	-0.49049872
59	0x3f1708a9	0.5899759
60	0xbf787b82	-0.9706346
61	0xbe8ab789	-0.2709315
62	0xbf4c06ca	-0.7969786
63	0x3e7cd16f	0.24689268
64	0xbeae69df	-0.34065148
65	0xbf45a21e	-0.77200496
66	0xbf0724d4	-0.5279057
67	0x3e2daea0	0.16961145
68	0xbeee7630	-0.46574545
69	0xbf481258	-0.7815299
70	0xbe7f366e	-0.24923107
71	0xbf37055c	-0.7149255
72	0x3d7654aa	0.060139336
73	0xbf21cbdd	-0.63201696
74	0xbe5329cc	-0.20621413
75	0x3f3d5132	0.7395202
76	0x3f224efc	0.6340177
77	0x3f31e453	0.6948902
78	0xbf4a4766	-0.79015195
79	0xbf29ef6c	-0.66380954
80	0xbf7b1308	-0.98075914
81	0x3f5f2c30	0.871768
82	0xbf6cc56b	-0.92488736
83	0xbf60fbc3	-0.8788416
84	0xbf679a3d	-0.90469724
85	0x3e38638d	0.18006726
86	0xbf2b0fa2	-0.6682073
87	0x3f08746d	0.5330265
88	0x3f6cc92b	0.9249446
89	0xbf157ce9	-0.5839372
90	0xbf48189c	-0.7816255
91	0xbf261571	-0.64876467
92	0xbf36c2da	-0.7139107
93	0x3f2d399b	0.67666024
94	0x3f60cc18	0.8781142
95	0xbf4203c0	-0.7578697
96	0xbf69f369	-0.9138704
97	0x3f1d373f	0.61412424
98	0x3f3153ab	0.6926829
99	0xbdab181a	-0.083542064

layers.0.bias f4 [100]
0	0x3f912002	1.1337893
1	0xbf4d4825	-0.8018821
2	0xbf29ad6a	-0.66280234
3	0xbf18ecbd	-0.59736234
4	0xbf3151b2	-0.6926528
5	0xbf3d2bea	-0.7389513
6	0xbf065cc0	-0.52485275
7	0xbef32176	-0.47486466
8	0x3ec4c93e	0.38434786
9	0xbed277c3	-0.41106996
10	0x3f93f9a8	1.1560564
11	0xbf6f6fd6	-0.93530023
12	0xbf674125	-0.9033378
13	0x3f498eb2	0.7873336
14	0x3f03bd4b	0.51460713
15	0xbe5a1810	-0.21298242
16	0x3f44bdd0	0.7685213
17	0xbf4a06a3	-0.78916377
18	0xbf46c60a	-0.77645934
19	0xbcb99dfd	-0.022658342
20	0x3f41c28c	0.7568748
21	0x3f93f4db	1.1559099
22	0xbe967ad0	-0.29390574
23	0xbf052593	-0.5201046
24	0x3f440bf8	0.7658076
25	0xbf67b73a	-0.90513957
26	0x3f5a44ee	0.8526143
27	0x3e95a91e	0.2923059
28	0xbee517dd	-0.4474477
29	0x3d0be8c4	0.03415753
30	0x3f1c71d0	0.61111164
31	0xbf8cfb92	-1.1014273
32	0xbf5873f0	-0.84551907
33	0xbf0ba0ef	-0.5454244
34	0x3f52af72	0.8229896
35	0x3f054313	0.5205547
36	0x3cd10d08	0.02551891
37	0xbf6cda4b	-0.9252059
38	0x3ed6a349	0.41921452
39	0x3db17eb2	0.08666743
40	0x3f2cf025	0.6755393
41	0xbf199a73	-0.60001296
42	0x3f80b9bc	1.0056682
43	0x3e94026c	0.28908098
44	0x3e27f1e4	0.16400868
45	0xbf2cd758	-0.6751609
46	0xbe8d627c	-0.276142
47	0xbd80e2d2	-0.062932625
48	0xbf49fd8e	-0.7890252
49	0x3dbefdcd	0.093257524
50	0xbe15d322	-0.14631322
51	0xbe412d20	-0.1886487
52	0xbeb932c3	-0.3617154
53	0xbed11c7c	-0.40842044
54	0xbf3a96d5	-0.728864
55	0x3f248b1e	0.64274776
56	0xbf76a903	-0.9635164
57	0xbec04862	-0.37555224
58	0x3f6abf71	0.91698366
59	0xbeef0b1c	-0.46688163
60	0x3ee173bc	0.4403361
61	0x3f06269e	0.52402675
62	0xbe5c03d8	-0.21485841
63	0xbf21e515	-0.63240176
64	0x3e2fc624	0.17165428
65	0xbecd0ff1	-0.40051225
66	0x3f1e1b29	0.61760193
67	0xbee65d8f	-0.44993255
68	0xbf85d002	-1.0454104
69	0x3f648807	0.8927006
70	0x3f8ac874	1.0842423
71	0xbf37f9b7	-0.7186541
72	0x3eaa224e	0.33229297
73	0xbe8998b0	-0.26874304
74	0x3f811c77	1.0086812
75	0xbf10490d	-0.56361467
76	0xbedb2bca	-0.42806846
77	0x3e16dfea	0.14733854
78	0xbf0bae29	-0.5456262
79	0x3ee58942	0.44831282
80	0x3f57e54b	0.8433425
81	0x3f8fb02d	1.122564
82	0x3f13865d	0.576269
83	0x3e361563	0.17781596
84	0x3f2c7fcc	0.673825
85	0xbea86af4	-0.328941
86	0xbf31211e	-0.6919116
87	0x3f488a06	0.7833561
88	0xbf072678	-0.52793074
89	0xbf84dee9	-1.0380527
90	0xbf827b6c	-1.0193915
91	0x3f389622	0.72104084
92	0x3f588779	0.84581715
93	0xbf56345e	-0.83673656
94	0xbf276903	-0.6539461
95	0xbed630bb	-0.41834053
96	0xbf1c3144	-0.61012673
97	0x3eb23cb7	0.34811947
98	0xbc1bd16c	-0.009510379
99	0xbe88ce4a	-0.26719886

layers.2.weight f4 [100, 100]
0	0x3d48b5ce	0.049001507
1	0x3ec4f833	0.3847061
2	0xbcb184c8	-0.02166976
3	0x3d8cb89d	0.0687115
4	0x3da214af	0.07914101
5	0xbebe80cc	-0.3720764
6	0xbb7ca360	-0.0038549528
7	0x3db03457	0.08603733
8	0xb9f437e9	-0.00046580963
9	0x3cad8e0f	0.021185903
10	0x3de8357c	0.11338326
11	0x3d43c57a	0.04779575
12	0xbe8ed63a	-0.27897817
13	0xbc1650c5	-0.00917453
14	0x3d7ad297	0.06123599
15	0xbdc7ddc8	-0.09759098
16	0x3de87b2a	0.11351617
17	0x3e6f1005	0.23345955
18	0x3e7759a2	0.24155286
19	0x3d80e8f8	0.06294435
20	0xbccd306b	-0.025047502
21	0x3d11df93	0.035613608
22	0x3f0daaa8	0.55338526
23	0xbe1c4b12	-0.15263012
24	0x3dc150de	0.09439252
25	0x3c1d11d8	0.009586774
26	0x3d23ad86	0.039960407
27	0x3ce518f2	0.027965996
28	0x3eb47c37	0.35251018
29	0x3ddb9f7e	0.1072378
30	0x3d995374	0.074866205
31	0x3c432790	0.011911288
32	0x3cbc0120	0.022949755
33	0xbdc9c61b	-0.09852239
34	0x3c50394c	0.012708973
35	0x3cf21787	0.029552234
36	0xbd171617	-0.0368863
37	0xbeaad7a6	-0.33367652
38	0x3e0a57fe	0.13510129
39	0x3c42a4a4	0.011880074
40	0x3dc167d6	0.09443633
41	0xbd8ddd6f	-0.06927001
42	0x3bb3bf64	0.005485462
43	0x3d9c8208	0.07641989
44	0x3d3cda23	0.04610647
45	0xbe6cdf50	-0.23132062
46	0x3da086e7	0.078382306
47	0x3d6b7dfd	0.0574932
48	0x3ecf31e9	0.40467766
49	0x3de2ad64	0.11068228
50	0xbc71bd9f	-0.014754682
51	0x3e004a8e	0.1252844
52	0xbe6a3821	-0.22872974
53	0xbd377966	-0.04479351
54	0x3b9a8f96	0.004716824
55	0x3ddc1451	0.107460625
56	0x3e87a242	0.2649098
57	0x3d903ffb	0.07043453
58	0x3d52e4cb	0.051487725
59	0x3b836cc7	0.00401077
60	0x3d299fe7	0.04141226
61	0x3d13e040	0.036102533
62	0x3b9c672e	0.004773042
63	0x3ebe2d98	0.3714416
64	0xbcf709c3	-0.030156022
65	0xbd4f70c9	-0.05064467
66	0x3e06230f	0.13099311
67	0x3e584cc3	0.21123032
68	0xbed8fcd4	-0.42380393
69	0x3e286703	0.16445546
70	0x3d5ad8d3	0.053429436
71	0xbdb5f6f3	-0.088849925
72	0x3d7f8deb	0.062391203
73	0xbdec3237	-0.11533015
74	0x3d8d3f7c	0.06896874
75	0x3c0959b8	0.008383207
76	0xbc31618c	-0.01082648
77	0xbd38076e	-0.04492896
78	0xbdad02b7	-0.084477834
79	0x3c1639f2	0.009169089
80	0x3e1e227a	0.1544284
81	0xbd2b631c	-0.041842565
82	0x3bcc8e30	0.006242536
83	0x3b105a76	0.0022026575
84	0x3bb5671d	0.0055359737
85	0x3de4253d	0.11139915
86	0xbe19dd54	-0.15025836
87	0xbd630bb5	-0.055431087
88	0xbbe3c7ea	-0.006951322
89	0xbebeac6f	-0.3724093
90	0xbe1606c1	-0.14651014
91	0x3ddf2d75	0.10897342
92	0x3e01554c	0.12630194
93	0x3dae3292	0.08505739
94	0xbcabe88b	-0.020984909
95	0xbd89be78	-0.06725782
96	0xbc773b72	-0.015089856
97	0x3d88473e	0.06654213
98	0x3cd5e1fd	0.026108736
99	0xbe8b643b	-0.27224907
100	0xbd8c835f	-0.068609945
101	0x3e88d5f9	0.26725748
102	0x3da3412f	0.07971417
103	0x3cb21292	0.02173737
104	0xbb3414ad	-0.0027478144
105	0xbd9b595d	-0.07585404
106	0x3b11d200	0.0022250414
107	0x3d179f29	0.03701702
108	0x3dd55096	0.10415761
109	0xbd6b4c5a	-0.05744586
110	0xbd9aee0d	-0.07564936
111	0xb9ed9200	-0.0004531294
112	0x3d909ec4	0.07061532
113	0xbda12e46	-0.07870154
114	0x3da8bd72	0.08239259
115	0xbda69bbb	-0.08135172
116	0x3e01693a	0.12637797
117	0x3e0bf9c7	0.13669501
118	0x3e2bbe81	0.1677189
119	0x3d93c260	0.072148085
120	0xbcc9930d	-0.024606252
121	0x3c2342c5	0.00996465
122	0x3eabc18f	0.3354611
123	0xbcb842b1	-0.022492738
124	0x3e06bef1	0.13158776
125	0xbd8827ca	-0.06648214
126	0xbcf72653	-0.030169642
127	0xbdda5dab	-0.10662397
128	0x3e8c3b12	0.27388817
129	0x3de94cb4	0.11391583
130	0xbd3775ea	-0.044790186
131	0x3e01e9fa	0.12686911
132	0xbdcb8e1a	-0.09939213
133	0x3d240ae0	0.040049434
134	0xbcd20f2b	-0.025641998
135	0x3df2aa42	0.1184888
136	0xbb4ef420	-0.0031578615
137	0x3d5d304a	0.05400113
138	0xba9b7d0b	-0.0011862827
139	0xbd2c3c37	-0.042049613
140	0x3dd163ba	0.102240995
141	0x3d1b3431	0.03789157
142	0x3d7dee32	0.06199474
143	0x3d6b43b8	0.05743763
144	0xbd3a9ba0	-0.04555857
145	0x3d25b546	0.04045608
146	0x3d790e7e	0.060804836
147	0xbdbef7e3	-0.093246244
148	0x3ecafcfa	0.3964613
149	0xbd9e10ab	-0.07718023
150	0x3e0fe8c3	0.14053635
151	0xbbb3b1bc	-0.005483834
152	0xbd8f1420	-0.069862604
153	0xbdb48bcf	-0.08815729
154	0x3df3220f	0.118717305
155	0xbc335b6f	-0.010947092
156	0x3e3a79f7	0.18210588
157	0x3d2c2973	0.042031717
158	0x3e0fdbc0	0.14048672
159	0xbc92b726	-0.017909598
160	0xbd667a3b	-0.05626891
161	0x3d85421f	0.06506752
162	0xbc4cca05	-0.012499337
163	0x3e98e0fc	0.2985915
164	0xbd071ac9	-0.03298453
165	0xbdc1516a	-0.094393566
166	0x3d8a3225	0.067478456
167	0x3e9026c9	0.2815459
168	0xbd3f352a	-0.04668156
169	0x3db74e9d	0.08950541
170	0x3d0eaaa5	0.034830708
171	0x3c46dcbc	0.012137588
172	0x3dc19128	0.094515145
173	0x3c93beca	0.018035311
174	0xbe167cdb	-0.14696066
175	0x3d88df57	0.06683224
176	0x3ddc7a00	0.10765457
177	0x3e03445b	0.12819044
178	0xbdd2be32	-0.10290183
179	0x3d12563e	0.03572678
180	0xbd5b9efc	-0.053618416
181	0x3d9f88f0	0.07789791
182	0xbc7294bb	-0.014805968
183	0x3cc89e1e	0.024489459
184	0x3c27bdb8	0.010238104
185	0x3e3bde7f	0.18346594
186	0x3d917951	0.071032174
187	0x3e0281aa	0.12744775
188	0x3dc95f4f	0.09832632
189	0xbdcf5ebe	-0.101254925
190	0x3cc57410	0.024103194
191	0xbc0b8146	-0.008514708
192	0x3d738177	0.05944964
193	0x3d3df995	0.046380598
194	0x3e26eab1	0.16300465
195	0xbdbb7283	-0.09152701
196	0xbd99e998	-0.075152576
197	0x3dc60391	0.09668649
198	0x3d4c0d91	0.049817625
199	0xbd68cda4	-0.05683674
200	0xbee54161	-0.44776443
201	0x3ecc767b	0.39934143
202	0x3db32021	0.087463625
203	0x3d4322af	0.0476405
204	0x3e2a5c15	0.16636689
205	0x3da166cc	0.07880935
206	0x3d110082	0.035400875
207	0x3e59e00a	0.2127687
208	0xbcefb324	-0.029260226
209	0x3d012d97	0.03153762
210	0xbe9e54db	-0.30924115
211	0x3c6c6058	0.014427267
212	0x3d8f0692	0.06983675
213	0xbc3e4179	-0.01161229
214	0xbd894dc4	-0.06704286
215	0xbd6ec8fd	-0.058297146
216	0xbd9ff3a8	-0.078101456
217	0x3e1c5732	0.15267637
218	0x3ebee27d	0.37282172
219	0x3cbb9a8a	0.022900838
220	0xbe3e86d8	-0.18606126
221	0xbe5ae54d	-0.21376534
222	0x3ef9de96	0.48802632
223	0x3c8a15ab	0.016856035
224	0xbdab8e4a	-0.08376749
225	0x3da334e1	0.0796907
226	0xbdc1107d	-0.09426973
227	0xbd8a1b9b	-0.067435466
228	0x3eddef60	0.4334669
229	0x3cae07c1	0.021243932
230	0xbe64d900	-0.22348404
231	0x3e4c109a	0.19928208
232	0x3db29b09	0.08720977
233	0x3cbf6301	0.023362638
234	0x3dbb5058	0.09146184
235	0x3d06f8fa	0.032952286
236	0x3db1d5cd	0.086833574
237	0xbd77ddaf	-0.06051415
238	0xbe1a9c8a	-0.15098777
239	0xbd7592cc	-0.05995445
240	0xbdc23b0e	-0.0948392
241	0xbda589db	-0.080829345
242	0xbd9e1402	-0.0771866
243	0x3cf8b240	0.030358434
244	0xbd7b9d9e	-0.061429612
245	0x3d999c31	0.07500494
246	0x3d777a7e	0.060419552
247	0x3d0a25f6	0.03372761
248	0x3ed3883c	0.41314876
249	0x3bc7e946	0.0061008064
250	0x39a0cb7a	0.0003066918
251	0xbcfa6608	-0.03056623
252	0xbc5fce2f	-0.013659998
253	0xbc1cd4df	-0.009572237
254	0x3e256f02	0.16155627
255	0xbd831a90	-0.06401551

layers.2.bias f4 [100]
0	0x3dc174ca	0.09446104
1	0xbdb23eee	-0.08703409
2	0xbe6c08c0	-0.23050213
3	0xbda5a9db	-0.08089038
4	0xbcd1aa9c	-0.025594048
5	0x3cddeb14	0.027089633
6	0xbd8b45cc	-0.06800422
7	0xbdd13fe0	-0.10217261
8	0xba99a4c0	-0.0011722073
9	0xbc2499dd	-0.0100464495
10	0xbd6cfa07	-0.057855632
11	0x3e173b1e	0.14768645
12	0x3d8c5875	0.06852809
13	0x3d441349	0.047869954
14	0xbe9ecffc	-0.31018054
15	0xbd42022f	-0.047365364
16	0xbd90cdf4	-0.070705324
17	0x3d074a76	0.033029996
18	0xbe1c8a58	-0.15287149
19	0x3c97c16d	0.01852485
20	0xbd38cd0d	-0.045117427
21	0x3d5a808a	0.05334524
22	0xbca5171e	-0.020152625
23	0x3e262c1f	0.16227768
24	0xbd709022	-0.058731206
25	0x3d83d9d7	0.06438034
26	0x3d0b85e8	0.03406325
27	0xbd2c210c	-0.042023703
28	0xbe3eaf0e	-0.18621466
29	0x3d8cd181	0.06875897
30	0x3baa1960	0.005191013
31	0x3e020727	0.12698041
32	0xbd1a0261	-0.037599925
33	0xbdc79540	-0.09745264
34	0xbd9219df	-0.07133841
35	0x3d3d00be	0.046143286
36	0x3d84fcbb	0.06493517
37	0xbc865268	-0.016396716
38	0xbd717d45	-0.058957357
39	0xbe8e8bd3	-0.27841052
40	0xbde365fe	-0.11103438
41	0xbcb1700c	-0.021659873
42	0xbd9b70df	-0.07589888
43	0xbdcc2049	-0.099670954
44	0xbd03ec34	-0.032207683
45	0x3d99b82a	0.0750583
46	0xbe257383	-0.16157345
47	0x3dc36511	0.09540761
48	0x3dd6326e	0.104588374
49	0x3caeb148	0.021324769
50	0xbd1bffb4	-0.038085654
51	0xbe65761e	-0.2240834
52	0xbd343608	-0.04399684
53	0x3c626732	0.013818549
54	0x3d093727	0.033499863
55	0x3d6eb807	0.05828097
56	0xbd73161f	-0.05934727
57	0x3b57aef4	0.0032910677
58	0x3dc8ea65	0.09810332
59	0xbc30f5b6	-0.01080077
60	0x3b5d6e52	0.003378768
61	0xbe04d3ec	-0.12971467
62	0xbcca92e9	-0.024728255
63	0xbcfbae60	-0.030722797
64	0xbd6d3275	-0.057909448
65	0xbb859741	-0.0040768688
66	0xbd8f33a4	-0.069922715
67	0x3e1252a7	0.14289342
68	0x3d45284e	0.04813414
69	0xbd940b95	-0.072287716
70	0x3d23cc16	0.039989553
71	0x3cc277bf	0.02373874
72	0x3dbe3faf	0.092894904
73	0xbd19d589	-0.03755716
74	0x3e1cab73	0.15299778
75	0x3d921a2c	0.07133898
76	0x3d4550cb	0.048172753
77	0x3d2f56ae	0.042807274
78	0xbd64f127	-0.055894043
79	0x3d3d6f83	0.046248924
80	0xbb9362b0	-0.0044978485
81	0x3de272f6	0.11057083
82	0xbc80e961	-0.015736284
83	0x3d0c9692	0.034323283
84	0xbc5c6f9a	-0.013454342
85	0xbbbc32e0	-0.0057433695
86	0x3d070374	0.032962278
87	0xbabb8601	-0.0014306904
88	0x3e008b9b	0.12553255
89	0xbe380267	-0.17969666
90	0x3daa2d1d	0.08309386
91	0x3dcab3f2	0.09897603
92	0xbd86d0dc	-0.065828055
93	0x3d819fcc	0.06329307
94	0x3dcc123e	0.09964417
95	0xbda96dfd	-0.08272932
96	0xbdb0200d	-0.08599863
97	0x3d0d6c88	0.03452733
98	0xbd091e6a	-0.03347627
99	0xbe2c5617	-0.16829716

layers.4.weight f4 [100, 100]
0	0xbd8a2c53	-0.067467354
1	0x3d41c802	0.047309883
2	0xbe5957f7	-0.21224962
3	0x3d9a71b3	0.07541218
4	0x3cbe787d	0.023250813
5	0x3d110fbd	0.0354154
6	0xbd0f17d9	-0.034934852
7	0xbe01d48f	-0.12678741
8	0x3d8aeb41	0.06783152
9	0x3ce601ac	0.02807697
10	0x3d712e9a	0.058882333
11	0xbd911c4b	-0.070854746
12	0xbd93710a	-0.07199295
13	0x3d4c0416	0.049808584
14	0xbea8eeb0	-0.32994604
15	0x3d222479	0.039585564
16	0x3e259e8b	0.1617376
17	0x3da506fe	0.08057974
18	0x3e6324fa	0.22182074
19	0xbd21d2ab	-0.03950755
20	0xbd1883fc	-0.037235245
21	0xbd615787	-0.055015113
22	0x3dad2c29	0.084556885
23	0x3d9d7d57	0.07689922
24	0xbd799b02	-0.060938843
25	0x3dcb4947	0.09926086
26	0x3cc54c30	0.02408418
27	0x3d123064	0.03569068
28	0xbde960c8	-0.11395413
29	0x3d1653aa	0.036700882
30	0xbcca27f4	-0.024677254
31	0x3da941e7	0.08264523
32	0x3df5c32f	0.12000119
33	0xbd843662	-0.06455685
34	0x3bab271a	0.005223167
35	0xbd48d890	-0.049034655
36	0xbd8f4908	-0.069963515
37	0x3d82e7dc	0.0639188
38	0x3d781528	0.06056705
39	0xbd80c821	-0.062881716
40	0x3d82dc78	0.06389707
41	0x3dc6ef5f	0.09713625
42	0x3d5bb542	0.053639658
43	0x3e0e5ccf	0.13902591
44	0x3d9a0ebd	0.07522342
45	0x3dc4ef8b	0.09616002
46	0x3e0baf0e	0.13640997
47	0x3d31738c	0.043323085
48	0x3d5d2917	0.053994264
49	0xbddd8f1c	-0.108183116
50	0x3da75232	0.081699744
51	0x3e6f21c5	0.23352726
52	0xbcfb9286	-0.030709516
53	0x3df0f9b4	0.11766377
54	0x3dec910b	0.11551102
55	0xbbbfd2ee	-0.005854002
56	0x3e58ccc6	0.21171865
57	0x3d19a2bf	0.037508722
58	0x3d71f662	0.05907286
59	0xbd3868ec	-0.045021936
60	0xbdc23a4e	-0.09483777
61	0x3d209328	0.03920284
62	0x3d298e6d	0.041395593
63	0x3d8915f1	0.06693638
64	0x3deaa56e	0.114573345
65	0x3c34f430	0.011044547
66	0x3ba5f982	0.005065144
67	0x3dc354b2	0.09537639
68	0x3d2c3f3f	0.042052504
69	0xbe0d0bea	-0.13774076
70	0xbc571b81	-0.013129116
71	0xbcbfe9eb	-0.02342697
72	0xbd48a264	-0.048982993
73	0x3dbc824a	0.09204538
74	0xbd43d800	-0.047813416
75	0x3de81503	0.11332133
76	0xbbde9799	-0.006792974
77	0xbe03fa5b	-0.12888472
78	0x3db4fa1f	0.08836769
79	0x3dfd4fb0	0.12368715
80	0x3dbe220b	0.09283837
81	0xbdf3bf66	-0.11901741
82	0x3cda312f	0.02663478
83	0x3d862a55	0.06551043
84	0xbc1a6172	-0.009422647
85	0xbcd7a020	-0.02632147
86	0x3d272888	0.040810138
87	0x3d86452b	0.065561615
88	0x3df62d93	0.12020411
89	0x3e1bed95	0.15227349
90	0x3d6c1542	0.05763746
91	0x3d36fe3f	0.04467606
92	0x3c744e70	0.014911279
93	0xbc844f9b	-0.01615124
94	0x3da52118	0.08062953
95	0x3d8e9243	0.06961491
96	0x3db648df	0.08900618
97	0x3cef5561	0.029215517
98	0xbd05897c	-0.03260182
99	0xbdf7017f	-0.12060832
100	0xbde70758	-0.112806976
101	0xbe25194b	-0.1612293
102	0xbc043cc6	-0.00807113
103	0xbdc804aa	-0.097665146
104	0x3d1add5e	0.03780877
105	0x3e24c05d	0.16089006
106	0x3e1857a2	0.1487718
107	0x3dae9f79	0.08526511
108	0xbdbc5603	-0.09196093
109	0x3d96015e	0.073244795
110	0xbbf48450	-0.007462062
111	0xbdb0908b	-0.086213194
112	0xbd59ee1f	-0.053205606
113	0x3db7dc42	0.08977558
114	0x3d9ba9db	0.07600757
115	0x3e0940db	0.13403647
116	0x3d610ff7	0.054946866
117	0xbc8d5e1d	-0.01725679
118	0x3d9c0ae0	0.07619262
119	0xbd3db797	-0.046317663
120	0xbe98680d	-0.29766884
121	0x3ceac3b4	0.028657772
122	0xbd2c66be	-0.04209017
123	0xbd5b8da8	-0.05360189
124	0xbd8293bd	-0.06375835
125	0xbc5969b0	-0.013269827
126	0x3c61a830	0.013773009
127	0x3e1c246b	0.15248267
128	0xbdade722	-0.08491351
129	0x3ce60d04	0.028082378
130	0xbc9ee9a8	-0.019398525
131	0xbda3968a	-0.079876974
132	0x3ce93590	0.028467923
133	0xba98e106	-0.0011663742
134	0x3d37ca2b	0.044870537
135	0xbd94f36d	-0.07272992
136	0x3ccfe527	0.025377823
137	0x3e163adf	0.14670895
138	0xbe85d5a1	-0.26139548
139	0xbcae8482	-0.021303419
140	0x3d8c4e98	0.06850928
141	0x3da6f141	0.08151484
142	0x3dbb7ec9	0.09155042
143	0xbcf42498	-0.029802606
144	0xbb868560	-0.004105255
145	0x3da56334	0.08075562
146	0x3e0be967	0.13663255
147	0xbe908230	-0.28224325
148	0xbd0ff1b0	-0.0351426
149	0xbd7cbc0b	-0.06170277
150	0x3ae53d0c	0.0017489507
151	0x3db41d12	0.08794607
152	0x3d6ec4c3	0.058293115
153	0xbc011fe8	-0.007881142
154	0x3da8ebb8	0.08248085
155	0x3da29910	0.079393506
156	0x3dc042df	0.09387755
157	0x3d843be1	0.064567335
158	0x3db552c7	0.08853679
159	0xbc822990	-0.01588896
160	0xbeaecd3c	-0.34140956
161	0x3de19744	0.1101518
162	0xbba8bafa	-0.0051492425
163	0xbdb14292	-0.086552754
164	0x3beadb56	0.00716726
165	0x3bb25343	0.0054420545
166	0x3d31d60c	0.04341702
167	0xbdc8900b	-0.09793099
168	0x3de3b91c	0.11119291
169	0xbcaab0fc	-0.020836346
170	0xbdb60d43	-0.08889248
171	0xbcad0f8b	-0.021125576
172	0x3cdeab30	0.027181238
173	0xbb0065bb	-0.0019591886
174	0xbde9c082	-0.11413671
175	0x3e22a4fb	0.15883248
176	0xbdf597ce	-0.11991845
177	0x3bc04bbf	0.0058684046
178	0x3dc68bd9	0.096946426
179	0x3e0463ce	0.12928697
180	0x3c21b368	0.009869434
181	0x3dc74060	0.097290754
182	0x3da86a71	0.08223427
183	0x3d920e09	0.07131583
184	0xbc81c416	-0.015840571
185	0xbd1940d6	-0.037415348
186	0x3cc1cebb	0.023658147
187	0x3ddc1daf	0.10747849
188	0x3e0c142d	0.13679571
189	0x3e082929	0.13296951
190	0x3dbbc3c1	0.091681965
191	0xbd0156ec	-0.031577036
192	0xbdac49ea	-0.084125355
193	0x3d87f1ef	0.06637942
194	0x3d154b1d	0.036448587
195	0xbbee0651	-0.0072639366
196	0x3c251350	0.010075405
197	0xbd9320be	-0.071839795
198	0xbd829a14	-0.06377044
199	0x3d9b6441	0.07587481
200	0x3c2b9b2f	0.01047401
201	0xbb98015a	-0.004638833
202	0xbd57c7f1	-0.052680913
203	0x3cb94c34	0.022619344
204	0xbca94354	-0.020661987
205	0xbdc4313b	-0.095797025
206	0x3d9556b1	0.07291926
207	0xbd36a04d	-0.04458647
208	0xbd8ad114	-0.0677816
209	0x3c2cb422	0.010540994
210	0x3d5f50de	0.05452048
211	0x3db5397a	0.088488534
212	0x3dba52c5	0.09097818
213	0x3d5c51b0	0.05378884
214	0xbbcc5640	-0.0062358677
215	0xbdaf61a5	-0.08563546
216	0xbdbfe7ec	-0.093704075
217	0x3d8e0647	0.06934791
218	0xbdb483be	-0.0881419
219	0x3d9c89a6	0.07643442
220	0x3db65a7c	0.08903977
221	0xbdcb7c05	-0.09935764
222	0xbd918417	-0.07105272
223	0xbd940a64	-0.07228544
224	0xbdcf854a	-0.10132845
225	0x3c0d9998	0.008642577
226	0x3da79025	0.0818179
227	0xbd372599	-0.04471359
228	0xbd3ee9a7	-0.046609547
229	0x3cb22874	0.021747805
230	0x3c556de8	0.013026692
231	0x3c93c692	0.018039022
232	0xbc7747a5	-0.015092765
233	0xbd12104b	-0.03566007
234	0xbdd7b632	-0.10532798
235	0x3bf986a0	0.0076149255
236	0xbdc60d16	-0.09670465
237	0xbce1cdcc	-0.027563952
238	0x3bb79ec4	0.005603643
239	0xbc34daad	-0.0110384645
240	0xbdbc6cf0	-0.09200466
241	0x3d752c4a	0.05985669
242	0x3dc38d81	0.09548474
243	0xbdb1cdfc	-0.086818665
244	0x3d7823ae	0.0605809
245	0xbd42dedf	-0.047575828
246	0x3d0b5f04	0.03402616
247	0x3d9782e1	0.0739801
248	0x3d477468	0.048694998
249	0x3d7ba60d	0.061437655
250	0x3c825a91	0.015912326
251	0xbdc10709	-0.0942517
252	0xbdab1470	-0.083535075
253	0x3daef8f7	0.0854358
254	0xbdd7c82b	-0.10536226
255	0x3d82a39d	0.06378863

layers.4.bias f4 [100]
0	0x3d86b9a5	0.06578378
1	0x3d74e20c	0.059785888
2	0x3d88bbaf	0.06676423
3	0x3c465791	0.012105838
4	0xbd2fbf58	-0.04290709
5	0x3df2cd98	0.1185562
6	0x3d485342	0.048907526
7	0x3d5de81b	0.05417643
8	0xbd544933	-0.05182762
9	0xbd84b53a	-0.06479879
10	0x3cc56b09	0.02409889
11	0xbdd56473	-0.1041955
12	0x3de5689d	0.11201594
13	0xbd8e7a2d	-0.06956897
14	0x3d68c664	0.056829825
15	0xbd9aaf3e	-0.07552956
16	0x3d884924	0.066545755
17	0xbc54fe5b	-0.013000096
18	0xbc857e5b	-0.016295603
19	0xbe6bc51c	-0.2302441
20	0xbdd03e49	-0.1016813
21	0xbcbf2209	-0.023331659
22	0xbc3946ac	-0.011308353
23	0xbde75955	-0.112963356
24	0x3dce2471	0.100655444
25	0x3d9471df	0.07248282
26	0x3d90439c	0.070441455
27	0x3c082fad	0.008312148
28	0x3d8d416c	0.06897244
29	0x3dade310	0.08490574
30	0xbd08d056	-0.03340181
31	0x3d4797ca	0.04872874
32	0x3b698c8e	0.0035636756
33	0xbcec8f16	-0.028876822
34	0x3dba3136	0.090914175
35	0x3c83ac97	0.016073508
36	0x3d612aee	0.05497258
37	0x3e0dc2c8	0.13843834
38	0xbdbc93de	-0.09207891
39	0xbd6ed163	-0.058305155
40	0x3d256127	0.040375855
41	0x3d8f1029	0.06985504
42	0x3d83a2e5	0.06427554
43	0xbc865ff5	-0.016403178
44	0x3d7d38df	0.061821815
45	0x39d70b7d	0.00041016555
46	0x3dbca5f9	0.09211344
47	0x3d567014	0.05235298
48	0x3d07f5ea	0.033193506
49	0xbdd7695c	-0.105181426
50	0x3c8f1338	0.017465219
51	0x3d796cb2	0.060894676
52	0xbd0d6a77	-0.03452536
53	0x3e5596f0	0.2085836
54	0x3d5597a4	0.05214657
55	0xbd6ccf61	-0.05781496
56	0x3dd4dd8b	0.103938185
57	0xba88d8aa	-0.0010440547
58	0x3bb82e32	0.0056207413
59	0x3da3ae6a	0.07992251
60	0x3ccc7bec	0.024961434
61	0xbbf767f2	-0.007550233
62	0x3d19af01	0.037520412
63	0xbe393144	-0.180852
64	0x3d227156	0.039658867
65	0xbd18deaf	-0.037321743
66	0x3dc090e5	0.094026364
67	0xbd8b7d87	-0.06811052
68	0x3d2cdd96	0.04220351
69	0xbd8033d1	-0.06259883
70	0x3d9c9048	0.07644707
71	0xbd8f474e	-0.06996022
72	0xbaa03540	-0.0012222901
73	0x3d5513e2	0.052020915
74	0xbd5be637	-0.053686347
75	0x3cbee914	0.0233045
76	0x3c6c6ac0	0.014429748
77	0x3d398ea8	0.045302063
78	0x3d9b00ff	0.07568549
79	0xbc8adb8d	-0.016950393
80	0x3d9f6de7	0.07784634
81	0x3babcc73	0.005242878
82	0xbe486e20	-0.1957326
83	0x3da8f241	0.08249331
84	0xbd543f99	-0.051818464
85	0x3d33a888	0.043861896
86	0x3de55155	0.111971535
87	0x3b853188	0.0040647425
88	0x3d2301c3	0.039796602
89	0x3d89c391	0.067267545
90	0x3daa0f92	0.08303751
91	0x3d9060ca	0.07049711
92	0xbdafaeba	-0.08578248
93	0xbddb4d3e	-0.10708092
94	0xbde35343	-0.11099865
95	0xbda2f84b	-0.079575144
96	0x3db058c9	0.086106844
97	0x3c88f8f0	0.016720265
98	0x3d7cc3e6	0.06171026
99	0xbdd68d50	-0.10476172

layers.6.linear.weight f4 [4, 100]
0	0xbe9b392e	-0.30317062
1	0xbe44e549	-0.1922809
2	0xbc6c06c5	-0.014405911
3	0x3d9471e9	0.07248289
4	0xbd841854	-0.06449953
5	0x3e3eaaa5	0.18619783
6	0x3d99c540	0.075083256
7	0x3d4b032a	0.049563564
8	0xbe8a141a	-0.2696846
9	0x3dc090e9	0.094026394
10	0xbe443845	-0.1916209
11	0x3e277b98	0.16355741
12	0xbe249c55	-0.16075261
13	0xbe477c3e	-0.19480988
14	0x3ce38d64	0.027777381
15	0x3d8709f9	0.06593699
16	0x3a0a35cf	0.00052723003
17	0xbee3d1d4	-0.44496024
18	0xbe683db0	-0.22679782
19	0xbf07bc6a	-0.5302187
20	0xbd626b2f	-0.055278
21	0x3daead68	0.08529168
22	0x3e393085	0.18084915
23	0xbe1dee91	-0.15423037
24	0xbe72fbe7	-0.23728906
25	0x3e167eb1	0.14696766
26	0x3c2fc796	0.010728737
27	0x3d2af998	0.041741937
28	0x3e99348d	0.29922906
29	0xbea629b4	-0.32453692
30	0xbd8b5ee2	-0.06805207
31	0xbdefeeb6	-0.117154524
32	0xbe55319d	-0.20819707
33	0x3e9761a2	0.29566675
34	0xbd3699ae	-0.044580154
35	0xbc08c2bf	-0.008347212
36	0x3d1d10f3	0.038346242
37	0x3e9a95db	0.30192456
38	0xbd6c650c	-0.057713553
39	0xbca113e7	-0.01966281
40	0x3d978190	0.07397759
41	0x3ea72ebf	0.32652852
42	0xbe3ed00b	-0.1863405
43	0xbc9ac189	-0.018891113
44	0x3e841509	0.257973
45	0x3e8819d0	0.26582193
46	0xbda7311a	-0.08163662
47	0xbe85fc0d	-0.26168862
48	0xbe9ad29b	-0.30238804
49	0x3baf0e83	0.005342306
50	0xbd91ad6b	-0.07113155
51	0xbd1a50ee	-0.037674837
52	0xbbfd9f44	-0.007739933
53	0x3e81ca66	0.2534973
54	0x3c0da898	0.008646153
55	0xbd15762a	-0.036489643
56	0x3e9f8831	0.31158593
57	0x3e136988	0.14395726
58	0xbcde8ab3	-0.027165746
59	0x3c533ac4	0.012892429
60	0xbd44b662	-0.048025496
61	0x3db55477	0.08854001
62	0x3e46caa8	0.19413245
63	0x3e78826e	0.24268505
64	0xbd4e2f2a	-0.050337948
65	0x3d12f707	0.035880115
66	0xbd588208	-0.052858382
67	0x3d69443f	0.05694985
68	0xbb7eca00	-0.0038877726
69	0xbd75980e	-0.059959464
70	0x3d9425de	0.07233785
71	0x398b8deb	0.00026617883
72	0x3ca64fe0	0.02030176
73	0x3d92c149	0.071657725
74	0x3ea32d6f	0.318706
75	0xbea66a69	-0.3250306
76	0x3c940408	0.018068328
77	0x3d025333	0.031817626
78	0x3a35a46b	0.0006929102
79	0xbe32cebd	-0.17461677
80	0x3eb1d4ba	0.3473261
81	0xbc3bf364	-0.011471603
82	0xbee51fc9	-0.44750813
83	0xbdd488ab	-0.1037763
84	0x3d7fc9ab	0.062448185
85	0x3dace81f	0.08442711
86	0xbe586d43	-0.2113543
87	0xbe9ad509	-0.30240658
88	0x3df150af	0.11782967
89	0xbc1b4376	-0.009476533
90	0xbcd765b6	-0.026293617
91	0xbe832900	-0.25617218
92	0xbbbcf1ba	-0.0057661207
93	0x3e9dbb07	0.30806753
94	0x3b26ff6d	0.0025481835
95	0xbd035ded	-0.032071996
96	0x3e11e6f7	0.14248262
97	0x3c9b9ad3	0.018994724
98	0x3d400f73	0.046889734
99	0xbd47cc15	-0.048778612
100	0xbda5ac24	-0.08089474
101	0x3dd49c6c	0.103813976
102	0x3da10ecf	0.07864153
103	0xbd3471e1	-0.044053916
104	0xbcf40390	-0.029786855
105	0xbdaa80c4	-0.08325341
106	0xbd64f1ac	-0.05589454
107	0xbd8f4d1f	-0.069971316
108	0xbddf44a9	-0.10901768
109	0xbdc92c53	-0.09822907
110	0xbd50d3c0	-0.05098319
111	0x3db84897	0.089982204
112	0xbdf6477d	-0.12025354
113	0xbd8cfd94	-0.06884304
114	0x3d95d121	0.07315279
115	0xbbe416a0	-0.006960705
116	0x3d5a86cb	0.053351205
117	0xbd980e4c	-0.07424602
118	0xbda9068d	-0.082532026
119	0xbddd1caf	-0.107964866
120	0x3d601669	0.054708872
121	0x3ca2f89d	0.019893939
122	0xbd9692f5	-0.073522486
123	0xbc8cf20c	-0.01720526
124	0xbdbfa900	-0.09358406
125	0xbe0a9fb2	-0.13537481
126	0xbcba8891	-0.022770198
127	0xbc5b157f	-0.013371824
128	0x3d09259e	0.03348314
129	0xbba4b85a	-0.005026859
130	0x3d95b835	0.07310525
131	0xbdf91e70	-0.121640086
132	0xbd7ca598	-0.06168136
133	0xbbcddf3a	-0.006282714
134	0x3d658542	0.056035288
135	0xbd908c67	-0.070580296
136	0x3d1e5ce9	0.038662825
137	0xbd9f9b08	-0.07793242
138	0x3c72ab93	0.014811414
139	0x3d994d08	0.07485396
140	0xbd5a3a81	-0.05327845
141	0xbb4a5c6f	-0.0030877849
142	0xbdaebf8f	-0.08532631
143	0xbd23e34a	-0.04001168
144	0xbbcf8c59	-0.0063338694
145	0xbda2c7a7	-0.07948237
146	0xbcf4e5c6	-0.02989472
147	0xbc783a82	-0.015150668
148	0x3d85fc01	0.065422066
149	0x3c3846f0	0.011247382
150	0x3ba312c3	0.004976602
151	0x3d689f74	0.05679269
152	0xbdc53247	-0.0962873
153	0xbdc79306	-0.09744839
154	0xbcede85d	-0.029041464
155	0x3d9453bc	0.072425336
156	0xbd7e7ca4	-0.062130585
157	0x3cee8c33	0.029119587
158	0x3b22c7fd	0.002483844
159	0x3d0e6e73	0.0347733
160	0x3dab789d	0.083726145
161	0xbd97dc6f	-0.07415091
162	0xbd7c4c02	-0.061595924
163	0xbd3a43d7	-0.045474853
164	0xbd94475d	-0.07240174
165	0xbd60cec2	-0.05488468
166	0xbcf14415	-0.02945141
167	0xbcfe18d2	-0.031017695
168	0x3bee74b0	0.007277094
169	0xbd8d4b9b	-0.06899186
170	0x3dab6d7c	0.08370492
171	0x3d89a3b4	0.06720677
172	0x3c109d00	0.008826494
173	0x3c70d430	0.014699027
174	0xbc4b961a	-0.012425924
175	0xbd8f96ac	-0.0701116
176	0x3d3cee32	0.0461256
177	0x3ca56737	0.020190818
178	0x3daa8620	0.083263636
179	0x3c18dce5	0.009330009
180	0x3ce04574	0.027376868
181	0xbdb605f6	-0.08887856
182	0x3d36bed8	0.044615597
183	0xbda53ebf	-0.080686085
184	0x3d96e926	0.07368688
185	0x3d9e8b25	0.077413835
186	0x3d962b8d	0.073325254
187	0x3c92bca2	0.017912213
188	0xbc3194fc	-0.010838743
189	0xbdede9d1	-0.116168626
190	0x3d38d885	0.045128364
191	0xbd3dcc72	-0.046337552
192	0x3d0daadb	0.03458677
193	0xbc8fd080	-0.017555475
194	0x3d5ac845	0.05341365
195	0x3cac9623	0.021067685
196	0x3d21cc64	0.039501563
197	0x3d3c5fb8	0.045989722
198	0x3d2523f6	0.0403175
199	0xbceaabc2	-0.028646354
200	0x3dd73254	0.10507646
201	0x3e06285b	0.13101332
202	0xbbcdb514	-0.0062776897
203	0xbb2b3629	-0.0026124811
204	0xbcfa7931	-0.030575367
205	0xbd411dcf	-0.04714757
206	0xbd5c5c21	-0.0537988
207	0x3d82e01d	0.063904025
208	0xbcb20441	-0.021730544
209	0xbccc26b4	-0.024920799
210	0x3c94c678	0.018161044
211	0x3db4cba2	0.088279024
212	0xbcc899fb	-0.024487486
213	0xbcf7c228	-0.030243948
214	0xbd2a46f2	-0.041571565
215	0xbdb336b8	-0.08750671
216	0x3d7046fe	0.058661453
217	0x3d0adcf7	0.033902135
218	0xbd1e8458	-0.03870043
219	0x3d4a0dc4	0.049329534
220	0x3dbb436c	0.09143719
221	0x3d70523b	0.05867217
222	0x3b52639f	0.0032102836
223	0xbd948572	-0.07252015
224	0x3e1eb909	0.15500273
225	0xbd0c7afe	-0.034296982
226	0x3dab4c77	0.08364194
227	0x3c9018e5	0.017589996
228	0xbc8d382b	-0.017238697
229	0x3bf9a25e	0.0076182326
230	0xbdbfe34d	-0.09369526
231	0x3bd004db	0.006348235
232	0xbdae9d5d	-0.085261084
233	0xbdbc6333	-0.09198608
234	0x3cd5351a	0.026026297
235	0x3db8d950	0.09025824
236	0xbd3a6d06	-0.04551413
237	0x3d5156d6	0.051108204
238	0xbdab8503	-0.08374979
239	0x3d1062c0	0.035250425
240	0xbd34df89	-0.044158492
241	0x3de32110	0.110902905
242	0xbdbd5ac2	-0.09245826
243	0xbcb5bac8	-0.02218379
244	0xbd1becac	-0.038067505
245	0x3cf38deb	0.029730758
246	0xbda19670	-0.07890022
247	0xbd6729c3	-0.05643631
248	0xbd84d093	-0.06485095
249	0x3bb5d4f1	0.0055490662
250	0xbb8a9b8f	-0.00422997
251	0xbcb28f5e	-0.021796878
252	0xbda0306a	-0.07821734
253	0x3d951ab5	0.072804846
254	0x3cb9cd2e	0.022680845
255	0x3ca9749c	0.020685486

layers.6.linear.bias f4 [4]
0	0xbd7c6013	-0.06161506
1	0xbc76ccf4	-0.015063513
2	0x3d66f8e0	0.05638969
3	0xbc34e89e	-0.011041788
