examples/Simple/simple_pretrained.pth (torch_old, 84755 bytes, 8 tensors)

layers.0.weight f4 [100, 1]
00000000: 270b 64be e663 df3e d2cb 79be cc87 bbbe
00000010: 07db bebe e470 6abf e833 efbe 0e85 013f
00000020: 00b9 3e3e d824 5e3e a3df 193e 9a9f bb3e
00000030: fba2 67bf 8c91 f33e 101a fe3e 0458 1d3f
00000040: 89bc fa3e 36c1 203f 6408 493f 7729 36be
00000050: e38a 303f e8e9 593f 1880 14be e932 68bf
00000060: e22c 833f dc8a 5ebf eba0 533f a5f1 0abf
00000070: 1a7e 803e de34 d7be 2e2f 5cbf e6cb 2dbf
00000080: 84f6 2c3f a383 353f 4c16 a9be a1a9 e1be
00000090: 7e4b 793f a802 55bf 9819 4fbe 2b8a 233e
000000a0: ab65 7ebe f64d 0e3f 5794 1ebf 62db 16be
000000b0: 1042 f23d b5d2 60be 4064 c63c efa4 02bf
000000c0: 6090 aabd 33b1 bc3d a0ce 32be db3e 5dbf
000000d0: f9f6 38be c653 b23e 4c65 ce3e 8bd1 20be
000000e0: f9a9 0f3f 003d 1dbe f428 df3d 5c4d cb3e
000000f0: c5aa 693e 197b d33e 52b7 83bd 06ec 343f
00000100: d2a7 41bf 5acc 80bf 25bd 123f e913 1ebe
00000110: b836 313f a70b 76bf 9cd2 45bf 731a 3e3f
00000120: 8bbc 923d 5637 b6bd 5271 80be cd17 0fbf
00000130: da54 05bf a34a 53bf 94d4 793f 4dc8 4abf
00000140: e8da 6bbf b386 f1be 985a ff3e 60e2 1dbf
00000150: 46a6 363e 7d1d 00bf 72a5 2d3f 7366 0e3f
00000160: a852 5d3e ef17 66be e19e 743f 1a1e 143f
00000170: 74de 71bf 6a0e 233f 22b2 4ebf 7057 72bf
00000180: 9331 833f 5d31 2abf 3dac 4bbf a581 f83d
-0.2226988 0.43630904 -0.24394158 -0.36627042 -0.3727648 -0.9157851 -0.4671929 0.5059365
0.1862526 0.21693742 0.15026717 0.36645204 -0.90483063 0.4757198 0.4962926 0.61462426
0.48971966 0.62794816 0.7852843 -0.17789255 0.68961924 0.8512254 -0.14501989 -0.9070268
1.0248072 -0.8693063 0.82667416 -0.5427497 0.25096208 -0.42032522 -0.8600949 -0.6788925
0.67563653 0.70903987 -0.33024824 -0.4407473 0.97380817 -0.8320718 -0.20224607 0.15970676
-0.24843471 0.5558771 -0.619451 -0.14732125 0.11829007 -0.21955378 0.024217725 -0.5103292
-0.083283186 0.092134856 -0.17461634 -0.86424035 -0.18062963 0.3482954 0.40311658 -0.15704934
0.5611873 -0.15355301 0.10896483 0.39707458 0.2281905 0.41304854 -0.0643145 0.70672643
-0.756467 -1.0062363 0.5731986 -0.15437283 0.6922412 -0.9611153 -0.7727449 0.7425911
0.07164868 -0.08897273 -0.25086457 -0.5589569 -0.520826 -0.8253576 0.97589993 -0.79211885
-0.921309 -0.4717308 0.49873805 -0.61673546 0.17836866 -0.50044996 0.67830575 0.55625075
0.21613562 -0.22470067 0.9555493 0.5785843 -0.9448006 0.6369387 -0.8074056 -0.9466467
1.0249504 -0.6648157 -0.7955969 0.12134103

layers.0.bias f4 [100]
00000000: 98ee 743f 751b 4abf 3fac 0dbf ab4c 5abf
00000010: 0d9d 3dbf 2682 82bf 7a41 3c3e ffd1 903b
00000020: 4cfc 4fbf c722 393e 8ab0 4d3f 48e0 7ebe
00000030: 82b4 2c3f f70d e93e 7ebf 73bf 64c9 023f
00000040: 9d5d f23e 61ae db3e b8c8 be3e 38ed 533f
00000050: 09c6 df3c b20e 193f cada c3be 39c8 123e
00000060: cbf6 753e 29f3 523f ece4 03bf 8191 003f
00000070: 71c6 c53e 8f5e 73bf 7caf 403f e57b 2abf
00000080: 5959 3f3f 124a 963e 6ec3 2ebe 9c99 fd3d
00000090: 8234 94bf 2e87 94be 5653 e23e c28d 3f3f
000000a0: 2cf6 853f 538d 253f 67e2 8e3f 69d0 303f
000000b0: 3e69 9bbe 0cc0 6f3f 4c50 bcbe 8ab6 67be
000000c0: 2fb2 e33e 20ac 873f c0ab 4fbf e87a 843f
000000d0: 025c d0be 8912 493f 8db4 7c3f 04bc 323f
000000e0: 170e 13be 6400 9fbd 7ffe 8ebe 3351 44bf
000000f0: d63f 833f 4352 703e e484 163f 489f c6bb
00000100: 8955 61bf fd57 b6be ae2f e6be df7f 3a3f
00000110: 526c 15bf c8c8 c2be cdc2 cbbe 0151 733f
00000120: 9d74 f83e 218c 363f 48ba bf3d 45bd 26be
00000130: 9073 d23e 96c6 86bf 3ea8 a2bf 1a68 913e
00000140: 3e3d 6fbf fb69 85bf da5e 1dbf 3e13 de3e
00000150: 29cc 563f 18f4 71bf 7861 683f 9da5 0cbf
00000160: 2ed1 64bf a3d4 0ebf 0899 3b3d b465 233f
00000170: b6e5 97bf 9237 92be 5f79 25bf 29ac cbbe
00000180: 63e3 c3bd 27af 8dbf 1b07 583d 15af 283f
0.95676565 -0.78948146 -0.5534095 -0.85273236 -0.74067765 -1.0195968 0.18384352 0.0044195647
-0.8124435 0.18079673 0.803475 -0.24890244 0.67462933 0.45518467 -0.9521407 0.5108855
0.47337046 0.42906478 0.3726251 0.8278384 0.02731611 0.5978805 -0.3825286 0.14334191
0.24019925 0.8240228 -0.5152118 0.5022202 0.3862796 -0.9506616 0.7526777 -0.665953
0.7474571 0.29353386 -0.17066738 0.12382814 -1.1578524 -0.29009384 0.44204205 0.7482568
1.0465751 0.6466877 1.1162843 0.6906801 -0.3035373 0.93652415 -0.36780012 -0.22628227
0.4447188 1.0599403 -0.81121445 1.0350008 -0.40695196 0.7854391 0.98713 0.6981814
-0.14360844 -0.077637464 -0.2792854 -0.766864 1.0253856 0.2346888 0.58796525 -0.0060614683
-0.8802114 -0.35614005 -0.44958252 0.72851366 -0.5836841 -0.3804381 -0.3979706 0.9504548
0.4852647 0.7130757 0.09361702 -0.16283138 0.41103792 -1.0529354 -1.2707593 0.28399736
-0.93452823 -1.0422968 -0.61472857 0.43374056 0.83905274 -0.9451308 0.90773726 -0.54940206
-0.8938168 -0.5579321 0.04580024 0.6382706 -1.1866977 -0.28558022 -0.6463832 -0.39779785
-0.09564855 -1.1069077 0.05274115 0.65892154

layers.2.weight f4 [100, 100]
00000000: ca4a 0fbf f8ac 023e 8a83 7abd ddbd 86bd
00000010: 6027 bbbb 0060 efbb 3d1e bd3c 45b5 8dbc
00000020: 686b 783c ad22 853d 367e c9bd f978 b33d
00000030: 1e2f 67bd 8f28 983d 4fc9 e33e aa2e 8d3d
00000040: f454 afbd 8cdd aabd 7cc9 04bd 14d7 ccbe
00000050: 39b9 423d 1565 c5bd b006 af3b 3c24 3fbd
00000060: e226 7bbd 8a39 b5bd aa92 373d 3df4 dbbd
00000070: 05a2 4d3c 20b2 fabb cbd6 4b3d 7488 f13c
00000080: 654d 9d3b d6fd 7c3c a30f 6a3d 655b 5fbd
00000090: 1a9f e23d 41c2 c9bd e6d0 e9bc c894 19be
000000a0: 3e9a f2be 99bc e3bd fb0a 99bd 8926 e6be
000000b0: 113e 873e 36f3 f4be 52e3 253d 259c a03d
000000c0: 9658 f4be 461a 0bbd ea71 273d 832c a2bd
000000d0: 5a2d c2bd 5288 81bd 089f 173d 383c b5be
000000e0: cda9 943d a016 a4bc 9a61 123e 41f1 f43e
000000f0: fb8c 0dbe 1c78 643c 57a5 80be adfd 49bd
00000100: 3446 e9bc a347 9d3d a356 143e 3cfa f4be
00000110: 94bb 093d cb77 ef3b ec8b 3f3d 2dcd 343d
00000120: dc52 38be d2e2 8dbe 3821 093d 5469 71bc
00000130: 6dd8 fb3c 7db1 cabd 8273 763e 0936 363c
00000140: 3ca6 0bbd b51e c13d 19b2 293e 08ef f33c
00000150: 94eb 88bc 40e0 153b 0547 69bc f7bc 4c3e
00000160: 99f4 b33d ef10 8d3d bca8 d33d 1792 96bd
00000170: da79 4a3d d84f 103e 1cd9 d63c ed2e cfbd
00000180: 84df 983d 4ed6 163d 79b7 ab3d 42d0 95bd
00000190: 18a8 83bb 7b45 92bd 41f0 8c3d d043 00bd
000001a0: e2ba 653d e3f0 37bd a2fc 603d dc96 40bd
000001b0: 82be 463d 731a 21bd 3aa2 a0bd 382e 943d
000001c0: aadd 9dbd c268 21bd 6827 e0bc 9c9c 57bc
000001d0: 8eeb 3a3d 759b 733c 2c6e 193d 40c9 c5bd
000001e0: 9c62 5fbd ee12 7e3d 23fe 27bd 30f5 813b
000001f0: f3ee 70bd 2c78 dabc a4f0 863a 611a b83d
00000200: 2b4f c53c 965f 513d 184f dbbc d213 583d
00000210: fa0d 663d 39b9 373d 338e b5bd e81a 363c
00000220: 50fd 333c b488 01bd d78e d2bc bed8 c5bd
00000230: df10 333d 11d0 d13c bf4f b8bd 5bf8 cebd
00000240: 0338 b2bd dc12 21bd 3ef4 103d b217 583d
00000250: df62 683d 02b7 263c 3689 a6bd ac3f 0fbd
00000260: 8163 9e3d f812 4b3c 3e33 2ebc d6f1 263d
00000270: fd48 4fbd 91ba 963d 93ac 88bc 8a95 c9bd
00000280: 467f 39bd 6869 16bd 59af b13d 97df 93bc
00000290: 0ccf a63c 9078 48bc 65e6 383d 7482 c4bd
000002a0: e0f7 66bd 1581 c8bd d6fa 1f3d 09d5 0bbd
000002b0: 6ccf 7cbc 6841 bbbc 30ad 3fbc 0816 bfbc
000002c0: a2dd 0d3d 808f 99ba 9b8f a7bc a9ba ca3d
000002d0: 64ac 86bd 0080 d537 cb28 6d3d 50d8 043c
000002e0: f7c8 873d 4622 8ebd e662 20ba 0b6f b33d
000002f0: e0ad f2bc 20be c5bb 9f4f 1a3d eb72 36bd
00000300: 61ef b23d 8500 b33c 8d75 93bd af53 afbd
00000310: 9c04 b3bd 585a f5bc 43df bdbd 9d1d b3bd
00000320: 5199 0ebd dde4 f1bc 6a2b e33d 3202 633e
00000330: fab5 2a3e 32df f93d e136 01bd 8bcf 0d3c
00000340: aa5d a1bd d0e0 a7bd abf4 d6bd 247d 03bd
00000350: 0971 b3bd 9187 8e3d 6cef 953e cdf2 793c
00000360: 056c 853d 4320 c8bc 4f93 953d d309 233d
00000370: 2f05 81bd e865 563d 1b8e 133e dae7 ff3b
00000380: a18b 8a3d c077 93bd 8a57 8abd e9ae fabb
00000390: 8a1c a23d 46ba 683e 8d16 47bd 83bd f73d
000003a0: 859d 1fbd 93b1 75bd d8fe 86bd a44e 9b3d
000003b0: a2a2 e03d 57f6 96bd d963 df3d a50e 843d
000003c0: 0842 47bd f7d1 9bbd 530c 913d 6fde d1bd
000003d0: dc60 263d 7b36 79bd c044 763c 5ecf b73d
000003e0: faee 963d 5ddb 243d 9587 86bd c072 66bd
000003f0: db1c cf3d ec65 a53d 58f0 d33d cfab 8bbd
-0.55973494 0.12761295 -0.0611606 -0.06579182 -0.005711481 -0.0073051453 0.023085708 -0.01729835
0.015162326 0.065007545 -0.09838526 0.08763308 -0.05644142 0.07429611 0.44489524 0.06893666
-0.085611254 -0.08343038 -0.032418713 -0.40007842 0.047539923 -0.096384205 0.0053413734 -0.046665415
-0.06131638 -0.08848865 0.044817604 -0.10739944 0.0125508355 -0.0076506287 0.04976539 0.029484011
0.004800486 0.015441379 0.05714382 -0.05453052 0.110655025 -0.09851504 -0.028541993 -0.14998162
-0.47383302 -0.111199565 -0.074727975 -0.44951275 0.2641454 -0.47841805 0.040499993 0.07842282
-0.47723836 -0.033960603 0.04088012 -0.07918646 -0.094813064 -0.06324829 0.0370169 -0.35397506
0.072589494 -0.02003032 0.14295045 0.47840312 -0.13823311 0.013944652 -0.25126144 -0.04931419
-0.028475858 0.07679679 0.14486174 -0.47847164 0.033626154 0.0073079816 0.0467643 0.044140983
-0.18000358 -0.27712113 0.033478945 -0.014734585 0.030742848 -0.098971345 0.240675 0.011121281
-0.03409408 0.09429685 0.16571845 0.029777065 -0.016713895 0.002286926 -0.014238124 0.1999396
0.08786888 0.068879955 0.10334918 -0.07352083 0.049432613 0.14092958 0.026226573 -0.10116372
0.07464507 0.03682547 0.08384604 -0.07315113 -0.004017841 -0.071421586 0.06881762 -0.03131467
0.05608643 -0.04490746 0.05492843 -0.04701887 0.048521526 -0.039331865 -0.07843442 0.07235378
-0.07708295 -0.039406545 -0.02736254 -0.013159897 0.0456348 0.014868607 0.037458584 -0.09657526
-0.0545374 0.06202977 -0.041013848 0.003965996 -0.05882163 -0.02666863 0.0010295105 0.089894064
0.024085602 0.05111655 -0.026771113 0.052753277 0.056165673 0.044854376 -0.08865013 0.011114813
0.010985687 -0.03162451 -0.025702877 -0.09660481 0.04371726 0.02561191 -0.08999585 -0.10105964
-0.0870209 -0.039324626 0.035389178 0.052756973 0.056734916 0.010175468 -0.0813164 -0.03497283
0.077338226 0.012394659 -0.010632334 0.040757976 -0.050606716 0.073598035 -0.016683852 -0.098429754
-0.045287393 -0.036721617 0.08676023 -0.018050952 0.0203624 -0.012235776 0.045141596 -0.095951945
-0.056388736 -0.097902454 0.039057575 -0.034138713 -0.015430313 -0.022858337 -0.011699006 -0.023325935
0.034635194 -0.001171574 -0.020454219 0.09898884 -0.0657585 2.5451183e-05 0.05790023 0.008108214
0.06630128 -0.06940131 -0.00061182526 0.08761414 -0.029623926 -0.0060346276 0.03767359 -0.044543188
0.08737064 0.021850834 -0.072001554 -0.08560883 -0.087411135 -0.029950306 -0.092710994 -0.08745883
-0.034814183 -0.029528076 0.11092265 0.22168806 0.16670981 0.12200774 -0.031546477 0.008655439
-0.07879193 -0.081971765 -0.104958855 -0.032101765 -0.08761794 0.06959451 0.29284227 0.015255642
0.06514744 -0.024429446 0.073034875 0.03980429 -0.06299817 0.05234328 0.14409678 0.0078096213
0.06764913 -0.07200575 -0.06754978 -0.0076502454 0.079156 0.22727308 -0.04860549 0.12096693
-0.03896858 -0.0599838 -0.06591576 0.07583359 0.1096852 -0.07371204 0.10907716 0.06448106
-0.048646957 -0.07608407 0.07082429 -0.10247504 0.040619716 -0.060842972 0.01503104 0.08975099
0.073698 0.040248264 -0.06568829 -0.056261778 0.101129256 0.08076081 0.10348576 -0.06819879

layers.2.bias f4 [100]
00000000: 7d02 25be 47f4 873d e368 843d a396 9b3d
00000010: 6b50 0c3c 5259 2abd 8faf 9bbd 6a0a 43bd
00000020: a524 c93d 7b12 e63d bbbc 683d eeeb 3ebe
00000030: 3b0b 0d3c 0602 04be 0c4d 093c 80ab 2dbd
00000040: c90e 6dbe bfcb 0c3a 4dd1 bcbd daf1 153d
00000050: c142 c5bc a984 fc3d fa82 8c3d b824 8dbd
00000060: 3499 43be bd96 7ebb 32bb fc3d 35e8 5fbe
00000070: 3319 523d 10e0 953d 5ab9 4c3d 2de2 7cbd
00000080: 0a66 25bd 6c08 5cbd 76d3 0c3d 96a0 473d
00000090: 94a1 7b3d 8e6f e9bc c684 1cbc 386e aebc
000000a0: cd08 01bd 40ad 0cbe 6b4a 17bd ca9d c73d
000000b0: dc52 ab3c 645e 8dbd ce99 a13d 746e 623c
000000c0: e8b6 ba3b 0b87 9ebd 577c 3b3e a782 e8bd
000000d0: 8de5 22bd 2735 5bbe f95a 2cbe 185a a5bd
000000e0: 7cc4 ab3d c6f5 7d3d 2999 a9bd 0cfc 533d
000000f0: 6ecd abbd 60cb 71bd 6490 c0bd 6f89 3dbc
00000100: d060 eebb f4b2 d93c d3a7 1ebd 6dbe 813c
00000110: 8962 923d f4d8 753d 1aca 483d 4785 79bd
00000120: 6aac 983d cbf7 a1bc 7d5f cbbd b29b cdbd
00000130: 788a 81bb c681 0fbd 8d8d fabd 0eb2 4bbd
00000140: 9810 b03d b948 19bd b266 283d 5db6 49bd
00000150: bbc3 013c dd07 55be 1d1f afbd 01b4 7ebd
00000160: 46a2 9abb fe88 923d d897 cebc e307 c7bd
00000170: 186b 883d 38ad 95bc ae88 0b3e 557e 7fbd
00000180: 4407 89bd 634a 4bbd 6038 173d 8d22 22bd
-0.1611423 0.06638389 0.06465318 0.07597091 0.008564095 -0.04158909 -0.076018445 -0.047617353
0.098214425 0.112339936 0.056820612 -0.18644688 0.008608635 -0.12891397 0.008380186 -0.042399883
-0.23150171 0.00053709367 -0.092196085 0.0366076 -0.024079682 0.123299904 0.06860919 -0.06891769
-0.19101411 -0.0038847171 0.12340392 -0.21865924 0.051293563 0.07318127 0.049981453 -0.061739136
-0.040380515 -0.05371897 0.034381352 0.04873713 0.06143339 -0.028495576 -0.00955314 -0.02129279
-0.031502534 -0.13737965 -0.036936205 0.09746893 0.020913534 -0.06902769 0.07890664 0.013820279
0.0056980737 -0.07740601 0.1830915 -0.11353045 -0.039769698 -0.21406995 -0.16831578 -0.08073825
0.08387086 0.062001966 -0.08281166 0.051754043 -0.08388792 -0.059031844 -0.0940254 -0.011568411
-0.0072747245 0.02657459 -0.03873427 0.015837872 0.071477 0.060021356 0.049020864 -0.06091812
0.074547604 -0.019771477 -0.09930322 -0.10039462 -0.0039532743 -0.03503587 -0.1223403 -0.049730353
0.08596915 -0.03742287 0.041113563 -0.04924618 0.007920201 -0.20803781 -0.08550856 -0.062183384
-0.0047190515 0.071550354 -0.02521889 -0.09718301 0.066610515 -0.018271074 0.13626358 -0.06237634
-0.06690839 -0.049631488 0.036918998 -0.03958373

layers.4.weight f4 [100, 100]
00000000: c063 923b 350e b9bd 1979 2abd 4460 d33b
00000010: 1494 093d 8e89 9e3d ae83 a43d 3b80 b2bd
00000020: 54fd 833c 439b 6f3c a409 3cbd 9cca 9d3d
00000030: afe8 973d fc65 a83d 391a 733c 984c 6c3c
00000040: 8fcf 5ebb 6c10 a739 cd10 62bd fc20 513c
00000050: 9a66 3fbd bc63 b1bd a982 21bd 3684 8c3d
00000060: cf0f 94bc 6782 74bd c14f b4bd 0359 7fbd
00000070: 4cb1 933c 37bd 703b 6953 843d 9837 a3bc
00000080: 340d 1dbc c91b 603d 1c18 33bd ba1f 15bd
00000090: b538 1c3d 8b39 0fbc 06b2 6dbc 3fda 0c3d
000000a0: f3b3 c13d e18c 923d 6910 eabc ce07 45bd
000000b0: 316f 52bd a830 87bd 40a7 9bbd 9115 e0bc
000000c0: e9de 2c3d 7655 1a3d 94bc 81bd c8ec 123d
000000d0: f644 92bd 6478 92bd 9d06 3ebb bce6 aebd
000000e0: efce f43b 1a1f d5bd 1911 bbbd 94fd 333d
000000f0: 6903 c33d 84e9 b2bd 13f1 823d 8c5a f1bc
00000100: 5450 aa3c 874d 89bd 47fc c03d b629 c53b
00000110: 004e 21bb 0931 9bbd f7db c3bd a20a 003d
00000120: 8c1e 033d e9f6 4d3d 222d 80bc 6d1a bd3d
00000130: 8712 f73c 03f4 993d 6682 34bd 5bc8 5f3c
00000140: fe4a d0bd 216b 16bd 4ac8 b3bd 9cc7 f23c
00000150: d5f6 59bd 2882 453d 3063 c0bd d26c 7f3d
00000160: 4072 603c 94a3 b13d fbd4 8fbd efc5 0ebd
00000170: 7d88 8bbd f53f 0ebc f8d8 71bd ab33 b83d
00000180: 6a92 21bd 70c8 31bd c02c dd3c 02c1 0c3d
00000190: e424 b13c bd7d b6bd e840 7fbd e15b 81bd
000001a0: 2ad5 82bd 3911 3e3d fc66 8d3d ae73 92bd
000001b0: 8da3 84bd d583 24bd 92b5 c93c b5a5 80bd
000001c0: ceb2 4bbd f9a3 7f3c 1002 c53b 77b6 823d
000001d0: 2a32 aebd 6d28 1fbd fb07 933c 09ab 8ebd
000001e0: 17c3 883d 7aee 84bd 3efe 3f3d e571 d8bd
000001f0: 2de0 ccbd fdb9 9fbd 5d08 e3bc 3d23 de3c
00000200: b122 b8bd 2c81 9fbd 4008 633c 92e7 b7bd
00000210: c9e5 d3bd 2a1b 26bc 4afc b8bd 60ca 85bb
00000220: 2f75 c2bd ab6b 04bd da0a a33d d851 983d
00000230: e48a a4bd 37b4 593c 0c4a f93c d6b3 56bd
00000240: 3a42 a0bd aadc 843d 6ab6 a23d 67a9 773d
00000250: cdc3 8b3c ed61 77bd da97 70bd 6dca 98bd
00000260: 9ce9 d13c 7140 a23d 79ae 913d c96f c23d
00000270: 7a58 90bd ad33 b03b 42f0 8c3d 7826 a9bc
00000280: 5839 e9bc 7986 093d 7479 6b3d 27f3 34bd
00000290: 8074 983c 0624 41b8 ce41 4c3d 4924 843d
000002a0: 34e9 f43c 28c7 5e3c 6638 a9bd 82ea 80bd
000002b0: 5829 923d ad3a c83d 5acc 8c3d 115f af3d
000002c0: d60a a9bd a510 b4bd 65bf 29bd 5ca0 cebd
000002d0: 08f9 5dbd 075b bcbd 70d7 22bc 3011 81bd
000002e0: 8b8a 85b9 d725 bb3d 699d 973d 7287 a63d
000002f0: 1c0e d53c f794 4a3c 8716 1cbd fca7 8dbb
00000300: 1521 d3bd dc90 acbc 4a4c 59bd ca49 ad3d
00000310: 7489 cebc ecfa 8d3c 4321 b6bc 7250 593d
00000320: a762 ad3c e3d9 68bd d6d3 c9bc 3c7a 7f3d
00000330: aac8 41bd bd22 e0bd 659d 093d 2103 78bb
00000340: 0c3b 8e3d 8476 8e3d 9090 8b3c 328a ae3d
00000350: 5e8b bdbd afb7 7b3d 0045 8a3a d5ba c3bd
00000360: 971e 94bd 3f76 353d 62f3 41bd 3c65 72bd
00000370: 7e54 61bd 277c 3a3d 4899 b9bd 1429 6e3d
00000380: 1474 5b3c 5cf2 033d 2cf2 c5bd 7baa b1bc
00000390: 86ad cebd 004c d3bd 50a9 29bd 706a 393c
000003a0: 0bdd 373c 386b eebd 8a75 47bd 502d 0b3c
000003b0: b83e 433d cf5b 72bd f514 413d 821a 3c3b
000003c0: 9fef 943c 9194 553d b840 9ebd 2e5f 0d3d
000003d0: dd0f 1b3d a0fd 39bd 9bd3 3cbc de73 b23d
000003e0: 3514 cfbd bda4 acbd 3a40 0dbd 4538 8fbd
000003f0: b86a bd3c 5ade 603b e1ce 813d 1dc6 553d
0.0044674575 -0.09035913 -0.041619394 0.0064506847 0.033588484 0.0774108 0.080329284 -0.08715864
0.016112007 0.01462442 -0.04590763 0.0770466 0.07417428 0.08222577 0.014837795 0.014422558
-0.0033998226 0.00031864957 -0.055191804 0.012764212 -0.046728708 -0.08661601 -0.039431248 0.06861155
-0.018073944 -0.059694674 -0.08804274 -0.062340748 0.018028878 0.0036733875 0.06461222 -0.01992397
-0.009585667 0.054713998 -0.043724164 -0.03640721 0.038140018 -0.008741747 -0.014507776 0.034387823
0.09458151 0.07155777 -0.028572278 -0.048103146 -0.05137557 -0.06601077 -0.0760026 -0.027354034
0.04220477 0.03767916 -0.063347965 0.035870343 -0.071420595 -0.07151869 -0.002899564 -0.08540103
0.0074709575 -0.10406323 -0.091341205 0.043943003 0.09522135 -0.08735946 0.063936375 -0.029462121
0.020790257 -0.0670424 0.09423118 0.006016935 -0.0024613142 -0.07577712 -0.09563439 0.03126014
0.032011554 0.0502843 -0.015646521 0.09233556 0.030160202 0.07517245 -0.04406967 0.013658608
-0.101705536 -0.03672326 -0.087784365 0.029636197 -0.053213913 0.04821983 -0.093939185 0.06235964
0.013699114 0.08673778 -0.07023045 -0.034856733 -0.068131424 -0.008682241 -0.05904481 0.0899423
-0.039446272 -0.043404043 0.026998878 0.034363754 0.021624036 -0.089107014 -0.06231776 -0.06316353
-0.06388314 0.046403144 0.06904408 -0.071509704 -0.06476507 -0.040164787 0.024622712 -0.06281606
-0.04973107 0.015603059 0.0060122088 0.06382459 -0.08505662 -0.038856912 0.017948141 -0.06966216
0.066778354 -0.06490798 0.046873324 -0.10568599 -0.10003696 -0.07799146 -0.027713949 0.027116412
-0.08990992 -0.077883095 0.013856947 -0.089797154 -0.103465624 -0.010138312 -0.09032495 -0.004082963
-0.09495007 -0.032329243 0.07961054 0.074374855 -0.08034304 0.0132875955 0.030430816 -0.0524176
-0.07825132 0.06487401 0.07944949 0.06046429 0.017061139 -0.060396124 -0.058738567 -0.07460485
0.025624089 0.079224475 0.07113356 0.094939776 -0.070481256 0.005377254 0.06881763 -0.020648226
-0.028469726 0.03357551 0.057488874 -0.0441772 0.018610239 -4.6048335e-05 0.049867444 0.06452233
0.029896356 0.013597287 -0.0826271 -0.06294729 0.07136792 0.097768165 0.068749145 0.08563054
-0.0825402 -0.08792237 -0.041442294 -0.1008918 -0.054192573 -0.091970496 -0.00993906 -0.063021064
-0.0002547096 0.09138077 0.074030705 0.08131303 0.026007704 0.012364618 -0.03810742 -0.004323004
-0.10309044 -0.021065168 -0.05305127 0.0846134 -0.025212027 0.017331563 -0.022232657 0.053055234
0.021165205 -0.056848418 -0.024637144 0.06237243 -0.04731051 -0.10944126 0.03359737 -0.0037843662
0.06944856 0.06956199 0.017036706 0.085224524 -0.09255098 0.06145447 0.0010549128 -0.0955712
-0.07232397 0.04430222 -0.04735125 -0.059178576 -0.05501222 0.045528557 -0.09062439 0.058144644
0.013394374 0.032213554 -0.09665331 -0.021687737 -0.10091691 -0.1031723 -0.041421235 0.011316881
0.011222134 -0.11641544 -0.04869608 0.00849469 0.047667235 -0.059169587 0.047139127 0.0028702323
0.018180666 0.052143637 -0.07727188 0.0345146 0.037856925 -0.04540789 -0.01152506 0.08713506
-0.10111276 -0.08429859 -0.03448508 -0.069931544 0.023122177 0.003431222 0.06338287 0.05219089

layers.4.bias f4 [100]
00000000: d344 8c3b 260f 853d a9bf bbbc 0442 38bd
00000010: 77f4 82bc d40d e4bc 9e70 a13d 8ecd 54bd
00000020: 5ccf b1bd 99b6 9bbd 89da ad3d a2b4 623d
00000030: e0d3 313b 078b a3bd 5f4f 873d d220 a53d
00000040: 303a b5bd a3b6 c7bd 8de3 5fbc 57e7 85bc
00000050: 046b da3c 1cbd 10bd def0 323d 4335 87bc
00000060: 57b0 25bd ce8e 84bd 78e7 5f3e fad0 eb3c
00000070: 585d 783c c429 14bc 5d25 963c f460 94bd
00000080: 0d33 623d 02cd 99bb ff18 d7bd 16a2 543d
00000090: 9d49 1dbd 818c 463d 5120 59bd 62e3 ccbc
000000a0: cc62 603d dcb8 debd f01d 1d3d 90b0 e73d
000000b0: 4e2b a83d fca7 e23d 7eba 43bc 2762 ad3d
000000c0: a3bc 9239 4a27 563a 0db4 73bd 2d16 743d
000000d0: 5780 9abc ec05 5fbd 4528 c4bc 6e9a 2bbd
000000e0: b61a 58bd fe0c b8ba 8661 0bbc a099 77bd
000000f0: d99d b4bb 3293 503d a0a1 2ebd edeb 2fbd
00000100: 88e7 4a3d f73a 583c 1c0b 99bd 0ac8 35bd
00000110: 1bbf 6dbd d8a2 adbd f1c8 1e3c cdc5 8abd
00000120: 2fbb 973d aa0c a73d 282f 963d 384d 9dbc
00000130: cebb 403c f31d 32bd 5b8f d53c c147 093d
00000140: 8c25 893d bd73 aabb 9108 a3bd 77a4 c13d
00000150: 19bf 993d 02a7 a6bd e5a8 c0bc f24d a6bd
00000160: 8e62 ae3d 69e2 623d 285c 453d f704 b13d
00000170: 4c41 3e3c b39b e8bc d63b 2abe 3399 bf3d
00000180: 3efb d0bd 1580 c4bd 8fee 07bd 01db 993d
0.0042806654 0.0649703 -0.02291854 -0.044984832 -0.01598571 -0.027838625 0.07882808 -0.051953845
-0.08682129 -0.07603187 0.08488948 0.055348046 0.0027134344 -0.07985502 0.06606936 0.080629006
-0.08848989 -0.09751632 -0.013665092 -0.016345663 0.026662357 -0.0353366 0.04368674 -0.01650489
-0.040451374 -0.0647255 0.21865642 0.028786171 0.015158974 -0.009043161 0.018328363 -0.07245055
0.055224467 -0.0046936283 -0.105028145 0.05191239 -0.03840028 0.04847384 -0.053009335 -0.025010768
0.05478172 -0.10875103 0.03835863 0.113129735 0.08211385 0.11067197 -0.011946319 0.08465987
0.00027987835 0.00081693067 -0.05949788 0.05959146 -0.018860025 -0.054449007 -0.023944983 -0.041895323
-0.05275985 -0.0014041958 -0.008507138 -0.060449243 -0.005511981 0.050921626 -0.042634606 -0.042949606
0.04953721 0.013197652 -0.07472822 -0.044380225 -0.05804358 -0.084783256 0.009691463 -0.06776009
0.07408749 0.08156712 0.07333213 -0.01920186 0.011763526 -0.043485593 0.026069334 0.033515695
0.066966146 -0.0052017854 -0.07960618 0.09455197 0.07507152 -0.08137323 -0.023518035 -0.08120336
0.085148916 0.055391703 0.04818359 0.08643525 0.011612248 -0.028394556 -0.16624388 0.09355392
-0.10204171 -0.09594742 -0.03318649 0.07512475

layers.6.linear.weight f4 [4, 100]
00000000: 590d 433d 5ffe 5ebd f891 a5bc 9d49 b6bd
00000010: f99f d5bd 582c aebc 5373 963d 62d4 543d
00000020: 5a74 62bd b475 5bbd ab76 cb3d e0f4 963c
00000030: 53c1 d4be c6d4 763d e01b 89bd d2e9 80bd
00000040: 84cc a63c ce19 123e 249b 963e e287 86bd
00000050: 4c23 183d 5fe5 bbbd 57b1 95be 3212 62be
00000060: 627c 8dbe 6905 a63e 74c2 3ebe 11a1 623c
00000070: 403e a5bd c635 e1bc 9ad3 cbbd 47c1 a33e
00000080: ac42 90be b901 33be a04f 01bd b8bc 8bbc
00000090: d1d6 83be 3e05 4cbd 2c15 79be 9c80 d8bd
000000a0: 35cc 25bd 9a05 07bd 3337 8dbd a5b5 53be
000000b0: cdbe 88bd 0d37 a1be 8500 de3d 147c 76be
000000c0: 6d37 bb3d 9686 7abe 2a3e 583e f659 aaba
000000d0: 6edf 50bd b810 d1bd 7f58 e43d bfb8 9a3d
000000e0: 9dd2 88be fd69 9c3e d5ea 6f3e 439c 3abd
000000f0: 416c bc3d ae23 8dbe 06ea 03bd 5448 80bd
00000100: ce3d 3d3c e2f7 91bd c5fb 83be aa6d b03e
00000110: bfd8 92bd 5fed 39bd cf02 8b3e b4e7 b9bc
00000120: fb02 133d 5530 cd3d 6e25 93bd 0723 77be
00000130: 2898 b7be 4b66 b63d bc7d 9c3e ddf1 173e
00000140: 7792 c4bd 6707 aa3e 5790 ed3c e517 743e
00000150: 41b1 ac3d ac98 943e 717f aa3e dd09 95bd
00000160: 21f1 923e ddee 8a3d 3e5a c6bd 1d99 b7bd
00000170: 0738 3f3e a9d1 b03d 418d b7be dd9c 86be
00000180: 0bee 733d 4adf 123d 904b 943d 7013 613c
00000190: b162 893d 8e18 173d 60fa 983d 05e7 1dbd
000001a0: 13e8 eabd 0660 603d 7034 82bc c23e 0c3d
000001b0: c27a 873d 16de 1ebd 34ef c2bd e8ed a6bc
000001c0: 440d 53bd f541 543d 3dc7 babd 53b8 dabd
000001d0: 4e29 903d 9e23 28bd 4757 eebc 65f2 aebd
000001e0: 32b7 833d 6010 dcbb ad83 fdbb 93ae 563d
000001f0: bee3 553a 02d4 653d 2ec1 b3be 55d8 3f3d
00000200: d47a 88bc c55b 12bd 647d c2bd 4db4 6cbd
00000210: fb43 a3bc 9a25 c7bd b82b a3bd c7ee 3bbd
00000220: 8a96 29bd 194a 9f3d b042 96bd a5ab 30bd
00000230: a488 4d3d 4e3a ae3c 4f35 b1bd f8d5 aebb
00000240: bd3e 88bd 312b 7bbd 2864 b3bd 4f1a 32bd
00000250: 2457 91bd ecc7 9abd 7d35 bfbd ebc0 413d
00000260: 5b3b 8d3d 5fca a3bd ea9f 07bd d9c9 5f3d
00000270: e999 7abd 06ac 76bc 4bfe 493d 80bd 82bd
00000280: 9b73 b23d c04f 13bd 50ab b8bd 9261 4e3d
00000290: 8341 ec3c 8f54 033d c4ba 9dbc 9cf8 85bd
000002a0: 62c9 8cbd b854 2cbd 9b0c 95bd f408 18bd
000002b0: c286 593c 3984 b6bd 3f53 963d dce0 313b
000002c0: fdbf 27bd ac1c d53c 182e aabd bc17 d1bd
000002d0: f3b2 913d 0ea0 19bd 140c 2d3d dc13 c1bd
000002e0: 7555 513d a17d d5bc 9287 433d 86b9 413d
000002f0: 42c6 97bd 31ac cbbd a97e 643d 2f8c 053c
00000300: aa2b 92bc eed8 71bd dfba 94bd b73a 423d
00000310: d863 35bd 096b 9a3d 3a5d 9eba 8003 68bd
00000320: 33d6 2e3d e525 8a3d 5de1 25bd f33d 713d
00000330: a0fe aabd 9068 543c d4b1 fb3c b805 41bb
00000340: 1563 45bc 624e a13d 758e edbc b226 2a3d
00000350: 0f13 3f3e f707 213b 2229 8bbd 2810 113d
00000360: 827d 233d e925 e1bd 5f73 073d 6428 a43d
00000370: f21b cb3c de91 753d ba34 6b3d ea7a 15bd
00000380: d610 d7bc 5599 67bd 07b7 0b3d 0019 c03c
00000390: 6c33 8c3c afd6 4e3a 1324 c539 5611 563d
000003a0: 8506 06bb ac31 e0bc 1127 ae3d 7650 593d
000003b0: ec33 3dbd 4376 f5ba ed18 533e 190f 8f3c
000003c0: dd77 b53d 560e 4d3d ebbc 833b 9a56 88bd
000003d0: c77d b53d 3e76 cc3c d40d 30bd 6579 8b3b
000003e0: eea5 dc3d 50e6 a1bc e4d3 61bc 6dbd 56bd
000003f0: dd60 b8bc 9742 b33d 8b5c 03bd f704 273d
0.04762015 -0.054441806 -0.020211205 -0.08900759 -0.10430903 -0.02126138 0.07346215 0.051960357
-0.055286743 -0.053579047 0.099347435 0.018427312 -0.41553745 0.06026151 -0.0669477 -0.06294598
0.020361193 0.14267656 0.29415238 -0.06568886 0.037143037 -0.091746084 -0.29236862 -0.22077253
-0.2763396 0.32426003 -0.18628865 0.013832347 -0.08068514 -0.027491461 -0.09952469 0.31983396
-0.28175867 -0.17481126 -0.031570077 -0.017057762 -0.2574983 -0.049809687 -0.24324483 -0.10571405
-0.04047795 -0.032964326 -0.06895294 -0.2067476 -0.06677017 -0.31487313 0.10839943 -0.2407077
0.09141431 -0.24465403 0.21117464 -0.0012996781 -0.05099433 -0.10208267 0.11149692 0.07554769
-0.26723185 0.30549613 0.23429425 -0.04555918 0.09200335 -0.27566284 -0.032205604 -0.062637955
0.01155038 -0.07127358 -0.25778022 0.34458667 -0.07170247 -0.04539239 0.2715058 -0.022693492
0.035891514 0.10018984 -0.071848735 -0.24134456 -0.35858274 0.089062296 0.30564678 0.14838357
-0.095982485 0.33208773 0.02899949 0.2383724 0.08432246 0.2902273 0.33300355 -0.07277272
0.28699592 0.06783841 -0.09685181 -0.08964751 0.18673716 0.086337395 -0.35849956 -0.26291552
0.059553187 0.035857476 0.07240975 0.013737544 0.06708277 0.03688865 0.0746963 -0.038550396
-0.11470046 0.054779075 -0.015894145 0.034239538 0.06615211 -0.038786016 -0.095182806 -0.020377114
-0.051526323 0.051820714 -0.09120033 -0.10679688 0.07039128 -0.041049592 -0.029094351 -0.08542327
0.06431426 -0.0067158192 -0.0077366442 0.05241258 0.00081592414 0.05611039 -0.35108322 0.04683717
-0.016660132 -0.03573205 -0.094965726 -0.057789136 -0.019929877 -0.09723969 -0.07967323 -0.045882013
-0.04140333 0.07777805 -0.073369384 -0.043132443 0.05017914 0.021268036 -0.08652746 -0.0053355657
-0.066525914 -0.061320487 -0.08759338 -0.04348212 -0.07096699 -0.07557663 -0.09336374 0.04730312
0.06896087 -0.079975836 -0.03311149 0.054635856 -0.061181936 -0.015055662 0.04931478 -0.063838005
0.08713456 -0.035964727 -0.0901705 0.05038602 0.028839832 0.032063063 -0.019254096 -0.06541559
-0.06874348 -0.04207298 -0.07277795 -0.037117913 0.013276758 -0.08911938 0.07340097 0.0027142083
-0.04095458 0.026014648 -0.08309573 -0.10209605 0.0711421 -0.037506156 0.042247847 -0.09427616
0.05110689 -0.026060881 0.04773671 0.04729607 -0.074108616 -0.09944952 0.055784855 0.008151098
-0.017843086 -0.05904477 -0.07262205 0.047419276 -0.04428467 0.075399466 -0.0012082227 -0.056643963
0.042684745 0.06745509 -0.040498126 0.05889697 -0.08349347 0.012964383 0.030724443 -0.0029452872
-0.012047549 0.078762785 -0.028998593 0.04154081 0.18659614 0.0024571398 -0.06794955 0.0354158
0.039914615 -0.10993559 0.03306901 0.080155164 0.024793599 0.059953563 0.05742333 -0.036494173
-0.026253145 -0.056542713 0.034110095 0.02344942 0.017114364 0.0007890267 0.00037601645 0.052262627
-0.0020450663 -0.027367435 0.08503545 0.05305525 -0.046192095 -0.0018727261 0.20614977 0.017463254
0.08860753 0.0500625 0.0040203235 -0.06657143 0.08861881 0.024958726 -0.042981938 0.0042564147
0.10773836 -0.019763142 -0.013783429 -0.052426744 -0.022507126 0.087529354 -0.032070678 0.04077622

layers.6.linear.bias f4 [4]
00000000: b737 98bc 96ea d53c 2025 42bd c0f9 d43d
-0.018581254 0.026112836 -0.047398686 0.103991985
