examples/Titanic/titanic_pretrained.pth (torch_old, 13310 bytes, 4 tensors)

layers.0.linear.weight f4 [256, 9]
000000 1c bb 17 be 75 b7 67 bd 5b 80 36 be 7c 3b 89 be
       -0.1481747 -0.056571443 -0.17822401 -0.26803195
000010 ba cf 55 bc ef 23 d9 3d 4d b4 0f be e5 b3 97 bd
       -0.013050014 0.10602557 -0.14033623 -0.07407359
000020 92 ad 6c ba db 02 09 3e 94 35 53 be d4 61 c3 bd
       -0.00090285495 0.13379996 -0.20625907 -0.095401436
000030 24 b0 62 3d ee c0 a2 3e 73 cc 06 be a7 1a d4 bd
       0.055343762 0.3178782 -0.13163929 -0.10356646
000040 a1 53 b6 bd 9e e0 11 bf e3 c7 87 bc 61 5b 75 be
       -0.0890267 -0.56983364 -0.016574806 -0.2396064
000050 f6 49 bd 3e d5 e4 81 bf 4f 19 85 3f 43 e5 5e bd
       0.3697049 -1.0147959 1.0398349 -0.05441786
000060 f3 e9 c9 3d cd bd bd 3e d1 8b 5b 3d ac cc 31 be
       0.098590754 0.3705887 0.053600136 -0.17363232
000070 a9 5e 66 bf ff f7 93 3e e1 3e 1f bf 26 60 d9 3e
       -0.8998819 0.28900144 -0.6220532 0.42456168
000080 a0 0e 80 3d c8 cd 24 3f 40 70 bd 3c 13 ca 14 bd
       0.062527895 0.643765 0.023124814 -0.036325525
000090 a7 1e 53 bd 0e 6d 9a bc 7c cd b8 be 5c 62 80 3e
       -0.051542904 -0.01885083 -0.36094272 0.25075042
0000a0 bf 5d bc be 67 b1 3b 3e f1 ab 93 be 7a 66 42 bd
       -0.36790273 0.18329392 -0.28842118 -0.04746101
0000b0 c1 4e 72 3b 2e 7c 77 be a9 81 6c bf 61 61 20 3e
       0.003697321 -0.24168465 -0.92385346 0.15662147
0000c0 ad 65 9a bf b1 34 67 3f 49 37 c7 3d a4 e9 23 3e
       -1.2062279 0.90314776 0.09727342 0.16007096
0000d0 65 8b 4f be 38 c6 59 bb b3 46 23 be 4a 84 a5 3f
       -0.20268019 -0.003322972 -0.15944938 1.2930996
0000e0 4f cb f3 3b 81 c2 66 3e 46 3c 66 3f 6a b3 96 be
       0.0074400078 0.22535135 0.8993572 -0.29433757
0000f0 3b 03 47 bc 70 4d 28 3f 5a 3a 5e 3c e4 12 e1 be
       -0.012146766 0.6574316 0.013563717 -0.43959725
000100 e5 38 b7 bd 35 b5 2b 3f fe 11 7c 3d 42 fd 2f 3f
       -0.08946399 0.67073375 0.061540596 0.68745816
000110 aa bb 05 be 61 a6 9d 3e 95 d2 5b 3e cb 77 89 3d
       -0.1305987 0.30791 0.2146705 0.06712302
000120 9c 2f c0 3d d9 69 0b be 56 0a 28 3d 64 f3 63 3e
       0.09384081 -0.13614596 0.041025482 0.22260815
000130 d5 4b 96 bd e7 05 54 be 87 58 21 3e bb 12 cb be
       -0.073386826 -0.20705377 0.15756427 -0.39662728
000140 09 e1 8b be e7 07 42 be 51 3e de be 6a c5 5e 3e
       -0.27320126 -0.18948327 -0.4340692 0.21754995
000150 ed 0e d4 be cf 8c 64 3e 77 70 0a 3e 65 ef 2e be
       -0.41417637 0.22319339 0.13519464 -0.1708351
000160 2a 96 64 be 25 8b 91 3d 3e ae 96 3e db 8c 18 3f
       -0.22322908 0.07106618 0.2942981 0.5958993
000170 84 cf 46 be 30 28 fa 3e 8d fe 38 bf 68 14 88 bd
       -0.19415098 0.48858786 -0.72263414 -0.06644517
000180 b7 b1 16 bf a2 d4 82 bb 2e 64 b2 3d 7c a9 27 bd
       -0.5886492 -0.003992633 0.08710514 -0.040933117
000190 f8 a8 99 3f 14 e2 3c bd 06 7c d0 be 0b fe 8a 3f
       1.200469 -0.046114042 -0.40719622 1.0858778
0001a0 71 76 4b be 32 44 4d bd c8 b2 07 3f ab e4 5f bc
       -0.198694 -0.050113864 0.53007174 -0.013665359
0001b0 5c 8d 97 be b8 b2 42 be c1 80 76 3d b8 42 94 3e
       -0.29600036 -0.19013488 0.060181383 0.28957152
0001c0 7d eb 7f be c1 fa 9f bd 5d 29 2e 3f 83 df 70 3e
       -0.24992175 -0.078114994 0.68031865 0.23522763
0001d0 3a 95 e6 bb de 24 5b 3e 91 7d 81 be ab f6 9c bd
       -0.007036832 0.21400782 -0.25291112 -0.07664236
0001e0 b7 60 41 be eb 2e 37 3e fc 2f 14 be 12 2d 45 3e
       -0.1888455 0.17888992 -0.1447143 0.19255474
0001f0 6f 4a 95 bc 9d f0 98 be 0a 38 8c be ac ab 30 bf
       -0.01822397 -0.29871073 -0.27386504 -0.6901195
000200 1a 27 e4 bd 5e d5 97 bf 7c 81 92 3f 1f f7 10 3d
       -0.111402705 -1.186199 1.1445765 0.035391923
000210 2a 8f 2f bf 61 0c 62 bd 76 07 28 3b 36 4c 83 3d
       -0.68577826 -0.055187587 0.0025639213 0.064110205
000220 be d4 3c bf 71 70 11 be bf 10 9a bf 40 ca 76 3f
       -0.7376212 -0.14203049 -1.203636 0.9640236
000230 be 8a 95 3d b2 47 f4 be 71 bb e6 bd c4 59 53 bd
       0.073018536 -0.4771095 -0.1126622 -0.05159928
000240 3c b2 ab bd 05 b2 49 be 8b ad f6 3e c7 90 7d 3e
       -0.08383605 -0.19696815 0.48179278 0.2476226
000250 7a d0 9a be 28 0b 65 3c 03 b9 a1 3e ce 32 ec bd
       -0.3023718 0.013979711 0.31586465 -0.11533128
000260 ef 98 0a be 18 18 87 be f5 b0 dd be 20 8e 75 be
       -0.13534902 -0.2638557 -0.4329907 -0.23979998
000270 c9 ac 02 bf c9 15 8b be aa c1 58 3d 66 19 81 3e
       -0.510449 -0.27165058 0.052919067 0.2521469
000280 9f c4 b7 3d b8 a7 9b be 5c 50 18 bf a0 db f0 be
       0.08973049 -0.30401397 -0.5949762 -0.4704256
000290 ce c1 c3 3e 49 77 4b bf 9e 7d 81 3f 10 db ba bc
       0.382338 -0.7947889 1.011646 -0.022809535
0002a0 e8 35 93 3c fa 03 17 3e 65 8e 11 3e 9c 8d 0b bf
       0.01797004 0.1474761 0.14214475 -0.54512954
0002b0 78 a1 14 bf 0d 2b 3b 3e c7 f6 83 bf 24 2f 2b 3f
       -0.5805888 0.18278141 -1.0309685 0.66868806
0002c0 88 16 36 3d 4e 3f 7c 3d d8 5c 76 3d f1 6b 9c ba
       0.04445508 0.06158381 0.060147136 -0.0011934025
0002d0 6b ec ba be 81 f3 1d bd a2 2d b7 bd 5a 82 0d bf
       -0.36508498 -0.0385623 -0.08944251 -0.55277026
0002e0 3b 05 be 3e db bf 84 bc 7c 95 9d 3e d0 d5 2d 3f
       0.37113366 -0.016204765 0.3077811 0.67904377
0002f0 24 a3 2b 3c b9 ad 3d be 2d a4 39 bf 7b 0a dd 3d
       0.0104759075 -0.18523301 -0.7251614 0.107930146
000300 c5 f5 82 bf a0 e9 87 3f 59 e0 37 3e ce a2 83 be
       -1.0231253 1.0618172 0.17956676 -0.25710148
000310 10 64 76 be 81 55 0e bd c3 30 67 bd cc c4 ff be
       -0.24061608 -0.03474951 -0.056442987 -0.49954832
000320 27 a1 3a 3e b9 82 1b bf cd d7 3c 3e f9 25 92 3d
       0.18225537 -0.6074634 0.18441696 0.07136149
000330 37 94 2f be 5e 53 e1 3d ea 6f 2e 3e f1 20 1d 3f
       -0.17146383 0.11002229 0.1703488 0.6137839
000340 89 7a d1 be 45 ad a2 be c9 7a 8e 3e 4e 3a 50 bf
       -0.409138 -0.3177282 0.27828053 -0.81338966
000350 f9 b0 a0 3d 5b 10 41 be 1c 2b 0c bf bd df 3c bc
       0.07846255 -0.18853895 -0.5475328 -0.011527953
000360 64 86 c9 3e be 2a a0 3e 36 a3 c5 3d b5 eb 56 3f
       0.39360344 0.3128261 0.09650271 0.8395341
000370 33 7c 1e be 1b 92 8a 3d b9 d1 68 be 07 c2 1d be
       -0.15477066 0.06766149 -0.22736253 -0.15406047
000380 24 be 53 bc 61 cb 70 3e ea 93 bc bc 92 4a 61 3d
       -0.012923751 0.23515083 -0.02301975 0.055002756
000390 d8 b2 85 bd 1d 36 00 3e f3 9a 64 be fa 4e dd 3d
       -0.06528252 0.12520643 -0.22324733 0.10806079
0003a0 1f 8a 90 3b 80 b6 8f be 05 5b 7f be cc 04 02 bd
       0.0044109966 -0.28068924 -0.24937065 -0.031742856
0003b0 c5 6d 4b be 22 9d 28 3d b6 4d cf be 54 36 31 be
       -0.19866093 0.04116548 -0.40488976 -0.17305881
0003c0 24 32 1e be 07 f1 d9 be 14 c9 01 be 1c 81 ef be
       -0.15448815 -0.42566702 -0.12674361 -0.4677819
0003d0 21 75 e9 be d6 d0 02 be d2 c7 7c bf 59 98 1c 3e
       -0.45597175 -0.12774977 -0.987424 0.15292491
0003e0 05 9e ba 3d 68 e7 14 3e 58 9e 35 3e 32 53 34 3d
       0.09112171 0.145414 0.17736185 0.044024654
0003f0 bc f8 80 be 81 b4 f2 bd 73 de 36 3e 62 66 ee be
       -0.2518977 -0.11850835 0.17858295 -0.46562487

layers.0.linear.bias f4 [256]
000000 19 82 b1 be f7 78 98 3e 17 49 9a bc c2 e5 3c 3e
       -0.3466957 0.2977979 -0.01883368 0.1844702
000010 80 bd 78 ba a1 c5 dc be 0b b8 0c 3f 51 f8 5e 3e
       -0.0009488687 -0.4311953 0.5496833 0.21774413
000020 b5 e3 13 3c 5e ab dd be 47 c7 d1 3e 1b 28 97 3e
       0.009026458 -0.43294805 0.4097235 0.29522786
000030 b4 b7 75 3d 7a 97 10 bf 7a 51 28 3d 35 7e 88 bd
       0.059989646 -0.56481135 0.041093327 -0.06664697
000040 a9 31 79 3e fe 6e 3e be b1 28 8f be 48 34 b0 be
       0.2433535 -0.18597028 -0.27960733 -0.34414887
000050 25 e5 44 be 53 61 94 bd f1 de ba bd 7c 19 af be
       -0.19228037 -0.072451256 -0.09124554 -0.3419913
000060 31 45 b1 be 7d 58 c6 3d e4 de 1d be 20 21 a6 3d
       -0.346231 0.096848466 -0.15417057 0.08111787
000070 0c 5e 23 be a8 77 20 be fe 06 9e be 9a 7e c9 be
       -0.15953845 -0.15670645 -0.3086471 -0.39354402
000080 ba 44 01 be 39 67 e3 3d bf 23 30 be 55 46 8f be
       -0.12623873 0.111036725 -0.17201136 -0.27983347
000090 85 28 57 3e d0 f0 02 3e c3 de f2 bd 78 b8 4e be
       0.2101155 0.12787175 -0.11858895 -0.20187557
0000a0 2f 57 2e 3e a4 f1 af bd d5 5d 68 bd f6 6a a1 3e
       0.17025445 -0.08591011 -0.05673011 0.31526917
0000b0 2d 8b b6 3d 68 bb 86 3f 1d c9 c8 3e fc 40 37 3d
       0.089132644 1.0525942 0.39215937 0.04473971
0000c0 cb c4 72 3d 48 0c 8f 3e b3 24 a2 3d 4c d0 05 3e
       0.059269708 0.27939057 0.07917156 0.1306774
0000d0 3c d0 9f bd a6 8d 4e be 48 bc f0 bd 7a e3 ea 3e
       -0.078033894 -0.20171222 -0.11754662 0.45876676
0000e0 69 2e 9c be 1f af 0e be 8d a2 97 3d 03 5c ed 3e
       -0.30504158 -0.13933991 0.07404051 0.46359262
0000f0 a1 22 11 bd 4a 0c d2 bd 9e ef 82 be f3 25 85 be
       -0.035433415 -0.1025625 -0.25573438 -0.26005515
000100 d8 81 98 bd b9 c5 e6 bb 6a a0 32 be 22 26 ce bd
       -0.07446641 -0.0070426133 -0.17444006 -0.10065867
000110 14 f9 02 3d a1 6d f7 bd 4f b0 fd 3d 83 da a0 be
       0.03197582 -0.12081457 0.12387144 -0.3141671
000120 b7 f5 b5 be ad ac 0a 3e d4 d5 13 3f 31 97 85 be
       -0.35539028 0.13542433 0.5774815 -0.26091912
000130 c1 06 89 3c 63 b1 7d be 74 52 d5 bd 64 f2 6f be
       0.016726853 -0.24774699 -0.10416117 -0.23432308
000140 72 6d 80 3c 23 15 63 3f 63 e9 22 3d 9f 08 ad 3e
       0.015677188 0.8870413 0.039773356 0.3379564
000150 c6 9d 68 bd d4 6e 5c 3c c0 da 87 3e 4f 63 7f bd
       -0.05679109 0.013454158 0.2653408 -0.062350567
000160 20 48 8e 3e 07 a5 0f be 6f ff 9c 3c 31 7f 04 3e
       0.27789402 -0.14027797 0.019164769 0.12939145
000170 1d 80 3e 3e 98 8d 43 3f 52 a8 ce be a5 45 a6 be
       0.18603559 0.7638793 -0.40362793 -0.3247501
000180 d1 af 6b be d1 64 6f 3d 53 5e 17 3e d1 3a af be
       -0.23016287 0.058445755 0.14782076 -0.3422456
000190 fd da 84 be f0 a6 58 be 0b cf 9d bd b1 8e 89 3e
       -0.25948325 -0.21157432 -0.07705506 0.26866677
0001a0 ea f7 d4 bc 09 0d a0 3e ae f7 f2 39 8f 55 1a be
       -0.02599712 0.31259945 0.00046342373 -0.150717
0001b0 19 12 67 3d e7 b7 87 be 04 00 8a 3f 88 ee a9 bd
       0.056413744 -0.26507494 1.0781255 -0.08297449
0001c0 23 c1 e0 bc 6c 46 72 3e 62 a6 76 3e d9 6e 6e be
       -0.027435845 0.23659676 0.24086908 -0.23284473
0001d0 ae 26 97 be 59 39 1a be 44 50 52 be fa ed a8 be
       -0.29521698 -0.15060939 -0.20538431 -0.32994062
0001e0 01 f3 9f be f0 a7 fd bd f7 de c1 3d 57 be 87 be
       -0.31240085 -0.12385547 0.09466355 -0.26512405
0001f0 7c ca 7e 3e a6 cc 07 3f 24 6b 36 3d 7a 51 10 3e
       0.24881929 0.53046644 0.04453577 0.14093581
000200 70 d7 f0 3d c1 ca 8b be 1c 24 1b be 55 ef 05 3e
       0.117598414 -0.27303126 -0.15150493 0.13079579
000210 44 ba b4 3e 33 a3 d7 be 1f a7 ba 3d e9 54 13 3d
       0.3529836 -0.421167 0.09113907 0.03596965
000220 67 6c e3 3d 41 40 2f be 23 59 c7 3e 26 34 9a be
       0.111046605 -0.17114355 0.38935193 -0.3011791
000230 be 44 76 be eb 13 c2 3e 93 09 00 3f 41 11 23 be
       -0.2404966 0.3790582 0.5001461 -0.1592455
000240 14 40 03 be 94 52 7b 3e c1 19 18 3f 0d 88 3b 3e
       -0.12817413 0.2454322 0.594143 0.18313618
000250 d5 23 7f be e7 cb f9 3d 0a ae 0c 3e 7b 00 d1 3e
       -0.24916013 0.121970944 0.13738266 0.4082068
000260 d1 41 10 3e 3d 92 e5 3d f6 58 9c bb f7 02 39 3d
       0.14087607 0.11209533 -0.004771347 0.045168843
000270 42 ed 3c be 5a 87 b2 be ce 5e 5f 3e d5 2b 22 3c
       -0.18449882 -0.3486889 0.21813509 0.009898146
000280 d7 ac 43 3c 1f 13 c2 3d ba 52 78 be be d9 30 3e
       0.011943064 0.09476303 -0.24250308 0.17270562
000290 f3 02 9d 3e 68 61 7b be 71 84 a5 3c f6 4f 2f be
       0.30666313 -0.24548876 0.020204755 -0.17120346
0002a0 9e 3d 9f bd 34 c0 e2 3e 17 d0 d3 be 0a 0e 70 3e
       -0.077754244 0.44287264 -0.41369697 0.23442855
0002b0 1b 6a 8b be 7b 56 91 3d 3d 53 97 3e 40 e2 6b be
       -0.2722939 0.07096573 0.29555693 -0.23035526
0002c0 f2 c6 0b 3f c0 4d 1f bd 04 c7 a8 3e 34 54 9e 3d
       0.5460044 -0.038892508 0.32964337 0.07730904
0002d0 05 92 46 be 39 dc 3d be 53 2b 66 3f 45 e5 50 be
       -0.1939164 -0.1854104 0.8990986 -0.2039996
0002e0 1d ff 0a bf 5d 42 c5 3d 79 80 86 be dc 23 8e 3e
       -0.5429552 0.096317984 -0.26269892 0.27761734
0002f0 ae 49 50 3f 04 9a 88 be 92 4c 29 3f 15 02 1c 3e
       0.81362426 -0.26680005 0.6613246 0.15235169
000300 ab 4a 52 be 0c cf 4d 3e 0d 4c b7 3e 18 7d df be
       -0.20536296 0.20098513 0.3580021 -0.43650126
000310 3e 1b 7d bd 61 2a ad be 1a 08 99 be 64 41 9a 3c
       -0.06179356 -0.33821395 -0.29888994 0.018830009
000320 bc 2b 02 bf 2d b3 59 3f 4c 6e 7d 3d c9 59 03 3e
       -0.50847983 0.85039026 0.061872765 0.12827219
000330 e7 9e e6 bd 70 56 29 be 69 99 a6 3e 27 d5 b3 be
       -0.11260777 -0.1653688 0.32538918 -0.3512356
000340 6b df 68 be 74 73 cb 3e 5f 5d 31 3f 70 25 0a be
       -0.22741477 0.3973652 0.692831 -0.13490844
000350 f1 00 55 3f 99 c7 94 3d 26 4c fa be 4b 83 7d 3d
       0.8320456 0.07264633 -0.48886222 0.06189279
000360 0a 14 7f be 7c e0 0c 3b 78 fb db be 37 43 e1 3d
       -0.24909988 0.0021496108 -0.42965293 0.10999148
000370 e2 39 9e 3e 9e 42 d5 be b7 b6 de 3d 86 05 c3 3e
       0.30903536 -0.41652387 0.10874694 0.38090152
000380 d7 72 1b 3d 4c d0 0e be cd 29 4a 3e 60 63 81 bd
       0.037951317 -0.13946646 0.19742508 -0.063177824
000390 af d7 03 3f 18 81 08 be 0d f5 eb 3e 7a a5 5d 3e
       0.5150098 -0.13330495 0.46085396 0.21645156
0003a0 f6 ab 61 3e ee 44 93 3e 1d f2 7f 3f b3 3f 67 3f
       0.22038254 0.28763527 0.9997881 0.9033157
0003b0 71 d9 5b 3e 18 75 e2 bd 08 9f f6 be ff f6 5b 3e
       0.21469666 -0.1105749 -0.48168206 0.2148094
0003c0 a3 56 d1 bd 36 42 1c 3d 44 62 52 bd 1c d6 7e 3e
       -0.10221603 0.03814908 -0.051363245 0.24886364
0003d0 cc 6f 59 3f bb ce c2 be 41 bd a5 3d d6 03 8f bd
       0.84936213 -0.38048348 0.08092738 -0.069831535
0003e0 c7 a3 df 3e 99 da 0c 3f 41 29 7c 3e 33 a4 b6 3c
       0.4367964 0.55021054 0.24625112 0.022295093
0003f0 d3 8a fe 3b 9a 0a c2 3d 99 09 06 3e 27 92 6e 3e
       0.007768014 0.09474678 0.13089599 0.2329794

layers.2.linear.weight f4 [2, 256]
000000 32 5a 88 3c 9d bb a9 3c 85 1d 83 3d 60 83 26 3d
       0.016644571 0.020719344 0.06402115 0.040652633
000010 16 7a a4 bc 89 07 f7 bb 0a 36 b9 bd 2c 1b b6 3c
       -0.020077746 -0.00753874 -0.0904351 0.022229753
000020 f6 6a 91 3d 07 8c cc bb 12 b5 a4 3b 48 b8 b8 bd
       0.07100479 -0.0062422785 0.005026468 -0.09019524
000030 a3 f1 9d 3c 31 8e 7c 3d 7b ac 68 3e 93 4f 0b 3e
       0.01928026 0.06165904 0.22722046 0.13604574
000040 79 db 0d 3d 0c 3e 78 3d 2d 95 9b 3c d5 22 97 3d
       0.034633134 0.060606048 0.018992031 0.073796906
000050 8c 7d 64 3d 37 e5 69 3c c8 4d 26 3c e7 7c 84 bd
       0.055783793 0.0142758405 0.01015038 -0.06469136
000060 c9 9a 2f bd 01 00 a8 3d d3 db 3e 3c 30 59 bb 3c
       -0.042872224 0.08203126 0.01164909 0.022869676
000070 6d e1 17 bc 7a a7 a8 3d 4d 39 a9 3a f1 15 44 bc
       -0.009270054 0.082350686 0.0012910754 -0.011968122
000080 5c a3 b0 3d c4 d3 d2 bb d9 dc 02 3d b4 1c 0f 3c
       0.08624908 -0.006433936 0.031948898 0.008734871
000090 97 de b1 3d e6 ae b4 bd 53 29 c5 bc e5 c7 9e bc
       0.08685034 -0.08822422 -0.024067556 -0.019382427
0000a0 16 b8 89 3d 36 79 6e 3d 06 fa d9 3d 0b d2 d8 3d
       0.06724565 0.058221065 0.10643391 0.105869375
0000b0 69 26 c5 bb 9b 3d 9f bd 2b 1d 82 bd ee 1f 35 3c
       -0.0060165417 -0.07775422 -0.063532196 0.011054976
0000c0 3f a1 95 be 9f 60 55 3d fd ef a7 3a 88 66 08 bd
       -0.29224584 0.0520941 0.0012812611 -0.033300906
0000d0 5e 2c 3f be d1 3b 96 bc 35 89 92 3d 71 38 6c bc
       -0.18669268 -0.01833907 0.071550764 -0.014417754
0000e0 a7 d0 39 bd 40 89 a9 3d 2c cf 04 3e c2 80 b2 bd
       -0.045365002 0.082781315 0.12969655 -0.08715965
0000f0 6b cb fd 3c 53 c3 5e bc fe 05 b0 bc 64 65 8b 3c
       0.030980786 -0.013596374 -0.021487232 0.01701612
000100 89 9b 2f 3d 84 5b 00 be a6 38 e3 bb b0 0d d0 bb
       0.04287294 -0.1253491 -0.0069342433 -0.006349288
000110 8e 93 09 bc ec 3e ce bd 00 34 0a 3c de 74 5b 3e
       -0.008396996 -0.10070595 0.008435249 0.214313
000120 54 32 8e 3d 65 18 db 3d 69 b4 27 be cb 7e ac 3c
       0.06943193 0.10698012 -0.16377415 0.021056553
000130 bd 5a 24 3d 5e 03 ea bd 66 05 08 be ea 64 cc bb
       0.040125597 -0.114264235 -0.1328331 -0.006237616
000140 71 17 61 bd 28 04 69 be 51 79 42 3d c8 a3 a8 bc
       -0.054953996 -0.22755492 0.047478978 -0.02058591
000150 0c 0c b8 3d 28 31 08 3d 16 ca 7c 3c 76 35 37 bc
       0.08986673 0.033250004 0.01542904 -0.01118218
000160 43 a3 c4 3c 02 02 c5 bb 3c b2 34 3d a7 d7 a4 3a
       0.02400363 -0.0060122022 0.04411529 0.0012576476
000170 56 75 cb 3b 04 c8 94 bd c3 09 ea bc 63 ef 27 3c
       0.006209056 -0.072647125 -0.028569108 0.010249945
000180 43 c1 d8 bd 1a dd 7f 3e d3 e3 b1 3b 95 2b 79 3d
       -0.10583737 0.24986687 0.00542877 0.06083258
000190 04 a6 b2 bc 59 68 58 bc 9f 5a 2d 3d 49 df 9e bc
       -0.021807678 -0.013208472 0.04232275 -0.01939358
0001a0 6d ed c0 39 a4 38 5f bb 84 cb 8f bc 5a 08 76 be
       0.0003679799 -0.003406086 -0.017553098 -0.24026623
0001b0 90 d2 14 bd 5f 6d a6 bd 73 83 f5 bd d9 88 12 3e
       -0.03633362 -0.0812633 -0.119879626 0.14310016
0001c0 90 c2 95 3a 00 42 9d 3d 4b 09 08 bd ff ef 91 be
       0.0011425782 0.07678604 -0.033211987 -0.28503415
0001d0 72 40 02 3e 66 05 01 3e 1e 2f db 3d 6f 91 9a 3c
       0.12719896 0.12599716 0.10702346 0.018868176
0001e0 94 7d aa 3b a0 fd 51 bb 51 cc 92 bc 5e a8 87 3d
       0.0052029584 -0.0032042041 -0.017919691 0.0662391
0001f0 76 f5 f5 bd 30 e3 ef bd 6b 0e 8f be 94 29 eb 3c
       -0.120097086 -0.117132545 -0.27940688 0.02870635
000200 04 1f b8 3d 5f 53 93 3c ae 47 ad bc 4c 1a 02 3c
       0.08990291 0.01798409 -0.021152344 0.00794084
000210 aa d8 9d bc 43 1f 33 3d 21 17 3a bc 28 aa 8b 3c
       -0.019268353 0.043730985 -0.011358053 0.01704891
000220 54 a0 05 bc 06 bc 1e 3c 06 d5 25 be 19 78 e8 3c
       -0.008155901 0.009688383 -0.16194543 0.02837758
000230 4a 87 09 bb 96 d9 13 3d bb 6d d4 bd 7c 24 55 bc
       -0.002098518 0.036096178 -0.10372492 -0.013009187
000240 5a c6 53 3e 22 10 80 be b1 b5 de bc c4 6a 85 3c
       0.20681134 -0.25012308 -0.027186247 0.016286261
000250 21 ac a1 3b c8 83 89 bb 79 a0 ce 3e 89 b4 08 bd
       0.0049338494 -0.0041966178 0.40356806 -0.033375297
000260 bf 39 1f 3d 7c 2d 5a bd 88 e1 61 bd fd d9 d0 3c
       0.03887343 -0.053266034 -0.055146724 0.02549457
000270 8a 5a 1d 3e 65 40 25 bd 45 57 84 bd 3a 56 72 bb
       0.15366569 -0.040344615 -0.06461958 -0.0036977665
000280 f5 98 10 bc 3e ca ab 3d 2b fa 99 3c 7a 60 0c 3d
       -0.00882553 0.08388184 0.018796047 0.034271695
000290 32 14 f6 3c 5d a3 0d 3d 7f dd 1d bd 85 2f 06 3d
       0.030038927 0.034579623 -0.038541313 0.032760162
0002a0 7a de 4c 3d 71 f2 dd bd 3c ac 2d 3e 61 50 09 3c
       0.050016858 -0.10837258 0.16960233 0.00838098
0002b0 ee ef 22 3d 74 a0 02 bd 07 b0 0b 3d 34 81 7b be
       0.039779596 -0.0318913 0.03410342 -0.24561006
0002c0 63 bb a3 bd b4 cf 20 bd eb 98 05 be 74 ff 95 bd
       -0.079947256 -0.03926058 -0.13046615 -0.073241144
0002d0 01 6f a6 3b ff b0 15 3d 3f bc 78 be c2 83 33 3d
       0.0050791507 0.03654575 -0.2429056 0.043826826
0002e0 6b 76 8d 3b f6 18 a2 bb 7c 8d bd 3c db 04 5d bc
       0.004317095 -0.004946823 0.023138754 -0.013489927
0002f0 82 bc 39 be 3b 7a c7 bc f8 b0 54 bd 00 e2 c0 be
       -0.18138316 -0.024350276 -0.051926583 -0.37672424
000300 41 12 2b bd 9e ab ab 3c 4f c9 dc bc 16 b3 14 3e
       -0.041765455 0.020955857 -0.02695146 0.14521441
000310 91 bd c2 3c 25 d7 b1 3c 2d f4 f7 3c 07 af 21 bb
       0.023772033 0.021709034 0.0302678 -0.0024670975
000320 03 89 07 3d 62 00 62 be f4 c5 f6 3d ff 88 9c bc
       0.03308965 -0.22070459 0.12049475 -0.019108294
000330 b6 25 b6 3d bf f5 4e 3e d8 af fc bd 3d 2d 29 3e
       0.088939115 0.20210932 -0.12338227 0.16521163
000340 31 36 c3 bd d4 0b af bd c8 a9 18 be e0 b7 55 be
       -0.095318206 -0.08547178 -0.14908516 -0.20870924
000350 ed 3a 66 be da f9 c4 3d e8 dd 55 3d 01 7f cc ba
       -0.22483416 0.09617968 0.05221358 -0.0015601815
000360 42 6f d8 bb bb a0 87 3d 77 60 3a 3b 22 fb bb bc
       -0.00660506 0.06622454 0.0028438845 -0.022946898
000370 4d 23 1a bd 8d 96 14 3c 83 a7 6f bb 12 13 c9 be
       -0.03763132 0.009069097 -0.003656835 -0.39272362
000380 b3 78 0a 3d 86 12 0f be 42 0f da 3d e1 82 d8 3b
       0.033806514 -0.1397191 0.106474414 0.006607399
000390 2b 0e b8 bd ed 8b b8 bd e7 ce 99 bc a1 30 ab 3c
       -0.08987077 -0.09011064 -0.018775417 0.020897212
0003a0 37 b9 9e bc b7 cb a2 bc e5 00 2c be 7f b0 51 be
       -0.019375427 -0.01987253 -0.16797216 -0.20477484
0003b0 1e 06 61 3c e6 88 a6 bc f7 d7 2a 3e 1d 4b 85 3c
       0.013734369 -0.02032895 0.16683947 0.016271168
0003c0 1b 64 86 3d eb d9 b0 3c f2 34 8f 3b 64 fc a3 bb
       0.06562062 0.021588286 0.0043703252 -0.0050044525
0003d0 f1 38 8a be ae 45 0a 3d f0 aa 43 3b 71 bd 26 3d
       -0.26996568 0.033757858 0.0029856525 0.04070801
0003e0 fe c5 4f bd 65 86 4a be d7 dc 7b 3e b0 b1 97 bb
       -0.05072593 -0.1977783 0.24595962 -0.0046293363
0003f0 c4 9f 6c bc 87 e0 27 3c 7c ce 5f bd 9b 5b 9a bc
       -0.014442388 0.010246403 -0.05464028 -0.018842509

layers.2.linear.bias f4 [2]
000000 6e 51 33 bd 6e 46 be 3d
       -0.04377883 0.09290777
