examples/Titanic/titanic_pretrained.pth (torch_old, 13310 bytes, 4 tensors)

layers.0.linear.weight f4 [256, 9]
000000 8d 76 99 3e 8c 24 4d 3f ae 45 b8 be 67 f1 70 bd
       0.2997326 0.8013389 -0.3599066 -0.05882397
000010 ee 52 4d 3f 39 93 39 be 82 04 5c be 79 27 17 3f
       0.80204666 -0.18122567 -0.21486095 0.59044605
000020 a7 15 70 3c 27 7f 82 be 4f 37 a5 be 58 bf 78 bc
       0.0146536 -0.25487635 -0.3226876 -0.015182339
000030 46 f7 96 bc 4e 98 5b 3e c8 69 95 3d 81 46 11 be
       -0.018428456 0.21444818 0.07295567 -0.14187051
000040 e9 61 d6 3e a0 55 b4 be ba c8 7f 3c 72 a6 9e 3e
       0.41871575 -0.35221577 0.015611822 0.30986363
000050 1b 2e 19 be 28 86 11 3f 56 2d a0 be d0 f4 c3 bd
       -0.14958994 0.5684533 -0.3128459 -0.09568179
000060 f1 65 11 be d3 0c 82 3d 2b 1b 6a 3e bd d4 7f be
       -0.14199044 0.06350102 0.22861926 -0.24983497
000070 42 34 88 be a4 fc 05 3e eb 3d 0e bd cd f2 be be
       -0.2660237 0.13084656 -0.03472702 -0.37294617
000080 1f 3f 44 be d2 86 d8 3e fe 8d 22 3c c9 0d 5e 3d
       -0.19164704 0.4229036 0.009921549 0.054212365
000090 de 02 6a be 73 b8 1f be a9 46 ca 3d e3 c7 64 bf
       -0.22852656 -0.15597706 0.098767586 -0.893675
0000a0 ae 16 ea 3e 69 93 ef 3d 91 47 85 be a1 4b 69 bc
       0.45720428 0.11698038 -0.26031163 -0.014239223
0000b0 f5 f1 09 be 50 5f 63 bd 4b f1 77 3f 3f 43 7d 3e
       -0.13471206 -0.05551082 0.9685256 0.24732684
0000c0 a1 55 6f be 7e 34 67 3f e4 4c ae be c8 43 d5 3d
       -0.23372509 0.9031447 -0.34043038 0.10413319
0000d0 2a 85 47 3e e0 3f 2f 3d 08 c9 aa be 3a db 3e be
       0.19484392 0.042785525 -0.333565 -0.18638316
0000e0 f9 96 3a 3e cd 8a 00 bf df f4 ec 3e 4f fc 41 3e
       0.18221654 -0.50211793 0.46280572 0.18943904
0000f0 a2 15 0f 3e 14 dc 56 3e 0d e5 9d bc 42 66 39 3d
       0.13973096 0.2098239 -0.019274259 0.045263536
000100 40 ae 15 3e f3 de c0 3d 54 68 37 be 1d d7 c0 3d
       0.14617252 0.09417524 -0.17910892 0.094160296
000110 7b 00 dd 3d c0 29 df 3c 09 5d 6c 3d 06 50 82 be
       0.10791107 0.027241588 0.057705913 -0.25451678
000120 8d b5 ea be 2e 09 f5 be 53 b1 0b 3e 5f c5 61 bf
       -0.45841637 -0.47858566 0.13641863 -0.8819179
000130 2b 76 f6 3e 72 46 d4 3c 6e 94 4f 3e 32 a1 ee bd
       0.4813703 0.025912497 0.20271465 -0.11651839
000140 83 39 69 bb 69 24 04 3f 37 e5 2a 3e 72 e0 13 bf
       -0.0035587258 0.5161806 0.16689001 -0.5776435
000150 28 9c 31 3d 4a 2f 4c 3d 01 f8 9a be e8 51 e0 be
       0.043361813 0.049849786 -0.30267337 -0.4381249
000160 4b 57 b6 bd 2a d6 08 3e d0 26 8b 3e c9 58 98 be
       -0.089033686 0.13362947 0.2717805 -0.29755238
000170 97 f3 6b 3d 9a 4b 82 3c 64 bd e0 3d 9c 79 ea bd
       0.057605352 0.01590519 0.109736234 -0.114489764
000180 49 ef af bd 5b 5c c4 3c b7 48 ec be 1c e8 3d 3e
       -0.08590562 0.02396982 -0.46149227 0.18545574
000190 c9 fa 92 bd ed dc ce 3e 71 1c 49 be 39 b7 d1 3e
       -0.0717674 0.40402928 -0.19639756 0.409601
0001a0 dd ba 60 3e fa 9b 07 be 77 34 65 3e 76 87 24 3c
       0.21946283 -0.13243094 0.22383295 0.010042062
0001b0 4d 44 06 be 0d 9f c7 bd 00 20 24 3d 7c 54 4f bf
       -0.13111992 -0.097471334 0.04006958 -0.8098829
0001c0 d9 a6 43 3f a8 6b 7d 3e 49 b7 1a bd 00 7e e1 bd
       0.76426464 0.24748099 -0.03777245 -0.11010361
0001d0 c7 28 71 be 6a cb c5 3d 22 33 e3 3e 5a 04 46 3d
       -0.23550712 0.09657939 0.4437495 0.048343994
0001e0 ed ca f7 3e bd 82 01 bf 6c 6c 49 3e 2f 5a 33 be
       0.48397008 -0.50590116 0.19670266 -0.17514871
0001f0 68 8e b6 be c9 65 b7 3b ac 17 89 3e 04 0d 45 bc
       -0.35655522 0.0055968505 0.26775873 -0.012027029
000200 91 b5 de be 02 e2 6e 3f 54 27 31 bf fc 5c ba bb
       -0.434979 0.9331361 -0.69200635 -0.005687354
000210 fd 80 a2 be 84 f8 2f be 1b 73 f1 3b 3f a0 40 3e
       -0.31739035 -0.17184645 0.007368458 0.18811129
000220 a2 08 a2 3e 48 e9 23 be 71 04 1a 3f f4 38 3e 3e
       0.3164721 -0.16006958 0.6016303 0.18576413
000230 3d ce f8 bc 73 5f a1 3e 69 a8 9b 3e db 71 10 be
       -0.03037178 0.31518134 0.30401924 -0.14105932
000240 b5 3d 73 3e 54 6d 19 3f 86 04 e7 be 69 a6 f6 3d
       0.23754008 0.59932446 -0.4512064 0.12043459
000250 76 13 ed be cf 66 b1 be 50 4d 23 bf e5 f2 a2 3e
       -0.4630391 -0.3464875 -0.63789845 0.3182594
000260 87 dc 25 3e 37 a1 99 3c 6a e5 c7 3e 0e 3e a8 3e
       0.16197406 0.018753631 0.39042217 0.32859844
000270 3b 91 1d 3f c5 61 41 be 01 c8 7c bb 61 88 b5 3d
       0.6154973 -0.18884952 -0.003857136 0.08863903
000280 09 55 77 3e 09 c8 30 be a9 4b 7c 3e 35 c0 89 3e
       0.24153532 -0.17263807 0.24638237 0.26904455
000290 17 45 30 3e 24 6d 08 3f 94 9c d5 be e4 98 86 3e
       0.17213856 0.53291535 -0.41721022 0.2628852
0002a0 4d 70 1f 3e 7e ca af be 17 75 a7 be 30 33 6f 3d
       0.15570183 -0.34334177 -0.3270652 0.058398426
0002b0 77 34 b5 3d 56 41 22 3e ac 89 2b 3d bb 28 7b be
       0.088478975 0.15845236 0.04187934 -0.24527256
0002c0 88 3b 9b be 00 8a 32 3d 33 f7 8e be c0 2c 4f be
       -0.30318856 0.04358864 -0.27922973 -0.20231915
0002d0 6d fb 20 3e da fe cf bd 04 1c 5a be fd 3a df 3e
       0.15720911 -0.10156031 -0.2129975 0.43599692
0002e0 c2 4c b4 be 40 24 4b 3d 1c 59 b7 be 47 3b 21 bd
       -0.35214812 0.049595118 -0.35810173 -0.039363172
0002f0 66 56 a9 3c 3e c1 f7 3e dc f7 2a 3f 8f 80 51 3e
       0.02067108 0.4838962 0.66784453 0.20459197
000300 c3 d4 f0 3e 80 93 61 3e 75 e6 e1 bc 24 47 c5 3e
       0.47037324 0.22028923 -0.02757571 0.38530838
000310 e4 82 05 3f 1c bc 1b be af 5b 02 3f 15 48 2d 3f
       0.5215285 -0.15208477 0.5092115 0.67688113
000320 65 6b 4b be 6f 23 ec 3e 58 13 fa 3d 5a 64 ce bb
       -0.19865187 0.46120784 0.12210721 -0.006298584
000330 9c 87 27 3e 11 83 78 3e 77 28 a6 bd 1b 77 86 bd
       0.16360325 0.24268748 -0.08113187 -0.06565686
000340 41 4a b5 3e 64 a6 19 3d b7 64 2c 3f 1b 28 22 bf
       0.35408214 0.037512198 0.6734118 -0.63342446
000350 df 24 86 3d e2 72 df be 45 3b 74 be aa b4 d2 3d
       0.06550001 -0.43642336 -0.23850735 0.10288365
000360 60 09 c9 3e 26 05 c2 bd d6 9a 95 bc 38 74 17 3f
       0.39264965 -0.09473638 -0.018262308 0.5916171
000370 17 88 a1 be 65 21 a1 3d 40 69 18 be 77 32 0c be
       -0.3154914 0.078676976 -0.148839 -0.13691126
000380 54 77 8b bc 16 36 8c 3e 7e ac 8c 3e 82 27 28 3d
       -0.017024674 0.27385014 0.2747535 0.041053303
000390 5c 02 4d 3f 38 36 37 bf ab 1a b9 3c 0a 08 66 be
       0.80081725 -0.71567106 0.022595724 -0.22464004
0003a0 78 cc 8b 3d a7 84 91 38 29 6d 51 be 37 10 65 be
       0.06826109 6.938847e-05 -0.20451798 -0.22369467
0003b0 74 ab 69 3b 53 0a 04 be 60 a7 91 3d 85 6d 81 be
       0.0035655173 -0.12894563 0.071120024 -0.2527887
0003c0 b5 a7 b9 3e 9d 65 08 3b cc 3a a3 3d 1d 0c 06 3e
       0.36260763 0.002081252 0.07970199 0.13090558
0003d0 54 3a ae 3e 0f 69 eb 3d 70 db 99 3e 57 0e e3 3e
       0.34028876 0.11494648 0.3005023 0.44346878
0003e0 9e 71 a9 bd 2d 85 b0 be eb 04 44 3e a2 ce c7 bc
       -0.08273624 -0.34476605 0.19142501 -0.024390522
0003f0 26 e7 df 3d e0 e0 d8 3e ea 4f 0e bf e2 13 02 3e
       0.1093276 0.42359066 -0.5559069 0.12702897

layers.0.linear.bias f4 [256]
000000 20 43 1b 3e 2b b1 7f be b1 61 ff 3d 53 ab ee 3d
       0.15162325 -0.24969928 0.12469805 0.11653771
000010 26 bb 39 bc c5 88 4e 3f d4 1d 84 bd b2 06 76 3e
       -0.011336124 0.80677444 -0.06451002 0.24025992
000020 c8 e7 46 3e 1b b6 1b 3e 22 8d 75 3e db b5 bc be
       0.19424355 0.15206186 0.23979619 -0.36857495
000030 9c 3e 69 be a8 f0 3c be 34 2b 1c bc bf bb 3f 3e
       -0.2277779 -0.18451178 -0.009531785 0.18723963
000040 45 1a a1 3d f8 a6 85 3e 84 4b 9a 3d 98 ea 9a 3d
       0.07866339 0.2610395 0.07533935 0.075642765
000050 3d aa 61 be 4d e0 e0 3e 18 c1 b5 3e 07 b2 eb bc
       -0.22037597 0.43921128 0.3549888 -0.028771413
000060 40 a2 47 3d 90 ba 52 bd c7 f8 71 be 83 26 eb 3e
       0.048738718 -0.05144745 -0.23630057 0.4592782
000070 70 fb 0d 3d 09 0f 1d 3e 2b b4 e8 3d 76 71 33 3e
       0.034663618 0.15337767 0.11362489 0.1752375
000080 47 b3 8d 3e a8 17 2e be cc a5 11 3e ae 4b 25 be
       0.2767584 -0.17001212 0.14223403 -0.16142151
000090 75 e5 fa bc b5 a5 d5 bd 5a 7c 5d be 47 f7 e8 bc
       -0.030626992 -0.10431997 -0.21629468 -0.028438224
0000a0 5c 34 69 be 4d 3d ff 3e f0 90 46 3d c0 1e 26 3e
       -0.2277388 0.49851456 0.048478067 0.16222668
0000b0 af 97 ac be 83 d3 40 3e 8d 4d 6e 3e 47 c7 1f bc
       -0.33709475 0.18830685 0.23271771 -0.009752101
0000c0 42 7a 18 be c5 bb 34 be cb 9b 38 3e 98 80 74 3e
       -0.14890388 -0.17649753 0.1802818 0.2387718
0000d0 51 e1 b8 bc b3 94 33 3d 26 41 c4 bd 3c bd 8c 3d
       -0.022568377 0.043842983 -0.095827386 0.06872031
0000e0 21 0c 07 3e f3 b3 4d be 86 e4 27 be 5c e6 96 3e
       0.1318822 -0.20088176 -0.16395769 0.29472625
0000f0 57 70 5b 3e 69 a4 28 3e 54 3c 24 be 42 f7 5a 3d
       0.21429573 0.16468967 -0.16038638 0.05345846
000100 89 d0 1e 3d 39 59 bf be 49 77 ae be ec 9c 76 be
       0.038773093 -0.3737276 -0.34075382 -0.24083298
000110 54 29 01 be c4 98 ec 3e 7e ff fe 3d fb 9e 71 3e
       -0.12613422 0.462103 0.12451075 0.23595802
000120 40 da 3f 3e 18 9c c9 be fc 43 b7 3d a7 d5 cb 3d
       0.187356 -0.39376903 0.08948514 0.0995286
000130 82 46 01 be 60 27 9d 3e 58 cf ca 3e 11 91 9a be
       -0.12624553 0.30694103 0.39611316 -0.30188802
000140 aa ef c9 be 5c dc 59 3d b2 0e 97 3e ea 43 55 3d
       -0.39440662 0.053188667 0.295034 0.05206672
000150 5f 9e f0 3e d4 f2 a8 3d 4d 23 bb 3e ac 1e e8 bc
       0.46995828 0.08249441 0.3655037 -0.028334938
000160 ad d6 5e 3d a1 3e ce bd 6e 96 8b 3e 39 6a 90 3d
       0.05440395 -0.10070539 0.27263206 0.0705151
000170 ab d5 b3 be f0 b7 45 be 5e 26 84 3d a3 f8 93 bd
       -0.35123953 -0.19308448 0.064526305 -0.07225158
000180 22 fb 82 bd 8a 97 01 bd 1f ab a4 3e e5 d6 42 3e
       -0.06395556 -0.03163866 0.32161805 0.19027288
000190 ac a1 98 be 77 c6 5c 3e 56 c0 a6 3d 28 91 05 3f
       -0.29810846 0.21560083 0.08142154 0.52174616
0001a0 21 1f 90 3e 43 0c bb 3e c3 71 45 3e 82 f6 09 3e
       0.2814875 0.36532792 0.19281678 0.13472942
0001b0 db bb b4 3d 63 54 6b 3e 78 8f 4e be e0 76 8b bd
       0.08824893 0.2298141 -0.20171916 -0.06809783
0001c0 66 c6 66 bd cd 67 9b be 52 7c da 3b fb d6 2a 3e
       -0.05634155 -0.3035263 0.006667652 0.16683571
0001d0 43 b0 9e 3e f8 c7 cb 3e e6 4b d2 bd 71 ad 5e be
       0.30993852 0.39801002 -0.10268383 -0.2174585
0001e0 13 82 a9 be 53 80 a6 be f3 2c b3 3d 14 34 05 3b
       -0.3310705 -0.3251978 0.08748808 0.002032523
0001f0 ab 9c 73 3e a0 49 98 be 68 37 ac bb 82 44 3c 3f
       0.23790233 -0.2974367 -0.0052556284 0.73542035
000200 6c 72 81 3e d8 e4 1e 3e 59 a1 5b 3e 4c 96 3f 3d
       0.2528261 0.15516984 0.21448268 0.046774194
000210 77 fb 00 3e dd 71 2b 3e c3 76 94 3e 68 4e b2 bd
       0.12595926 0.16742654 0.28996858 -0.08706361
000220 d2 e8 97 3e e8 f0 5f 3e 6d 90 17 3e 46 38 36 3b
       0.29669815 0.21869242 0.14801188 0.0027804538
000230 e6 c1 ff 3d 41 2f b8 3c 85 63 09 be a4 8f 56 3e
       0.12488155 0.02248347 -0.1341687 0.20953232
000240 33 58 54 be 40 18 b7 3d 71 dd 4e be 11 89 83 be
       -0.2073677 0.08940172 -0.2020166 -0.2569051
000250 f2 7b 82 3e c4 5b d4 be a2 d4 fd 3e 22 8f f3 ba
       0.25485188 -0.41476262 0.49576288 -0.0018582086
000260 84 d1 10 3d 60 f8 a6 be 71 d9 43 bd 33 07 9f be
       0.03535606 -0.3261137 -0.04781479 -0.3106018
000270 95 d9 8a 3a f0 ce d4 3a 09 63 ef 3e 63 db 30 3c
       0.0010593409 0.0016235989 0.46755245 0.010794493
000280 ba 18 b5 be 61 eb 3c bd 30 ab 80 be 2f 53 23 3e
       -0.35370427 -0.046122912 -0.25130606 0.15949701
000290 a1 0f 7d 3d a4 b9 7b 3e e9 a6 a7 3e 7d c0 87 3d
       0.061782483 0.24582535 0.3274453 0.06628511
0002a0 0b f5 11 3e b9 e8 cd be f5 2b ae be 7f 7a 8b be
       0.14253633 -0.40216616 -0.34017912 -0.27241895
0002b0 a8 2d db 3e 9a e5 5f 3e 7f dd d0 3d c6 5b ac bd
       0.4280827 0.2186493 0.10198497 -0.08415942
0002c0 8b 58 22 3e 9e 72 02 3e 72 3b 06 3d f0 03 a6 be
       0.15854089 0.12739035 0.032771535 -0.3242488
0002d0 fc 89 80 be 05 33 0d bd 43 58 88 bb d3 07 45 be
       -0.25105274 -0.034472484 -0.0041609122 -0.19241266
0002e0 79 f4 22 bd f3 e1 b2 3e 94 0a 23 be dc 3f 60 3e
       -0.03978393 0.3493801 -0.15922004 0.2189936
0002f0 de 35 a6 3d 10 66 1e 3e 37 d3 55 3e 87 50 0e be
       0.08115743 0.15468621 0.20881353 -0.13897906
000300 d9 71 72 be c8 d1 ad bc d9 f7 cf bd 8f f4 48 be
       -0.23676242 -0.021218196 -0.10154695 -0.19624542
000310 f9 53 a1 be 8e 79 88 be 45 78 5a bd 1d e5 a6 bd
       -0.3150938 -0.2665524 -0.053337354 -0.08149169
000320 44 4e 78 be 7b 78 da bd 70 ab ee bd f7 7a 66 3e
       -0.24248606 -0.10667511 -0.11653793 0.22507845
000330 d9 fc ab bd 70 90 48 be e7 c1 c6 be 2c 65 1b 3e
       -0.08397836 -0.19586349 -0.3881981 0.15175313
000340 e9 9a 6b 3e 05 09 90 3c a2 2a 57 3e 0e b4 6a 3d
       0.23008312 0.017582426 0.21012357 0.05730062
000350 b6 41 1f be bc ec ca 3e 85 bb 6c bd 10 e2 f3 3d
       -0.1555241 0.3963374 -0.05779602 0.119083524
000360 1c 15 c7 bc 36 b9 6c be de b4 b3 3e 7c 3f 70 bb
       -0.024302058 -0.23117527 0.35098928 -0.0036658933
000370 53 80 a5 3e d8 0f 7d be ab 54 bb be 0b b7 80 3e
       0.32324466 -0.24713075 -0.36588034 0.2513965
000380 7c 55 1f be b8 80 3b be 26 d2 d3 be b4 3a 76 3e
       -0.15559953 -0.18310821 -0.41371268 0.24045831
000390 d0 af e2 3d d0 00 80 3e cf a0 de bd 97 7d db 3d
       0.1106869 0.2500062 -0.108705156 0.10717314
0003a0 77 a7 8a be f0 ba df 3d c8 5e d4 3e 5a 3e 05 3f
       -0.2708089 0.109243274 0.41478562 0.52048266
0003b0 b7 82 5e 3d 87 32 e1 be 99 58 f5 3d 73 a9 a2 3d
       0.05432388 -0.43983862 0.11979789 0.07942476
0003c0 65 17 44 3e ef a4 10 be 1b 14 58 3c bb e5 26 be
       0.1914955 -0.14125417 0.013188387 -0.16298573
0003d0 a9 95 cd 3e 78 8c ca be fd ee 20 3e 86 3b 87 be
       0.40153244 -0.39560294 0.15716167 -0.264126
0003e0 27 22 1d be 6b 28 e1 be d9 40 c1 be cd 83 e5 3e
       -0.1534506 -0.4397615 -0.37744787 0.4482712
0003f0 49 93 41 be f4 d6 83 bc e7 25 e7 3d fc 26 b4 be
       -0.18903841 -0.016093709 0.11286526 -0.35185993

layers.2.linear.weight f4 [2, 256]
000000 17 3a ba bd 4a 78 b1 3c 56 a1 1d bc 6b 73 35 3d
       -0.09093111 0.021663804 -0.009620985 0.044299524
000010 0c 02 d5 3d 96 bd fc bd c1 58 e4 3c a1 3b e9 3c
       0.10400781 -0.12340848 0.027874352 0.028470816
000020 83 b5 1a 3e 37 cb 4f bd 8e a4 94 3d 90 8c 3b 3c
       0.15108304 -0.05073091 0.07257949 0.011447087
000030 f3 0c 1f 3d 57 60 d9 bc 4a fb d2 be 50 e7 05 bd
       0.03883071 -0.026535196 -0.41207343 -0.0326913
000040 02 ae 2c bd 17 07 0f 3b c2 e8 d3 bc ed 03 2c 3c
       -0.042158134 0.0021824294 -0.025867824 0.010498983
000050 80 99 5c bd 28 8d 57 bd 23 87 0c bd 7a 7f df bc
       -0.053857327 -0.05262485 -0.034308564 -0.027282465
000060 93 d2 2a bd 4b c2 48 be af 5d 4f bc 8e 1d 9c bd
       -0.041704725 -0.19605367 -0.012656613 -0.076228246
000070 e0 c6 47 bc 32 f2 87 bd 0b fb 22 bb dd 1a 64 3b
       -0.012193412 -0.06637992 -0.0024868872 0.003480605
000080 8a de 42 3d ef dd ca 3d 7f ae 04 bd 7d 5f 9a 3c
       0.04757551 0.09905612 -0.032392975 0.01884436
000090 e4 17 3a 3c 66 e8 37 bd 63 2e 26 bc c5 39 26 bd
       0.011358235 -0.044899367 -0.010142895 -0.040582437
0000a0 6d 06 8d 3c e2 8c 70 3c c9 30 64 3e 48 fb b2 3d
       0.017214978 0.014682027 0.22284235 0.08739334
0000b0 36 16 28 3d df fd 6c 3e 67 02 9c be d4 a4 7f 3d
       0.041036807 0.23143719 -0.30470583 0.06241305
0000c0 83 72 e3 3e 9c 52 fc 3c 94 47 28 bd 3b 7f 79 bc
       0.44423303 0.03080111 -0.041083887 -0.015228088
0000d0 60 10 e3 39 ce a7 3a bd 28 87 7b 3c d5 b4 c8 bc
       0.00043309014 -0.045570187 0.015352048 -0.02450029
0000e0 ec 0e 65 3c 4a d8 11 bd bd af be bb 2b 29 2f bc
       0.013980608 -0.03560666 -0.0058192895 -0.010690968
0000f0 ab ba 05 3d 1a 6a 0b bd 58 47 9e bc 05 68 97 bd
       0.032648724 -0.034036733 -0.019321129 -0.07392887
000100 87 a7 6d 3d 3b 1d 97 3c 5b d7 20 3d 13 f0 04 3c
       0.058021095 0.018446555 0.03926788 0.008113879
000110 52 bc 84 3d 27 1b f0 bc 47 9e 61 bd 99 ea ed bd
       0.06481232 -0.029309822 -0.055082586 -0.116170116
000120 7a 1a 50 bc a2 62 85 bc 7f 98 a6 3d cf 02 2f bd
       -0.012701625 -0.016282383 0.08134555 -0.042727288
000130 d1 1e 56 3e c4 9b 1b bd 76 67 7e 3d d8 6a a7 3d
       0.20910193 -0.037990347 0.062110387 0.08174676
000140 1f 28 b0 3d b5 d5 81 3c e7 56 6a 3d 95 14 b5 3d
       0.086014025 0.015848974 0.057211783 0.08841816
000150 20 8e 33 be bc d6 37 bc 5b d5 0c bd 8f 9c 64 3c
       -0.17534685 -0.01122063 -0.03438316 0.013953342
000160 ed 89 62 3e e1 4c a1 bd 55 de cf bc 21 7c 2b bd
       0.22122927 -0.078759916 -0.02537457 -0.041866425
000170 c6 5c 35 bd 8c 8b a6 3a 4d 06 2a 3e 2a 46 cb 3b
       -0.04427793 0.0012706383 0.16603966 0.0062034326
000180 70 29 87 bd da 9f 74 3d 49 55 9a bd ef 57 ab bd
       -0.065997005 0.05972276 -0.07535798 -0.083663814
000190 84 ec 89 bc da 88 03 3d 1e 68 64 3c c6 3c bd bd
       -0.016836412 0.032112934 0.013940839 -0.09240107
0001a0 c2 d8 11 bd 71 e4 c2 bc 59 2c 5b bb 27 28 7a 3d
       -0.035607107 -0.02379057 -0.0033443181 0.06107345
0001b0 df c2 f0 bc f7 d9 d2 3c 55 02 54 3e 3b 38 81 3d
       -0.029389797 0.0257387 0.20704015 0.06309553
0001c0 23 ff 16 3d bb 17 cc 3b b4 06 5e 3c 8a 7d 4b bd
       0.03686441 0.006228415 0.013551403 -0.04968027
0001d0 5f 65 e3 bd 18 d3 47 be 73 e9 9d bc bb 1e c3 3e
       -0.111033194 -0.1951412 -0.019276356 0.38109383
0001e0 05 96 04 bd 57 f4 0b bc 8f eb 84 3d 56 fc b5 bc
       -0.032369632 -0.008542142 0.06490242 -0.02221505
0001f0 c0 5e dc 3d bf 1f c9 bb 18 af 08 bd e0 50 46 be
       0.1076026 -0.0061378176 -0.033370107 -0.19366789
000200 da 49 ca 3c d1 fa 6b bb 98 77 ba 3c 25 6a 48 bb
       0.024693418 -0.0036007653 0.022762105 -0.0030580845
000210 b6 86 6f 3d 50 6e 87 3c 85 cb 90 bd a3 a2 08 3c
       0.05847808 0.016532093 -0.07070068 0.008339557
000220 43 dc 71 bd e6 bc c2 bd 5e 4d 0d 3d 63 23 85 3b
       -0.05904795 -0.09508686 0.03449761 0.0040630563
000230 7c 45 12 bd 75 08 36 3c 38 ed 01 3d 46 97 0f 3c
       -0.035710797 0.011110415 0.03172037 0.008764094
000240 9c 08 ac bc 7d 69 4e 3d c5 6e 16 3e 32 17 5c bb
       -0.021000199 0.05039357 0.14690693 -0.0033583161
000250 99 49 83 be 3d 1f 6f 3c 83 ba 14 be 97 9a 28 be
       -0.25642088 0.01459485 -0.14524274 -0.16465221
000260 93 0c cf 3c f9 8c b3 3c b9 38 32 3d 72 4a 0b bc
       0.02527455 0.021917807 0.043511126 -0.008501636
000270 ec 72 42 bc be 9f 96 bc 09 1c 55 be c5 82 af bc
       -0.01186822 -0.018386718 -0.20811476 -0.02142466
000280 23 76 7b 3d 4b a6 58 bd f3 ba a2 bc f1 7c eb bd
       0.06139196 -0.052892964 -0.019864535 -0.1149844
000290 4c 86 33 bd 41 67 65 bd d6 5c 32 3c 7b 15 10 3b
       -0.043829247 -0.056006674 0.010886392 0.002198546
0002a0 e9 6e a2 bb 81 8a 7d 3d 34 a2 ac 3c f1 0a 24 bc
       -0.004957069 0.061899666 0.021073438 -0.010012374
0002b0 27 9f 14 be d9 31 ad 3c 6e 81 58 3d ab 91 14 bc
       -0.14513837 0.021141933 0.05285781 -0.009067933
0002c0 96 c7 ab 3a 3e ee 0f 3c d9 c0 16 b9 f3 60 a1 3e
       0.0013105746 0.008784829 -0.00014376956 0.3151928
0002d0 97 67 91 bc 35 a1 fb 3c 72 85 cc 38 f6 b9 08 bd
       -0.01774959 0.030716518 9.752334e-05 -0.03338047
0002e0 c2 84 22 bc a8 e7 e0 bb 43 79 00 bd c3 4f 0a 3e
       -0.009919347 -0.006863553 -0.031365644 0.13506989
0002f0 9c 78 07 bc d7 4f 11 be 37 9d 10 bd 96 f8 7a 3d
       -0.008268502 -0.14190613 -0.03530618 0.061272226
000300 e9 c9 03 3b 47 ec 8a 3d 98 49 ad bc 61 b8 98 bd
       0.0020109362 0.067833476 -0.021153256 -0.074570425
000310 73 96 92 bc f3 89 b5 bc 72 d7 ac 3e ab e0 2e 3d
       -0.017894005 -0.022160506 0.33758122 0.04269473
000320 15 b9 ca 3c d2 58 2a bc 19 38 86 3c 66 ec 7e bd
       0.024746457 -0.010397153 0.016384171 -0.062237166
000330 66 f3 09 3c 5b 15 4d bc fe 16 fe 3c 81 6c 48 3d
       0.008419847 -0.012517299 0.031016823 0.048931602
000340 14 e1 25 bd d2 d1 0c be fd 78 13 3d 8d 01 12 bd
       -0.040497854 -0.13751915 0.036004055 -0.03564601
000350 56 cb d8 bb 0c 0f da bd c9 99 92 3c f4 1a a8 bb
       -0.0066160364 -0.10647401 0.017895596 -0.005130166
000360 75 29 8e 3c 10 19 2b bb cd 98 a1 3e 94 1b a7 bd
       0.017353753 -0.0026107468 0.3156189 -0.08159557
000370 ea 2c 2f bd 37 d7 bf be b7 d3 6e 3c 8c 13 78 3b
       -0.042767443 -0.37468883 0.014576844 0.0037853448
000380 53 52 13 be bf 5d b6 3d 81 ad e5 3d f0 77 49 3e
       -0.14386873 0.089045994 0.11214734 0.19674659
000390 de b6 24 3d aa 64 9b 3d af 92 c7 3b 55 0c 8a 3d
       0.04021346 0.075875595 0.006090484 0.067406334
0003a0 6a 48 23 3c 66 16 c0 3c 9e 7e 23 be c6 1b 16 be
       0.009965995 0.02344818 -0.1596627 -0.14659032
0003b0 f8 f0 dd 3b 7d 1b 25 3c 97 7f ae bb e0 28 9a 3d
       0.0067731105 0.0100773545 -0.0053252685 0.075273275
0003c0 cd 82 da bd 12 e5 c0 be d2 32 6f 3d a5 c0 30 bd
       -0.106694795 -0.37674767 0.058398075 -0.04315247
0003d0 f9 df f0 3c b3 ca 83 bc 4d d0 19 3e 50 19 c4 bc
       0.029403673 -0.016087865 0.15020867 -0.023937851
0003e0 7b ee 4a 3c 89 21 2c bc c7 ca 0b 3e 19 d1 b8 bd
       0.01238596 -0.010506042 0.13651572 -0.09024257
0003f0 07 41 f7 bc 0f 49 7b 3d 0d a9 11 3e ad 08 08 be
       -0.030182375 0.06134897 0.14224644 -0.1328456

layers.2.linear.bias f4 [2]
000000 69 19 09 bb 69 2e 07 bd
       -0.0020919687 -0.033003245
