examples/Titanic/titanic_pretrained.pth (torch_old, 13310 bytes, 4 tensors)

layers.0.linear.weight f4 [256, 9]
000000 e5 7d dd 3e 6d 12 92 3e 2f 0a 67 3e 8c 7e 0e 3f
       0.43260112 0.28529683 0.22562478 0.55661845
000010 48 c1 1e 3e 94 33 b2 bc 00 04 d2 3d 42 03 0c 3f
       0.15503418 -0.02175311 0.10254669 0.5469247
000020 98 0c 00 be 60 24 a3 3d 54 69 a5 3d 2d 84 b1 bd
       -0.12504804 0.07965922 0.0807673 -0.08667789
000030 88 27 50 3f aa ab 4e bf 36 f6 9f 3d 77 b5 28 3e
       0.8131032 -0.8073069 0.07810633 0.16475473
000040 46 6e 83 be b0 b6 b1 bd 15 a2 ae bd 2a 65 2f bf
       -0.2567007 -0.08677423 -0.085270084 -0.6851374
000050 88 dd 34 bd 7a 85 9e bf 3e 14 63 3f bd fe 12 3e
       -0.04415658 -1.2384484 0.8870276 0.14354987
000060 79 fa c7 be 53 c0 35 be b0 a0 1a be 0e 3a 52 3e
       -0.39058283 -0.17749147 -0.1510036 0.20529959
000070 59 e4 e5 3e 07 a2 e2 be 58 ea d1 3e 5e bb 16 be
       0.44900778 -0.44264242 0.40999103 -0.14719912
000080 f1 77 c9 3d f3 39 cb be 56 c3 cb be 14 68 e1 3c
       0.0983733 -0.3969265 -0.39797467 0.027515449
000090 f2 89 d3 be b0 33 22 bf 98 2f f2 3e fa 14 98 bf
       -0.4131618 -0.6336012 0.47301936 -1.1881402
0000a0 a7 13 2e 3f 96 4b 29 3e b0 82 eb 3e 46 27 65 3d
       0.6799874 0.1653274 0.45998144 0.055945657
0000b0 73 c5 1b bc 45 60 07 be 92 46 4d 3e fe 3f c0 be
       -0.009507525 -0.13220318 0.20046452 -0.37548822
0000c0 df 27 14 3f 50 da 8c be ad 64 3e be 02 12 ed be
       0.5787334 -0.2751031 -0.18593092 -0.463028
0000d0 6a 72 82 3c a8 a3 7c 3d 26 3f 4d be b2 30 77 3e
       0.015923698 0.061679512 -0.2004362 0.2413967
0000e0 5e 44 3e 3e 17 95 94 bd 25 99 28 3e 02 21 cd 3c
       0.18580768 -0.07254999 0.1646467 0.025040153
0000f0 57 29 4c bd 94 f6 86 3e 1f 82 ba be 5e e1 02 bf
       -0.049844112 0.2636 -0.364274 -0.51125133
000100 af a6 19 bf a4 b3 5c bc be 27 8b bf 80 79 13 3f
       -0.60019964 -0.013470564 -1.0871503 0.5760727
000110 20 68 1e 3e 99 99 0c bd 8f f1 c5 bd 5c 6b d4 3c
       0.15469408 -0.03432617 -0.09665214 0.0259301
000120 72 06 02 bf 0d 1d 83 be b1 41 b5 3e 89 91 5c bf
       -0.50791085 -0.256081 0.3540168 -0.8615957
000130 b1 7a c5 3d 23 58 01 3e e1 be fa 3d 7d bf 8f 3e
       0.09642542 0.12631278 0.122434385 0.2807578
000140 e9 66 e5 bb bf f0 b4 be e9 4a 9d be db 87 e2 3e
       -0.0070007932 -0.35339925 -0.30721214 0.44244274
000150 f2 c3 23 bf 00 c7 60 3e 02 42 b8 3d 0f 84 de 3d
       -0.63970864 0.21950912 0.08996965 0.10865032
000160 2d f4 4d 3e af 28 aa 3d 7c ff bf 3e c7 01 de bd
       0.20112677 0.08308541 0.37499607 -0.10840183
000170 96 79 89 3e a6 04 60 bf ea cf 1e 3f 56 dc 16 3e
       0.26850575 -0.8750709 0.62036 0.14732489
000180 35 e0 74 be 61 45 a8 be f6 e7 4f be 77 9b 83 bc
       -0.23913653 -0.32865432 -0.2030333 -0.016065342
000190 20 65 cb 3e 6b 1a e4 bc bc a5 51 3f a8 57 a2 be
       0.3972559 -0.027844628 0.81893516 -0.317075
0001a0 9a b4 ec 3d 58 a2 5e 3d c1 74 4e be e5 93 fc bd
       0.115578845 0.05435404 -0.20161726 -0.12332896
0001b0 39 2e 64 bf 4a 3d f6 be 6e 20 46 3f 49 ea 30 bf
       -0.8913303 -0.48093635 0.77393234 -0.6910749
0001c0 45 ee a1 3e 03 c6 c7 bd 0b 67 f1 3e e3 7c b1 be
       0.31627098 -0.097545646 0.47148928 -0.34665594
0001d0 c6 fa 7c 3d 2d 01 c4 bd ad 4a 94 3f 6f d4 7e be
       0.061762594 -0.09570537 1.1585289 -0.24885724
0001e0 71 3b 9f be f4 f9 6a 3f d1 76 db be 1b 41 bb be
       -0.31100038 0.9178765 -0.42864087 -0.3657311
0001f0 74 96 d1 3e a0 68 87 3d 9a 4c 7c 3d 03 42 ee 3e
       0.409351 0.066117525 0.06159649 0.46534738
000200 34 16 cd 3e b8 73 a9 3e 6b d8 11 be da bf 60 bd
       0.40056002 0.330961 -0.14242713 -0.054870464
000210 6d f9 a8 3e 11 67 be 3d f9 36 2e be 25 bc 1f be
       0.33002797 0.09297002 -0.17013158 -0.15599115
000220 fc 37 cf be 75 47 49 be d6 5c 68 be 1e ea da 3e
       -0.404724 -0.19656165 -0.22691664 0.42756742
000230 78 9f cb bc 78 3f 92 3e de 9e 2b be f8 c4 b1 bd
       -0.024856314 0.28564048 -0.16759822 -0.08680147
000240 34 1f fd 3d b4 36 2b 3f 0c 26 c5 be 0c 0e 6a 3f
       0.12359467 0.66880345 -0.3850559 0.91427684
000250 d3 0d 24 bf 8c 10 80 bc 88 2a f8 be b5 22 22 be
       -0.64083594 -0.01563289 -0.4846995 -0.15833552
000260 86 b3 32 3d ed f6 17 3e 4e 55 7c bd 5c 01 ab 3e
       0.04362824 0.14840288 -0.06160479 0.33399475
000270 b5 a8 84 3e 46 1f 33 be bf 3b d0 bc 3f 98 88 3c
       0.25909963 -0.17492399 -0.025419114 0.01667416
000280 50 9a 13 3f 05 d9 e9 bd ad 0c 1f 3f 40 21 64 be
       0.5765734 -0.11418346 0.62128717 -0.22278309
000290 37 ec 59 be db 74 3f 3f 8b 19 e5 be 52 93 1c 3e
       -0.21281515 0.7478768 -0.4474605 0.15290573
0002a0 4f 9a a1 3d a3 bf 01 bf 34 56 1e bd 01 83 84 be
       0.0789076 -0.5068304 -0.03865643 -0.25881198
0002b0 83 ad f1 be 22 ef 2e be fb 13 41 bf 13 d0 b7 3e
       -0.4720269 -0.1708341 -0.7542111 0.35900936
0002c0 9b f8 6f 3e d5 39 7b 3d c6 db 1f 3d 2c de da be
       0.23434679 0.06133445 0.03902795 -0.4274763
0002d0 27 9d 7c bd c5 a5 1e bf 85 af 42 be 12 93 df be
       -0.06167331 -0.61971694 -0.19012268 -0.43666893
0002e0 6f a1 58 3e 94 91 0a 3e 28 c3 a4 3e 3b fa 72 3d
       0.21155332 0.13532096 0.32180142 0.05932067
0002f0 e4 f1 c2 bd 0c a8 83 3e cd fb b4 3f 5f f4 d8 be
       -0.09518793 0.25714147 1.4139344 -0.4237394
000300 b0 f4 18 3e 50 8b 83 3f 6c 21 4b be 95 ef 4e be
       0.14937091 1.027689 -0.19836968 -0.20208581
000310 db 5d b0 3e cc 06 b0 bb 7e e7 84 3e 9b b0 92 3f
       0.34446606 -0.005371904 0.25957865 1.1460146
000320 c4 75 36 be 8a ef e1 3e ce 26 33 bd fb 34 a6 be
       -0.17818362 0.44128066 -0.04373818 -0.32462296
000330 41 46 2a bf cf de 09 3f fb a9 53 3d ee 70 83 3b
       -0.6651345 0.53855604 0.051675778 0.004011265
000340 d4 4e a2 3e 4f 87 8a bc 77 06 ce 3e ac 9c a6 3d
       0.31700766 -0.016910223 0.40239307 0.081353515
000350 85 c1 fd bc 39 ea ce 3d 22 b2 bc 3e f7 0d ba bd
       -0.030976066 0.10103268 0.36854655 -0.09084695
000360 a0 bd ec 3d 77 ff 15 be d9 30 98 be 68 b6 a2 3e
       0.115596056 -0.14648233 -0.29724768 0.3177979
000370 d0 7c 9c bd 64 96 14 3e ea 5c 5b 3e 39 10 3d bf
       -0.076409936 0.14510494 0.21422163 -0.7385288
000380 63 2c f6 bd 8f 4a 6e bf 4b ef 18 bf 59 94 48 3f
       -0.12020185 -0.9308252 -0.5974013 0.7835136
000390 18 03 ee be 8e 0a 4b 3f ed fb e7 bd 92 14 0f 3f
       -0.46486735 0.7931298 -0.11327348 0.5589076
0003a0 40 3a e7 bd 5c 8c 36 3d da af cc be 83 12 f6 be
       -0.11290407 0.04456745 -0.39977914 -0.48060998
0003b0 f4 48 74 be df e5 4f bf c9 3d ba bd 14 c4 17 3e
       -0.23855954 -0.8121013 -0.09093816 0.14820892
0003c0 fc 7c a7 3d f5 ea 23 3f a7 f7 82 be 5d 71 13 3e
       0.08178136 0.6403039 -0.2557957 0.14398713
0003d0 a2 b9 18 3e 9a 16 9a 3d ad 58 ef 3e c4 82 fd 3d
       0.14914563 0.07523842 0.46747342 0.12378457
0003e0 a0 ec 6d 3e 42 8a 86 bd cd 4b a5 be af 40 77 be
       0.23234797 -0.06569339 -0.32284394 -0.24145769
0003f0 cd 4e 5d bc bf 8d 0d bf ba 4a 0f 3e 29 b6 0d bf
       -0.013507557 -0.5529441 0.1399335 -0.5535608

layers.0.linear.bias f4 [256]
000000 97 b6 88 3e d7 14 b8 3e 48 76 d7 be aa 82 0e 3e
       0.26701805 0.359534 -0.4208243 0.13917032
000010 f1 39 68 3e d7 63 89 3e 11 df 87 be 8d 96 b1 3d
       0.22678353 0.26833984 -0.26537374 0.086712934
000020 82 31 1b 3e 88 a8 1e be 84 77 82 be 5b 3b 24 be
       0.15155604 -0.15493977 -0.25481808 -0.16038267
000030 80 64 c9 bc 44 db 93 3e 4a 94 33 3e 12 c1 60 be
       -0.024584055 0.28878224 0.17537037 -0.2194865
000040 54 5c ad be 07 b1 e2 3e c2 fb 49 be b2 da 76 be
       -0.33859503 0.44275686 -0.19724944 -0.24106863
000050 3f 7f 8f bd d8 f7 e4 3e cd 33 fd 3e ed a3 d9 3e
       -0.07006692 0.4472034 0.49453583 0.42507878
000060 a7 77 f9 3b e5 4b 56 3e 40 0d da bc 33 89 94 be
       0.0076131406 0.20927389 -0.026617646 -0.29010925
000070 49 21 d5 bd ed 10 44 3e 94 d0 ac be 83 65 23 3e
       -0.10406739 0.19147082 -0.33752882 0.15956692
000080 65 91 05 bd 8f 90 a9 3e 68 29 e2 3e 1c 98 a1 3d
       -0.032609362 0.33118102 0.44172215 0.07890341
000090 54 69 a1 3e a8 1f bb bc 05 d6 27 3e 88 b0 2d 3e
       0.3152567 -0.022842243 0.16390236 0.16961873
0000a0 93 1c d8 3e 99 55 72 be 2d b1 05 3f 79 51 36 3f
       0.422093 -0.23665465 0.52223474 0.7121807
0000b0 4b be 6b be e7 d7 9a 3e c4 b4 78 3e 47 49 44 3e
       -0.2302181 0.30242845 0.24287707 0.19168578
0000c0 58 22 9f be 10 7e bc be 08 9f 78 3e b5 eb 16 3e
       -0.3108089 -0.36814928 0.24279416 0.14738353
0000d0 12 c3 d9 3d 27 d4 21 be ff 77 a0 3e 6b ff 33 be
       0.1063291 -0.15803586 0.3134155 -0.17577903
0000e0 a5 d1 60 be 00 15 6a 3e 4c 07 bb 3d c0 88 ee 3d
       -0.21954973 0.22859573 0.09132251 0.11647177
0000f0 b1 0e c9 be 00 7c 27 be ce eb 28 be 4d 76 8a 3e
       -0.3926902 -0.16355896 -0.16496202 0.2704338
000100 b2 c9 71 be 15 92 22 be c3 96 97 be 9c d2 42 be
       -0.23612097 -0.15876038 -0.2960721 -0.19025654
000110 f7 57 2c 3f 16 ae 38 3e 80 86 da 3e ed 44 d2 bd
       0.67321724 0.18035159 0.4268074 -0.10267053
000120 69 ff 7e 3d bc dc c6 be fa d5 d4 3d 1e b1 84 be
       0.062255297 -0.38840282 0.10392375 -0.2591638
000130 c1 d5 95 3e 19 9c c6 be 4e 4d bc be 5c 52 67 3e
       0.29264644 -0.38790968 -0.3677773 0.22590011
000140 58 4d 3b be e2 82 cf 3c 76 fe 9e 3e 06 4d 90 bd
       -0.18291223 0.025330964 0.31053513 -0.07045941
000150 b0 e8 f9 3e 57 86 2d 3d 6f 1e 75 bd 05 c5 da 3e
       0.4881034 0.042364445 -0.059843477 0.4272844
000160 be b6 0f be 3e 7a 8a 3e c6 56 5b 3e 55 ed ae bd
       -0.14034554 0.27046388 0.2141982 -0.08541361
000170 d8 73 22 be 5d d0 e7 bd 77 72 87 be d7 9b fd 3d
       -0.15864503 -0.11319039 -0.26454517 0.1238324
000180 cc 5a 21 3e 23 92 93 3e 38 d5 0f 3e 23 87 c5 3e
       0.15757293 0.2882243 0.1404618 0.38579664
000190 b5 23 ec 3d 45 ca a2 3d ee a5 ff 3d af 36 98 3e
       0.11530248 0.07948736 0.124828205 0.2972922
0001a0 1f a9 c7 bd d0 25 ff 3d 41 a9 28 3d 7b 1c 34 be
       -0.09749054 0.12458384 0.041177038 -0.1758899
0001b0 7e 69 58 3e a6 a7 d3 3e 51 84 16 3f b1 47 9d 3d
       0.21133992 0.41338843 0.5879565 0.0767969
0001c0 d5 31 75 3e 4c a3 30 be 8c f7 83 be 52 c0 5a be
       0.2394479 -0.17249793 -0.257748 -0.21362427
0001d0 ed 22 6d bd fc 79 8b be 87 29 9d be 00 c3 38 3f
       -0.057894636 -0.27241504 -0.30695745 0.72172546
0001e0 4b 55 b4 be 62 47 30 3e 2b 31 18 be ab 72 8a be
       -0.35221323 0.1721473 -0.14862506 -0.2704061
0001f0 39 6c 82 bd bc cb 73 3f 55 35 8f bd 68 be ab be
       -0.06368298 0.9523275 -0.06992594 -0.33543706
000200 37 d5 35 3d a1 47 76 3e ad b9 b1 3d 98 70 b6 3e
       0.04439279 0.24050762 0.08677993 0.35632777
000210 ca b2 80 3d 3e 63 a7 be a8 e7 e7 be d1 71 04 3e
       0.06284101 -0.32692903 -0.45293927 0.12934043
000220 6b 83 af 3e 0f 6b 92 be 7d ae a7 3e 38 84 59 be
       0.3427995 -0.28597304 0.32750311 -0.21241844
000230 5c 1d a1 3e 20 68 f1 bd 96 27 51 3e 8b 1d c8 be
       0.31467712 -0.117874384 0.20425257 -0.3908504
000240 6c 5b 03 bf 78 2a 09 3e 06 85 b5 be d6 f5 a2 3d
       -0.51311374 0.13395107 -0.3545305 0.07957046
000250 5f 88 20 3e bc d7 79 be 24 06 94 be 72 d6 02 3d
       0.15677021 -0.24398702 -0.28910935 0.031942792
000260 f3 ed 19 3e 3f 6b 0f 3e 5e b3 28 3f d3 ce d1 3e
       0.15032177 0.14005755 0.6589869 0.40978107
000270 fe 1e bd be 3e ff 4f 3c 7a 1a fe bd ce 5e 2d 3e
       -0.36937708 0.012695132 -0.12407394 0.16930696
000280 0a ea a1 bd 07 1a 60 3f 21 25 a0 3d aa f0 9f bd
       -0.079059675 0.87539715 0.07819582 -0.07809575
000290 6b 22 98 bd 75 52 80 be 11 a3 b3 be 76 ea 15 3e
       -0.0742844 -0.2506291 -0.35085347 0.14640221
0002a0 cc 48 49 3e b6 41 cd be 54 8a ac 3e bd fd 35 3f
       0.19656676 -0.40089196 0.33699286 0.710903
0002b0 f1 ad 9f 3d 7a 04 9b be 9d af b2 3e 9a c7 a8 be
       0.077968486 -0.30276853 0.34899607 -0.32964784
0002c0 60 bf f8 bd 95 9b 03 be 77 c3 5a be 1f 5b 26 3f
       -0.12145877 -0.12852319 -0.21363626 0.6498279
0002d0 85 e1 be be 17 89 67 3f 95 7d 94 be e9 7a ee 3c
       -0.37281433 0.9044356 -0.2900206 0.029111343
0002e0 11 67 51 bd 60 40 d1 be 17 15 96 bd 91 92 4c 3f
       -0.051123682 -0.40869427 -0.07328241 0.7991114
0002f0 4b 27 45 3e c8 17 a1 be 83 8f a3 3e 1f e6 c8 3b
       0.1925327 -0.31463456 0.31945428 0.006130948
000300 31 75 bb 3d 2e b9 83 3e a8 19 ae bc bb 9a f5 be
       0.09153212 0.25727218 -0.021252468 -0.47969612
000310 85 e0 f9 3d 61 d4 c1 3d 93 cf 99 be ac cc 9c be
       0.12201027 0.09464336 -0.3004118 -0.30624902
000320 7e fa 99 be e7 6c 93 be c0 d6 fb be 46 83 d7 be
       -0.30073923 -0.28794023 -0.4918728 -0.4209234
000330 dd 27 42 be e1 e3 23 3c d8 d8 3d 3f 5b fd 5c be
       -0.18960519 0.010003061 0.74159 -0.21581022
000340 7d 85 c2 3c 8c 1d d7 be 0a 45 35 3d 83 b7 1f 3f
       0.023745293 -0.4201473 0.044255294 0.6238939
000350 80 6e dd be 6d f0 ef bd db e4 82 3e b5 cd 21 3b
       -0.43248367 -0.117157795 0.25565228 0.0024689261
000360 59 52 ce bc 18 90 fe bd a2 e2 00 be 0b 42 4b bd
       -0.02518575 -0.124298275 -0.12586454 -0.04962353
000370 ab 99 d7 be d8 03 b6 3d 5e a5 1c 3e 7f 93 ae be
       -0.42109427 0.08887452 0.15297458 -0.34096906
000380 0b 25 0a 3e dd dd a3 3c 9f 65 ba be bc a8 e8 3e
       0.13490693 0.020003254 -0.36405656 0.45441234
000390 ca 63 06 3d 7f f8 8b 3e c6 9f 88 3e ec fb 4b be
       0.03281001 0.27338025 0.26684397 -0.1992032
0003a0 f1 6c 80 3d 3b dd 2e 3e 9c 30 8a be e7 58 0d be
       0.06270779 0.1707658 -0.2699021 -0.13803445
0003b0 9c 83 a0 be 28 b7 94 3e 45 d2 08 3c b7 c8 81 be
       -0.3135041 0.29045987 0.008350913 -0.25348446
0003c0 ed ba 66 be 2e 71 84 be a5 16 1f 3e 06 ea 50 be
       -0.22532244 -0.258676 0.15535982 -0.20401773
0003d0 c3 a0 2f be 67 7e 38 3e 45 72 3a 3d 8d 49 e7 be
       -0.1715117 0.18016969 0.045519132 -0.45173302
0003e0 0c 13 cb bc ca f1 60 be 87 da 99 be 03 83 74 3e
       -0.024789356 -0.21967235 -0.30049536 0.23878102
0003f0 db f6 1a 3e b9 ae de 3d 3d aa 00 be 82 70 09 3e
       0.1513323 0.108731695 -0.12564941 0.13421825

layers.2.linear.weight f4 [2, 256]
000000 32 be 52 bd ad 6a 4c bd 35 e4 c8 3d 13 0a 17 bd
       -0.051450916 -0.04990642 0.09809152 -0.036874842
000010 0c f6 6d 3c 73 09 bd 39 16 b9 c1 3c 70 6f 96 3a
       0.014523994 0.0003605593 0.023647826 0.0011477303
000020 aa 18 fa 3c e3 07 a7 bc 73 32 1f 3d 17 49 aa bc
       0.030529339 -0.020389503 0.03886647 -0.020786805
000030 58 84 b4 3d b6 1b 27 be 73 16 24 3d 52 d5 c5 3d
       0.08814305 -0.16319165 0.04006047 0.09659828
000040 3c 02 8c bd 70 b7 17 3c 05 b1 6b bd d8 56 44 3d
       -0.06836364 0.0092600435 -0.057541866 0.047934383
000050 7f fe 0c 3c 71 a1 6f bd 7b 5c 08 be 53 ca 42 bd
       0.0086055985 -0.058503572 -0.13316528 -0.047556233
000060 35 21 3f 3c b7 25 2a 3e 38 21 28 3e 36 f0 af bc
       0.011665632 0.1661595 0.16418922 -0.021476846
000070 13 d8 b8 3c 98 fd 82 3d cd 58 83 3d c6 86 dd 3d
       0.02256397 0.063960254 0.06413422 0.108167216
000080 f9 7f fb bc 07 1a 9e be a9 e6 36 bd 3b 74 88 bd
       -0.03070067 -0.30879232 -0.04465357 -0.06662794
000090 db fc 10 bd d6 bc df 3c 72 50 d8 bc c0 93 1c be
       -0.03539739 0.027311724 -0.026405547 -0.15290737
0000a0 15 25 92 bd b5 62 bf bc 3a f2 23 be 57 aa 5a be
       -0.07135979 -0.023362497 -0.16010371 -0.21354042
0000b0 88 ef be bd 14 76 d9 bd a9 94 8f 3c 53 5e 1c 3d
       -0.09323031 -0.10618225 0.017526941 0.038175892
0000c0 bb 49 96 bb a3 f4 2f 3c 9a be ee bd fd 4b c5 3d
       -0.004586426 0.010739478 -0.11657448 0.09633634
0000d0 70 e5 56 3d 3d 05 09 bb ba 22 c4 bd dd 2c f4 bc
       0.052464902 -0.0020907663 -0.09576936 -0.029806549
0000e0 d9 9a 0c bc df 4e 41 bd a6 13 ce be 54 d9 06 3d
       -0.00858184 -0.047194358 -0.40249366 0.032922104
0000f0 b0 ac 45 3d 85 5c a1 39 17 86 1a bd b3 af 0a bd
       0.04826039 0.00030777245 -0.037725534 -0.033858966
000100 e2 eb a5 3c c8 c2 9f be c8 3c ba bc 7a 68 15 3d
       0.02025408 -0.31203294 -0.02273406 0.03647659
000110 63 22 fb bd 6e ec 78 bc 44 7d d2 bd 18 94 2e bd
       -0.12262418 -0.015193088 -0.10277799 -0.042621702
000120 7c 46 e6 3c 01 c3 64 3c d7 15 e5 3c 9d c4 cb 3e
       0.028109781 0.013962508 0.027964516 0.39798442
000130 1a bf 5a be f0 e9 00 3d b4 e7 8d 3e 33 8d 63 3d
       -0.21361962 0.0314731 0.27715838 0.05555458
000140 49 31 22 bb 54 25 5e 3d af 7c fc be ad e9 59 3e
       -0.0024748615 0.054234818 -0.49313876 0.21280546
000150 08 28 56 be b0 6d 0b 3d 18 ef 21 3d e0 c6 25 bd
       -0.20913708 0.034040153 0.03953466 -0.040472865
000160 2a 50 cc 3c a9 19 37 bd 8e f0 0e 3d 2b 8e 8f be
       0.024940569 -0.044702206 0.03489738 -0.28038153
000170 2c 6c 26 bc 01 79 03 bd 8e 27 85 3d 2f 7d 09 3f
       -0.010157626 -0.03209782 0.06501685 0.5370664
000180 06 11 ab 3b 8c 34 81 bc e3 49 59 bd ec 31 63 b9
       0.005220535 -0.015772127 -0.05304898 -0.00021667004
000190 5c 53 f9 bb f5 a2 73 3d 9c 11 68 3a b0 3f 63 be
       -0.007608814 0.05948158 0.00088527217 -0.22192264
0001a0 f9 d9 d7 3c c3 d6 6e 3d 28 22 57 3c 03 01 cf 3c
       0.026349055 0.05831028 0.013130702 0.025269037
0001b0 fc d8 ac bc 20 7f 8d bd aa 79 02 be 56 27 a0 be
       -0.02109956 -0.06909013 -0.12741724 -0.3128001
0001c0 97 40 3b 3c 65 fa 35 3d 32 76 5b 3e f7 9f f3 bd
       0.011428974 0.044428248 0.21431807 -0.11895745
0001d0 a7 2e cd 3c e0 2f 1b 3d 69 44 7d 3d 3b 2d 4d be
       0.02504666 0.037887454 0.06183282 -0.20036785
0001e0 b9 10 3d 3d 54 6b 17 bd 04 1c a1 3d e2 6f 92 bd
       0.046158526 -0.03696759 0.07866672 -0.07150246
0001f0 c7 13 47 3c 69 57 63 be 14 6b d0 be 89 b4 d3 3d
       0.012150711 -0.22201313 -0.40706694 0.10337169
000200 bb 2c 08 3e b5 9a a8 3d 14 51 f7 3c 53 a3 2c be
       0.13298313 0.08232633 0.030190028 -0.16859178
000210 78 fb 99 3d 6f 5d fa b9 de 18 52 3d 1c b8 72 bc
       0.07518667 -0.0004775333 0.051293246 -0.014814403
000220 04 d8 00 be dc ca 31 bb 25 5f bd 3b 14 97 ca 3d
       -0.12582403 -0.002712897 0.0057791644 0.09892097
000230 ac 60 06 3d af cb 05 bd 2f 35 4d 3d 4f 6d f7 3b
       0.032807037 -0.03266495 0.050099548 0.0075508724
000240 12 44 f7 3c 28 ee 29 3c 92 a9 b1 3d 7c 54 e0 3c
       0.030183826 0.010371722 0.08674921 0.027384035
000250 12 3d cc 3c 06 51 c7 bb 47 58 db 3b eb 12 71 3c
       0.024931464 -0.006082657 0.006693873 0.014713983
000260 85 d0 28 be 49 ef 3a 3d b9 40 7e bd 3b 4b bd 3d
       -0.16485794 0.045638356 -0.062073443 0.09242865
000270 a4 ee 86 ba 21 44 4d ba 3e 25 1b bc 5a b0 b3 be
       -0.0010294509 -0.00078302814 -0.009469328 -0.35095483
000280 bb b2 07 3d 62 41 ed bd 50 47 49 bc b6 a9 9a 3d
       0.033129435 -0.115847364 -0.012285069 0.07551901
000290 72 60 98 3d 79 93 27 bd 8c 1f 50 bc d3 4b 54 3c
       0.074402705 -0.040912125 -0.012702834 0.012957531
0002a0 13 41 8f bd 3d 06 5f 3d 84 f4 8a bc da 19 2f be
       -0.06994834 0.05444931 -0.016962297 -0.17099705
0002b0 91 75 fa 3c d0 1c ba 3a 64 00 60 bd 8d fb 49 3e
       0.030573638 0.0014199261 -0.054687873 0.19724865
0002c0 63 70 37 3c e2 d4 4d 3c 73 07 00 bd c8 4d ec bd
       0.011196229 0.012562962 -0.031257104 -0.11538273
0002d0 d9 9b 69 3d 4e d4 4c be c9 87 49 3d 1c c6 7e 3a
       0.057033394 -0.20002863 0.04920176 0.00097188517
0002e0 fa 0d c3 3b f1 7e b2 3c 64 e3 fe bd 64 c8 25 be
       0.005952594 0.021789046 -0.12445715 -0.16189724
0002f0 0f 84 45 3c 22 e8 a1 be ad 33 b6 3d 12 b9 ae 3c
       0.012055411 -0.31622416 0.08896575 0.021328483
000300 22 af 41 ba b1 12 da 3c 11 2b 45 3d db 8d de 3c
       -0.00073884625 0.02662024 0.048136774 0.027167251
000310 e5 92 1b bd f2 15 ef bd a0 57 95 3e f1 ac 26 be
       -0.037981886 -0.116741076 0.29168415 -0.1627691
000320 99 27 36 bc c6 cf c6 3d 63 fe ff 3d 8a 82 00 3d
       -0.011117839 0.097075984 0.12499692 0.03137449
000330 2a cb fa bb 2e 62 ac 3b 10 c3 95 bd 10 12 25 bd
       -0.0076536136 0.0052607274 -0.07312596 -0.04030043
000340 49 62 a6 3c be 42 3d bb 9a 1b 14 bd 7e 63 d2 bc
       0.020310538 -0.0028878893 -0.036159135 -0.025682207
000350 e1 85 01 3e c2 90 30 3c 46 47 b9 bd a0 48 bd bb
       0.12648727 0.0107767 -0.090467975 -0.00577648
000360 d2 e8 92 3a a2 75 90 3c 54 15 cf bc c7 56 b1 be
       0.0011208302 0.017634217 -0.025278725 -0.34636518
000370 ef 4d 4d bc 9d 31 f3 3c 24 af 8e 3d 3a 89 ea 3c
       -0.012530788 0.029686743 0.06966999 0.028629888
000380 5a d4 9a bd 32 75 3c 3c 54 86 f7 3c 98 1f ea bd
       -0.07560034 0.011502551 0.03021542 -0.11431807
000390 6c 2b 9c bc a4 b9 93 bd a0 52 6b bd 3b 8b 9d bb
       -0.019063674 -0.072131425 -0.057451844 -0.0048078573
0003a0 83 bf 88 bb cb 23 c0 3c a0 9e 75 3d bd 9b db 3c
       -0.0041732206 0.023454567 0.05996573 0.02680766
0003b0 d3 63 03 3d 5a 9b b8 bd 80 06 61 3d 22 f1 9e bc
       0.03207762 -0.09014006 0.05493784 -0.01940209
0003c0 06 94 b1 3b 89 d6 99 be 12 0d 69 3d eb 16 7e 3d
       0.005419257 -0.3004649 0.05689723 0.062033575
0003d0 2e 16 03 3e 01 cb e7 3d d2 4b 02 bd 1e 21 60 3c
       0.1280143 0.11318017 -0.03181059 0.013679771
0003e0 07 a7 d3 bc d9 fd 85 3d 67 16 84 3d 3d 31 a0 3c
       -0.02583648 0.06542558 0.064495854 0.019554729
0003f0 b2 a9 39 3e 56 3d e1 bc 0c 3f 68 3d ab 2f 08 3d
       0.1813114 -0.027495068 0.05670075 0.033248585

layers.2.linear.bias f4 [2]
000000 29 c4 53 bd bc f4 d7 bc
       -0.051700745 -0.026361816
