examples/MNIST/mnist_pretrained.pth (torch_old, 348942 bytes, 18 tensors)

layers.0.weight f4 [32, 1, 5, 5]
000000 32 d0 04 be bc 38 63 3d 5b d6 44 3d 75 2e 07 bd
       -0.12970045 0.055474028 0.048055988 -0.03300329
000010 e7 12 2d 3e 4a 5c 4a 3e ac 61 49 bd 11 41 99 3d
       0.16901742 0.19761768 -0.049165413 0.074831136
000020 6b e9 55 bd 62 58 2a bd 44 12 77 bd 0e f1 c8 3c
       -0.052224558 -0.041588195 -0.060320154 0.024529006
000030 2d 85 95 bd 7b da f1 bd 79 00 4e 3e de 3a af 3d
       -0.07300792 -0.1180925 0.20117368 0.0855615
000040 6c 5d 9c 3d c4 10 de 3d 4c 3d d7 3d b3 a1 b8 bd
       0.07635006 0.108430415 0.10509738 -0.09015217
000050 05 0a 2e be fb 3e a9 bd 66 da 17 3d 03 b1 1a be
       -0.1699601 -0.08263966 0.037073515 -0.15106587
000060 19 6e 1e be 85 7b f8 3d e1 ea 16 be de 46 ed 3d
       -0.15471686 0.121329345 -0.14738037 0.115857825
000070 4b b2 e8 3d f1 2e 27 bd 03 48 b9 3d d2 88 21 3c
       0.11362132 -0.04081625 0.09046938 0.009859281
000080 7f 3c a1 3b 75 7b f7 bd f0 df cb 3d 7e 0c 88 3d
       0.004920542 -0.120840944 0.09954822 0.06643008
000090 ba 56 b1 3d 81 3b 3c 3e e0 fb de bd 89 a5 85 bd
       0.0865912 0.18382074 -0.10887885 -0.06525714
0000a0 7a a4 8b 3c 85 16 12 3e f9 35 1c 3e c3 ef 47 be
       0.017046202 0.14266403 0.15254964 -0.19525056
0000b0 f3 e5 2e be 50 35 17 3d 5f e0 22 bd df ba c9 3d
       -0.17079906 0.036916077 -0.03976476 0.09850096
0000c0 cc 0f 00 be 05 38 27 bd 84 86 10 be 47 fb 0a 3e
       -0.12506026 -0.04082491 -0.14113814 0.13572417
0000d0 50 a9 42 be cf 20 eb 3d aa 36 f3 bc a9 9c 77 bd
       -0.190099 0.11480867 -0.029689152 -0.060452137
0000e0 28 cd 8f bc 69 d4 4b 3e 59 cf 42 3e c8 dc e1 3d
       -0.01755388 0.19905247 0.1902441 0.11028439
0000f0 bb 2c ab 3d 75 df 5d 3d 04 e5 60 3d aa 53 50 3e
       0.08358141 0.054168183 0.054905906 0.20344415
000100 11 ff 24 bd c1 5f 6a be cf 5f 2a bd df 94 98 3d
       -0.040282313 -0.2288809 -0.041595276 0.0745027
000110 95 75 ef bd ca d1 df 3d 0a 8f f5 3c 81 cb c8 bd
       -0.11692349 0.10928686 0.029975433 -0.0980444
000120 7c da 8c bd e2 5c 33 3d ea 3f 93 3c 42 2c 85 3d
       -0.0687761 0.04378975 0.017974813 0.06502582
000130 99 45 38 bd f9 f3 4d bd 5c fd dd bd 09 3a 0c 3e
       -0.04498825 -0.0502815 -0.1083934 0.13694014
000140 99 87 c4 3c f8 f1 3c bc 7b 74 17 3d 8b c1 27 3e
       0.02399044 -0.011532299 0.03697632 0.16382425
000150 29 1f 30 3e 4d 25 81 3c 61 56 67 3e e2 c0 0b bd
       0.17199387 0.015764857 0.22591545 -0.034119494
000160 89 4d 13 be c8 77 16 be ba 9c 02 bd 19 47 1f 3e
       -0.14385046 -0.1469413 -0.031887747 0.15554465
000170 c7 20 0c 3d ae 90 c7 3d 33 aa 97 3d de c3 7b be
       0.034210946 0.09744392 0.0740551 -0.24586436
000180 a2 dc 43 be 5f d9 f9 bd c5 00 12 be d3 a8 7b 3d
       -0.19127133 -0.12199663 -0.14258106 0.0614403
000190 b6 4a 08 be c3 e8 11 3d 24 42 ec 3d 66 ea 63 bd
       -0.1330975 0.03562237 0.11536053 -0.05564346
0001a0 f7 74 58 bd cc ac 42 be 92 03 99 bd e6 d2 68 3d
       -0.05284592 -0.1901123 -0.07471384 0.056841753
0001b0 af 62 0a be 3c 28 83 3d 4c 97 15 be 0b e0 1a be
       -0.13514207 0.064041585 -0.14608496 -0.15124528
0001c0 aa 74 c0 bd fb d0 2f 3e 4e 4d 12 3d 38 a6 0d 3e
       -0.09397252 0.17169563 0.035718255 0.13832939
0001d0 42 e2 16 3e ac fa a6 3d a1 46 12 3e 8c 29 2f bc
       0.14734748 0.081532806 0.14284755 -0.010691058
0001e0 0b 69 39 3e d9 70 65 3e bc a2 ec bd 43 07 ae bc
       0.18106477 0.22406329 -0.115544766 -0.021243697
0001f0 d3 af 82 bd d0 85 2b 3e 08 b7 9e bd 10 52 b4 bc
       -0.06381192 0.16750264 -0.07749754 -0.022011787
000200 87 ef 2c 3e ee e8 e1 bc be 10 9d 3c 96 14 7a be
       0.16888247 -0.02757689 0.019173022 -0.24421915
000210 40 ae 3e be 3c 3f 31 bd 57 92 bf bd af 81 c9 bd
       -0.18621159 -0.043273196 -0.09354084 -0.09839188
000220 c9 84 0c be 0a c6 57 3d 41 7d 3f be 16 4d d7 bd
       -0.13722529 0.0526791 -0.18700124 -0.1051275
000230 6f f5 9d 3d b6 b4 2d bd de 26 e0 3c f3 ed c0 3d
       0.07712828 -0.042408668 0.027362283 0.09420385
000240 a3 2f a4 bd e2 c9 8d bd 8d 89 15 3e 61 24 ef 3d
       -0.080168985 -0.06923272 0.14603253 0.116768606
000250 08 5a 55 3d 07 46 6d 3c 4d 78 1e be 3b c5 01 3e
       0.052087814 0.014482028 -0.15475579 0.12672894
000260 e4 dc b1 3d 77 e9 7a 3d 12 f8 15 3e 4b 3e 03 3e
       0.0868471 0.061257806 0.14645413 0.12816732
000270 5d ac 51 3e 1d c8 81 bd 77 35 77 bd 3b c4 5a bd
       0.20475908 -0.06336997 -0.060353722 -0.053409796
000280 14 4f a8 bc ac 18 39 bd 91 8e 1e 3d 80 ad 05 3e
       -0.02054552 -0.045189545 0.03871018 0.13054466
000290 91 1d 1a 3e 1f 7e 1d bd 16 2f 5d be 55 25 e3 bd
       0.15050341 -0.038450357 -0.21599993 -0.11091105
0002a0 f9 5f 5b 3d fd 9d 7f 3d 19 1d 05 be f3 2b 1a 3e
       0.053558324 0.06240653 -0.12999381 0.15055828
0002b0 c4 20 2c be 02 2a 54 be 7b 9a a4 3c ff 12 26 3e
       -0.16809374 -0.2071915 0.020093193 0.16218184
0002c0 2d ec 20 be f8 fe 32 3e 09 fa cb bd 33 66 a0 3d
       -0.15715094 0.17480075 -0.099598 0.07831993
0002d0 c1 fa 15 be 6c ae 03 3d 91 e7 9e 3c c7 08 2a 3e
       -0.14646436 0.032148764 0.019397529 0.16604911
0002e0 dc ec 2a be 1b 9f 2e be fa 94 c7 3c ca 24 8a 3d
       -0.16691917 -0.17052881 0.02436303 0.06745298
0002f0 4d e0 19 3e 1e 08 17 bc 71 b6 63 be c4 cf ae bd
       0.1502697 -0.009218244 -0.22237565 -0.08535722
000300 5c 06 18 3e d7 c8 28 3e d2 fe 86 3d 4e 79 77 bd
       0.14846176 0.16482864 0.06591572 -0.06041842
000310 90 de 4b 3e c7 af 11 be 0b ed 2f 3e cb d5 1c bd
       0.1990912 -0.1422721 0.17180268 -0.038289826
000320 43 5e bf 3d 7b 67 23 3e a4 06 ba 3d 89 37 0c be
       0.09344151 0.15957443 0.09083298 -0.1369306
000330 9f 9e d1 3c 1f 12 74 be cb d4 d7 3d 39 7f 0a bd
       0.025588332 -0.23835038 0.10538634 -0.033812735
000340 6f c4 06 3e fc 57 2b bc 83 48 18 3d 7e 9f 7a 3e
       0.13160871 -0.010457989 0.037178528 0.24474904
000350 ea 09 91 3c c5 d9 13 3e f1 9f d7 3d 81 1a 4f be
       0.017704923 0.14438541 0.10528553 -0.20224954
000360 4b 8d 5a 3e d2 ec 82 3e 70 8e 07 bc fe 15 38 be
       0.21342961 0.25571305 -0.008273706 -0.1797714
000370 e3 2b 00 3e fa ca 45 3e 81 f3 26 be d8 f1 18 3d
       0.12516741 0.1931571 -0.16303827 0.037340015
000380 a8 13 8b 3d 04 42 70 3e 30 1c ae bc c2 f3 9b bd
       0.067908585 0.23462683 -0.021253675 -0.076148525
000390 fc eb 17 3e 03 18 25 bd 2d ff 07 be 24 81 7e be
       0.14836115 -0.040306102 -0.13280936 -0.2485395
0003a0 52 32 cc 3a d6 f8 53 be 02 21 b3 3d 7f a8 10 3e
       0.0015578961 -0.20700392 0.0874653 0.14126776
0003b0 cc c0 05 bd d9 bf 6c be 45 40 47 be 9f 76 65 3d
       -0.03265457 -0.23120059 -0.1945811 0.05602133
0003c0 6a e5 38 bd 78 9c 1b be 64 68 f3 3d 2d 16 21 3e
       -0.04514066 -0.15196407 0.11885145 0.15731116
0003d0 31 53 5a bc 77 29 4b 3e 68 0f 09 be d5 ce 5c 3e
       -0.013325498 0.19840036 -0.13384783 0.21563275
0003e0 12 83 8f bd 6d 9b 00 3e 0e 33 8c 3d 29 ba 1c be
       -0.070074216 0.1255929 0.068456754 -0.1530539
0003f0 ca 51 28 be 90 3b 73 bb b2 37 81 3a 43 41 e4 bd
       -0.1643745 -0.003711436 0.0009858517 -0.1114526

layers.0.bias f4 [32]
000000 79 93 5d 3d ff 43 dc 3d f5 26 14 3e ff 72 60 3e
       0.05409572 0.10755157 0.14467986 0.21918868
000010 1f 96 e3 bd 83 49 f9 bd 91 df 19 3c dc 06 93 3d
       -0.11112618 -0.121722244 0.009391681 0.07179043
000020 fb 4f 20 3e d6 b3 9e 3d 20 17 55 3e 3c 9c eb b8
       0.1565551 0.07749145 0.20809603 -0.00011234774
000030 89 1d 5b 3e a8 d6 2b be 27 03 8b 3d f7 0b f7 bd
       0.21397986 -0.16781104 0.06787711 -0.12062829
000040 b9 1a c7 bb 52 e6 b1 3d c2 a5 05 be a5 3c 80 be
       -0.0060761836 0.08686508 -0.13051513 -0.25046268
000050 4d 0d 08 3e f6 5e 75 bd 77 f7 42 bc d5 1c eb bd
       0.13286324 -0.059905015 -0.0118998205 -0.11480109
000060 ba 44 bb bc 0e be a7 bd f5 c3 31 bd ef fa 91 bc
       -0.02285992 -0.08190547 -0.04339977 -0.01781985
000070 72 fd 44 3d 00 e0 d3 bd 57 83 c4 3d ca 5a 12 be
       0.048093267 -0.10345459 0.095953636 -0.14292446

layers.1.weight f4 [32]
000000 58 a9 81 3f 3b bb 8e 3f c2 56 84 3f 92 2a 96 3f
       1.0129805 1.1150888 1.0338976 1.1731741
000010 87 5c 94 3f d8 cb 8f 3f 40 72 9c 3f 5c 3b 8b 3f
       1.1590737 1.1234083 1.2222366 1.087749
000020 a5 f1 6b 3f 26 5d 93 3f 4a 54 83 3f 54 27 93 3f
       0.92165595 1.1512802 1.0260098 1.1496377
000030 11 b5 98 3f a6 ea a0 3f f0 da 89 3f 00 62 94 3f
       1.1930257 1.2571609 1.076994 1.1592407
000040 bd e1 94 3f a8 eb a9 3f 4b fc a0 3f 8b 33 94 3f
       1.163139 1.3275042 1.2576994 1.157823
000050 b5 45 87 3f 14 64 84 3f 73 d1 99 3f 27 a9 a1 3f
       1.0568148 1.0343041 1.2017044 1.2629746
000060 fb 37 9d 3f df b3 8f 3f 1b 2b a0 3f dd 48 9a 3f
       1.2282709 1.1226767 1.2513155 1.2053486
000070 f7 c5 87 3f 11 8c 8f 3f bf 4f 84 3f 00 9a 89 3f
       1.0607289 1.121462 1.0336837 1.0750122

layers.1.bias f4 [32]
000000 98 e7 08 3c 6c 3e 07 bd 0e a8 90 bd 34 73 1f 3c
       0.0083559975 -0.033018515 -0.07063304 0.009732056
000010 91 b1 50 bd 9d c5 d2 3b a7 6f 76 3c 6c 91 02 be
       -0.05095059 0.0064322487 0.015041268 -0.12750787
000020 54 5e 60 bd 2d 32 e7 bc e7 33 5f bd c7 6c fa bc
       -0.05477746 -0.028222168 -0.054492857 -0.030569447
000030 c1 8e 95 bd b8 7d a1 3c 3f 8d d5 bd 15 9c 4e bc
       -0.07302619 0.019713268 -0.10427331 -0.012610455
000040 b6 7f 81 bc d3 2c 08 3d 69 63 31 bc 97 4f e8 bd
       -0.015807968 0.033245873 -0.010826924 -0.113433056
000050 71 3b 23 bc c8 24 84 bc 0b d9 f9 bb 40 f8 46 3c
       -0.009962902 -0.01613082 -0.0076247505 0.012144148
000060 57 e9 ed bd 34 07 61 bd 7d 70 29 3d 83 2c 6c bd
       -0.11616772 -0.05493851 0.041367043 -0.057659637
000070 aa a6 24 3d 8f 5d f8 bd 68 98 e7 bc a0 7e c4 bd
       0.040198006 -0.1212722 -0.028270915 -0.09594464

layers.1.running_mean f4 [32]
000000 47 aa 51 3d 76 96 15 3e 59 fa 49 3e 56 4a 5f 3e
       0.05118778 0.14608178 0.19724406 0.218057
000010 0d b9 b9 bd 67 0d 3f be d8 42 b1 3c f1 2f ed 3d
       -0.09068499 -0.18657456 0.021638319 0.1158141
000020 ae 84 9a 3e b5 89 7d 3d df e3 a8 3d b3 49 57 bb
       0.30179352 0.061898906 0.08246588 -0.0032850325
000030 2e e0 56 3e df b8 37 be ae 77 b3 3d 06 6c 15 be
       0.20983955 -0.17941616 0.087630615 -0.14591989
000040 d5 61 8d bc 17 8f 8a 3d 5a 64 16 be 1c 1c 7b be
       -0.017258564 0.067655735 -0.14686719 -0.24522442
000050 e6 cb 40 3e 97 69 35 3b 10 ce 40 bc 67 b8 0d be
       0.18827781 0.0027681345 -0.011767879 -0.13839875
000060 2b f8 49 bb 26 47 e0 bd 37 39 88 bd f1 86 3f 3c
       -0.0030818086 -0.109510705 -0.06651538 0.011689887
000070 94 9e 73 3d 16 3f 8b bd a2 db aa 3d 3e 1b 04 be
       0.059477404 -0.06799142 0.08342673 -0.12901017

layers.1.running_var f4 [32]
000000 ed 17 26 3c 6a 57 18 3d 83 ee 08 3d a4 eb 9b 3c
       0.01013754 0.03719274 0.033430588 0.01903326
000010 b5 f5 0e 3d e0 9f 12 3d 33 de c0 3c bd 23 13 3d
       0.034902293 0.035797 0.023543453 0.035922755
000020 d6 e4 a4 3d 57 8e ed 3c c0 72 d3 3d 1d 08 a0 3c
       0.080514595 0.028998537 0.10324621 0.019535119
000030 2a 19 ff 3c 32 f9 b9 3c a1 05 1b 3d b9 b3 be 3c
       0.031139929 0.022701833 0.037847165 0.023279058
000040 34 b2 5f 3d 0f 40 a1 3c ed 71 1d 3d 50 09 0c 3d
       0.054613307 0.019683866 0.038438726 0.03418857
000050 75 01 07 3d 79 6c 27 3d 8f a7 1a 3d 98 5e ad 3c
       0.032960374 0.040874932 0.037757453 0.02116327
000060 f1 19 18 3d eb 93 d9 3c 76 74 26 3d 1b b0 47 3d
       0.037134115 0.02655979 0.04063841 0.04875193
000070 24 d4 ff 3c b5 85 da 3c d3 87 01 3d e0 00 15 3d
       0.031229086 0.026675085 0.031623673 0.036377788

layers.3.weight.mean f4 [32, 32, 3, 3]
000000 82 0b 77 3d 4f bb a2 3d e9 c5 eb 3d c8 ae b3 3d
       0.06031371 0.079458825 0.11512358 0.08773571
000010 3e 76 af 3d 48 7b 77 3d 67 3f cc 3c e2 33 10 bd
       0.08567475 0.060420305 0.024932576 -0.03520573
000020 7a 08 d4 bc 01 e8 01 3c ab f9 c4 3d 6e 2f 06 3e
       -0.025882948 0.007928849 0.09617933 0.1310403
000030 f5 01 30 3e e6 63 fe 3d 57 67 b0 3d 0d 77 d9 3c
       0.17188247 0.12421398 0.086134605 0.026546026
000040 69 45 0e 39 1e 02 49 bc 41 da 1b 3d 8d df 22 3c
       0.00013568033 -0.012268571 0.03804994 0.009940994
000050 7d d6 3d 3d 32 76 ff 3d 56 be 19 3d 2f 8b 75 3d
       0.04634713 0.12473716 0.037535034 0.05994719
000060 6b d7 10 bd 1e 4e 53 bd 0b c4 c0 bd c7 fc a6 3c
       -0.03536169 -0.05158817 -0.09412392 0.020384206
000070 7c 5e 15 3d c9 5e 61 3d ca 3b 5a 3d af 48 36 3e
       0.03646706 0.055022035 0.053279676 0.17801164
000080 90 21 d9 3d 65 1d 79 3d b5 c2 13 bc 0d 47 9a 3c
       0.10602105 0.06081905 -0.00901859 0.018832708
000090 2d 7e da 3d 6d 01 cb 3d c5 9d 52 3d 69 a4 cb 3c
       0.10668597 0.09912381 0.051419992 0.02485867
0000a0 ae 8e 4f be ab ec 42 be 45 8d 3c be 9c 95 6a bd
       -0.20269272 -0.19035594 -0.18413265 -0.057271585
0000b0 fa 41 60 3d 46 6d 41 bd 80 06 c3 bc 71 c9 91 bc
       0.05475042 -0.047223352 -0.02380681 -0.01779625
0000c0 9f c6 e3 bd f9 a6 ce bd e6 6c 02 bd ff 43 00 bc
       -0.11121868 -0.10090441 -0.031842135 -0.0078287115
0000d0 3f 8e dd 3d cc 43 d5 3d 1b 35 29 bc 96 9c c0 3c
       0.10818147 0.10413322 -0.010327603 0.023512166
0000e0 2d 4a 49 3d 9a 4e 06 3e b0 bd 17 3e 17 ea 30 3e
       0.049143005 0.13115922 0.14818454 0.17276798
0000f0 45 8f ab 3d ff 15 be 3d 31 bc 92 3c 22 d5 01 3e
       0.08376936 0.09281539 0.017912002 0.1267896
000100 ab e3 bd 3c fb 28 2c bd 9c 3b 3a 3d c3 6e d1 bc
       0.02317985 -0.04203127 0.045467004 -0.02556551
000110 9f 12 0e bc e7 87 d3 bc 70 30 8c 3b 78 60 2e 3c
       -0.008671432 -0.02582164 0.004278235 0.010643117
000120 46 df 26 3e 64 2a b9 3d f1 aa a5 3d 2c b0 09 3e
       0.1629611 0.090412885 0.08089245 0.1344611
000130 d8 f9 ad 3c df ba 6a 3c bd 0a 8f ba ea 36 b2 3c
       0.021237299 0.01432678 -0.0010913234 0.0217547
000140 9a 2c 5a ba db dc 67 bd da 47 c7 bc a8 05 8e bd
       -0.0008322686 -0.05660711 -0.024326254 -0.069346726
000150 a7 e2 23 be 53 72 0b be 2b 1a 37 bd 76 68 15 3d
       -0.1600443 -0.1361783 -0.04470269 0.036476575
000160 d5 88 a3 3d 9f 13 66 3d cf 53 92 bd e2 6c 50 bd
       0.07985083 0.056171056 -0.071448915 -0.05088509
000170 05 66 ce bc 87 79 93 bd 82 84 09 bd b9 2a 6e bd
       -0.025195131 -0.07200914 -0.033573635 -0.058146212
000180 4e c8 9c bb ed 3a c7 3c 99 ec a6 bc aa 98 71 3c
       -0.0047846204 0.02432009 -0.02037649 0.014745871
000190 57 45 7b 3d 31 2b 5f 3d 28 79 28 be dc d4 58 be
       0.061345425 0.05448455 -0.16452467 -0.2117495
0001a0 8d 5c 1a be c5 c5 42 bd 67 ac b3 3c 5b 45 26 3d
       -0.15074368 -0.04755189 0.021932794 0.040593486
0001b0 e8 db 86 3d 9b 1d 7f 3d 88 49 20 3d 66 f1 43 bc
       0.065849125 0.062284093 0.039132625 -0.011959409
0001c0 0c 94 14 be 32 38 f6 bd a0 c0 63 be 87 0b 0d be
       -0.145096 -0.12022437 -0.2224145 -0.13773929
0001d0 48 f5 34 bc 07 46 8a bd 2c 4e a5 bc 94 2f 30 3d
       -0.011044808 -0.06751638 -0.020178877 0.043014124
0001e0 8d ce db bc 2e 5f ad 3d 64 cc 0e 3e c4 56 e1 3d
       -0.02683189 0.0846542 0.13945156 0.11002877
0001f0 c5 74 fd 3d 00 de 81 3c f3 99 d2 3c 52 da 95 3d
       0.12375788 0.015852928 0.025708174 0.07317032
000200 39 13 6f 3c 85 8f e3 3b 21 68 ca bd ed 2a 0b be
       0.014591985 0.006944599 -0.09883142 -0.13590594
000210 4d 6d 45 be 72 8f fc bd 88 fd 2a bd 9a f0 09 bd
       -0.19279976 -0.123320475 -0.041745692 -0.03367672
000220 de 10 02 bd eb 95 70 bc 07 45 e3 bd 61 a0 dd bd
       -0.031754367 -0.014684181 -0.1109715 -0.108216055
000230 74 5a 20 bd 72 c8 8e 3b e6 c6 b7 3d 44 74 40 3d
       -0.039148763 0.004357391 0.08973484 0.04698588
000240 59 2a 57 bd 6a 44 81 bc 5b b0 1a 3d 99 5d 3b 3c
       -0.05253062 -0.015779693 0.037765842 0.01143589
000250 dc 71 99 3d 2e 96 91 3d 7f 60 99 3d 17 39 7d 3d
       0.0749242 0.071087226 0.07489108 0.061822023
000260 78 46 43 3d 4f 2b ad bd 9a 96 7d bd b1 52 89 3c
       0.047674626 -0.08455526 -0.061911203 0.016763063
000270 da 63 65 3d 4c d5 11 3e b7 fc 03 3e 89 b1 da 3d
       0.05600343 0.14241523 0.12889372 0.106783934
000280 09 99 76 3d 8b ac 8f 3c 2f a7 8f bd 9c fb 3b bd
       0.06020454 0.01753833 -0.070143096 -0.04589425
000290 f6 da 7f bb 25 23 e1 bd 35 28 b9 bd e2 5b d3 ba
       -0.0039040423 -0.109930314 -0.09040872 -0.0016125406
0002a0 df b0 7d 3c 0a 7f 20 3e 7a f3 bd 3d 06 ed 07 3e
       0.015484064 0.15673462 0.09274955 0.13274011
0002b0 3d b0 86 3d ba 9e 18 bd 12 48 8a bd 73 7e 03 be
       0.065765835 -0.03726075 -0.067520276 -0.12841205
0002c0 c0 40 c6 bd fd ce 7b bd 32 4c 81 bc 95 31 ab bc
       -0.09680319 -0.061476696 -0.015783403 -0.020897666
0002d0 5f 52 c7 3d 22 dd 16 3d 0d 94 72 3d 55 5f 4c bc
       0.09732508 0.036831982 0.059223223 -0.012473901
0002e0 75 da ef 3a fd 20 9f 3c 91 b7 b2 bc 16 6a 25 bd
       0.0018299358 0.01942491 -0.021816047 -0.040384375
0002f0 08 8e 24 3b 31 e5 8e 3d d2 92 0e 3e ed 94 e2 3d
       0.0025109071 0.069773085 0.13923195 0.110635616
000300 54 8b 9b 3d f9 28 19 3d 90 c8 06 bd d9 6b 43 bd
       0.07594934 0.03739259 -0.032906115 -0.047710273
000310 98 02 b8 bd 54 01 14 bd 04 35 3c 3a cc 5c 43 bd
       -0.0898487 -0.03613408 0.0007179531 -0.04769592
000320 81 38 e2 bc 0d 89 8e bd 0c d9 06 3a 51 c2 be 3d
       -0.027614834 -0.06959734 0.0005144037 0.09314407
000330 18 b8 81 3d f5 43 ee 3d 1b 37 e4 3d 1d 2d ad bd
       0.06333941 0.116340555 0.11143323 -0.0845587
000340 93 89 a8 bb fa 02 74 bc 80 b1 bf bd bf e6 ef bd
       -0.0051433532 -0.014893288 -0.09360027 -0.11713933
000350 6f e6 c6 bb 44 09 8b 3d 6a a0 40 3d bc 4b a3 3d
       -0.0060699503 0.06788877 0.047027983 0.079734296
000360 69 50 db 3c 58 ff 15 3e 46 ab 63 3d 8e 5a ff 3d
       0.026771741 0.14648187 0.05558326 0.12468444
000370 67 42 7b 3d b4 7b 32 bd 66 3c 3e bd e8 28 c1 bd
       0.061342623 -0.043575004 -0.04644432 -0.094316304
000380 a0 9e de bc b9 53 23 3d 66 83 5a 3d e3 14 15 bd
       -0.027175248 0.039874766 0.053347968 -0.036396872
000390 23 c2 19 bd 22 0e 0a be 9a c8 0c be d5 1f 95 bd
       -0.03753866 -0.13481954 -0.13748398 -0.07281462
0003a0 d6 30 5e bd 7a a3 36 3c b9 54 10 bd 3c 84 13 3b
       -0.054245792 0.011147374 -0.035237048 0.0022509238
0003b0 63 8a 22 3d 9d 31 2e 3c 5d c6 c9 3d 24 f6 8d 3d
       0.039682757 0.010631946 0.09852288 0.06931713
0003c0 30 82 da 3d ae 59 7b 3d 12 db 1a 3d e0 c8 8c bc
       0.106693625 0.061364822 0.037806578 -0.017185628
0003d0 d1 bf d7 3d b1 01 14 3d 4a a5 67 3e 6b 22 2f 3e
       0.10534633 0.036134426 0.22621647 0.17102973
0003e0 eb db 02 3d 03 8a b6 3d c0 a2 76 bd 30 87 da bd
       0.03194801 0.089130424 -0.060213804 -0.10670316
0003f0 18 c4 70 bb 04 fe e6 bc d5 60 f7 3c 9c 61 ce bb
       -0.0036737975 -0.028197296 0.03019754 -0.006298257

layers.3.weight.scale f4 [32, 32, 3, 3]
000000 3a c3 05 c0 1d e1 0a c0 13 c9 06 c0 2d 57 02 c0
       -2.0900407 -2.1699898 -2.1060226 -2.0365708
000010 b3 44 09 c0 b2 14 f2 bf 28 52 f9 bf 43 73 0d c0
       -2.144818 -1.8912566 -1.9478197 -2.21016
000020 9e 90 14 c0 85 4e f6 bf 39 e4 f9 bf 58 a0 ff bf
       -2.3213267 -1.9242712 -1.9522773 -1.9970808
000030 43 b9 10 c0 fd ca 08 c0 16 d5 f4 bf 78 b8 fc bf
       -2.2613075 -2.1373894 -1.9127529 -1.9743795
000040 79 1f 09 c0 0a 8b 05 c0 12 4c 0f c0 17 f5 00 c0
       -2.142546 -2.0866113 -2.239018 -2.014959
000050 0e 2a ff bf b6 0c 09 c0 66 e0 03 c0 65 cc 00 c0
       -1.9934709 -2.1414008 -2.0605712 -2.0124753
000060 80 fd 0a c0 d4 c3 f9 bf fa 4f 08 c0 04 59 06 c0
       -2.1717224 -1.9512887 -2.1298814 -2.099183
000070 5e c7 0a c0 ac b8 09 c0 62 7c e9 bf 40 9b 06 c0
       -2.1684184 -2.1518965 -1.8241084 -2.1032257
000080 df 70 f5 bf ac 68 06 c0 f5 ff 05 c0 81 29 03 c0
       -1.917507 -2.1001387 -2.0937474 -2.0494082
000090 c6 e0 08 c0 69 f8 fa bf f3 44 07 c0 38 d5 0e c0
       -2.138719 -1.9607059 -2.1135833 -2.2317638
0000a0 fa 7b 12 c0 d7 7d 03 c0 d8 11 08 c0 c6 03 0b c0
       -2.288817 -2.0545557 -2.126089 -2.1721053
0000b0 4d 3a 17 c0 4a 03 0e c0 86 07 09 c0 be 23 0c c0
       -2.3629334 -2.2189507 -2.1410842 -2.1896815
0000c0 13 1f 07 c0 98 29 f2 bf 65 30 01 c0 9c 62 06 c0
       -2.1112716 -1.8918943 -2.0185788 -2.0997686
0000d0 1b f0 0b c0 a9 ec 0a c0 38 48 05 c0 57 b5 01 c0
       -2.1865299 -2.1706946 -2.082533 -2.026693
0000e0 4d a9 04 c0 57 d1 ff bf 6e ba 03 c0 a3 0c 16 c0
       -2.0728333 -1.998576 -2.0582538 -2.3445213
0000f0 1c ea 06 c0 8d 77 10 c0 4e c0 0a c0 8c 7e 11 c0
       -2.108039 -2.2572968 -2.1679873 -2.2733488
000100 95 44 fe bf 73 95 08 c0 96 15 0b c0 f4 e3 02 c0
       -1.986468 -2.1341217 -2.1731925 -2.0451632
000110 87 03 01 c0 17 95 13 c0 26 37 03 c0 ff 08 fe bf
       -2.0158403 -2.3059747 -2.050241 -1.9846495
000120 66 1b 01 c0 a1 23 01 c0 54 78 09 c0 cd 23 0b c0
       -2.0172973 -2.0177996 -2.1479692 -2.17406
000130 3a 14 00 c0 60 ce 05 c0 3c bc 0b c0 7d a8 06 c0
       -2.0012345 -2.0907211 -2.183364 -2.1040337
000140 d3 62 f9 bf 13 29 f1 bf 0c 70 00 c0 e6 06 12 c0
       -1.9483284 -1.884066 -2.0068388 -2.281671
000150 05 e0 0b c0 c0 64 0d c0 e1 b5 03 c0 a3 49 0c c0
       -2.185548 -2.2092743 -2.057976 -2.1919944
000160 41 c8 02 c0 7f 8c 08 c0 44 9b 06 c0 59 55 fe bf
       -2.0434725 -2.1335752 -2.1032267 -1.9869796
000170 94 a0 01 c0 59 44 04 c0 56 6c 09 c0 34 63 05 c0
       -2.025426 -2.0666716 -2.1472373 -2.0841799
000180 fa ac fc bf 86 5e 07 c0 4f c6 03 c0 1e 5d 07 c0
       -1.9740288 -2.1151443 -2.0589788 -2.1150584
000190 84 49 07 c0 d7 44 17 c0 57 0c f5 bf eb 67 02 c0
       -2.113862 -2.3635767 -1.9144391 -2.0375926
0001a0 7a f1 fb bf 1c eb fa bf b8 85 ff bf 2e ad fc bf
       -1.9683068 -1.9603 -1.9962683 -1.974035
0001b0 f9 90 ff bf 51 85 0c c0 fa dc 0a c0 21 35 f0 bf
       -1.9966117 -2.195637 -2.1697373 -1.8766214
0001c0 73 37 09 c0 68 e8 ff bf e8 40 05 c0 af 84 fc bf
       -2.1440094 -1.99928 -2.0820866 -1.9727992
0001d0 ca 64 04 c0 ff 1a 0b c0 b1 b3 f5 bf a7 89 03 c0
       -2.0686517 -2.1735227 -1.9195462 -2.0552766
0001e0 c5 b2 0a c0 01 0f 04 c0 e2 98 03 c0 ad 69 02 c0
       -2.1671612 -2.0634158 -2.0562062 -2.0377
0001f0 cb 2d 07 c0 19 1d 06 c0 22 3c e7 bf ec 25 fd bf
       -2.11217 -2.095526 -1.8065226 -1.9777198
000200 58 a0 0c c0 f0 0a fc bf 81 ba 09 c0 3d 58 11 c0
       -2.1972866 -1.9690838 -2.1520083 -2.2710106
000210 25 df 03 c0 a5 e8 02 c0 16 6e f7 bf b5 c2 f2 bf
       -2.0604947 -2.0454495 -1.933047 -1.896567
000220 6a 66 ff bf 0e ea f5 bf d5 02 fe bf 6f f4 fd bf
       -1.9953129 -1.9212053 -1.9844614 -1.984022
000230 5e 12 10 c0 af 60 08 c0 09 ea 0f c0 a0 31 fd bf
       -2.251121 -2.130901 -2.2486594 -1.9780769
000240 8f ad 05 c0 fa 1c f8 bf 7b 94 09 c0 7e 64 00 c0
       -2.0887182 -1.9383843 -2.1496875 -2.0061336
000250 cd 03 03 c0 33 3a ec bf 58 9b 0e c0 7f af fe bf
       -2.047107 -1.8455261 -2.2282314 -1.9897307
000260 37 05 0f c0 18 95 f1 bf e5 07 fd bf 6b 14 07 c0
       -2.2346933 -1.8873625 -1.9768034 -2.1106212
000270 13 8d ff bf ec 3f 0b c0 fc ea 0f c0 d7 51 e5 bf
       -1.9964927 -2.1757765 -2.2487173 -1.79156
000280 70 62 0f c0 dd 93 01 c0 02 8d 03 c0 32 07 f8 bf
       -2.2403831 -2.0246499 -2.0554814 -1.9377196
000290 15 c9 02 c0 6b 55 f4 bf a1 99 f6 bf c9 b8 21 c0
       -2.043523 -1.9088567 -1.9265634 -2.5269034
0002a0 bc 6c 0c c0 20 bd 04 c0 b2 3f 06 c0 0a 41 02 c0
       -2.1941366 -2.0740433 -2.0976377 -2.0352197
0002b0 7c 26 10 c0 d2 3f 02 c0 3c 65 09 c0 aa eb f2 bf
       -2.252349 -2.0351453 -2.1468039 -1.8978169
0002c0 59 9c 0f c0 16 0d 06 c0 3d ba f6 bf 67 29 03 c0
       -2.2439177 -2.0945487 -1.9275585 -2.049402
0002d0 ce 51 12 c0 ad 25 10 c0 88 32 11 c0 5a 8f 0b c0
       -2.286243 -2.2522995 -2.2687092 -2.1806245
0002e0 5a 32 04 c0 39 3c 0b c0 da 73 0d c0 fe 69 f0 bf
       -2.0655732 -2.1755507 -2.210196 -1.8782346
0002f0 82 9b f0 bf 27 19 ec bf 7e 47 00 c0 34 c5 fe bf
       -1.8797457 -1.8445176 -2.0043635 -1.9903932
000300 5d 35 07 c0 0e d9 03 c0 6b 49 00 c0 4a 8a 03 c0
       -2.112632 -2.060123 -2.004481 -2.0553155
000310 0b b7 fb bf c1 46 10 c0 ca 4d 0b c0 9d 15 1b c0
       -1.9665235 -2.2543185 -2.1766229 -2.4231942
000320 c1 5b 0e c0 60 63 f3 bf 79 e2 11 c0 10 6b 03 c0
       -2.2243502 -1.9014702 -2.2794478 -2.0534096
000330 c0 27 02 c0 8f 35 09 c0 19 80 0b c0 00 47 08 c0
       -2.0336761 -2.143894 -2.1796935 -2.1293335
000340 f7 d1 fd bf 21 09 f1 bf 82 65 0c c0 69 53 00 c0
       -1.9829701 -1.8830911 -2.1936955 -2.005091
000350 6c eb f9 bf c0 94 0a c0 6d ae 05 c0 87 66 19 c0
       -1.952497 -2.165329 -2.088771 -2.3968828
000360 ed 88 00 c0 4e e7 09 c0 b9 42 04 c0 20 a4 05 c0
       -2.0083573 -2.1547427 -2.0665724 -2.0881424
000370 20 e9 0f c0 bd 3c 07 c0 62 a7 0c c0 cc 51 08 c0
       -2.2486038 -2.1130822 -2.1977162 -2.1299925
000380 1f 35 07 c0 73 ec ef bf 66 6e f9 bf b4 0b 09 c0
       -2.1126173 -1.8744034 -1.9486816 -2.1413393
000390 89 c1 01 c0 07 b6 08 c0 47 66 0b c0 a0 11 01 c0
       -2.0274374 -2.13611 -2.1781175 -2.0167007
0003a0 82 e8 04 c0 69 f9 f6 bf 01 ba 11 c0 d0 43 f3 bf
       -2.0766912 -1.9294864 -2.2769778 -1.900507
0003b0 46 54 0c c0 62 0b 09 c0 0a 3b fc bf 96 81 f7 bf
       -2.1926436 -2.1413198 -1.9705517 -1.9336421
0003c0 3f 19 01 c0 26 8b 12 c0 ae 8f 03 c0 a1 f8 f5 bf
       -2.017166 -2.289743 -2.0556445 -1.92165
0003d0 97 e4 07 c0 c2 ac 0f c0 d6 40 0b c0 c8 5f 05 c0
       -2.123327 -2.2449193 -2.1758323 -2.083971
0003e0 7e 27 03 c0 d1 82 05 c0 56 1a ff bf ef d1 f9 bf
       -2.0492854 -2.0861094 -1.9929912 -1.9517192
0003f0 d8 15 09 c0 b9 b1 03 c0 56 02 fb bf 1c dc 00 c0
       -2.1419582 -2.0577223 -1.9610088 -2.0134344

layers.3.bias.mean f4 [32]
000000 12 bf 91 ba fa 2e 82 3a a5 52 94 b5 6c b7 f3 36
       -0.0011119565 0.0009932213 -1.1050912e-06 7.2633175e-06
000010 70 8e 8e 39 58 61 86 39 c2 b6 97 39 8b c9 89 3a
       0.00027190475 0.00025630998 0.0002893713 0.0010512335
000020 f5 91 0f ba 8d 06 02 b9 11 36 10 3a 23 8c c9 b8
       -0.00054767664 -0.00012400206 0.00055012206 -9.6105294e-05
000030 9f 4a fa b9 ac 5e 09 3a b2 18 ea ba 8e e4 8c ba
       -0.00047739313 0.00052402425 -0.0017860143 -0.0010749267
000040 5a d1 d1 b9 76 a0 07 3a 3b 0a ec b9 ca 99 2e 3a
       -0.00040019565 0.0005173752 -0.0004502105 0.00066604896
000050 b5 86 d2 39 33 8e 0a 39 3b 78 02 3a 82 d8 0e 3a
       0.00040154686 0.00013213679 0.0004977022 0.00054491323
000060 98 03 8d ba 29 4f 67 38 77 27 a0 b9 b6 e7 1b b9
       -0.0010758517 5.5148415e-05 -0.00030546982 -0.00014868271
000070 c9 9e f8 39 e2 4e 9e ba 14 88 eb b9 2e 0b 47 ba
       0.0004742055 -0.0012077952 -0.0004492408 -0.00075929135

layers.3.bias.scale f4 [32]
000000 c9 24 10 c0 a2 0e 10 c0 e9 25 10 c0 aa 38 10 c0
       -2.2522452 -2.250893 -2.2523139 -2.2534585
000010 d5 25 10 c0 eb 29 10 c0 23 0b 10 c0 a9 33 10 c0
       -2.252309 -2.2525585 -2.2506797 -2.253153
000020 b3 3b 10 c0 67 27 10 c0 6d 1c 10 c0 00 27 10 c0
       -2.2536438 -2.252405 -2.251735 -2.2523804
000030 86 4f 10 c0 e5 41 10 c0 7a 2b 10 c0 84 55 10 c0
       -2.2548537 -2.254022 -2.2526536 -2.2552195
000040 60 30 10 c0 25 31 10 c0 d4 65 10 c0 64 0e 10 c0
       -2.2529526 -2.2529995 -2.256215 -2.2508783
000050 dd 3b 10 c0 77 49 10 c0 67 3f 10 c0 10 d8 0f c0
       -2.2536538 -2.254484 -2.2538698 -2.2475624
000060 e9 3b 10 c0 bb 47 10 c0 da 57 10 c0 66 2e 10 c0
       -2.2536566 -2.254378 -2.255362 -2.252832
000070 64 41 10 c0 af 11 10 c0 29 44 10 c0 b2 50 10 c0
       -2.2539911 -2.2510793 -2.2541602 -2.2549253

layers.5.weight f4 [64, 32, 3, 3]
000000 bc 03 5d 3d 4c f8 fa 3b 77 7f 13 bd d5 a1 58 bd
       0.05395864 0.007658994 -0.03601023 -0.05288871
000010 07 39 80 bd 92 26 57 bd 4f 42 31 3d ab 29 6b ba
       -0.06260877 -0.052527018 0.043276127 -0.00089707476
000020 53 2e 59 bd 5a 11 04 3c 45 3d ba bd a0 5c b7 bd
       -0.053022694 0.008060778 -0.090937175 -0.08953214
000030 fa f5 4f 3c 3c 9b 40 3c 67 c6 3a bd 12 de 43 3b
       0.012692923 0.011755761 -0.045599367 0.0029887003
000040 d7 bd a0 3c 91 c3 9f 3c 9b 3a 22 3d e4 08 d3 3c
       0.019621773 0.019502433 0.03960667 0.025761075
000050 b5 ac 2e 3d 24 42 46 bd 15 c4 80 3d 30 a7 c5 3d
       0.042645175 -0.04840292 0.062874 0.09651029
000060 76 49 b9 bd a8 32 bc 3c df e0 71 bc 4e 4b 73 bd
       -0.09047215 0.022973374 -0.014763086 -0.059397988
000070 50 c3 00 3e f1 ad f9 3c 6b 83 fb bb d4 71 c7 3b
       0.12574506 0.03047845 -0.0076755784 0.0060865674
000080 9c fd 64 3d 6c 6e 3d bd 75 d0 06 bd 7b 0a 05 bd
       0.055905923 -0.046247885 -0.032913644 -0.032480698
000090 4b 00 71 bd 4a 91 fe 3b 3a fe ce 3d cb 55 88 bd
       -0.05883817 0.0077687846 0.101070836 -0.06656989
0000a0 dd 5e 80 bc a1 5f 16 bb 25 a5 e6 3c 88 3f 53 3c
       -0.015670234 -0.0022945183 0.028154919 0.012893565
0000b0 b1 ee 18 3a ab 3b fc bd e2 a0 10 be f8 be a4 bd
       0.00058339076 -0.12316068 -0.14123872 -0.08044237
0000c0 4b f3 bf 3c 43 33 79 3c 9a 13 d9 bb 03 f0 be 3d
       0.02343144 0.015209976 -0.006624651 0.09323122
0000d0 84 76 0e 3d e2 6e d8 3c 2d b2 9f 3c c0 9b a6 bd
       0.034780994 0.02642006 0.01949414 -0.08135176
0000e0 e5 1e 0d 3d 77 f8 c6 bd dd b7 c4 3b ea 19 ad bd
       0.03445329 -0.0971536 0.0060033635 -0.08452208
0000f0 fb fa b0 3d 39 4b 2c bc 05 65 14 3d 2c e7 82 3c
       0.08641621 -0.010515981 0.036229152 0.015979372
000100 ad 08 95 bc a4 fd 22 bb f8 a6 96 bd c4 ff f4 3b
       -0.018192613 -0.002487042 -0.073560655 0.0074767787
000110 c6 f0 fd 3a c5 9f e0 3a 86 e3 99 3b da 4d 30 bd
       0.0019374124 0.0017137459 0.0046963124 -0.043042995
000120 55 75 c6 bd 19 c1 1a bd 26 75 35 bd f6 b7 06 3d
       -0.09690348 -0.03778181 -0.044301175 0.032890283
000130 26 38 20 bd c4 20 18 bd d9 fc 0f 3c c2 ad 4e bd
       -0.039116047 -0.037140623 0.008788311 -0.050458677
000140 56 2d 0d 3c 14 0a 51 3d 3f d7 fa 3b fd 7f 74 3d
       0.008616766 0.051035002 0.007655054 0.05969237
000150 f7 1e 35 3c 5c 4c c6 bd 61 bc ad 3b 70 8f c8 bc
       0.011054746 -0.09682533 0.0053019975 -0.024482459
000160 08 3b fd 3c c5 91 c3 3c 58 32 13 be 6c 85 8e bd
       0.030911937 0.02387322 -0.14374673 -0.06959042
000170 a4 22 68 b9 43 5c c5 3c f6 31 1d bc a0 18 df 3c
       -0.00022138149 0.024091845 -0.009594431 0.027233422
000180 d1 73 94 3d e0 9c d3 3c a2 51 3f 3c b8 d9 f6 bd
       0.07248653 0.02583164 0.011677178 -0.12053245
000190 48 e8 99 bc 89 44 10 bc 63 2e 2b ba 8a 83 6d 3c
       -0.018787518 -0.008805403 -0.00065300445 0.014496693
0001a0 3e 47 a8 3c d7 ab 0c 3d 53 99 b7 39 f1 07 86 3c
       0.020541783 0.034343567 0.00035018715 0.016361209
0001b0 a1 53 d8 bc 3d 3b b2 3c 37 03 2b 3c 53 02 bf 3c
       -0.026407065 0.021756763 0.010437778 0.023316538
0001c0 db ff b5 bc 88 98 11 3b 61 b7 0d 3d 87 a1 a6 bd
       -0.022216728 0.002221616 0.034598712 -0.08136278
0001d0 34 5c 60 bd 7f a4 e2 bc b2 ed 92 3c df 34 98 3c
       -0.05477543 -0.027666328 0.017935608 0.018579898
0001e0 5f b9 e3 3b 12 d1 33 3d 54 95 da bc 6b a6 1c bd
       0.006949588 0.043900557 -0.026682533 -0.038244646
0001f0 96 75 53 3d 2c 8c c3 3d 49 2c 46 bd 7b 77 21 bd
       0.05162581 0.0954822 -0.048382077 -0.039420586
000200 05 2d e2 3c 8d 56 0b bd ac 60 b4 bc 06 cb af bd
       0.027609358 -0.034018088 -0.022018753 -0.085836455
000210 13 54 04 3d 47 8a 4f bd 4d 2e b2 bd 6f 37 89 bd
       0.032306742 -0.05066898 -0.087002374 -0.06700026
000220 6c 5f 9e bd 47 e8 fe 3c ab 6d b8 3d 0e 95 4c bd
       -0.07733044 0.031116618 0.090052925 -0.049946837
000230 3e fc be 3c 6e d1 52 bd eb 61 0f bd b0 0b ac bd
       0.023313638 -0.05146926 -0.03500549 -0.08400667
000240 1f 36 33 3d 10 0f a7 3d f9 8d 1c 3d 47 a3 55 bd
       0.043752786 0.0815717 0.038221333 -0.052157667
000250 36 af 69 3d 40 f0 56 3d 4b 74 5e bd 52 7d e8 3c
       0.05705186 0.052475214 -0.054310124 0.02838007
000260 ae 13 3a 3d a2 ca 08 3c 9d f3 f0 3b e5 fd 05 3d
       0.045428924 0.008349093 0.0073532597 0.032712836
000270 10 73 1a bc e0 ed a5 bc e3 0d 55 bd 21 ad 6f 3d
       -0.009426847 -0.02025503 -0.052015197 0.058514718
000280 32 b9 a7 bc 58 9d a4 3a 0f 55 9f bd 3f ce b2 3b
       -0.02047405 0.0012559099 -0.077798955 0.0054567154
000290 12 b3 4e 3d b6 b3 7a bd 97 ab 6b bd b3 2c 9d bc
       0.050463744 -0.061206542 -0.057536688 -0.019186353
0002a0 9b f5 1d 3d 21 53 16 3d fb 84 85 3c f5 94 ce 3c
       0.038564306 0.03670037 0.016298762 0.025217513
0002b0 97 0b b6 3b 93 e3 4a bd d2 7b 46 bc 47 29 15 bd
       0.005555581 -0.049533438 -0.012114482 -0.03641632
0002c0 2e 35 5d bd b8 8a 77 3d 8f be b6 3d 0e 21 42 3c
       -0.054005794 0.060435027 0.08923065 0.011848701
0002d0 42 6a da bd 64 82 4c bd a0 1e 0a bd 2e 49 49 bd
       -0.10664798 -0.049929038 -0.033720613 -0.049142055
0002e0 fd ab 7c b8 62 7d 36 3c ee 0b e1 3d 1c 5a 72 3d
       -6.024166e-05 0.011138292 0.109886035 0.059167966
0002f0 21 02 89 3d e5 42 1d 3d d6 f0 98 38 b2 1b 7d 3d
       0.06689859 0.038393874 7.292784e-05 0.06179399
000300 a3 99 75 bc 36 27 0e bd 48 07 be 3c 62 5d a6 bd
       -0.014990243 -0.034705363 0.023196831 -0.0812328
000310 1e 15 92 3c ba 04 38 3d 84 f7 a3 3c bf 28 14 3d
       0.017832335 0.044926383 0.020015486 0.03617167
000320 1d 73 e7 bc fa 67 a4 bc 10 36 ef bc 19 5c 4f 3a
       -0.028253132 -0.020069111 -0.029200584 0.0007910147
000330 a3 44 86 3d cd 19 b3 3c ee 20 d0 bc a9 05 7c 3d
       0.0655606 0.021862889 -0.025406327 0.061528835
000340 3f 11 36 3d f3 23 4e bd 90 07 81 3b 44 ef 15 3d
       0.04445004 -0.050327253 0.003937669 0.036605135
000350 88 25 4c 3d aa d6 4b 3c 5c 74 aa 3d cc 59 9f bc
       0.04984048 0.012441317 0.08322975 -0.019451998
000360 36 1e c7 bd 8c d4 94 3d e6 45 a4 3d d0 d2 b8 bd
       -0.09722559 0.072671026 0.080211446 -0.09024584
000370 2b 1a 15 bc 4d 04 cc 3c c0 13 bd 3c 10 a6 a8 bd
       -0.009100477 0.024904395 0.023080707 -0.08234799
000380 8a e9 63 bd 62 38 14 bc 74 54 80 bc 29 a8 0a bd
       -0.055642642 -0.009046646 -0.01566527 -0.033851776
000390 95 db f6 bc 37 fa 0e bd d5 f8 ab 3c d1 68 55 3d
       -0.030134002 -0.034906592 0.020992676 0.052101914
0003a0 17 20 8d 3d 84 46 8b 3d e1 e5 d9 3c 14 ac 97 bc
       0.06890886 0.06800559 0.026598873 -0.01851467
0003b0 e9 be 9f 3c 59 0f ff bc 37 a2 87 3c 7b 8a 35 bd
       0.019500213 -0.031135248 0.016556842 -0.04432152
0003c0 75 fa c0 3d 8f 81 e5 3c 75 aa 60 bd d6 4b 86 bd
       0.09422771 0.02801588 -0.05485006 -0.06557433
0003d0 25 f2 cd bd fa 33 08 bd 14 07 cb 3d e5 c7 b1 3c
       -0.10055951 -0.033252694 0.099134594 0.021701762
0003e0 bf 49 f1 3c 15 24 3a 3d 81 eb b6 bb 47 2d ac 3c
       0.02945411 0.045444567 -0.0055822735 0.021017684
0003f0 46 0a a3 bd 7c 89 29 bd 62 9c 0f bc 6f ef 2c 3c
       -0.07960944 -0.04139088 -0.008765312 0.010555132

layers.5.bias f4 [64]
000000 35 e8 40 bd 85 90 b2 3c 4d 93 86 bb 62 b1 ff 3b
       -0.04709645 0.021797428 -0.004106915 0.007803128
000010 3c 61 5e bd 00 ff 60 3d a3 7e ba bc fe d7 c3 bd
       -0.05429195 0.054930687 -0.022765463 -0.095626816
000020 5a da 48 3d 8d 1f 3c bd 59 57 28 bd ed 40 87 bc
       0.04903636 -0.045928527 -0.041098926 -0.016510451
000030 19 2c 61 bd 67 e2 fd bc 4f 9f 8d bd 08 8c 39 3c
       -0.054973695 -0.030991746 -0.06915151 0.01132489
000040 d8 4e 68 3d 64 ff 91 bd bf 66 5f bd 28 03 a0 3c
       0.056715816 -0.0712879 -0.054541346 0.019532755
000050 e8 5f a6 bc 32 25 e3 3b fd 72 0e bd 07 b4 48 3c
       -0.020309404 0.0069319243 -0.03477763 0.012249953
000060 5a b8 a4 bd 9b 86 76 3c 3c f9 01 bd 3e 02 86 bb
       -0.08042975 0.015046741 -0.03173183 -0.0040896228
000070 91 13 ea bc c8 34 36 bc e2 ae 9e 3c 42 5f 93 bc
       -0.028573783 -0.0111209825 0.0193705 -0.017989758
000080 94 4c 3a 3b 11 57 fa bc 99 38 91 bd b8 8d b5 3c
       0.0028426992 -0.030559095 -0.07090873 0.022162303
000090 15 0c 47 bd d6 8b 45 bd 4d 2a dd bd c0 6f a6 3c
       -0.048595507 -0.04822906 -0.10799084 0.020316958
0000a0 38 9f 86 bd 8a b9 bb bb 4e 89 e3 bc a8 0a 92 3c
       -0.06573337 -0.005728905 -0.027775433 0.017827347
0000b0 77 06 95 bd ef d9 19 bd 36 15 bb 3c ca 87 07 be
       -0.07276624 -0.037561353 0.022837263 -0.13235393
0000c0 50 58 76 bb d6 1c 51 3d e8 1d 9f 3c 24 1b 62 bd
       -0.003758926 0.05105289 0.01942344 -0.055201665
0000d0 8a 49 2b 3d 59 90 27 bd bd bb cb 3b 03 f4 3e bd
       0.04181818 -0.040909145 0.0062174485 -0.046619426
0000e0 ca a1 8b bd a2 ac 76 bd e8 86 43 bd 53 9d 8b bc
       -0.06817968 -0.06022323 -0.04773608 -0.017042791
0000f0 34 66 dd bb 19 86 09 3d 9b 86 1c bd 9f bb cb 3b
       -0.0067565683 0.03357515 -0.038214307 0.0062174345

layers.7.weight f4 [64, 64, 3, 3]
000000 71 5c 28 3d 3d bc 30 3d 59 61 56 3c 8d 51 de bc
       0.041103784 0.043148268 0.013084733 -0.027138496
000010 f8 60 62 bc c6 29 f5 bc d7 ac 7f bc 5d f0 85 bc
       -0.013817064 -0.029927146 -0.015605173 -0.016349966
000020 bc 06 b3 3c 3c 0d 0e 3d 06 e9 01 3d 3a fe 7f bc
       0.021853797 0.03468059 0.03171637 -0.015624577
000030 6b d6 27 bd 00 20 8f bd 89 a3 d2 bc 32 df f7 bc
       -0.04097597 -0.069885254 -0.025712745 -0.030257795
000040 0a 38 04 be fa 5a 8b bd 23 f5 1e bc c3 80 c7 bc
       -0.12912002 -0.06804462 -0.009702 -0.02435339
000050 e8 fd 84 3b eb 10 43 bd 89 9e fb bc a3 b9 b1 bb
       0.0040585883 -0.047623556 -0.030715244 -0.005423741
000060 a4 b2 4b bd ce cb 43 3b c0 a7 a0 3d a3 5e 8f bd
       -0.04973091 0.0029876116 0.07844496 -0.070004724
000070 10 58 42 bd 3d 9c 81 3d 3f 1a 32 3c 2f 82 82 3c
       -0.047447264 0.06328628 0.010870515 0.015931217
000080 ec e9 36 bd 7f 73 a1 3c 45 02 b6 bc cb 31 77 3d
       -0.04465668 0.019708393 -0.02221788 0.06035022
000090 a8 b4 49 bd f5 2b fb 3c 6e 1e 37 bc 22 2d ec ba
       -0.049244553 0.030660609 -0.011176689 -0.0018018822
0000a0 c7 6b 9b 3c 08 af e5 3c d4 ed 92 bc fd 3e 1e 3d
       0.01897229 0.028037563 -0.01793567 0.03863429
0000b0 8d 4b 0f 3c 4c a5 d5 3d 81 2e d7 bc c9 fe 3b bd
       0.00874604 0.104319185 -0.026267292 -0.04589728
0000c0 46 e0 4a 3b 9b 31 2d bd 43 3b 86 bd b1 c4 34 bc
       0.0030956431 -0.042283636 -0.06554272 -0.011033223
0000d0 ca e3 4e bc df 7f 85 bc 3c cf fe 3b 93 1c 0f 3d
       -0.012627551 -0.016296325 0.007776169 0.03493936
0000e0 22 35 62 3d 90 1b 84 3b 68 76 43 3c 57 3f 3e 3d
       0.055226453 0.004031606 0.011930086 0.046447124
0000f0 43 e4 91 3d 46 41 6c 3d 06 f9 ff 3b b8 10 8f bd
       0.071236156 0.057679437 0.0078116683 -0.06985611
000100 79 06 cc 3d c3 5d 4f 3d 88 87 b6 bc 96 d7 72 bd
       0.09962172 0.050626528 -0.022281423 -0.05928763
000110 f5 d1 92 bd f1 0d 86 3d 37 1b 94 bc ff 30 f7 3c
       -0.071689524 0.06545628 -0.018079383 0.03017473
000120 3c ef 9a bc 4a aa 4e bc 80 57 19 3c b7 41 80 3d
       -0.018912904 -0.012613842 0.0093592405 0.06262534
000130 c6 48 93 bc 4a c0 7e bc 40 07 c5 bc b2 6c 62 bc
       -0.017979037 -0.015548775 -0.024051309 -0.01381986
000140 f6 db d9 bc 9d 62 97 bd 92 a4 55 3d df 61 53 bc
       -0.026594143 -0.07391856 0.0521589 -0.012901752
000150 67 98 77 bd 2d cd 30 bc 51 84 b6 3c fe b2 27 3d
       -0.060448077 -0.010791105 0.02227989 0.040942185
000160 6f 91 5c 3b e2 a1 47 3c b7 7a 8a bb 00 06 e9 bb
       0.003365602 0.012184592 -0.0042260545 -0.007111311
000170 36 60 b5 3c c4 ba 1a 3d 2d 67 ba bc 0b bd 4a bc
       0.022140604 0.03777577 -0.022754276 -0.012374173
000180 f6 33 b2 3c 69 40 85 bd 96 75 b9 bc e3 b4 78 3c
       0.021753293 -0.06506426 -0.022639077 0.0151798455
000190 42 c7 c8 3c 3b 67 d8 bc 86 06 21 bd 2b fb 06 bb
       0.024509076 -0.026416412 -0.03931286 -0.0020596485
0001a0 bc 0a 0f bb 18 3b 34 bd 4f 84 12 bd 0f cc c3 bc
       -0.0021826467 -0.04400167 -0.03577071 -0.023901014
0001b0 2d db a6 3d c6 71 a3 bc f5 38 d2 bd 6b 42 7e bd
       0.08147273 -0.019951712 -0.1026477 -0.06207506
0001c0 ab 9a 49 3c 03 73 7d 3d 53 c2 7e 3c 15 0c 76 bd
       0.012304942 0.06187726 0.01554926 -0.060070116
0001d0 f2 53 ff bc 56 22 55 bd dc 33 d8 3c 33 26 15 3d
       -0.031167958 -0.0520347 0.026391916 0.036413383
0001e0 14 1a 0a 3d 7f 1a 46 bc a5 f4 fb 3c 24 2f bc 3c
       0.033716276 -0.012091278 0.030756304 0.022971697
0001f0 0e ab a1 bc 65 66 16 bd fc af 87 bc 8e 6c 95 bc
       -0.019734886 -0.036718745 -0.016563408 -0.01824024
000200 62 6e 36 bd a6 04 a6 3d fc 67 ca 3d ea ea a8 3b
       -0.044538863 0.08106355 0.09883115 0.005154957
000210 19 11 56 3d f5 1d 9c 3c 8e c8 4c 3d dc b4 f8 3c
       0.0522624 0.019057253 0.04999595 0.030359678
000220 14 ec 5b bc e4 ab 99 bd 56 cf 17 bd b3 6d 77 bc
       -0.013422985 -0.07503489 -0.037062965 -0.015101838
000230 ad dd 6b 3a c3 f8 33 bc 5e bd e8 3c 36 9e 48 bc
       0.0008997571 -0.010984602 0.02841061 -0.012244752
000240 dc 41 d1 bb 1e 0f 31 3c a8 77 8f bc a0 28 64 bc
       -0.006386025 0.010806827 -0.017513111 -0.013925701
000250 8e 65 1b bc 78 66 b9 bd 50 f8 a4 3c ca c9 86 bd
       -0.009484662 -0.090527475 0.020137936 -0.06581457
000260 0b 37 57 bc 4d 4a 22 bc 60 cc ee bc f6 bf cd 3d
       -0.013135682 -0.00990541 -0.029150188 0.10046379
000270 88 3d cf bd c5 30 58 3c 00 15 31 ba 18 01 cc bc
       -0.10119158 0.013195221 -0.00067551434 -0.024902865
000280 4b 76 6a 3d 10 94 68 3c e9 20 82 3c b2 b0 ce 3c
       0.05724172 0.014195457 0.015884833 0.02523074
000290 8a ca cb 3c f6 a6 42 3d d2 ca cb 3c 58 2f 15 bc
       0.024876852 0.047522508 0.024876986 -0.009105526
0002a0 f2 62 52 3c 7c ad 47 3d db bf ca 3a 45 aa e8 bc
       0.012840973 0.048749432 0.0015468554 -0.028401503
0002b0 78 f8 06 bd 27 d0 15 bd be b8 97 3d cd 89 7e 3d
       -0.032951802 -0.036575463 0.07408284 0.062143136
0002c0 da ce 3d bd 2b 3f 51 3d d3 d0 e0 bc d8 c8 09 3c
       -0.046339847 0.051085632 -0.027443325 0.008409701
0002d0 00 34 90 3b 33 cc c8 bc 34 bb 96 3b 62 0f 43 bc
       0.00440073 -0.024511432 0.004599953 -0.011905523
0002e0 fc d8 f1 bc 29 2e 6c bd ba 36 8d 3c fe 72 52 bd
       -0.029522412 -0.05766121 0.01723801 -0.051379196
0002f0 32 49 c4 bb 17 6b 83 3c 74 59 43 bd 1e 19 83 3c
       -0.005990171 0.016042275 -0.04769273 0.016003188
000300 54 4d 3f 3d 42 bf 6f 3d b5 2f 4f bd 97 20 0c 3d
       0.046704605 0.058532007 -0.050582606 0.034210768
000310 4e 14 ea bc 83 ec 0b bc 1a e0 00 3d f2 59 d6 bb
       -0.028574135 -0.0085402755 0.03146372 -0.006541484
000320 89 c8 a4 3c 5f 0b 34 3d f0 1d 72 3c 91 d0 89 3c
       0.020115154 0.043956157 0.0147776455 0.016823085
000330 68 bd 4d 3c b0 db aa bc 71 55 c7 3c 58 cf 1f 3c
       0.012557365 -0.020856708 0.024332734 0.009754024
000340 b8 2f 6c bd 5a 73 90 3d 87 98 45 3c 66 14 16 3d
       -0.057662696 0.070532516 0.012060291 0.036640547
000350 db 73 14 3d bf 9d 8d bd 10 c7 0e 3d 6a f2 94 bb
       0.0362433 -0.06914853 0.03485781 -0.0045454996
000360 dd 5e 0e bc 8b 31 d8 3a fa 1c 9c bc d6 10 70 bb
       -0.008689609 0.0016494257 -0.019056786 -0.0036631129
000370 d1 be be 3c 35 3a c4 3c e7 50 bb 3b a9 86 11 bc
       0.023284348 0.023953537 0.0057164314 -0.008882203
000380 75 69 3a bd 3f b2 db bb b8 ac 2b bd 54 d7 1f 3d
       -0.045510728 -0.006704598 -0.041912764 0.039023712
000390 e4 90 83 3d fd 7c ac bc 72 c5 d9 3c ca c6 60 b7
       0.0642412 -0.021055693 0.026583407 -1.3397725e-05
0003a0 26 b6 dc 3c 24 7e ee bc 7b 7d 80 bc 95 86 44 bd
       0.026942324 -0.029112883 -0.015684834 -0.04797991
0003b0 10 ec 8c ba 68 2a 2b 3c aa 07 0a bd d9 9b 02 3c
       -0.0010751504 0.010447122 -0.033698715 0.007971727
0003c0 ad 93 a5 3c ac 51 53 3d 16 bf 61 bc 9c 6b 3b 3d
       0.020212019 0.05159156 -0.013778469 0.04575692
0003d0 8d 23 00 bc ec ae 54 bd 3e 39 19 bc 37 e3 19 bd
       -0.007820976 -0.05192463 -0.0093520265 -0.037570205
0003e0 f3 35 58 bd 91 f3 1f 3c 7b 9b 04 bc d2 91 25 bd
       -0.052785825 0.009762661 -0.00809371 -0.04042227
0003f0 78 41 c9 3b 40 21 80 bd a5 c0 1f bd 90 c2 c1 3d
       0.0061418377 -0.06256342 -0.03900208 0.09460938

layers.7.bias f4 [64]
000000 7b aa 87 bc d4 fe 74 bc e6 08 75 3b 9e 06 38 bd
       -0.016560784 -0.014953334 0.0037389337 -0.044928186
000010 7e ee 10 3c 65 03 f9 bc ee 53 14 3c c0 2f 1f 3d
       0.0088459235 -0.030397126 0.0090532135 0.038863897
000020 ab 34 0b bd 35 dc 76 bd 11 0c 0c bd ee a9 da bc
       -0.033985775 -0.0602686 -0.034191195 -0.026692357
000030 45 ea 29 bc e7 ca 24 3c c8 77 99 3c 01 95 8c ba
       -0.010370796 0.010058141 0.018733874 -0.0010725559
000040 2c e9 a7 3b 62 7e ec 3a 5e 58 03 3d 2e a6 d6 bc
       0.005124232 0.0018043036 0.032066695 -0.026202288
000050 48 52 07 bd 8b 4e ce bc b1 fe 7d bc 34 e1 36 bc
       -0.033037454 -0.025183937 -0.015502618 -0.011162091
000060 fe de 24 bc 50 5f 39 bd ec 53 01 bd 7c 41 9a bc
       -0.010062931 -0.045256913 -0.031574175 -0.018830054
000070 86 97 f2 bc 59 48 10 bb fc 1b 2c bd f7 19 e3 bc
       -0.029613268 -0.0022015779 -0.042018875 -0.027722342
000080 8f 97 f5 bc 84 67 03 bd f5 4b c2 bc 86 a2 72 3c
       -0.029979495 -0.032081142 -0.02371786 0.014809256
000090 a5 4e 36 bd e6 33 f3 bb 3e 93 d7 3c b2 a1 c0 bc
       -0.044508595 -0.0074219583 0.026315328 -0.023514602
0000a0 12 3b 7c 3b 2a 41 19 bc fe ba 16 bd e5 b6 9c 3c
       0.0038487357 -0.009353915 -0.036799423 0.01913018
0000b0 c8 f6 3e bd c8 95 70 bd ad e5 31 3c 73 0d 8f bc
       -0.046622068 -0.058736593 0.010857982 -0.017462468
0000c0 fe 4d d7 3c 9e c7 01 bd d0 3f e5 bc bd 5b 07 3d
       0.026282307 -0.03168451 -0.02798453 0.033046473
0000d0 14 46 ae bb 6c cd 14 3d 85 c9 df 3c 0e 27 de 3c
       -0.0053184126 0.036328718 0.027317772 0.027118232
0000e0 a8 6e 9e 3c f3 73 8a bc be 25 d9 3c 46 f7 14 bd
       0.019339874 -0.016900992 0.026507255 -0.03636863
0000f0 b2 ff 14 3c 96 21 38 bd d1 31 6e bd 7f 73 5e bd
       0.009094166 -0.044953905 -0.058152977 -0.054309364
