examples/mnist/mnist_pretrained.pth (torch_old, 348942 bytes, 18 tensors)

layers.0.weight f4 [32, 1, 5, 5]
000000 72 39 ef 3d fc d4 9d bd 32 14 ff bc 4e b6 fa 3d
       0.11680879 -0.07706639 -0.03113756 0.12241803
000010 4a 8d 22 be 8e fa 39 bc bb c6 4f 3e 31 95 2d 3d
       -0.1587421 -0.011351241 0.20290653 0.04237861
000020 b6 63 03 bc 58 9f ff bd 47 24 20 be 03 36 c5 3b
       -0.008019378 -0.12481564 -0.15638839 0.0060184016
000030 31 61 be 3d 3c 34 dc bd 22 bd 45 be 93 1e d2 bd
       0.092958815 -0.107521504 -0.1931043 -0.10259738
000040 6f c5 8a bd 4f 52 38 3d 4c 32 0f bc e9 28 12 be
       -0.06775939 0.04500037 -0.008740019 -0.14273418
000050 73 d8 20 3e bd 7c aa bd a7 d7 93 3d 13 59 3f be
       0.15707569 -0.08324573 0.07218867 -0.18686323
000060 ed ee 44 be a4 3e 11 3d 93 3b 9e 3d 85 ae cf 3d
       -0.19231768 0.03546013 0.07726207 0.10140709
000070 75 9f 36 be b6 5f ad bd 14 f4 10 be 60 65 c0 3d
       -0.17834266 -0.08465521 -0.14155608 0.09394336
000080 62 63 14 3e 3e 21 b9 bd c8 ca a8 3d 9a 6d 89 3d
       0.14491037 -0.090395436 0.082418025 0.06710358
000090 0c 39 4a 3e 6c b5 ba bd 54 81 71 3c c3 5f fc 3d
       0.19748324 -0.09116635 0.014740307 0.123229526
0000a0 92 39 54 3b 35 6a 1c 3e 09 bc 85 3c 22 63 06 be
       0.0032382947 0.1527489 0.016325014 -0.13123754
0000b0 0a f5 dd bd 0f ab 27 3e a2 25 28 3d b7 82 9e 3d
       -0.10837753 0.16373847 0.041051514 0.07739776
0000c0 aa 47 32 be 77 5e a7 bd a5 d0 9d 3d 45 16 21 3e
       -0.1741015 -0.081723146 0.077058114 0.15731151
0000d0 5b a8 3e 3e 76 0a 02 3e 19 cb 64 3e c5 56 08 3e
       0.1861891 0.12699303 0.223431 0.1331435
0000e0 b8 b2 04 be 96 f7 c5 3d 9b 62 f7 bc bd 70 5d bd
       -0.12958801 0.09666364 -0.030198386 -0.054062594
0000f0 be 03 65 bc de 53 ef bd a0 e1 4c 3d 5e 9e 07 bd
       -0.013977943 -0.11685918 0.05001986 -0.033110015
000100 85 48 2d 3e a5 41 56 be 87 7f 33 bd e3 db 59 be
       0.16922195 -0.20923479 -0.04382279 -0.21275286
000110 12 ea ad 3d c9 8e 3c bd c1 27 d0 bd de e8 16 be
       0.08491911 -0.046034608 -0.101638325 -0.1473727
000120 9a 34 4c bc a0 5a cf bd 03 09 02 3e 24 02 bc bd
       -0.012463713 -0.10124707 0.1269875 -0.09180096
000130 d5 27 c7 3d 1c fe 2f 3d c9 aa 3f 3b b6 11 6a 3e
       0.09724394 0.042966947 0.0029246083 0.22858319
000140 82 3a 51 3d 78 5b 59 3e 6f ff ff 3d 79 da 72 3d
       0.051081188 0.21226299 0.12499892 0.059290383
000150 62 2f c0 bd 0d bf 19 be ac fe 8d 3d 0b 58 07 be
       -0.093840376 -0.15014286 0.069333404 -0.1321718
000160 f7 e9 89 3c 1d 89 00 3e 8e e2 b3 bd e6 12 1f be
       0.016835196 0.12552305 -0.08783446 -0.15534553
000170 98 35 80 3d d2 3e 55 be 68 03 94 bc 16 1a a2 bd
       0.06260222 -0.20824745 -0.01806803 -0.07915132
000180 13 ca 0b be b8 61 6b 3d f8 1e a0 bd 21 b0 99 3d
       -0.13651304 0.05746624 -0.07818407 0.07504297
000190 29 28 2f be 07 6c 21 be af 7a 01 3d 2d 81 44 3e
       -0.17105164 -0.15763865 0.03161114 0.19189902
0001a0 71 bb 57 3e a7 52 60 3a ad 98 12 be b1 ff f8 bc
       0.21067597 0.0008557238 -0.14316054 -0.03039536
0001b0 3d 70 dc 3d c3 45 19 be 68 6f e7 bb 6e 3a 2c be
       0.10763595 -0.14968018 -0.007062841 -0.16819164
0001c0 bb 1a b9 bd 38 fd 1e be 46 e2 0c 3e f5 e2 0a 3e
       -0.090383016 -0.15526283 0.13758191 0.1356314
0001d0 ad 4f 91 bd c2 17 49 bd 96 a3 06 be ab cd ef 3d
       -0.07095275 -0.049094923 -0.1314834 0.1170915
0001e0 11 db 1a 3e 8e 72 16 3e 5c b0 b3 bd 64 5a d2 bc
       0.1512263 0.14692137 -0.08773872 -0.025677867
0001f0 22 ce cd bd 73 df bc 3d 09 7b 29 3d a5 b7 98 3d
       -0.10049082 0.09222307 0.0413771 0.074569024
000200 63 8d 0a bd da 1d 10 be 62 84 f9 3d 2d f6 18 3d
       -0.033826243 -0.14073887 0.12183453 0.037344147
000210 bd 72 96 bc 08 5a 02 be ca 0d df 3b 64 81 c8 3c
       -0.018365258 -0.12729657 0.0068070637 0.02447576
000220 43 b0 64 bd 78 98 31 bb 46 37 57 be cb 5c de 3c
       -0.05583216 -0.0027098935 -0.21017179 0.027143857
000230 7e e5 29 be eb 49 3f bc 57 53 ad bd 51 9d 2a 3e
       -0.1659145 -0.011675338 -0.084631614 0.16661574
000240 f8 4d ea 3d 6a c3 10 3e c5 eb 3a be b9 24 18 3d
       0.114406526 0.14137045 -0.18254001 0.037144396
000250 ac d6 1a 3e 41 0f 6a bd 74 73 2c 3e 7e ba 5b be
       0.15120953 -0.057143454 0.16840917 -0.2145786
000260 7c 20 c1 3c c7 3a c3 bd ac b8 ce bc 38 76 42 3d
       0.02357506 -0.09532695 -0.025234543 0.047476023
000270 83 3e 03 3d 81 96 46 be be 57 17 be ee 5e 49 3d
       0.032042038 -0.1939335 -0.14779565 0.049162798
000280 60 bd 5d 3d 0c 0f 23 be 02 2c 4d 3d b6 98 1d bd
       0.05413568 -0.15923709 0.050090797 -0.038475715
000290 2f c8 30 be 39 27 ff 3c a5 72 09 be e8 b0 3e be
       -0.17263864 0.031146633 -0.1342264 -0.18622172
0002a0 09 13 0d 3e 97 90 e7 bd 28 fe 2f 3e c0 9d 81 bd
       0.13776793 -0.11306875 0.17186797 -0.063289165
0002b0 4f 2d fb 3d 9d ad 15 3e e8 60 68 3e 3d 54 7a 3d
       0.12264501 0.1461701 0.22693217 0.061115492
0002c0 17 a6 34 3e 26 a6 98 bd 19 fa 32 3e 5d a2 d2 bd
       0.17641483 -0.07453565 0.17478217 -0.102848746
0002d0 50 5e 10 3e eb bd 0b 3e eb 2e 6e 3d d7 3c 92 bd
       0.14098477 0.13646667 0.058150213 -0.071405105
0002e0 bd 19 c3 bd 9e 07 3c 3d a2 27 23 3d fc 1d 1c be
       -0.095263936 0.0459057 0.03983272 -0.15245813
0002f0 a5 6f 64 bd 87 b8 58 be 72 ce c0 3d 80 52 1f be
       -0.055770535 -0.21164142 0.09414376 -0.15558815
000300 e7 1c c3 bd 15 0d 8b bc 1d fe 20 3d e5 d2 52 3e
       -0.09526997 -0.016974011 0.03930484 0.20588262
000310 70 b9 89 bd 36 06 e1 bd 39 58 09 be ab 40 5e bd
       -0.067248225 -0.10987513 -0.1341256 -0.05426089
000320 5b c0 3a bd ea 47 2f 3d 2b 2d d7 bc 2f a6 44 bc
       -0.0455936 0.042793192 -0.026266655 -0.012002512
000330 79 55 00 3e e3 82 9a bd 49 ed e5 3c 38 0f 63 bd
       0.12532605 -0.07544496 0.028067248 -0.055434436
000340 0a af 59 3e e4 d2 e7 3d a1 7d 0a 3d b7 a2 98 3d
       0.21258178 0.11319521 0.033811215 0.074529104
000350 74 45 ce 3d cd 4d c6 3c df ea 12 3d 23 44 1f 3e
       0.10071841 0.02420702 0.03586852 0.15553336
000360 ca 08 94 3d 50 52 11 be 97 88 ff 3d 19 9d 11 bd
       0.07228239 -0.14191556 0.12477224 -0.03555021
000370 57 e7 83 be 97 39 1e 3c 48 89 87 bb 49 82 b5 bd
       -0.25762436 0.009657285 -0.0041362382 -0.088627405
000380 0e 8b 27 be fc 2b a7 bd 56 6a 14 3d 52 e3 3f bd
       -0.16361639 -0.08162686 0.036234222 -0.04684765
000390 1e 23 4d be 08 27 01 bd f3 45 a5 3d 68 f8 98 bd
       -0.20032927 -0.031531364 0.080699824 -0.07469255
0003a0 86 5d 3a be 3c b6 bc bd 25 32 15 be 60 d8 ba 3d
       -0.18199739 -0.09214446 -0.1456991 0.091233015
0003b0 82 bb 70 be 16 78 0e be 0d c0 ae 3d 83 26 94 3d
       -0.23509029 -0.13912997 0.085327245 0.07233908
0003c0 9e 01 1e be 3b 8b ba bc 22 23 6c be ed 6c 27 3d
       -0.15430304 -0.022771468 -0.23060277 0.040875364
0003d0 9c d7 09 be 8d 09 3a 3e c2 58 34 be 0c b5 4c be
       -0.13461155 0.18167706 -0.17611983 -0.19990939
0003e0 3e 36 f9 bd 3f a0 c8 bd 93 85 52 be 8a 92 22 bd
       -0.12168549 -0.097961895 -0.20558767 -0.03969053
0003f0 20 3b f6 3d 71 4b c2 3d eb 33 2c be 3c ff 5a 3d
       0.12022996 0.094870456 -0.1681668 0.053466067

layers.0.bias f4 [32]
000000 53 66 50 be 0f 18 61 3b b9 49 01 3d f0 9c 21 3e
       -0.20351534 0.0034346615 0.031564448 0.15782523
000010 f9 e7 b8 3c e0 74 0e be 63 40 ce bd 19 dd b2 bd
       0.02257155 -0.13911772 -0.100708745 -0.08733577
000020 0c 0c e9 3d d4 fe c4 bb 5c e9 eb 3d 61 fa 27 be
       0.11379251 -0.006011823 0.11519119 -0.16404106
000030 e2 b8 b2 3d 28 0b 83 bd 13 d0 c6 3d 2a 8e 89 bd
       0.0872667 -0.06398612 0.09707656 -0.06716569
000040 0d 2d 5d be 41 d2 92 bd 38 31 14 be c9 8f 15 bd
       -0.21599217 -0.07169009 -0.144719 -0.036514077
000050 59 33 84 3d ea 3b 40 bd fb 63 08 be f9 95 0a 3e
       0.06455106 -0.04693214 -0.1331939 0.13533773
000060 81 b6 8e 3d cb ed 98 bd 59 b2 cb 3d 9c 46 b0 bd
       0.069684036 -0.074672304 0.099461265 -0.08607218
000070 c6 e5 45 bd 74 0b 0e be f4 03 8e bc 1f 67 4e 3e
       -0.048314832 -0.13871557 -0.01733587 0.20156525

layers.1.weight f4 [32]
000000 55 cd 8c 3f ce e4 87 3f 41 d5 93 3f 4d 78 98 3f
       1.1000162 1.0616701 1.1549455 1.1911713
000010 41 e4 80 3f fb 34 8e 3f fa 7c 91 3f 1e fc 97 3f
       1.0069658 1.1109918 1.1366265 1.1873815
000020 aa 97 7f 3f dc c0 7c 3f 61 53 7b 3f e4 b1 8d 3f
       0.99840796 0.9873178 0.981741 1.1069913
000030 77 60 a4 3f 8d 1e a2 3f 35 b7 6b 3f 0c 03 8b 3f
       1.2841939 1.2665573 0.92076427 1.0860305
000040 e1 e0 8b 3f 8a fd 8a 3f 59 64 7b 3f 57 82 80 3f
       1.0928003 1.0858624 0.98199993 1.0039777
000050 83 05 78 3f 0e df 89 3f 6a 07 87 3f 3a cd a2 3f
       0.9688341 1.0771196 1.0549138 1.271888
000060 4f 13 9a 3f 22 48 92 3f 5f a1 82 3f dc 55 98 3f
       1.2037143 1.1428263 1.0205497 1.1901202
000070 fe 3b 8d 3f 53 68 90 3f 70 6b 89 3f 40 4c 8e 3f
       1.1033933 1.1281837 1.0735912 1.111702

layers.1.bias f4 [32]
000000 c4 fa 3c bd ed a2 33 bb d6 13 bb bc ea 46 fc 3c
       -0.046137586 -0.0027410344 -0.022836607 0.030795533
000010 32 f7 3c bd 93 c9 ae 3b d1 78 ab bc 0c 78 ad bc
       -0.04613418 0.005334088 -0.020931633 -0.021175407
000020 67 1d d3 3c 48 ee 6b bd da 93 99 bc a9 b3 00 3c
       0.025770856 -0.05760029 -0.018747259 0.007855334
000030 29 66 4e 3d 10 fc c6 3c c2 4e 3d bc 0d d0 0a bd
       0.050390396 0.024290115 -0.011554422 -0.03388982
000040 58 69 a1 bc d7 1f fe bc 4f c8 f1 3b 97 af 60 bd
       -0.019703552 -0.031021042 0.007378615 -0.054854956
000050 ab 63 41 bb 96 8f e1 bc 3c bf 93 bc 69 d1 73 bc
       -0.002950887 -0.027534287 -0.018035524 -0.01488147
000060 b6 ee 7d 3d c3 29 a2 bc 96 ee 4b bc b6 80 8e bc
       0.06199523 -0.019795304 -0.01244702 -0.017395359
000070 01 e0 b3 bc 87 fb 9c 3d 91 09 9a bd bd 65 fe bc
       -0.0219574 0.076651625 -0.07521356 -0.031054372

layers.1.running_mean f4 [32]
000000 e5 3a 9f be 04 78 3a 3d c7 6e 62 3d 24 b5 20 3e
       -0.3109962 0.045524612 0.055281427 0.156941
000010 08 2f 9c bc c2 ef 15 be 7a 41 0e be a2 67 f1 bd
       -0.019065395 -0.14642242 -0.13892165 -0.117873445
000020 0f d0 16 3e a6 7f 7c be 7c f0 2b 3e 40 cb 21 be
       0.14727806 -0.24658069 0.16790956 -0.1580019
000030 c1 2f a0 3d 3e 89 97 bd de 74 47 3e 36 6f 79 bd
       0.07821608 -0.07399224 0.19478175 -0.060897075
000040 ba 69 b5 be b8 1d 5d be 57 92 c7 bc db 21 20 be
       -0.35432225 -0.21593368 -0.024361772 -0.15637915
000050 fe 44 13 3e 0c 13 c6 bd fe 19 d7 bd 29 7a 03 3e
       0.14381787 -0.09671602 -0.105030045 0.12839569
000060 71 c1 77 3d af d3 4d bd 4c 91 fb 3d e0 bd 82 bd
       0.060487214 -0.050250705 0.122835726 -0.06383872
000070 9a 25 0a bd 2f dd bd bd 7e a1 91 3c c8 0d 20 3e
       -0.033727266 -0.09270703 0.0177772 0.15630257

layers.1.running_var f4 [32]
000000 22 8d 69 3d cc b6 0f 3d 1d 49 4c 3d 9d 38 d9 3c
       0.05701936 0.035086438 0.049874414 0.026516253
000010 c4 c1 dd 3c 3b b4 9d 3c 0c b7 21 3d c4 6c 85 3d
       0.027069934 0.01925098 0.039481208 0.06514886
000020 4b a7 d5 3c 49 22 31 3e 12 f4 09 3d 58 7d b9 3c
       0.026080748 0.17298235 0.03368003 0.022642776
000030 ba 2b 06 3c 0c c6 5d 3c 3e 7e 37 3d 7a 81 89 3c
       0.008189136 0.013535988 0.04479813 0.016785372
000040 22 39 a5 3d b4 4a a8 3d 69 9c 96 3d 0b 1b d1 3d
       0.08067538 0.082173735 0.073540516 0.10210236
000050 6f d3 fe 3c ba 9b 58 3d 68 19 d9 3c 71 6a 08 3d
       0.031106679 0.052882887 0.026501372 0.033304635
000060 76 ed 3c 3d 94 a0 02 3d c4 d4 8d 3c 5f d8 0a 3d
       0.046124898 0.03189142 0.017313369 0.033897754
000070 2f bd 60 3d b3 bb 49 3d 9d 80 0f 3d 4d 51 8c 3c
       0.05486792 0.04925127 0.035034765 0.017128611

layers.3.weight.mean f4 [32, 32, 3, 3]
000000 a4 20 80 3d a6 28 82 3d dd 6a 89 3c c8 41 04 3e
       0.06256226 0.06355409 0.01677459 0.12915719
000010 11 1c 10 3d 48 9f d9 bc 8e b9 cb 3d c7 99 5f 3c
       0.035183016 -0.026565209 0.09947501 0.013647503
000020 d8 9c 38 3d 0d fb 34 3e 58 16 0b 3e ca 8f 78 bd
       0.045071453 0.17673893 0.13582742 -0.060684003
000030 07 55 14 3e 8e ed e4 3d e2 67 23 be 13 e1 0e 3e
       0.1448556 0.111781225 -0.15957597 0.13953047
000040 cb 70 5a bc 36 7a 38 bd 69 70 de bd dd 09 0f bc
       -0.013332556 -0.045038424 -0.10861284 -0.008730379
000050 3d ec 3b 3d 44 c5 fb bd 78 75 a0 bc 03 9b 35 bb
       0.04587959 -0.12293485 -0.019587263 -0.0027710802
000060 1a 1b ea bd 19 93 5c bd d3 36 3e bd fb 17 0b be
       -0.114309505 -0.05385122 -0.046439003 -0.13583367
000070 a3 39 86 bd fc 3a 02 be 43 7a a7 bd 15 9f 04 be
       -0.06553962 -0.12717813 -0.081776164 -0.1295131
000080 c3 2b 15 bc 06 f9 f3 bd e1 5f 3b be cf 8b e9 3c
       -0.009104672 -0.11912732 -0.18298294 0.028509049
000090 5e 64 1c be d7 ca a7 bd 00 92 05 be 79 98 16 be
       -0.15272662 -0.081929855 -0.13043976 -0.14706601
0000a0 13 22 b0 bd 76 fa e4 3c bb f8 4a be 25 2c 95 bd
       -0.08600249 0.02795146 -0.19821446 -0.072838105
0000b0 28 67 6b 3d cd 56 8b bd 70 18 b4 3d 7b ae 53 3e
       0.057471424 -0.06803665 0.087937236 0.20672028
0000c0 a6 cd 35 bb 24 67 0f 3e b6 e2 34 bd 80 eb fc 3d
       -0.0027740984 0.14004189 -0.04416152 0.123496056
0000d0 eb 40 a7 3d ef ed a9 bd 53 31 80 bd a9 33 28 3d
       0.08166679 -0.08297335 -0.06259408 0.041064892
0000e0 0a fa 84 3d 49 2e 76 bc cc 69 85 3d a6 07 f7 3d
       0.06493004 -0.015025684 0.0651432 0.12062006
0000f0 aa a8 af 3d 66 0c 42 3e 87 fd 87 3d 37 61 20 3e
       0.08577092 0.18950042 0.066401534 0.15662085
000100 fb eb 3d 3e 0d bc b1 3d 51 3f 58 3e 15 fd 46 3e
       0.1854705 0.08678446 0.21117903 0.1943248
000110 52 e4 36 bd c2 25 0c 3e 2f 57 0d 3e a6 28 78 bd
       -0.044651337 0.13686278 0.13802789 -0.06058564
000120 d5 a0 df 3d c8 7c b2 bb a2 ee fa bd e5 96 cc 3d
       0.10919348 -0.005447004 -0.12252547 0.09989718
000130 bb 66 de bd dc 1e dd bb fd 9a 58 bd c8 d5 77 bd
       -0.10859438 -0.0067480635 -0.052882183 -0.060506612
000140 b3 a1 12 bb 2d c6 81 bc 50 2e 5b 3c 5d 9e 65 3d
       -0.0022374212 -0.015841568 0.013377741 0.05605923
000150 05 cd d9 bc 20 de b1 3d 89 29 1e 3d a3 1a 51 3d
       -0.026587019 0.08684945 0.03861383 0.051050793
000160 5f ec a4 3d f9 3f a5 3b 9c 45 b3 3d 77 f0 95 3c
       0.08052897 0.0050430265 0.08753511 0.01830314
000170 79 43 c7 bd a7 a6 f4 3d bb 5a be bd 4b 5d 12 be
       -0.09729666 0.11945849 -0.09294649 -0.14293401
000180 a8 8b 1a 3e 7e 40 95 bd 7a 89 bb bd ff 83 df bd
       0.15092337 -0.072876915 -0.09157081 -0.10913848
000190 d8 fb 70 bd a0 ea 1a bb bb 4c e6 bd 93 ee 0f bc
       -0.058833927 -0.0023638383 -0.11245104 -0.008784908
0001a0 92 ee e6 3c ec 46 13 be 42 29 e9 bd a3 58 0e bd
       0.028189931 -0.14382523 -0.113848224 -0.0347525
0001b0 11 1f 09 be 6e e5 e7 bd 1f 7d fd bd 2c 19 1c be
       -0.13390757 -0.11323057 -0.123773806 -0.15243977
0001c0 d1 6f ef bd 59 13 9f bc 75 7c 5e be 7e e5 8f bd
       -0.11691249 -0.019418405 -0.21727164 -0.07026194
0001d0 d5 49 b5 bc 19 1d 44 be cb 9a b1 bc 3d 78 ee bc
       -0.022129932 -0.19151725 -0.021680256 -0.029110068
0001e0 30 4d 2e be 57 d8 99 bd 91 42 04 bd c5 e6 96 bb
       -0.17021632 -0.07511967 -0.032290045 -0.0046051466
0001f0 f9 61 32 bd c7 a4 86 3a 2f fd 05 3e 57 e4 0e 3e
       -0.043550465 0.0010272496 0.13084863 0.13954292
000200 05 58 59 3c 53 81 1a 3e 28 23 80 3c 35 8f 25 bd
       0.013265614 0.15088396 0.015641764 -0.040419776
000210 97 1f 19 3e c5 76 c9 3b 25 89 f8 bd d7 0d 9a 3d
       0.14953457 0.0061481916 -0.12135533 0.07522171
000220 37 20 ec 3d 84 6f e7 3c 7b fe df 3d a5 22 33 3e
       0.11529582 0.028251417 0.1093721 0.17493685
000230 cc c5 b1 bd 8b 52 1f 3e d5 74 4a 3e e8 da 8e bd
       -0.08680305 0.15558831 0.1977113 -0.06975347
000240 42 b8 26 bd a6 9e 6e 3d 84 8d 95 3d 82 c9 3f bb
       -0.040703066 0.058256768 0.073023826 -0.0029264395
000250 c6 4d 8f bb 14 70 85 3c 5d 12 83 3c 96 71 63 3d
       -0.004373285 0.016288795 0.015999967 0.055528246
000260 bb 3e 8a 3a e8 2c de bd 6c 00 68 3d aa fd 09 3e
       0.001054726 -0.10848409 0.056641027 0.13475671
000270 99 6b 3e bc 14 f9 cd 3d 27 3f 46 3d a5 c2 82 3c
       -0.011622333 0.100572735 0.04840007 0.015961954
000280 8e 17 d5 3c 68 4c 44 3d 71 7b f3 3d 27 53 fb 3d
       0.026012208 0.04792443 0.11888779 0.122717194
000290 f8 60 8e bd 9c b3 a9 3d 98 9e 54 3c fe 35 64 bd
       -0.06952089 0.08286211 0.012977265 -0.055715553
0002a0 9c 96 b6 3d 58 52 ca bd 67 ab 39 bd 52 b5 6a bd
       0.08915445 -0.09878987 -0.045329478 -0.057301827
0002b0 b2 e9 b1 bb 5f 48 e0 3d 15 35 c1 bd aa ca 00 bc
       -0.00542947 0.10951304 -0.09433953 -0.007860819
0002c0 7d 32 ac 3d d1 9f ac bc 91 b0 28 3c 72 d7 99 3d
       0.084080674 -0.0210723 0.010296003 0.07511796
0002d0 72 eb 0f 3e 4d 85 2c 3e c0 fd 9d bc 15 85 2b 3e
       0.14054659 0.16847725 -0.019286036 0.16749986
0002e0 6e 9a 98 3d 54 d5 0c be 87 10 cf 3d 63 ca 98 3a
       0.0745133 -0.13753253 0.10110574 0.0011656996
0002f0 2d 63 fa bd 4e 0f dd 3c a6 8f 13 3e a9 c2 19 3e
       -0.122259475 0.026984837 0.14410266 0.15015663
000300 32 05 a6 3d af a4 15 3e 26 03 95 3d a4 b5 22 3e
       0.0810646 0.14613603 0.07275991 0.15889603
000310 2c 8f 1f 3e 65 4c 7b bd de 4a a6 bd 6f 0a 0f be
       0.1558196 -0.061352152 -0.081197485 -0.13968824
000320 18 86 f7 3c 92 d8 f1 bd 94 45 43 bd 58 2b 49 bd
       0.030215308 -0.11808886 -0.047673777 -0.0491136
000330 ee e1 5f bd ad 10 d9 3c 4b 5e 14 bc 28 aa 29 be
       -0.054658823 0.02649721 -0.009055684 -0.16568816
000340 64 f1 bc 3d 0c 94 ff 3d 2e 0e 89 bd 13 1a a3 3d
       0.09225729 0.124794096 -0.06692158 0.07963958
000350 5e 4d 57 bd 7a 23 0b 3d 7b 51 c2 3d 88 ad 12 3c
       -0.052564017 0.03396938 0.094881974 0.008952506
000360 7b 6a 99 bd af ea d9 3c d2 c7 b4 3d 21 fb 39 bd
       -0.07491013 0.026601164 0.08827175 -0.04540551
000370 83 72 d2 bc 3f 7e 89 bc 98 71 d6 39 b8 9f e8 bd
       -0.025689369 -0.016783832 0.00040901895 -0.11358589
000380 e8 5d d7 bd 81 02 09 be 69 aa 41 be d6 50 83 3d
       -0.10515958 -0.13379861 -0.18912663 0.064119026
000390 5e cf 10 be 10 3b 2e be 58 ea bb 3d 96 e0 8c bd
       -0.14141604 -0.17014718 0.09175557 -0.06878774
0003a0 79 14 43 bd a6 65 59 3d b6 d3 e5 3d 81 66 b1 bd
       -0.047626946 0.053075455 0.11222021 -0.08662129
0003b0 63 a9 87 bd d2 77 96 3c 1c d6 6f bd 21 2e a1 bc
       -0.06624105 0.018367682 -0.0585538 -0.019675316
0003c0 d4 e8 54 3d 6d 17 e7 bd 33 6d 35 bc e4 71 2d 3e
       0.051979855 -0.11283765 -0.011073398 0.16937977
0003d0 f0 5e 40 3e 44 c8 03 bd cc 95 65 3e fb 5d 3d 3e
       0.18786216 -0.03217341 0.22420424 0.18492882
0003e0 20 63 e7 bd be b9 55 3e de 1f cd 3d 9e cc ff bd
       -0.112982035 0.20871636 0.10015844 -0.124901995
0003f0 8d 5b 32 3e e1 39 25 3e 62 ac f2 bc fb 16 2b 3e
       0.17417736 0.1613536 -0.029623214 0.16707985

layers.3.weight.scale f4 [32, 32, 3, 3]
000000 6c 0f d7 bf d6 a9 04 c0 fa 2f f0 bf 3f 56 fe bf
       -1.6801581 -2.072866 -1.8764641 -1.987007
000010 0b 69 07 c0 b9 36 0a c0 b5 c2 dd bf f8 27 08 c0
       -2.1157863 -2.15959 -1.7325045 -2.1274395
000020 b8 7c f4 bf 89 47 02 c0 f8 fd 05 c0 ba a0 e0 bf
       -1.9100561 -2.0356162 -2.093626 -1.754905
000030 bc cb e4 bf d0 18 0c c0 62 f9 01 c0 81 fb 0e c0
       -1.7874675 -2.1890144 -2.030846 -2.2341006
000040 9c bf 09 c0 62 df e6 bf 56 fa 07 c0 ea 8d 0a c0
       -2.15232 -1.8036921 -2.1246543 -2.1649117
000050 e8 a4 fd bf 95 5a 07 c0 87 af fb bf e4 cc 07 c0
       -1.981595 -2.1149037 -1.9662942 -2.1218805
000060 b1 af 02 c0 e7 2f 02 c0 18 25 03 c0 6e ea fa bf
       -2.0419734 -2.0341737 -2.049139 -1.9602792
000070 d4 0c 05 c0 96 e4 0b c0 ee cd 00 c0 9a 35 05 c0
       -2.078908 -2.1858268 -2.012569 -2.0813966
000080 23 31 f7 bf 36 09 fe bf 4c a4 00 c0 58 72 e5 bf
       -1.931187 -1.9846561 -2.010028 -1.792552
000090 60 5e 14 c0 ad 79 ef bf 48 25 16 c0 3a 1c 01 c0
       -2.3182602 -1.8709008 -2.3460255 -2.0173478
0000a0 0f 40 f8 bf f1 44 09 c0 6f 67 12 c0 31 0e ed bf
       -1.9394549 -2.1448328 -2.287563 -1.8519956
0000b0 8c 01 e1 bf 03 70 f3 bf 9a 28 03 c0 e8 aa fc bf
       -1.7578597 -1.9018558 -2.0493531 -1.9739656
0000c0 98 a8 06 c0 b0 28 07 c0 dc 05 03 c0 3b 8f 00 c0
       -2.1040401 -2.1118584 -2.0472326 -2.008742
0000d0 03 e1 08 c0 22 26 fd bf 9c 17 0c c0 92 bf 06 c0
       -2.1387336 -1.9777262 -2.188941 -2.1054425
0000e0 25 8c 0a c0 b3 21 f8 bf 3d ea 04 c0 b9 fd e0 bf
       -2.1648037 -1.9385284 -2.0767968 -1.757743
0000f0 4c 34 00 c0 b4 88 f0 bf ea 32 09 c0 c9 69 ff bf
       -2.003192 -1.8791718 -2.1437325 -1.9954158
000100 1d 94 12 c0 a1 1d 03 c0 d2 0d 0d c0 88 f8 f9 bf
       -2.29029 -2.0486834 -2.2039685 -1.9528971
000110 01 01 0f c0 6c 98 0b c0 a5 fe fb bf 32 f5 f9 bf
       -2.2344363 -2.181178 -1.9687086 -1.9527953
000120 b6 a0 fc bf a8 71 e4 bf ef fe 00 c0 71 9c 02 c0
       -1.9736545 -1.7847185 -2.01556 -2.0407984
000130 67 64 f7 bf 4b 49 f5 bf a4 47 04 c0 20 64 f8 bf
       -1.9327515 -1.9162992 -2.0668726 -1.9405556
000140 32 f2 de bf 2c 8d 02 c0 02 44 03 c0 c7 79 08 c0
       -1.7417662 -2.0398664 -2.0510259 -2.1324327
000150 96 1b 07 c0 61 03 01 c0 8f 3a 01 c0 e7 01 0b c0
       -2.1110587 -2.0158312 -2.0191991 -2.171991
000160 4c fd 04 c0 03 45 e3 bf de 4b 05 c0 f6 a3 01 c0
       -2.07796 -1.7755436 -2.0827556 -2.0256324
000170 10 06 da bf 8d e8 02 c0 9b ff fe bf eb 24 ff bf
       -1.70331 -2.0454438 -1.9921755 -1.9933141
000180 55 7d 0b c0 9a 45 07 c0 b5 f8 f3 bf 07 35 01 c0
       -2.1795247 -2.1136231 -1.9060274 -2.0188615
000190 34 4c eb bf 1d aa 04 c0 de 6e 03 c0 7f b1 f5 bf
       -1.838263 -2.072883 -2.0536418 -1.9194793
0001a0 3a e8 03 c0 86 38 08 c0 03 57 05 c0 02 ec 00 c0
       -2.061049 -2.12845 -2.0834358 -2.0144048
0001b0 b1 48 09 c0 3d 86 0c c0 2f 2a e5 bf b7 b6 f5 bf
       -2.1450617 -2.1956933 -1.7903498 -1.9196385
0001c0 0b 8f 11 c0 3b 05 04 c0 6c b3 f5 bf 1a e9 02 c0
       -2.2743556 -2.0628192 -1.919538 -2.0454774
0001d0 d4 b1 f6 bf 45 c3 ff bf 1f 8e 0e c0 fe 78 e8 bf
       -1.9273019 -1.9981467 -2.2274244 -1.8161924
0001e0 e5 50 19 c0 84 3e 08 c0 62 53 05 c0 5e 71 f9 bf
       -2.3955624 -2.1288157 -2.0832143 -1.9487722
0001f0 9f 95 01 c0 58 a8 e3 bf de 5b 0b c0 8b 05 04 c0
       -2.0247571 -1.778575 -2.1774821 -2.0628383
000200 8e 13 fd bf 44 21 fd bf 0c b4 02 c0 d0 7f 0c c0
       -1.9771593 -1.9775777 -2.0422392 -2.195301
000210 f9 26 11 c0 81 fe 0a c0 c5 c6 fa bf c8 b5 f5 bf
       -2.2680037 -2.1717837 -1.959191 -1.91961
000220 27 8f f2 bf 24 79 0e c0 77 70 f7 bf 76 ab 02 c0
       -1.8949937 -2.2261438 -1.9331197 -2.0417151
000230 59 0d fb bf 79 f4 ff bf 0e f0 f1 bf 5c 0e 0c c0
       -1.9613448 -1.9996482 -1.8901384 -2.1883764
000240 ba b7 fd bf 62 7e 01 c0 fd c8 ea bf 68 bc 0c c0
       -1.9821694 -2.0233388 -1.8342587 -2.1989994
000250 64 ab 06 c0 7d fe f0 bf 5e 1b 0c c0 11 06 0a c0
       -2.1042109 -1.8827664 -2.1891704 -2.1566203
000260 19 08 e8 bf 6a c4 ff bf 56 12 fa bf f8 25 00 c0
       -1.8127471 -1.9981816 -1.9536846 -2.0023174
000270 26 9d 12 c0 5b ca 0b c0 a2 b3 03 c0 c2 22 d9 bf
       -2.2908416 -2.1842258 -2.057839 -1.6963732
000280 8a 01 f1 bf 1b dd dd bf 2c 80 13 c0 55 0f f5 bf
       -1.8828595 -1.7333101 -2.304698 -1.9145304
000290 d3 64 eb bf 80 25 02 c0 d7 68 07 c0 6c eb fa bf
       -1.8390144 -2.0335388 -2.115774 -1.9603095
0002a0 d7 05 f7 bf f0 12 fd bf f0 8d f3 bf 7d 77 08 c0
       -1.9298657 -1.9771404 -1.9027691 -2.132293
0002b0 11 df 03 c0 c5 c0 0d c0 a1 4e f7 bf 7e f0 02 c0
       -2.06049 -2.2148907 -1.9320871 -2.0459285
0002c0 63 23 03 c0 b0 86 07 c0 f0 5c 03 c0 f4 d3 e4 bf
       -2.0490348 -2.1175957 -2.0525475 -1.7877183
0002d0 90 1f 06 c0 57 cd 0d c0 fe 16 15 c0 08 80 e0 bf
       -2.0956764 -2.215658 -2.3295283 -1.7539072
0002e0 4c f7 f6 bf f7 ee f4 bf 04 09 0a c0 7f ea 07 c0
       -1.9294219 -1.9135426 -2.1568003 -2.1236875
0002f0 a7 fa f4 bf 0a 75 11 c0 7b c1 0c c0 b5 76 08 c0
       -1.9138993 -2.2727685 -2.199309 -2.1322453
000300 ff 10 0b c0 6e 50 ff bf b5 a2 08 c0 bc 27 04 c0
       -2.1729124 -1.994642 -2.1349308 -2.0649252
000310 08 57 fb bf 78 25 f8 bf 39 13 0e c0 9e e9 fe bf
       -1.9635935 -1.9386435 -2.2199233 -1.9915044
000320 5a 18 fd bf 57 ed 02 c0 45 93 07 c0 7e 39 01 c0
       -1.9773057 -2.045736 -2.1183636 -2.019134
000330 15 95 04 c0 04 a2 0e c0 48 6a 06 c0 02 61 11 c0
       -2.0715992 -2.2286386 -2.100237 -2.271546
000340 73 6d 19 c0 18 78 fc bf b3 4e 0f c0 fc ca 11 c0
       -2.3973053 -1.972415 -2.2391784 -2.2780142
000350 7f de e8 bf fd d1 03 c0 a6 cd f2 bf 5f d8 fb bf
       -1.81929 -2.0596917 -1.8969009 -1.9675406
000360 aa 61 09 c0 21 68 f1 bf 46 4a e8 bf cb fc 00 c0
       -2.146586 -1.8859903 -1.8147666 -2.0154293
000370 fc 7f 00 c0 bd 76 04 c0 83 50 00 c0 d8 75 0d c0
       -2.0078115 -2.0697472 -2.004914 -2.2103176
000380 47 e8 0e c0 57 d3 08 c0 8a 25 04 c0 ee 2a fc bf
       -2.232927 -2.1378992 -2.0647912 -1.9700601
000390 0d 80 03 c0 1d f2 02 c0 76 ae 0d c0 db da 04 c0
       -2.0546906 -2.0460274 -2.2137733 -2.0758579
0003a0 20 32 05 c0 70 47 ea bf 10 2b 1d c0 17 63 03 c0
       -2.0811844 -1.8303051 -2.4557533 -2.052923
0003b0 9f fc 04 c0 31 1d 07 c0 09 84 0c c0 a5 b0 f8 bf
       -2.0779188 -2.1111567 -2.1955588 -1.9428908
0003c0 bb cf f7 bf 4d 11 00 c0 f0 97 07 c0 d2 0c 0d c0
       -1.9360269 -2.001056 -2.1186485 -2.2039075
0003d0 e5 88 e9 bf 5a b0 ea bf 90 08 10 c0 e4 11 02 c0
       -1.8244902 -1.8335068 -2.2505226 -2.032342
0003e0 6e ea fa bf 76 40 fe bf d7 40 f9 bf 9f 32 f0 bf
       -1.9602792 -1.9863422 -1.9472913 -1.8765448
0003f0 6a 14 de bf eb 70 09 c0 87 af 14 c0 e2 58 eb bf
       -1.734998 -2.147517 -2.3232133 -1.83865

layers.3.bias.mean f4 [32]
000000 a7 68 fe b9 21 50 59 3a 0c 76 13 3a a3 43 d7 3a
       -0.00048524627 0.0008289833 0.00056251953 0.0016423356
000010 ae b7 57 37 24 5b aa 38 4a 33 30 3a 14 09 10 3a
       1.2857765e-05 8.123208e-05 0.000672151 0.0005494517
000020 c8 ed cf b9 43 e2 91 3a 81 54 64 3a 71 81 18 37
       -0.00039659278 0.0011130053 0.0008710102 9.090044e-06
000030 7d 36 95 b8 ae 46 8f 3a 96 9b de b8 62 d7 ba 39
       -7.115023e-05 0.0010931098 -0.00010614765 0.00035637157
000040 0e c7 6e 3a 12 ca dd 39 21 4b 32 b9 01 37 cc 39
       0.0009108641 0.0004230296 -0.0001700339 0.00038950893
000050 a6 cb 9f 39 82 1a 02 39 12 2a 6b 39 d5 69 26 ba
       0.00030478573 0.00012407641 0.00022427019 -0.00063481677
000060 e6 55 94 3a 09 ee 4d 39 02 f5 0a 3b 0c 31 99 39
       0.0011317104 0.00019638998 0.0021203165 0.00029218977
000070 31 2a be 39 19 09 99 b9 e1 7f 75 b9 62 ac 5e 3a
       0.0003627106 -0.00029189212 -0.0002341266 0.0008494315

layers.3.bias.scale f4 [32]
000000 f0 45 0f c0 70 fc 0e c0 4e 1d 0e c0 b8 8d 0f c0
       -2.2386436 -2.2341576 -2.2205386 -2.2430248
000010 88 47 10 c0 76 fd 0f c0 cd 26 10 c0 73 f5 0b c0
       -2.254366 -2.249845 -2.2523682 -2.186856
000020 96 29 10 c0 38 b8 0d c0 ea a0 0c c0 e2 2c 10 c0
       -2.2525382 -2.2143688 -2.1973214 -2.2527394
000030 b1 12 0f c0 71 89 0e c0 b3 f7 0e c0 2d f3 0f c0
       -2.2355158 -2.2271388 -2.2338684 -2.2492173
000040 c5 db 0f c0 b2 09 0f c0 d2 6f 10 c0 73 a8 0f c0
       -2.2477887 -2.2349668 -2.256825 -2.2446563
000050 68 3b 0c c0 91 16 10 c0 87 db 0e c0 65 01 10 c0
       -2.1911259 -2.2513773 -2.232149 -2.250085
000060 18 47 10 c0 08 2b 10 c0 af 8a 0b c0 12 36 10 c0
       -2.2543392 -2.2526264 -2.1803396 -2.2533002
000070 87 1d 10 c0 37 2a 10 c0 93 3e 10 c0 b8 3c 10 c0
       -2.2518022 -2.2525766 -2.2538192 -2.253706

layers.5.weight f4 [64, 32, 3, 3]
000000 f1 c4 cc bc 95 92 b0 bd b4 e0 02 bd 26 a4 4d bd
       -0.024996253 -0.08621708 -0.031952575 -0.050205372
000010 27 05 b3 bc a3 99 5b 3d e7 6c 88 bd 30 9e c8 bc
       -0.021853043 0.053613316 -0.066613965 -0.024489492
000020 34 b6 98 3d bc 7e da bd d6 4d 7e bd 26 1d 56 3c
       0.074566275 -0.10668704 -0.06208595 0.013068473
000030 ed 06 5e 3d 50 2e 40 3d 31 df 8f bd 46 8c 89 3c
       0.054205824 0.046919167 -0.07024992 0.01679052
000040 e2 ec 10 bb 47 d5 0d bd 6b 95 89 bd b1 e9 05 bd
       -0.002211385 -0.034627225 -0.06717952 -0.03269357
000050 51 a1 ac bc f7 e5 60 bd 27 1a 64 bd ad 65 9a bd
       -0.021073015 -0.05490681 -0.055689003 -0.07538924
000060 37 4f 61 bc c1 dd 40 bd 1d dc 6c 3c 8f ec c8 bc
       -0.013751796 -0.04708648 0.014456776 -0.024526862
000070 96 8b f6 3c b6 cb 96 bc 1d 64 11 3d 3a 65 a0 bb
       0.030095857 -0.018407684 0.035495866 -0.0048948796
000080 05 22 fb bc a3 00 38 3d 37 1c 7d 3d a3 78 e6 3b
       -0.03065587 0.044922482 0.061794486 0.007033424
000090 de a5 53 bc 7a b1 e1 ba 72 42 f9 3b 78 5d 04 bd
       -0.012917964 -0.001721903 0.007606798 -0.0323157
0000a0 22 c0 53 3a 48 7f bb 3c 3d 91 dc 3d f4 9e 13 3d
       0.0008077641 0.02288784 0.107698895 0.03604026
0000b0 69 c3 41 3d 7e e6 cf 3b 79 1a 75 bd ed ea 08 bd
       0.0473055 0.0063446155 -0.0598397 -0.033427168
0000c0 eb 26 3b bc fc fa 31 3d 38 31 4f bc 87 ef 7f bc
       -0.011422853 0.043452248 -0.012646012 -0.015621073
0000d0 1f 87 e1 3c 5d 2f 96 3d f2 c8 97 39 4a 65 b2 bd
       0.027530251 0.073332526 0.0002895068 -0.087107256
0000e0 34 04 bf bd 48 76 28 3d a0 c3 86 bc 06 08 38 bd
       -0.093269736 0.041128427 -0.016450703 -0.044929527
0000f0 9b 41 4e 3d a2 16 5c 3c 05 6b a9 bc a8 8f 64 bd
       0.050355535 0.01343313 -0.020680914 -0.055801064
000100 2a 3c 51 bb 39 dc 1e 3d b9 d8 15 bc 44 6c e2 bc
       -0.003192673 0.03878424 -0.009145909 -0.027639516
000110 dc 06 ea 3b 56 2d 0f bb c2 28 3f 3b 35 7a de 3c
       0.007141931 -0.002184709 0.002916858 0.027157882
000120 6a f6 03 bc 39 c8 a1 3b 7b d9 98 bc ba 61 8a 3d
       -0.008054355 0.0049371985 -0.01865839 0.06756921
000130 af be e0 3c f4 00 f5 3c 09 c5 8d 3d d4 99 00 3d
       0.027434675 0.029907681 0.06922347 0.031396702
000140 55 36 b2 bc 39 73 cd bd 47 bc c6 bd 65 02 8c bd
       -0.021754423 -0.100317426 -0.0970388 -0.06836394
000150 28 e8 65 3d 6c 74 29 bd 65 e9 10 3d 72 65 84 3d
       0.056129605 -0.041370794 0.035378832 0.06464662
000160 f5 6c d4 3b 23 5e e5 3b a7 ef 89 bc 29 4d 92 bd
       0.0064827153 0.0069997474 -0.016837908 -0.071436234
000170 bd f3 f8 bb 81 47 02 bd 13 26 55 bd 68 70 ed bc
       -0.0075974152 -0.031806473 -0.052038264 -0.028984264
000180 b3 31 22 3c 1f e9 89 bc d6 99 b0 bc 9d ef 8a 3c
       0.0098995445 -0.016834794 -0.02155773 0.01695996
000190 6c 19 41 3d a4 a9 a6 bd 74 70 ad 3c 86 0d a0 bc
       0.047143385 -0.08137825 0.021171786 -0.019537698
0001a0 c5 6e 59 bd 5c bb 2c 3d 34 56 17 3d 22 c2 58 bd
       -0.053084154 0.042170867 0.036947444 -0.052919514
0001b0 a3 b3 d8 bc fe 59 59 3c f5 29 53 bd ef 2e 00 bd
       -0.026452845 0.013266085 -0.051553685 -0.03129476
0001c0 45 53 b1 bd fc f2 00 be 0b cc 08 3d ca 8e ab 3c
       -0.086584605 -0.12592691 0.033397716 0.02094211
0001d0 9d 3c d1 bc 09 99 38 bd 63 55 3a bc ff 6b fd bc
       -0.025541598 -0.04506782 -0.011372897 -0.030935286
0001e0 3e 0c 99 3d ce 37 85 3c 91 e5 d2 bc 67 6b 9b bb
       0.07473038 0.016261961 -0.025744231 -0.004743028
0001f0 87 ab 12 3d 50 e6 fa bc ca 28 91 3d 41 70 27 bd
       0.035808112 -0.0306274 0.07087858 -0.040878538
000200 4f b4 fc bd de 1e b3 3d aa 56 63 3b 73 3e 31 3c
       -0.12339079 0.08746122 0.0034689107 0.010818112
000210 95 38 2a 3b 13 71 72 3b 61 f7 ce 3c 41 fe 86 3d
       0.0025973667 0.0036993667 0.025264444 0.06591464
000220 03 bf 48 bc 00 8c 20 bc 2c 55 2e 3d 27 20 0c bd
       -0.012252572 -0.009799004 0.042561695 -0.03421035
000230 b8 6e 14 bc 35 3f 9c 3c cd 29 83 3c 97 4a b8 bd
       -0.0090596005 0.019073108 0.016011143 -0.08998602
000240 0a ed 84 3d a0 db 97 bd a4 d1 ed 3b 28 e8 c9 bb
       0.06490524 -0.07414937 0.007257657 -0.0061617084
000250 ab 56 8a bd 89 85 86 bd fc b2 bf 3c ea f0 64 bd
       -0.06754812 -0.065684386 0.023400776 -0.055893816
000260 8e 8b 6a bd dd 03 eb 3c ce 88 0d bd 29 7b 1c 3b
       -0.057261996 0.028688366 -0.034554295 0.002387712
000270 00 06 8d bd 1c 5e d8 bd 02 21 78 bd ca f0 46 3d
       -0.0688591 -0.10564825 -0.060578354 0.048569478
000280 41 4e ab bd e2 63 fd bd 3a 50 86 bd fd af a6 3b
       -0.08364535 -0.12372567 -0.06558271 0.0050868974
000290 33 9b 86 3d 90 b3 6c bd ad 63 0a 3d 19 0a cd 3c
       0.06572571 -0.05778843 0.033786464 0.025029229
0002a0 44 84 71 bd d7 00 ba 3c 6c 39 1f 3d f2 70 63 bd
       -0.05896403 0.022705479 0.03887312 -0.055527635
0002b0 78 79 87 bd 1e 24 a5 bd ce ca b2 3c f3 04 8e bd
       -0.06614965 -0.080635294 0.02182522 -0.06934538
0002c0 01 6e 9e bd 39 a4 90 bd 63 b1 6b bc 7c 34 8b 3d
       -0.07735825 -0.07062573 -0.014385554 0.0679712
0002d0 dc 13 0d 3d d4 12 a7 bd 7e e7 b4 bd 32 30 df bc
       0.034442768 -0.08157888 -0.08833216 -0.027244661
0002e0 0c 0a 11 3a 04 4a 6c bc 3c 29 ac bc 03 68 ab 3d
       0.0005532808 -0.014421944 -0.021015756 0.08369448
0002f0 32 78 a0 bc 5f c9 3a 3c a6 ba 57 bd 45 2b c5 3a
       -0.019588564 0.01140055 -0.052668236 0.0015042803
000300 99 ff 03 3c 78 39 d8 3c b6 79 38 3b 29 3f 86 bd
       0.008056545 0.02639459 0.0028148717 -0.065550156
000310 9a 7a 52 bd 59 d9 10 bd aa 58 40 bd 2f 2c 5c bd
       -0.051386453 -0.03536353 -0.046959557 -0.053753074
000320 90 ac 1b bd 12 bf 90 3d 81 71 06 bc 97 30 d0 bd
       -0.038006365 0.07067694 -0.008205772 -0.10165518
000330 3d f7 d4 3c a2 d9 97 3b b9 fb 67 bd 59 00 7a 3b
       0.025996799 0.004634098 -0.056636546 0.003814718
000340 80 3e 46 bc 8e b0 9e bd 28 04 d7 bd 3f 3e c3 bc
       -0.012099862 -0.07748519 -0.104988396 -0.023833392
000350 7a 4a 9d bb e1 47 ac 3c 94 3f 6e 3c 5a 24 78 3b
       -0.004800138 0.021030368 0.014541525 0.0037863464
000360 03 af b7 bc 34 81 cb bc 0b 50 2c 3d ca 9a 91 bc
       -0.02242232 -0.024841882 0.042068522 -0.017774004
000370 e6 5a 4e bd c4 a1 41 3d 84 60 61 3d 70 c7 2b bc
       -0.050379656 0.047273412 0.055023685 -0.010484561
000380 b4 a7 c6 b9 ba 0b aa bd 3b 2e c0 bc 6a 53 16 bc
       -0.00037890451 -0.08303018 -0.023459544 -0.009175161
000390 d7 19 3d 3d 97 29 dc bb 59 a6 ff bd 02 a4 60 bd
       0.04616722 -0.006718825 -0.124829 -0.05484391
0003a0 5d 35 7c bd 84 9b 10 3d 03 54 7e 3d 84 cf a7 3b
       -0.06157433 0.03530456 0.06209184 0.0051211733
0003b0 ad 5d e9 bc a3 ef 8c 3d 64 a6 44 3c 83 1e 67 bd
       -0.02848705 0.068816446 0.012002561 -0.056425583
0003c0 53 b6 37 bc 87 5d 0c 3d 5c 2b 43 bd 2c 33 f9 bd
       -0.011212903 0.034268882 -0.047648773 -0.121679634
0003d0 9d 92 ba bd 45 a9 32 bb e5 9c d1 bb 2a 16 0d bd
       -0.091099955 -0.0027261537 -0.006396877 -0.034444965
0003e0 06 45 50 bc 55 60 ec 3b 7c 41 c8 3d b2 27 60 3d
       -0.012711769 0.007213632 0.09778115 0.054725356
0003f0 5f bb ae 3c e6 67 4f 3c 31 3a 32 bd 71 71 af 3d
       0.02132958 0.012659049 -0.043512527 0.08566559

layers.5.bias f4 [64]
000000 6e 9f 23 bd fc fd 8b bd 01 50 c7 3c b3 74 43 bd
       -0.039946966 -0.06835553 0.024330141 -0.047718715
000010 aa 07 4c bd 75 08 99 bd b5 e6 3e bd d2 66 44 bd
       -0.049811997 -0.07472316 -0.046606738 -0.04794962
000020 ba d4 10 3c 24 90 19 3d ff 93 39 bd 31 c3 a4 bc
       0.00883978 0.03749098 -0.045307156 -0.020112606
000030 ab 1e 86 3b da f9 32 bd b6 cb ba 3b 74 a8 3b bd
       0.0040930114 -0.04369531 0.005700554 -0.045814946
000040 77 e9 eb 3c 05 1c 18 bd 57 cb 6e 3c c1 25 71 3c
       0.028797848 -0.037136097 0.014574847 0.014718474
000050 da 0d 43 bd 80 6e 82 bd 0f fa c6 bc 63 00 31 bc
       -0.04762063 -0.063687325 -0.02428916 -0.010803315
000060 57 22 70 bd 96 98 1e 3d a2 91 65 3d dd 9b 51 bd
       -0.0586265 0.038719736 0.05604709 -0.051174033
000070 d2 85 44 3d b5 86 a7 3b e7 dd 8c bd bf 0e 56 bd
       0.047979183 0.005112494 -0.06878262 -0.052260157
000080 62 a1 5f bd 1f 36 b6 bc cf b9 0e 3d 73 3a 6c bd
       -0.054597266 -0.022242604 0.03484517 -0.05767293
000090 26 3c 2c bd d6 ff f3 3b 1d 7a 13 bd 5b 44 4a bd
       -0.04204955 0.0074462695 -0.03600513 -0.049381595
0000a0 c8 d9 88 bd 08 06 26 3d e2 37 93 bb 80 54 7c bc
       -0.066821635 0.040533096 -0.0044927457 -0.015401006
0000b0 6b 92 35 3d 12 f9 87 bd 53 de 4c bd d2 91 7c bd
       0.04432909 -0.06639303 -0.050016712 -0.061662503
0000c0 40 5f 16 bd 1c be e0 bb 12 27 dc 3c 08 c2 6c bd
       -0.03671193 -0.0068586003 0.026874099 -0.05780223
0000d0 32 ea 2b 3d 77 b9 b2 3b 04 a9 9a 3a a7 cd 24 bd
       0.041971393 0.005454238 0.0011799638 -0.040235188
0000e0 05 b2 99 bb f9 75 8d bd 4b de 9a 3b 63 33 c3 bc
       -0.004690411 -0.06907267 0.0047262064 -0.023828214
0000f0 63 97 fc 3c f1 39 5c bd f2 a9 e0 3c 80 e1 4a bc
       0.030833906 -0.053766195 0.027424786 -0.012382865

layers.7.weight f4 [64, 64, 3, 3]
000000 31 f2 98 3a 7d c2 ad bc 7e 71 ac 3c 5c f6 5a 3d
       0.0011668858 -0.021210903 0.021050211 0.053457603
000010 e6 47 e4 bc f4 f4 5b bd 87 c2 84 bc 60 4f c4 3c
       -0.027866315 -0.053700402 -0.01620604 0.02396363
000020 eb e4 0f bd c6 b7 a2 3d 53 ee 12 bd 9d d8 db bc
       -0.035130423 0.07945208 -0.035871815 -0.026836688
000030 b8 7e d7 3c 4f b3 1c bd 36 80 b2 bc e3 fa 29 3c
       0.026305541 -0.03825694 -0.021789651 0.010374757
000040 51 28 d6 3c 05 fe de 3c 66 16 82 bc ac df c9 3c
       0.026142271 0.027220735 -0.015879821 0.024642788
000050 fd 40 22 bc 66 ad e1 39 e1 59 f5 3c f5 0d 72 3c
       -0.00990319 0.00043044536 0.029950084 0.014773835
000060 b4 43 7e bd 46 07 1e 3d 3c 07 f3 bc 51 e3 00 3d
       -0.062076285 0.038581155 -0.029666536 0.031466786
000070 f1 2d bb bc 02 36 73 3c 9b c5 6c 3d 8d 1d 3a bb
       -0.022849055 0.014844419 0.05780564 -0.0028398961
000080 d1 20 0a bd 94 58 59 bd e8 24 35 ba 87 12 95 3c
       -0.033722702 -0.05306299 -0.00069101015 0.018197311
000090 b8 aa de 3c 06 13 70 3c 93 3b 83 3a dc 6d 4b 3c
       0.027181014 0.014652973 0.0010012261 0.012416329
0000a0 59 53 17 3b 30 38 8d bb d1 d1 31 bd 25 2d 32 bc
       0.002309045 -0.0043096766 -0.043412987 -0.010875021
0000b0 40 05 b6 bc 74 10 8f 3c 67 d0 cc 3c d7 b5 2a bc
       -0.0222193 0.0174639 0.025001718 -0.010419331
0000c0 a7 68 01 bc f7 a9 8a bd 34 38 40 bd 0a a5 cf bc
       -0.007898486 -0.067706995 -0.0469286 -0.025347251
0000d0 dd 84 33 bc ae 9e 88 3b cf a8 c9 bc a7 30 ac bc
       -0.01095697 0.0041693067 -0.024616627 -0.021019293
0000e0 1a fd 76 3c e2 70 8d bc 34 51 95 3c 44 4c 28 38
       0.015074993 -0.01726574 0.018227197 4.012535e-05
0000f0 f0 8c 84 bb d6 39 26 bd e8 91 06 3d 46 fc fc 3c
       -0.0040451214 -0.0405825 0.03285399 0.030882012
000100 68 dd 23 3b 73 5e 4a bd 46 6e 2e 3d 45 0f d1 b9
       0.0025003795 -0.04940648 0.042585634 -0.00039874963
000110 6c 69 07 bd 3a 95 e5 bc 6c 94 19 bd 70 51 3d 3d
       -0.033059523 -0.028025258 -0.03749506 0.046220243
000120 d4 78 43 3d 86 6c cf bc 7e c8 26 bd 79 67 4f bc
       0.047722653 -0.025320303 -0.040718548 -0.012658947
000130 09 81 30 bd 31 24 bb 3c ba 4e 48 3a 1a 2b 7d 3d
       -0.043091808 0.022844406 0.00076411257 0.061808683
000140 b8 69 a5 3c bc e6 4f bd 33 b0 7a bb 97 f0 ec ba
       0.020192012 -0.050757155 -0.0038251996 -0.0018077072
000150 2c 98 ca bd 6e 7b 6b 3c 7b a5 48 3d d3 e8 6b bd
       -0.09892306 0.01437269 0.04898594 -0.057595085
000160 de fd 25 bb 43 91 75 bc a5 90 58 bc 77 03 d2 3b
       -0.0025328319 -0.014988246 -0.01321808 0.0064091044
000170 08 99 33 3d 69 56 5e 3d 96 5f 70 bb 72 9e ee 3c
       0.043847114 0.054281626 -0.0036678067 0.029128287
000180 16 06 d8 3c 28 e8 6b ba aa e0 55 3c 3f 09 1b 3d
       0.02637009 -0.00089991326 0.013054052 0.037850615
000190 2e bb 1a 3d 77 31 37 bc 65 95 94 3b 51 af 90 39
       0.037776165 -0.011181227 0.004534411 0.0002759644
0001a0 1d 91 cf 3c 7c 06 0a 3b a3 8f b5 3c 06 6c be bc
       0.02533775 0.0021060994 0.022163218 -0.023244869
0001b0 d7 2b 64 3d 76 ac 5d 3c 93 f0 8f 3c 93 20 85 bd
       0.05570587 0.013529887 0.01757077 -0.06500354
0001c0 8f e1 90 b7 4d 33 e6 bc 1b 92 27 bc 5e f6 8e bd
       -1.7271172e-05 -0.028100634 -0.010227705 -0.069805846
0001d0 2d ef 8a bc d8 cd 87 3d 15 89 12 3d 5c 4d a4 bd
       -0.016959751 0.066310585 0.035775263 -0.08022568
0001e0 25 2e dc 3c 01 e9 2b 3c f0 36 b1 bd 4f dd 6a 3c
       0.026877472 0.010492564 -0.086530566 0.014334991
0001f0 25 15 db bb 13 9e 55 3d 6b c4 8d bc 60 8a 61 3c
       -0.0066858702 0.052152704 -0.017305573 0.013765901
000200 a6 6b a7 bc 61 a0 5e bd 8b f7 bd bb 4e d0 31 bb
       -0.020437073 -0.054352168 -0.0057973317 -0.0027132216
000210 61 ee bf bb ef 55 54 3c 54 70 7f bd fa 73 66 3c
       -0.0058572744 0.012959941 -0.062362984 0.014065737
000220 d8 87 ba 3c 1d f8 21 3d c6 52 8f 3c e3 45 43 bc
       0.022769853 0.03954326 0.017495524 -0.011918518
000230 d4 82 82 bc d9 4e 48 bb 80 32 36 3c cf 87 f1 3a
       -0.015931524 -0.0030564575 0.011120439 0.0018427315
000240 9e 97 37 3d cc 47 3f 3a bc 20 36 bd 30 11 2f 3d
       0.044822328 0.00072967703 -0.04446481 0.042741
000250 83 7b 12 3d 9c 73 0b 3d fe 4b 05 bd 1f e3 de 3b
       0.03576232 0.0340458 -0.032543175 0.0068019773
000260 59 6b 2e 3d 20 8f 48 bd 84 a6 e8 bc 1a 64 17 bd
       0.042582843 -0.04896462 -0.028399713 -0.0369607
000270 10 6d 08 3d 29 94 be bc e6 42 02 bb e4 ab e5 3c
       0.033307135 -0.023264008 -0.00198763 0.028036065
000280 4f 23 dd 3c 5f 00 0e bd 2d 33 36 3c 47 c5 0f 3d
       0.026994376 -0.034668323 0.0111206 0.035100248
000290 fc 07 8b bc f4 df 22 bd 8e 25 16 bc 2c a2 0a bd
       -0.01697158 -0.03976436 -0.009164227 -0.033846065
0002a0 e0 19 07 bd b6 ec 0e bd 5e e8 68 3d e1 6e e4 bc
       -0.03298366 -0.034893714 0.056862228 -0.027884902
0002b0 cb 69 2b 3c b1 38 26 bd a7 34 a4 3c f4 ea a3 bd
       0.010462235 -0.04058141 0.020044638 -0.08003798
0002c0 2c c9 bb ba 36 11 79 3d b9 6a 16 bd 32 44 b5 bc
       -0.0014326922 0.06080743 -0.036722872 -0.022127245
0002d0 35 ec 59 bc a2 56 8a bd 9e 60 46 bc b4 a2 0c 3d
       -0.013300945 -0.06754805 -0.012107996 0.034334853
0002e0 c1 49 9c bd 22 c7 5b bd b9 02 e6 bc 6e cf c3 3b
       -0.07631255 -0.053656705 -0.02807747 0.0059756553
0002f0 a6 a3 de bc 0b c1 67 3d fb 49 b2 bc 31 f8 20 3b
       -0.027177643 0.056580584 -0.021763792 0.0024561996
000300 9f 9e c0 3c 38 96 30 bd 0a 29 96 bd 9d 05 2a 3d
       0.023513136 -0.04311201 -0.07332046 0.04150926
000310 7e 2d 59 3d 4c 76 06 3c 21 9d 00 3d b0 55 ee bb
       0.0530219 0.008206915 0.03139985 -0.0072733983
000320 88 7d df bc ff 1d 91 bc c0 46 93 bb b9 50 e9 3c
       -0.027281538 -0.017714499 -0.004494518 0.028480874
000330 18 35 ca bc 0d ba d6 bb 7f 9b 03 3d 9d f4 09 bd
       -0.02468352 -0.0065529407 0.032130715 -0.033680547
000340 78 a7 03 bd 85 d3 ed bd 89 8a ad bc 1b af 90 bd
       -0.032142133 -0.1161261 -0.021184223 -0.07064649
000350 a5 53 d1 bc 74 c1 a6 3c 03 41 58 bd dc 18 d2 3d
       -0.02555258 0.020355918 -0.052796375 0.10258648
000360 36 48 3a bc 16 f0 fd bc ea a3 2e 3c 5b aa 0f bd
       -0.0113697555 -0.030998271 0.010659197 -0.035074573
000370 18 18 e8 bc b7 91 c5 bc 39 f6 82 3d b1 5c e2 bc
       -0.028331801 -0.024117334 0.063946195 -0.02763209
000380 f6 b3 e6 bc 25 5d 69 3a b4 85 84 bc 4a c3 f1 bc
       -0.028161984 0.0008902124 -0.016177036 -0.029512066
000390 35 68 02 3b 76 6b 3e 3d cf c2 e8 3c ef dc 11 3c
       0.0019898538 0.0464892 0.028413204 0.008902772
0003a0 ff 7b 4c 3d 67 23 db bc 94 d9 ca bd 5a 49 66 bd
       0.04992294 -0.02675028 -0.09904781 -0.056222297
0003b0 71 04 1d bd f4 eb 37 bd c9 96 9c 3c 2f 10 d3 bc
       -0.038334314 -0.044902757 0.019114869 -0.025764553
0003c0 87 dd 1b 3c fe d2 b5 ba c3 a4 8a bd d6 1c 38 3d
       0.009513265 -0.0013872085 -0.06769707 0.044949375
0003d0 90 f5 07 bd 7f 0f 3e bd 17 ed 41 3d 17 01 3f bc
       -0.03319317 -0.046401497 0.047345247 -0.011657975
0003e0 c3 56 c1 bc 51 46 8e bc 62 33 1f bb 59 2d 52 bc
       -0.023600942 -0.017367514 -0.00242921 -0.012828195
0003f0 11 d0 11 bd df 95 c6 bc c6 93 d8 bb 45 57 17 bb
       -0.03559882 -0.024241386 -0.006609413 -0.0023092788

layers.7.bias f4 [64]
000000 a4 15 a6 3c 22 5b b4 ba ab b5 d1 bc 13 49 1a bc
       0.02027399 -0.001376007 -0.025599321 -0.009416836
000010 dd eb 7b b8 41 09 21 bd 5f f9 d7 bc 26 ca 7d 3c
       -6.0062728e-05 -0.039315466 -0.026364027 0.0154900905
000020 cc 5b 8b bb 5b 7c 11 bd 44 b5 7e bc a6 c7 06 bd
       -0.0042528864 -0.035518985 -0.015546147 -0.032905243
000030 b2 cb 2d bd d0 74 ea ba 4f bf a3 3c 1b 7d 38 3c
       -0.042430587 -0.0017887596 0.019988684 0.011260296
000040 47 61 c6 bc b9 09 29 bd 9d f9 83 bd 8b 2b 94 3c
       -0.024216307 -0.041269038 -0.06444094 0.01808717
000050 6d 7d 05 3d 48 d2 16 bd 99 05 5d 3c 25 c3 c6 3c
       0.03259032 -0.036821634 0.013490104 0.024262974
000060 c0 14 ed bc f7 b0 b3 bc c7 ba 11 3c 39 f8 bd bc
       -0.028940558 -0.02193497 0.008894629 -0.02318965
000070 1e 23 9c bc fb 5f 70 3c 14 67 29 bd a8 6d 44 3b
       -0.019059714 0.014671321 -0.04135807 0.0029972587
000080 09 08 81 3c b1 8a ae 3b 00 3e 8a bc 6e 99 0e bd
       0.015750902 0.005326592 -0.016875267 -0.03481429
000090 a6 a2 0c bd 8e f9 12 bc 85 0e df bc f1 67 34 bd
       -0.0343348 -0.008970631 -0.027228603 -0.04404444
0000a0 46 a1 85 bc 05 97 44 3c 73 a6 2a bd 77 43 9e 3c
       -0.016312253 0.0119988965 -0.041662645 0.01931928
0000b0 29 3d 1b 3d 9d e3 07 bd 5b ba b4 3b ff 48 1a 3d
       0.037900124 -0.033176053 0.0055153794 0.03766727
0000c0 50 7b 8b bc b0 7f 02 bc 56 1e 4d bd 04 3a c4 bc
       -0.017026573 -0.007965013 -0.05007776 -0.023953445
0000d0 05 3d de 3c fb 63 69 3c 39 1a 4f bd 92 9c d4 bc
       0.027128706 0.014245029 -0.050562117 -0.025953565
0000e0 b3 dd 0b bc 13 99 e9 bc 78 ee 0d 3d 96 6a 95 3c
       -0.008536744 -0.028515374 0.03465125 0.0182393
0000f0 b5 99 57 3b 39 ae 9c bc 65 ad df 3c ee 76 69 3b
       0.0032898013 -0.019126045 0.02730436 0.0035623866
