examples/mnist/mnist_pretrained.pth (torch_old, 348942 bytes, 18 tensors)

layers.0.weight f4 [32, 1, 5, 5]
0.0046631624 0.015866678 0.13429175 0.09090014 -0.049037762 -0.029710837 -0.14997444 -0.019518409
-0.20069921 -0.18000782 -0.076151505 -0.06239188 0.055799525 0.019445363 0.25640792 -0.02437852
0.17314343 0.09056886 0.088656045 0.10313074 0.14522561 -0.15912387 -0.043259263 -0.16726664
-0.13131353 0.15254536 0.11701797 0.03623475 -0.085455336 0.2467679 -0.0073840506 -0.12778272
0.12441236 0.14510503 -0.06358596 -0.14227204 -0.00023266858 -0.109616935 -0.1744256 -0.0897264
-0.15028071 -0.16430172 -0.2408506 0.046096407 -0.08004636 0.13842277 0.11997292 0.06340151
0.020383786 -0.07215907 -0.06729755 0.023306621 -0.09791868 -0.028925253 0.016331011 0.04620548
-0.22603399 0.031353634 -0.24023701 -0.0022375006 -0.06489339 -0.04640928 0.094410926 -0.15309484
-0.09854322 -0.075270176 -0.15464617 -0.07129452 -0.08949423 0.20455837 0.16022362 0.18259138
-0.050023284 0.1596758 0.15959993 -0.033288985 0.20270759 0.06578327 0.11423947 0.19651571
-0.01587881 -0.091691025 0.0064253365 -0.13531996 -0.089823134 -0.06249762 0.08494733 0.0362992
-0.12978189 0.0938838 0.14368361 -0.21805403 -0.1320667 -0.10317628 -0.044586845 -0.058547836
-0.086043894 0.13497661 0.06949999 -0.0012224152 0.14802478 -0.13606946 -0.07227581 -0.13629983
0.02005955 -0.0062043713 -0.012448269 0.065602034 -0.026293991 -0.09212377 0.08603922 -0.06636431
0.04117367 0.022817323 -0.054746352 0.0623356 -0.0073021534 -0.017056994 0.050364096 0.036905877
0.14887117 0.14174706 0.22267638 0.21175131 0.14850771 0.11982819 0.16175172 -0.1498354
-0.06380207 -0.17518194 0.07059493 0.044542067 -0.15114675 0.08407798 0.0011826347 0.025103057
0.027230935 -0.037651204 -0.116686255 0.05650728 0.042253666 0.12753569 -0.06439521 -0.21012
-0.13285449 0.19736995 0.13056543 0.091247566 0.07589936 -0.035010997 0.14477426 0.10797123
-0.04724735 -0.11608424 -0.17039552 -0.1854165 0.11587701 -0.059570927 0.12310698 0.095487736
-0.05550918 0.0239805 0.09589867 -0.107107304 0.07005194 0.14649586 0.016545473 -0.00789448
0.06774878 0.023096047 -0.034961995 0.18002418 0.06395179 0.013366308 -0.1014057 -0.040807385
0.07607375 -0.031940762 -0.002763909 0.03442762 0.015654214 0.07605673 -0.20401683 0.16368596
0.15884425 0.1451129 0.019167842 0.10261047 -0.07430234 -0.052578207 -0.13370545 0.04083121
0.08164759 0.1295541 0.11900042 0.04044737 -0.16244766 -0.19933566 0.021551937 -0.24482006
-0.10457476 -0.03288895 -0.06868786 -0.12307275 0.11163903 -0.15467426 -0.09034994 0.18157288
-0.12544487 0.19266838 -0.040005907 -0.16185746 -0.043729123 0.09865979 -0.21105514 -0.093406424
0.14358081 -0.21682402 -0.084255494 -0.19916855 -0.11297011 0.01937176 0.22097507 -0.11262196
-0.0049739364 0.028173083 -0.06910968 0.1319416 0.03742561 -0.09704898 0.18195616 0.10348484
0.0126059465 -0.147521 -0.10408111 -0.019274592 0.10583238 -0.099135086 0.09898294 -0.16801065
-0.14118662 0.1545844 -0.15449932 -0.104178555 -0.24039945 0.20399964 -0.004098952 -0.009287104
-0.008563494 0.013699923 -0.09630333 0.04336385 0.11150679 0.10232973 0.009802079 -0.06861744
00000000: 71cd 983b d6fa 813c c783 093e da29 ba3d
00000010: d2db 48bd 2464 f3bc e692 19be 12e5 9fbc
00000020: 1884 4dbe f853 38be 52f5 9bbd a18e 7fbd
00000030: 0b8e 643d e24b 9f3c e647 833e 76b5 c7bc
00000040: 834c 313e 2b7c b93d 4d91 b53d 3636 d33d
00000050: 06b6 143e 5ef1 22be a030 31bd f247 2bbe
00000060: 0e77 06be da34 1c3e 1ea7 ef3d e46a 143d
00000070: 3503 afbd b9b0 7c3e e8f5 f1bb 79d9 02be
00000080: e8cb fe3d 6a96 143e 5b39 82bd c3af 11be
00000090: 7ff8 73b9 d87e e0bd a09c 32be 7ac2 b7bd
000000a0: 30e3 19be b63e 28be 8aa1 76be 96cf 3c3d
000000b0: 59ef a3bd b3be 0d3e 5db4 f53d a7d8 813d
000000c0: e6fb a63c 22c8 93bd 4cd3 89bd 87ed be3c
000000d0: 9789 c8bd a7f4 ecbc 9dc8 853c f541 3d3d
000000e0: 7475 67be ab6c 003d b100 76be 08a3 12bb
000000f0: d3e6 84bd a817 3ebd 845a c13d e5c4 1cbe
00000100: 07d1 c9bd 4027 9abd 915b 1ebe dc02 92bd
00000110: c048 b7bd c077 513e a911 243e 3cf9 3a3e
00000120: 37e5 4cbd 0e82 233e 2a6e 233e 085a 08bd
00000130: 9492 4f3e 61b9 863d 62f6 e93d 6a3b 493e
00000140: 4714 82bc 81c8 bbbd a18b d23b 5191 0abe
00000150: 31f5 b7bd 81fd 7fbd def8 ad3d 78ae 143d
00000160: 8be5 04be 2646 c03d cc21 133e 8e49 5fbe
00000170: 7e3c 07be 164e d3bd b2a0 36bd dbcf 6fbd
00000180: c837 b0bd 4f37 0a3e 0356 8e3d 7339 a0ba
00000190: cf93 173e cb55 0bbe 5705 94bd 2f92 0bbe
000001a0: ed53 a43c 0a4e cbbb d3f3 4bbc 5c5a 863d
000001b0: 7f66 d7bc 63ab bcbd 5535 b03d 03ea 87bd
000001c0: b9a5 283d 65eb ba3c b63d 60bd 9d53 7f3d
000001d0: e746 efbb 1cbb 8bbc 954a 4e3d 9e2a 173d
000001e0: af71 183e 2426 113e 4705 643e 56d5 583e
000001f0: 6812 183e 7b68 f53d 3ea2 253e 736e 19be
00000200: a9aa 82bd e562 33be 1394 903d be71 363d
00000210: 37c6 1abe 1331 ac3d a302 9b3a eda4 cd3c
00000220: 6913 df3c 2638 1abd 34f9 eebd 2d74 673d
00000230: 2e12 2d3d b798 023e a3e1 83bd b329 57be
00000240: 020b 08be 591b 4a3e f2b2 053e 01e0 ba3d
00000250: 2071 9b3d b167 0fbd b43f 143e 0520 dd3d
00000260: 7086 41bd 93bd edbd 2a7c 2ebe d3dd 3dbe
00000270: ed50 ed3d a500 74bd 831f fc3d 138f c33d
00000280: 985d 63bd c172 c43c 8666 c43d 135b dbbd
00000290: 6477 8f3d 0303 163e 5f8a 873c d957 01bc
000002a0: dfbf 8a3d ec33 bd3c 4f34 0fbd 4258 383e
000002b0: 28f9 823d 5cfe 5a3c cbad cfbd a525 27bd
000002c0: 8ecc 9b3d 51d4 02bd b322 35bb fa03 0d3d
000002d0: 443d 803c a1c3 9b3d cae9 50be 4b9d 273e
000002e0: 11a8 223e 7a98 143e e105 9d3c 7025 d23d
000002f0: d32b 98bd 3f5c 57bd 15ea 08be a03e 273d
00000300: da36 a73d d4a9 043e 7eb6 f33d 24ac 253d
00000310: ae58 26be a61e 4cbe b08d b03c 1cb2 7abe
00000320: 4b2b d6bd 90b6 06bd 39ac 8cbd 910d fcbd
00000330: 01a3 e43d ee62 1ebe 6409 b9bd 3eee 393e
00000340: 9f74 00be dc4a 453e 3cdd 23bd f6bd 25be
00000350: 4f1d 33bd 250e ca3d d71e 58be de4b bfbd
00000360: d906 133e 1e07 5ebe 258e acbd d7f2 4bbe
00000370: df5c e7bd 86b1 9e3c 4a47 623e 58a6 e6bd
00000380: 67fc a2bb 3dcb e63c 6089 8dbd b31b 073e
00000390: 994b 193d 9ec1 c6bd b752 3a3e dcef d33d
000003a0: 2c89 4e3c bf0f 17be 7a28 d5bd c0e5 9dbc
000003b0: a6be d83d 5607 cbbd 91b7 ca3d fc0a 2cbe
000003c0: 3a93 10be 5f4b 1e3e 1235 1ebe 915b d5bd
000003d0: 462b 76be 48e5 503e 8050 86bb f028 18bc
000003e0: e64d 0cbc a475 603c ae3a c5bd 4b9e 313d
000003f0: ac5d e43d 4092 d13d e698 203c 4d87 8cbd

layers.0.bias f4 [32]
-0.05951201 0.1310396 0.026400436 0.16527739 0.10010098 0.1390008 0.028083887 -0.11108761
0.17844366 -0.15531991 -0.020062191 0.16377395 0.1795756 -0.13155158 -0.16652352 -0.104399875
0.011972321 -0.14220974 -0.038029674 -0.053119805 0.08124848 0.16494589 -0.04966781 -0.13690354
-0.10625887 0.069537885 -0.07015187 0.20002463 0.111614965 -0.10865143 0.14432807 -0.09330705
00000000: dec2 73bd 3f2f 063e ba45 d83c 7a3e 293e
00000010: be01 cd3d 3a56 0e3e 2e10 e63c e781 e3bd
00000020: efb9 363e 2f0c 1fbe 7759 a4bc 5cb4 273e
00000030: abe2 373e 75b5 06be 2485 2abe 9acf d5bd
00000040: 8e27 443c 6e9f 11be 01c5 1bbd 2794 59bd
00000050: 9a65 a63d 93e7 283e 7970 4bbd 7130 0cbe
00000060: 409e d9bd e169 8e3d c9ab 8fbd 42d3 4c3e
00000070: 6396 e43d a484 debd bdca 133e c417 bfbd

layers.1.weight f4 [32]
1.1410685 1.1957949 1.0128783 1.0602535 0.97385544 1.0874196 0.9509574 0.959014
0.9706736 1.0752265 1.0801504 0.9948494 0.93182874 1.1876233 0.99623877 0.9536189
1.1158311 1.0420516 0.9997588 1.1559944 1.1943498 1.1301477 1.0980158 1.0446583
1.0124443 0.97786987 1.1201533 1.002587 1.046094 1.0893877 1.1720777 1.1222172
00000000: 880e 923f cf0f 993f ffa5 813f 63b6 873f
00000010: 974e 793f 9130 8b3f f271 733f f181 753f
00000020: 117e 783f 06a1 893f 5e42 8a3f 73ae 7e3f
00000030: 548c 6e3f 0a04 983f 8109 7f3f 5e20 743f
00000040: 8ed3 8e3f f261 853f 31f0 7f3f a0f7 933f
00000050: 74e0 983f aea8 903f c88b 8c3f 5db7 853f
00000060: c697 813f ae55 7a3f 2f61 8f3f c554 803f
00000070: 68e6 853f 0e71 8b3f a406 963f d0a4 8f3f

layers.1.bias f4 [32]
-0.018667584 -0.027292876 -0.05842323 -0.03020711 0.013623142 0.009876455 -0.02424319 0.0057160947
-0.050212488 -0.020705486 -0.03127713 -0.037227333 -0.037991785 0.00025736584 -0.04697703 -0.017771823
0.0016168909 -0.051563233 -0.060060553 0.00014588094 0.002841146 -2.7043467e-05 0.0106956335 -0.017161762
0.05438291 -0.05166799 0.0035866338 -0.012287869 -0.036556017 0.038053807 0.013255334 -0.022635339
00000000: c3ec 98bc 4f95 dfbc 324d 6fbd e774 f7bc
00000010: 9933 5f3c dbd0 213c a899 c6bc 144e bb3b
00000020: 9cab 4dbd 8d9e a9bc 731c 00bd b07b 18bd
00000030: 469d 1bbd 0fef 8639 fc6a 40bd 3796 91bc
00000040: dbed d33a f833 53bd 0e02 76bd 9ef7 1839
00000050: 8532 3a3b 67db e2b7 bd3c 2f3c d396 8cbc
00000060: 9dc0 5e3d d0a1 53bd bb0d 6b3b 0f53 49bc
00000070: c3bb 15bd 4fde 1b3d e72c 593c bf6d b9bc

layers.1.running_mean f4 [32]
-0.075110786 0.090300724 -0.026184013 0.15751995 0.20568371 0.15503171 0.08269789 -0.1004111
0.041606586 -0.19526625 -0.052743334 0.18641867 0.3237307 -0.1410269 -0.26086283 0.016280109
-0.021510316 -0.15415828 -0.15234675 -0.052837458 0.049305685 0.1539295 -0.043598335 -0.08006251
-0.08278906 -0.056776844 -0.097461805 0.2449243 0.08336952 -0.07109306 0.12905675 -0.12507011
00000000: afd3 99bd 96ef b83d db7f d6bc e94c 213e
00000010: c09e 523e a2c0 1e3e 835d a93d 56a4 cdbd
00000020: ab6b 2a3d e0f3 47be 6509 58bd 89e4 3e3e
00000030: 08c0 a53e 5b69 10be d08f 85be dd5d 853c
00000040: 6736 b0bc abdb 1dbe c900 1cbe 176c 58bd
00000050: c2f4 493d b29f 1d3e 2b94 32bd d0f7 a3bd
00000060: 508d a9bd d68e 68bd 0e9a c7bd 70cd 7a3e
00000070: a4bd aa3d 3d99 91bd 7427 043e 6112 00be

layers.1.running_var f4 [32]
0.009808129 0.031071262 0.04582228 0.015371132 0.05635894 0.03464702 0.017377587 0.013842616
0.053781036 0.04533611 0.024614306 0.05861852 0.07588773 0.018615866 0.09230724 0.06315829
0.021264728 0.019993106 0.09594798 0.021057518 0.04022284 0.049015578 0.008404752 0.041106667
0.035424147 0.06318871 0.04169501 0.032890927 0.0508829 0.046950392 0.024303287 0.06866533
00000000: 46b2 203c 2989 fe3c 25b0 3b3d 33d7 7b3c
00000010: a2d8 663d 09ea 0d3d 715b 8e3c 24cc 623c
00000020: 8149 5c3d 5bb2 393d f1a3 c93c f919 703d
00000030: 076b 9b3d 4d80 983c 940b bd3d 2259 813d
00000040: 5e33 ae3c 95c8 a33c 6080 c43d d180 ac3c
00000050: b4c0 243d 8fc4 483d 16b4 093c 775f 283d
00000060: e918 113d 1569 813d 63c8 2a3d a3b8 063d
00000070: 966a 503d 0e4f 403d b017 c73c 69a0 8c3d

layers.3.weight.mean f4 [32, 32, 3, 3]
0.110039614 0.043353453 0.008958897 0.041501533 0.066637136 0.03855296 0.0628993 0.05294853
0.06395092 0.035011973 0.026700798 -0.0004514958 0.068248376 -0.019280547 0.0010745615 0.0481551
0.045830984 -0.026950013 0.0025723996 -0.0007497678 -0.07014743 0.026120057 -0.02489406 -0.08205273
-0.02784938 0.03712972 -0.012106701 0.06090989 0.027390173 -0.06164662 -0.00810374 0.10773271
0.07932677 0.0039499425 0.0054882825 0.056074277 0.010403351 -0.06133263 0.03349894 -0.06715203
-0.04570266 -0.013706906 -0.037732866 0.021328922 -0.03988719 -0.08743067 -0.07534863 0.038679168
-0.09414531 -0.0971793 0.018006202 -0.07575717 0.010788037 -0.06326851 -0.045012392 0.059674405
0.061108023 0.0063387956 -0.028493067 0.054339368 -0.0055959118 -0.07281627 0.019545978 0.041191343
-0.013363613 0.065015964 -0.04136389 0.03743481 0.008661656 -0.042707153 0.008328325 0.037032407
-0.014227246 -0.010375028 -0.052627593 0.0024418123 -0.020584749 0.024019007 0.02306298 0.05111327
0.014076573 -0.04786378 -0.003174559 -0.09402173 -0.008774214 -0.027268462 -0.049095023 -0.05404244
-0.08767458 -0.079098515 0.010829922 -0.054162387 -0.089770414 -0.047748856 -0.043137282 0.0035972765
0.035452615 0.0191898 0.006387553 -0.014687151 0.013629451 -0.002519431 -0.04951238 -0.047376517
0.008350518 -0.06471843 -0.020430174 -0.060850874 -0.022390172 -0.0037005448 0.07338618 -0.022369836
-0.028587388 0.06837588 -0.025216961 0.020846546 0.044730008 0.06383907 0.07512369 0.07033941
0.0045641526 0.09247655 0.08979196 0.043066982 -0.0005829386 0.03379909 -0.057713408 -0.048210308
-0.11450112 0.001138491 -0.0526458 -0.059880197 0.03896374 -0.010745412 -0.022065904 0.008938097
0.08112776 0.06614101 0.026177578 0.04209711 -0.009520463 -0.067686625 -0.048843447 0.038859192
-0.012920728 -0.05354609 -0.07691086 0.06928548 0.049884547 -0.023622302 -0.016364265 0.004558978
0.027485074 0.03817146 0.025383897 -0.012553457 -0.058983497 -0.010147775 -0.054537375 -0.019247662
0.047069043 0.039453983 0.01843053 -0.058662992 -0.1012408 0.000894972 -0.035701122 -0.02022915
-0.0030612065 0.031544454 -0.08308915 -0.08521901 -0.07913612 -0.027659707 -0.025016971 -0.042787924
-0.045436636 -0.05590773 -0.04987311 -0.06951058 -0.017397301 -0.010124709 -0.053186532 -0.012525463
0.01922935 0.08392982 0.00575144 0.0042791567 0.04526989 0.011523535 -0.084981896 -0.06272436
-0.048508372 -0.028541604 -0.0025398396 -0.03133635 0.03971646 -0.030049065 -0.055489745 -0.033574898
0.031503193 -0.0019760716 -0.060819108 0.0069064964 -0.06906748 -0.017242355 0.06736524 0.027780868
-0.004032556 0.01873157 -0.07055977 -0.012371589 0.05296887 -0.035274677 -0.04738507 0.05173957
-0.055945914 0.026735388 0.017800294 0.020231513 -0.05148377 0.056208067 -0.014291836 -0.06257129
-0.04474872 -0.0064933747 -0.06991643 -0.094494656 -0.0069608116 0.0010512194 -0.04230578 -0.005047949
-0.007688093 -0.028964823 -0.0043561263 0.013922121 0.05114946 0.051793795 0.035822246 0.025913492
0.017282179 0.054060377 0.021288617 -0.03778995 -0.0062191505 0.08674854 0.013265642 -0.03412366
0.029825341 -0.0057041417 -0.005045444 0.011537311 -0.007220241 -0.0065526073 -0.030532716 -0.038904972
00000000: 735c e13d 6493 313d 56c8 123c 83fd 293d
00000010: 0d79 883d b5e9 1d3d 59d1 803d 8fe0 583d
00000020: b3f8 823d b768 0f3d a2bb da3c beb6 ecb9
00000030: cec5 8b3d 3df2 9dbc 4dd8 8c3a 483e 453d
00000040: 45b9 3b3d 46c6 dcbc b495 283b 118c 44ba
00000050: 75a9 8fbd bbf9 d53c a1ee cbbc 430b a8bd
00000060: 6224 e4bc 5515 183d 2f5b 46bc a67c 793d
00000070: 5b61 e03c 2b81 7cbd 8dc5 04bc f8a2 dc3d
00000080: 1376 a23d 856e 813b 0dd7 b33b 24ae 653d
00000090: d172 2a3c ed37 7bbd 2f36 093d 0187 89bd
000000a0: b632 3bbd ee92 60bc c78d 1abd feb9 ae3c
000000b0: c060 23bd da0e b3bd 6250 9abd 0c6e 1e3d
000000c0: 42cf c0bd f105 c7bd be81 933c 9326 9bbd
000000d0: 4fc0 303c ec92 81bd ea5e 38bd 266d 743d
000000e0: 684c 7a3d acb5 cf3b 4b6a e9bc f592 5e3d
000000f0: e95d b7bb b220 95bd e31e a03c 41b8 283d
00000100: 0ef3 5abc 1727 853d 2f6d 29bd 3e55 193d
00000110: 9ee9 0d3c b2ed 2ebd 8773 083c 4baf 173d
00000120: 6519 69bc 05fc 29bc 0890 57bd d006 203b
00000130: 59a1 a8bc 82c3 c43c 93ee bc3c 265c 513d
00000140: 6da1 663c d00c 44bd 430c 50bb 778e c0bd
00000150: b9c1 0fbc 1c62 dfbc dd17 49bd 9b5b 5dbd
00000160: bb8e b3bd 67fe a1bd fc6f 313c 61d9 5dbd
00000170: 8dd9 b7bd 4e94 43bd b8b0 30bd 49c0 6b3b
00000180: c336 113d ed33 9d3c ae4e d13b 60a2 70bc
00000190: 104e 5f3c 0a1d 25bb 7ecd 4abd e10d 42bd
000001a0: 9cd0 083c 198b 84bd 2e5d a7bc c43e 79bd
000001b0: 986b b7bc d784 72bb 7e4b 963d f240 b7bc
000001c0: 1930 eabc a708 8c3d cd93 cebc 60c6 aa3c
000001d0: d036 373d 0fbe 823d 73da 993d 1c0e 903d
000001e0: e38e 953b 5864 bd3d d9e4 b73d 0167 303d
000001f0: 59d0 18ba ea70 0a3d e564 6cbd 2c78 45bd
00000200: 907f eabd 6b39 953a 1fa3 57bd f044 75bd
00000210: 7198 1f3d 860d 30bc 8ec3 b4bc 1971 123c
00000220: 5026 a63d f074 873d 5c72 d63c 056e 2c3d
00000230: b7fb 1bbc 499f 8abd 1110 48bd d12a 1f3d
00000240: 76b1 53bc 2553 5bbd 7183 9dbd 8ce5 8d3d
00000250: bd53 4c3d 8f83 c1bc 5a0e 86bc 7b63 953b
00000260: 6128 e13c ad59 1c3d e4f1 cf3c 04ad 4dbc
00000270: ae98 71bd da42 26bc 9562 5fbd 46ad 9dbc
00000280: 78cb 403d 809a 213d 9ffb 963c 9b48 70bd
00000290: 5657 cfbd 8e9c 6a3a 573b 12bd 9ab7 a5bc
000002a0: 869e 48bb c234 013d a52a aabd 4e87 aebd
000002b0: 1e12 a2bd 9c96 e2bc 64f0 ccbc 6442 2fbd
000002c0: c41b 3abd 81ff 64bd bf47 4cbd 905b 8ebd
000002d0: c984 8ebc 1ce2 25bc 1fda 59bd 9937 4dbc
000002e0: df86 9d3c 66e3 ab3d 9376 bc3b 2b38 8c3b
000002f0: ec6c 393d 35cd 3c3c fd0a aebd a175 80bd
00000300: b7b0 46bd 15d0 e9bc 7073 26bb 8b5a 00bd
00000310: baad 223d 7529 f6bc 3749 63bd d585 09bd
00000320: 7e09 013d fb80 01bb 751d 79bd e44f e23b
00000330: 4073 8dbd d73f 8dbc c9f6 893d b494 e33c
00000340: 8823 84bb f372 993c a481 90bd 35b2 4abc
00000350: e3f5 583d 2e7c 10bd d916 42bd dfec 533d
00000360: 8b27 65bd 2c04 db3c ecd1 913c 8fbc a53c
00000370: a5e0 52bd 6e3a 663d 4e28 6abc 6025 80bd
00000380: 6f4a 37bd 60c6 d4bb 5830 8fbd 6a86 c1bd
00000390: 8517 e4bb 12c9 893a d348 2dbd 4469 a5bb
000003a0: 66ec fbbb a347 edbc d6bd 8ebb 9c19 643c
000003b0: 1982 513d bb25 543d 59ba 123d 8848 d43c
000003c0: 5b93 8d3c 6a6e 5d3d 7765 ae3c a2c9 1abd
000003d0: 04ca cbbb 38a9 b13d 2358 593c 40c5 0bbd
000003e0: 4654 f43c cfe9 babb 4054 a5bb fd06 3d3c
000003f0: c597 ecbb 41b7 d6bb bf1f fabc d25a 1fbd

layers.3.weight.scale f4 [32, 32, 3, 3]
-2.0267022 -1.9206169 -1.9710404 -1.7792923 -1.9759427 -2.129421 -2.0846963 -2.1355162
-2.0419052 -1.878049 -1.9901503 -2.1683607 -2.1968832 -1.7503859 -1.9710116 -2.0688636
-1.7484652 -2.0228906 -1.927357 -2.062977 -1.8476676 -1.9313539 -2.3082535 -1.9578956
-1.8760865 -1.9057424 -1.9315195 -1.8317059 -1.9692609 -1.9016863 -1.8509907 -2.1229155
-1.9840045 -2.0516965 -1.9397898 -1.8907304 -2.0534048 -2.0340283 -1.8606298 -2.072785
-2.1377172 -1.8628168 -2.1290395 -2.0084326 -2.1863682 -1.8186727 -1.8998641 -2.0964458
-2.0757687 -2.1103258 -2.0491927 -1.9451679 -1.7103868 -2.0481088 -2.2823825 -1.9963951
-1.9566545 -1.9533824 -2.025525 -2.1335242 -1.7726759 -2.1580448 -2.0318117 -2.0742538
-1.9030383 -1.8613051 -1.8997566 -1.9350855 -2.252217 -1.8963573 -1.9439605 -1.6958596
-2.0006423 -2.1349525 -1.9633311 -2.19481 -1.8807459 -2.084621 -2.0166192 -2.1944208
-1.7806941 -1.8572013 -1.9140773 -2.1960988 -1.8016069 -2.1202734 -2.1016154 -1.8052883
-2.1009147 -1.7740077 -2.1191456 -2.0581243 -1.7256894 -1.6942929 -1.7099332 -2.2015772
-2.0854487 -2.2342775 -2.1892307 -2.247683 -1.8978199 -2.1653311 -2.1469913 -2.0095427
-1.9644891 -2.0089326 -2.2179046 -1.9225371 -1.9209011 -1.8149387 -2.0038025 -2.1536067
-1.945012 -2.0994058 -2.2286975 -1.9266919 -1.7842762 -1.9889461 -1.7864442 -2.0451298
-2.003833 -1.9150922 -2.0253153 -1.9875207 -1.8407202 -1.7573469 -1.9991689 -1.8691844
-2.0338256 -2.111523 -2.206115 -1.8418195 -1.88961 -1.8283461 -1.9030175 -1.63112
-1.8355699 -1.9970471 -2.0624664 -2.0309753 -2.0388942 -2.1976867 -2.135016 -1.9806246
-2.3135624 -1.8252803 -2.1741328 -2.0523 -1.8317993 -2.0895135 -1.9843913 -1.7803272
-1.9450063 -2.0886564 -1.8809397 -1.9815013 -2.0792992 -2.1408713 -2.1286745 -2.0488422
-2.262763 -2.246193 -1.846727 -1.8338653 -2.0430863 -2.0425344 -1.9954302 -1.902216
-1.796495 -2.1856284 -1.8535758 -2.0136824 -1.9364115 -2.1383862 -2.128865 -2.1279716
-1.906904 -2.2466059 -2.1567914 -2.2438836 -2.0170503 -2.071448 -1.9603652 -2.0308895
-2.1415515 -1.9296716 -1.8097466 -1.9863102 -1.9907355 -2.2554646 -2.1998708 -2.2378175
-1.8628881 -2.227371 -2.0664709 -2.207788 -1.8903885 -1.8819972 -2.056481 -1.8301659
-1.9751186 -2.1226501 -1.947405 -2.1123369 -1.9527863 -1.8317451 -2.2263508 -2.0383897
-2.0132518 -1.979369 -1.8178668 -2.1609309 -1.9508755 -1.8062627 -2.0515816 -2.194689
-1.9147475 -2.185319 -2.210586 -1.875305 -2.1704955 -2.3627927 -1.919846 -2.029553
-1.8418682 -2.0390494 -2.0479555 -1.8296305 -1.8677406 -1.7157087 -1.7988901 -1.9948543
-2.1156516 -2.1486585 -2.138712 -1.6702116 -1.8105686 -2.0508857 -2.1872487 -2.0825465
-2.186024 -1.8411404 -1.9041033 -2.122565 -2.0419936 -1.6959119 -2.1228805 -2.1379685
-1.7698658 -1.9648435 -1.8458806 -2.0345674 -2.303781 -2.0282447 -1.9253589 -2.160484
00000000: 7db5 01c0 c6d6 f5bf 0d4b fcbf dabf e3bf
00000010: b1eb fcbf 6f48 08c0 aa6b 05c0 4cac 08c0
00000020: 93ae 02c0 e963 f0bf 3fbd febf 6cc6 0ac0
00000030: bc99 0cc0 a50c e0bf 1c4a fcbf 4368 04c0
00000040: b5cd dfbf 0a77 01c0 a2b3 f6bf d107 04c0
00000050: 5f80 ecbf 9b36 f7bf 6dba 13c0 539c fabf
00000060: 9a23 f0bf 5eef f3bf 083c f7bf 5775 eabf
00000070: be10 fcbf 756a f3bf 43ed ecbf d9dd 07c0
00000080: dcf3 fdbf ff4e 03c0 084b f8bf 7403 f2bf
00000090: fc6a 03c0 852d 02c0 1e29 eebf 82a8 04c0
000000a0: 5cd0 08c0 c870 eebf 2f42 08c0 298a 00c0
000000b0: 75ed 0bc0 44ca e8bf bf2e f3bf 2b2c 06c0
000000c0: 65d9 04c0 940f 07c0 f925 03c0 43fb f8bf
000000d0: f4ed dabf 3714 03c0 8e12 12c0 e089 ffbf
000000e0: a873 fabf 6f08 fabf 34a2 01c0 a98b 08c0
000000f0: 0be7 e2bf 681d 0ac0 3409 02c0 93c0 04c0
00000100: c296 f3bf 3f3f eebf 392b f3bf e2b0 f7bf
00000110: 5324 10c0 d6bb f2bf b3d3 f8bf ed11 d9bf
00000120: 860a 00c0 10a3 08c0 6f4e fbbf c477 0cc0
00000130: 48bc f0bf 6e6a 05c0 4a10 01c0 6471 0cc0
00000140: c9ed e3bf c6b8 edbf 7c00 f5bf e28c 0cc0
00000150: 0e9b e6bf 8fb2 07c0 de80 06c0 b013 e7bf
00000160: 6375 06c0 af12 e3bf 15a0 07c0 4fb8 03c0
00000170: 64e3 dcbf 97de d8bf 17df dabf a4e6 0cc0
00000180: fe77 05c0 67fe 0ec0 5b1c 0cc0 0ada 0fc0
00000190: c3eb f2bf c994 0ac0 4e68 09c0 599c 00c0
000001a0: 6174 fbbf 5a92 00c0 26f2 0dc0 b215 f6bf
000001b0: 16e0 f5bf e94f e8bf 4d3e 00c0 b1d4 09c0
000001c0: 27f6 f8bf aa5c 06c0 fba2 0ec0 d79d f6bf
000001d0: 2a63 e4bf c995 febf 34aa e4bf 68e3 02c0
000001e0: cd3e 00c0 be21 f5bf c49e 01c0 1467 febf
000001f0: b89c ebbf bef0 e0bf c4e4 ffbf 6f41 efbf
00000200: 332a 02c0 3123 07c0 fd30 0dc0 bec0 ebbf
00000210: bede f1bf 3f07 eabf 1496 f3bf 8ac8 d0bf
00000220: f4f3 eabf 3d9f ffbf 73ff 03c0 80fb 01c0
00000230: 3e7d 02c0 e6a6 0cc0 1aa4 08c0 1b85 fdbf
00000240: 6811 14c0 c9a2 e9bf fe24 0bc0 e258 03c0
00000250: 6678 eabf 97ba 05c0 8900 febf c3e1 e3bf
00000260: f7f5 f8bf 8cac 05c0 a2c2 f0bf d6a1 fdbf
00000270: 3d13 05c0 0904 09c0 343c 08c0 3b20 03c0
00000280: 1cd1 10c0 a0c1 0fc0 8d61 ecbf 19bc eabf
00000290: edc1 02c0 e2b8 02c0 426a ffbf d07b f3bf
000002a0: 8cf3 e5bf 56e1 0bc0 f941 edbf 2ce0 00c0
000002b0: 55dc f7bf 52db 08c0 533f 08c0 b030 08c0
000002c0: 6e15 f4bf 64c8 0fc0 df08 0ac0 ca9b 0fc0
000002d0: 5a17 01c0 9b92 04c0 3fed fabf 18fa 01c0
000002e0: 2e0f 09c0 7bff f6bf c7a5 e7bf 6a3f febf
000002f0: 6cd0 febf 8859 10c0 afca 0cc0 6738 0fc0
00000300: 1e73 eebf 3f8d 0ec0 0f41 04c0 664c 0dc0
00000310: 40f8 f1bf 49e5 f0bf 629d 03c0 e042 eabf
00000320: b0d0 fcbf 80d9 07c0 9144 f9bf 8730 07c0
00000330: e7f4 f9bf a076 eabf 887c 0ec0 fa74 02c0
00000340: 1ed9 00c0 f75b fdbf dcaf e8bf b14c 0ac0
00000350: 4ab6 f9bf 9e33 e7bf 1d4d 03c0 c975 0cc0
00000360: 7216 f5bf 44dc 0bc0 3e7a 0dc0 ff09 f0bf
00000370: 66e9 0ac0 ff37 17c0 84bd f5bf 32e4 01c0
00000380: 56c2 ebbf c97f 02c0 b411 03c0 5531 eabf
00000390: 2012 efbf 589c dbbf 0842 e6bf 6357 ffbf
000003a0: d666 07c0 9f83 09c0 a8e0 08c0 7ec9 d5bf
000003b0: b6c0 e7bf b641 03c0 e2fb 0bc0 7148 05c0
000003c0: d1e7 0bc0 7daa ebbf a8b9 f3bf 1bd8 07c0
000003d0: 06b0 02c0 a413 d9bf 46dd 07c0 7ad4 08c0
000003e0: f68a e2bf fe7f fbbf d145 ecbf 5a36 02c0
000003f0: 2671 13c0 c3ce 01c0 2972 f6bf 5f45 0ac0

layers.3.bias.mean f4 [32]
0.00043421815 0.00021857033 -0.0007397561 0.00068821036 0.00085858745 0.0006090451 0.0007084235 0.00084863056
0.0005057623 0.00060465146 0.00052438787 0.00057062047 -0.00022704569 0.00030550925 -0.00010295318 0.001013903
0.0007456288 0.00028110167 -0.00023298738 0.0002147185 0.00034061828 -0.0012694251 0.00013191541 0.0006049425
0.00037279844 0.0004986969 0.0007413428 -0.0008179275 -0.0008734177 0.00038439393 -0.0003756322 -0.00010700017
00000000: c6a7 e339 0730 6539 31ec 41ba 0469 343a
00000010: d412 613a 53a8 1f3a 7fb5 393a a276 5e3a
00000020: 2295 043a 7981 1e3a 1377 093a b195 153a
00000030: 1d13 6eb9 c22c a039 91e8 d7b8 f0e4 843a
00000040: 4d76 433a d460 9339 134e 74b9 0f26 6139
00000050: 0395 b239 d762 a6ba c652 0a39 0195 1e3a
00000060: 2974 c339 fcba 023a ac56 423a 2f6a 56ba
00000070: 12f6 64ba 7b88 c939 80f0 c4b9 4765 e0b8

layers.3.bias.scale f4 [32]
-2.2483706 -2.2529068 -2.192435 -2.1938512 -2.235662 -2.2317007 -2.186283 -2.2151465
-2.1823134 -2.2703621 -2.1918292 -2.151306 -2.2524772 -2.2448392 -2.1694252 -2.213093
-2.211052 -2.2056026 -2.2521253 -2.242732 -2.2521906 -2.1741517 -2.2379763 -2.1999567
-2.2521653 -2.2538602 -2.235525 -2.2226155 -2.2526193 -2.194224 -2.245813 -2.237001
00000000: 4ee5 0fc0 a02f 10c0 db50 0cc0 0f68 0cc0
00000010: 1615 0fc0 2fd4 0ec0 10ec 0bc0 f6c4 0dc0
00000020: 06ab 0bc0 9d4d 11c0 ee46 0cc0 ffae 09c0
00000030: 9628 10c0 72ab 0fc0 ddd7 0ac0 51a3 0dc0
00000040: e081 0dc0 9828 0dc0 d222 10c0 ec88 0fc0
00000050: e423 10c0 4d25 0bc0 013b 0fc0 17cc 0cc0
00000060: 7a23 10c0 3f3f 10c0 d712 0fc0 553f 0ec0
00000070: ea2a 10c0 2b6e 0cc0 66bb 0fc0 062b 0fc0

layers.5.weight f4 [64, 32, 3, 3]
-0.016417898 0.0068618716 -0.028825909 0.022541493 -0.042123124 0.0028552543 -0.028402181 0.011505777
-0.016326874 -0.022701167 -0.008546841 -0.018000089 -0.063955076 0.031205516 -0.06263858 -0.07466122
0.027141003 -0.03992368 -0.02972865 0.043288033 0.02884825 -0.02136649 0.04959418 -0.041298285
-0.054853577 0.03438526 0.0015015262 0.06659772 0.045053136 -0.08105309 -0.062048446 0.03662726
-0.010450336 -0.008127858 -0.006796506 -0.010894368 0.0022639094 0.050425585 -0.06671195 -0.00538377
-0.04315277 -0.0060239374 0.028516214 -0.063566975 -0.08615097 0.01553468 -0.0039348463 -0.0655833
-0.04824704 -0.054405376 -0.06367046 -0.031878557 -0.0068500787 -0.00699132 0.03494909 -0.041869845
-0.062206578 0.030258572 -0.053726744 -0.006819026 -0.03938222 0.014990228 0.064682774 -0.0046394616
0.03994446 -0.09661198 0.013774632 -0.061081085 -0.0097972145 -0.053094514 -0.06975741 0.011697034
0.059437625 0.08201358 0.034193575 0.0109367 0.021352662 -0.07257685 0.01442802 -0.051622685
-0.06944346 -0.0033793787 0.011102283 -0.013912077 0.003853953 0.0024080586 0.053736128 0.014682596
0.02131496 -0.066221826 -0.009750514 -0.05827512 -0.07773748 -0.016624669 0.0038115322 -0.08686222
0.030200958 -0.04245731 -0.06459214 0.041413408 -0.07656467 -0.05051279 -0.08830083 -0.082356825
0.006709384 -0.03235585 -0.017214596 -0.013362468 -0.076461606 0.013014828 -0.035770908 -0.053073972
-0.036262993 0.008454363 -0.02748469 0.0425219 -0.031468652 0.069187306 0.015249837 0.0017143425
0.057133604 -0.060948614 -0.086617775 -0.057188265 -0.0071705943 -0.021988226 -0.02611563 0.06221597
0.018112427 0.06622072 0.027436616 -0.0037091377 -0.01696284 0.006044153 0.0033804204 0.033076905
0.03184721 0.07977248 0.032153573 0.06421765 0.004888475 0.02258303 0.0058997488 -0.06694739
0.09286783 0.012935031 -0.0028191397 0.0031077669 -0.038197767 -0.011829119 0.018948017 -0.062148117
-0.059834052 0.10702827 0.1027615 -0.029813573 -0.009413669 -0.041776005 -0.038714886 -0.03868362
-0.05462674 -0.026444273 0.06526812 0.055205207 0.06680902 0.049321476 -0.0009095756 -0.012588724
0.07351555 -0.04319701 0.000299413 0.058855385 0.12030576 0.049852952 0.080253534 0.041769274
-0.0098670805 -0.008789249 -0.031336155 -0.04004897 0.030626345 0.029152453 0.03252341 0.045106165
-0.02179933 -0.038412374 0.00405929 -0.012599542 -0.0682616 0.03173281 0.03944058 -0.01333403
0.03782945 0.009255302 0.03591639 -0.0176677 0.038903326 -0.06397874 0.026664527 0.0008444577
0.02592478 -0.04443591 0.00916473 -0.03396335 -0.047590736 -0.009786708 0.0070857476 0.011656798
-0.041177988 -0.086634144 -0.056754064 -0.006561589 -0.086298816 0.0045204773 0.009466336 -0.035600446
-0.022902397 0.011151225 -0.07840292 -0.008028058 -0.00795027 -0.010612906 -0.031014677 -0.09075684
-0.021215035 0.06255714 0.0077951383 0.010652671 0.033360276 0.0505601 0.018696634 0.001838476
0.0009043347 -0.091467366 0.036143575 -0.011278965 0.00714381 -0.048992295 -0.004843959 0.019142436
-0.006226091 -0.024183765 0.07811366 0.040686537 -0.0071048937 0.012488186 0.01628929 0.03309575
-0.01908579 -0.045253992 -0.081547976 0.031197056 0.03950979 -0.008837981 0.02105248 0.0110547505
00000000: d47e 86bc 8dd9 e03b 5024 ecbc f0a8 b83c
00000010: 4c89 2cbd 381f 3b3b b1ab e8bc ba82 3c3c
00000020: f0bf 85bc ccf7 b9bc 0d08 0cbc ec74 93bc
00000030: e1fa 82bd b6a2 ff3c a848 80bd fbe7 98bd
00000040: cf56 de3c 0387 23bd 7f89 f3bc cb4e 313d
00000050: 2a53 ec3c c708 afbc 4423 4b3d 6428 29bd
00000060: 25ae 60bd 8fd7 0c3d dcce c43a 6364 883d
00000070: a389 383d 2aff a5bd 8326 7ebd 7706 163d
00000080: e337 2bbc b52a 05bc 39b5 debb 4b7e 32bc
00000090: 195e 143b 0f8b 4e3d 46a0 88bd 566a b0bb
000000a0: f5c0 30bd 7364 c5bb d69a e93c 672f 82bd
000000b0: eb6f b0bd 2c85 7e3c e2ef 80bb 8a50 86bd
000000c0: b09e 45bd 2cd8 5ebd a865 82bd 1793 02bd
000000d0: a076 e0bb 7117 e5bb c726 0f3d b77f 2bbd
000000e0: 53cc 7ebd d3e0 f73c 9310 5cbd 2372 dfbb
000000f0: 404f 21bd 9399 753c 6778 843d a006 98bb
00000100: cd9c 233d 80dc c5bd feae 613c 2930 7abd
00000110: 7f84 20bc a279 59bd f9dc 8ebd eba4 3f3c
00000120: de74 733d bcf6 a73d 900e 0c3d d82f 333c
00000130: c7eb ae3c 2ca3 94bd 8163 6c3c 4f72 53bd
00000140: 5f38 8ebd 9178 5dbb 5ae6 353c 7bef 63bc
00000150: 9a92 7c3b 85d0 1d3b 6a1a 5c3d 458f 703c
00000160: b69c ae3c 4f9f 87bd 9fc0 1fbc e4b1 6ebd
00000170: d434 9fbd 7530 88bc e6ca 793b d2e4 b1bd
00000180: 0068 f73c b7e7 2dbd e248 84bd 1ba1 293d
00000190: f0cd 9cbd 80e6 4ebd 11d7 b4bd b2aa a8bd
000001a0: 64da db3b 9187 04bd a005 8dbc 41ee 5abc
000001b0: e797 9cbd 253c 553c 8484 12bd 1864 59bd
000001c0: 8188 14bd 2b84 0a3c 9327 e1bc 722b 2e3d
000001d0: 46e5 00bd 13b2 8d3d 74da 793c cab3 e03a
000001e0: ed04 6a3d 41a5 79bd a964 b1bd 3e3e 6abd
000001f0: 4ef7 eabb a720 b4bc 72f0 d5bc 2cd6 7e3d
00000200: 8360 943c bb9e 873d c1c2 e03c 0115 73bb
00000210: a7f5 8abc 080e c63b 0b8a 5d3b a67b 073d
00000220: 3872 023d c15f a33d 77b3 033d 8b84 833d
00000230: 802f a03b 0c00 b93c ae52 c13b b71b 89bd
00000240: 7d31 be3d 74ed 533c 51c1 38bb adab 4b3b
00000250: 4375 1cbd ecce 41bc df38 9b3c 068f 7ebd
00000260: 8d14 75bd a331 db3d 9f74 d23d 983b f4bc
00000270: ca3b 1abc 511d 2bbd 8093 1ebd b772 1ebd
00000280: 4ac0 5fbd a9a1 d8bc 4bab 853d db1e 623d
00000290: 2bd3 883d 5105 4a3d 9670 6eba ef40 4ebc
000002a0: 528f 963d 59ef 30bd 88fa 9c39 5812 713d
000002b0: de62 f63d 9c32 4c3d f75b a43d 4216 2b3d
000002c0: 89a9 21bc c800 10bc 575a 00bd 640a 24bd
000002d0: 1ae4 fa3c 20d1 ee3c 4437 053d 3ec1 383d
000002e0: 8294 b2bc 4b56 1dbd cb03 853b 4f6e 4ebc
000002f0: bdcc 8bbd 43fa 013d 728c 213d fa76 5abc
00000300: 0ef3 1a3d 8da3 173c 111d 133d dabb 90bc
00000310: 1859 1f3d 4907 83bd 916f da3c 995e 5d3a
00000320: 3460 d43c 6e02 36bd aa27 163c 271d 0bbd
00000330: 81ee 42bd 6e58 20bc 8f2f e83b 28fc 3e3c
00000340: 40aa 28bd 3e6d b1bd f376 68bd 9902 d7bb
00000350: 6fbd b0bd 8320 943b b118 1b3c c6d1 11bd
00000360: cf9d bbbc a1b3 363c b691 a0bd 1e88 03bc
00000370: d941 02bc c1e1 2dbc 7e12 febc b9de b9bd
00000380: 27cb adbc f51d 803d 5c6e ff3b 8a88 2e3c
00000390: c9a4 083d 1b18 4f3d af29 993c 05f9 f03a
000003a0: e010 6d3a 3e53 bbbd 490b 143d 68cb 38bc
000003b0: 9f16 ea3b 25ac 48bd 13ba 9ebb 99d0 9c3c
000003c0: 3d04 ccbb 081d c6bc 0efa 9f3d eda6 263d
000003d0: 2bd0 e8bb 409b 4c3c 1e71 853c 698f 073d
000003e0: cd59 9cbc 405c 39bd a002 a7bd f890 ff3c
000003f0: 04d5 213d 2ecd 10bc 4076 ac3c fc1e 353c

layers.5.bias f4 [64]
0.002612097 0.04272475 -0.041692942 -0.015758362 0.02910388 -0.018899353 0.00013056325 -0.0053510135
0.045477275 -0.036812466 -0.0057169343 0.03098733 -0.046418037 0.02657028 0.016309932 0.03469486
-0.021229256 0.03296184 -0.08440854 0.05210367 0.049154725 0.020042893 0.07947875 -0.01730542
-0.048737384 0.023512954 -0.05186122 -0.03436572 0.025128165 -0.045869764 -0.02932238 0.016299756
-0.021166507 0.016317295 -0.022159016 0.037864413 -0.03907888 0.033653453 0.030177511 -0.06950711
-0.010080733 0.037526704 0.020032588 -0.04955313 0.007906053 -0.023289839 0.0024275025 -0.025677599
-0.008541639 -0.06320949 -0.0328561 -0.062554695 -0.019663455 0.0012870411 -0.03935879 -0.009485507
-0.00092090113 -0.054784603 -0.031969786 -0.024948543 -0.04153478 -0.06383857 -0.03306886 -0.024082312
00000000: b72f 2b3b 2600 2f3d 38c6 2abd ae17 81bc
00000010: 436b ee3c d1d2 9abc cee7 0839 8e57 afbb
00000020: 6146 3a3d abc8 16bd 1f55 bbbb 24d9 fd3c
00000030: d720 3ebd eaa9 d93c 689c 853c 331c 0e3d
00000040: fae8 adbc ff02 073d 62de acbd a86a 553d
00000050: 7756 493d fe30 a43c c1c5 a23d 19c4 8dbc
00000060: daa0 47bd 3d9e c03c 6e6c 54bd 12c3 0cbd
00000070: 95d9 cd3c efe1 3bbd 7d35 f0bc 1187 853c
00000080: 6265 adbc d9ab 853c d386 b5bc b717 1b3d
00000090: 2d11 20bd 34d8 093d d436 f73c be59 8ebd
000000a0: a929 25bc 9ab5 193d 621b a43c 39f8 4abd
000000b0: 6488 013c 55ca bebc bc16 1f3b d459 d2bc
000000c0: 3bf2 0bbc fa73 81bd 1e94 06bd ad1c 80bd
000000d0: 4115 a1bc efb1 a83a af36 21bd 1a69 1bbc
000000e0: a168 71ba d265 60bd c0f2 02bd e360 ccbc
000000f0: 6020 2abd ccbd 82bd 3773 07bd 4548 c5bc

layers.7.weight f4 [64, 64, 3, 3]
0.015684819 -0.02376444 -0.01089696 -0.018597776 0.026012793 -0.05785863 0.0011590362 -0.027593337
-0.033385042 0.01912811 0.013369794 -0.00967866 0.013693537 0.04091769 0.027036494 -0.029230708
-0.026733108 0.007267616 0.04673445 -0.033271734 0.027509455 -0.0253393 0.012405302 -0.022516487
0.02069433 0.020580199 0.0029742625 0.010578631 -0.008050238 0.02403121 0.067773364 -0.015460362
-0.050081573 -0.037621148 -0.09020375 -0.11953229 -0.02732237 -0.025492506 0.019324692 -0.03042401
0.02520576 0.03638397 0.01692777 -0.012398439 -0.015960341 -0.018992826 0.037860546 -0.05104221
-0.028602201 0.060449567 -0.03865569 -0.011683982 -0.032211825 -0.011385314 0.035445035 -0.044069517
-0.04007665 -0.038885877 -0.0153228585 0.009689756 -0.040210307 -0.044235278 -0.028674198 0.00868981
0.025898626 -0.0069075404 -0.02724589 -0.007572134 -0.013677286 0.059514284 0.033200923 0.030838234
-0.011365134 0.015730157 -0.018991528 0.028226376 0.053991236 -0.03772437 -0.012065217 -0.0011443524
0.051878154 0.0045315325 -0.06106471 -0.005014048 -0.0033963132 0.025123304 -0.027490364 -0.012014634
-0.010251957 0.028989954 0.0076208888 0.045204416 -0.038197853 -0.006353587 0.008000252 0.0005802873
-0.074768655 -0.017979441 -0.064212106 -0.008045261 0.0027882762 0.004887826 -0.05528018 0.036918774
-0.067725435 -0.05803357 -0.013131001 0.018858299 -0.0011628253 -0.0028877058 -0.033415746 0.03752364
0.011455239 -0.0030426837 -0.0058127926 -0.00866643 0.03501289 -0.07053517 -0.06332354 -0.07310969
-0.0045080655 -0.020586804 -0.014579469 -0.0053090868 0.0319842 -0.00016113071 -0.04686936 -0.041601278
-0.071799256 -0.069153525 -0.015974538 -0.056245565 0.06361561 -0.0006522121 0.03568047 -0.01863507
0.034606982 0.0076498585 -0.036525 0.0022248195 0.016964208 -0.041234724 -0.008515029 -0.020841775
-0.04790853 -0.08148989 -0.082351156 -0.04419217 -0.020083321 0.014684125 0.066905774 0.022330513
0.06502342 0.016866006 -0.009277285 -0.033295173 -0.018160738 0.0371211 -0.015088292 0.013041159
0.002976341 0.019174809 0.04367685 0.03267104 -0.021645771 -0.055114202 -0.018973596 0.0036957278
-0.05319675 -0.003928671 0.04036647 -0.03907886 -0.02320984 -0.003172914 -0.0024077194 0.042475622
-0.014559729 -0.024722178 -0.019780885 -0.00010888074 -0.030296879 -0.020859051 -0.028116468 -0.014390711
-0.012697548 0.024414241 -0.024996923 -0.020494098 0.06637595 0.00026891512 0.0681635 0.026957272
0.059240904 0.02996316 -0.039689764 -0.0073181363 -0.036172934 -0.0063036606 -0.014084559 -0.038504187
-0.018799268 0.013498795 0.035725277 -0.011555302 -0.009345461 -0.0022505643 -0.0037663088 0.032760315
-0.0051483195 -0.04678149 0.0480163 -0.010583737 -0.0038267153 -0.020588264 0.021974865 0.012929632
-0.015078763 -0.022989554 0.0013298466 -0.069626294 -0.021228107 -0.016900303 -0.02716906 -0.061395526
-0.014249348 -0.012056882 0.032460798 -0.04245182 -0.026627839 0.06326568 0.008649343 0.009285009
0.0046702363 0.0296688 -0.017991822 -0.028144281 -0.014276484 0.017514378 -0.0408263 -0.029224973
0.047367387 0.028279869 0.045993295 -0.037082 -0.07707245 -0.017483186 -0.018038081 -0.021026263
-0.015242039 -0.041975517 0.046743415 0.035878483 -0.03392405 -0.012686431 -0.008920185 -0.018174035
00000000: 737d 803c a5ad c2bc 2a89 32bc 5d5a 98bc
00000010: c818 d53c 2cfd 6cbd cdea 973a 6c0b e2bc
00000020: c1be 08bd 8eb2 9c3c fb0c 5b3c 3e93 1ebc
00000030: db5a 603c 4f99 273d a37b dd3c 3d75 efbc
00000040: 64ff dabc 2f25 ee3b 9f6c 3f3d f147 08bd
00000050: 825b e13c 5d94 cfbc 9c3f 4b3c 7f74 b8bc
00000060: 2887 a93c ce97 a83c d8eb 423b ff51 2d3c
00000070: 25e5 03bc 1add c43c c3cc 8a3d 754d 7dbc
00000080: 5622 4dbd a218 1abd bebc b8bd 58cd f4bd
00000090: 2ad3 dfbc a9d5 d0bc d14e 9e3c c63b f9bc
000000a0: 4f7c ce3c 5c07 153d 1bac 8a3c d322 4bbc
000000b0: 43bf 82bc d896 9bbc a913 1b3d a311 51bd
000000c0: 2a4f eabc f799 773d 6e55 1ebd 2c6e 3fbc
000000d0: 8cf0 03bd 7889 3abc d02e 113d 3d82 34bd
000000e0: 6a27 24bd cc46 1fbd ba0c 7bbc c8c1 1e3c
000000f0: 90b3 24bd 0d30 35bd 27e6 eabc b45f 0e3c
00000100: 5b29 d43c a658 e2bb c632 dfbc aa1f f8bb
00000110: b216 60bc 40c5 733d b1fd 073d 77a0 fc3c
00000120: d434 3abc 88dc 803c 1f94 9bbc 003b e73c
00000130: ea25 5d3d de84 1abd 30ad 45bc 18fe 95ba
00000140: 307e 543d 407d 943b fd1e 7abd e24c a4bb
00000150: ae94 5ebb 63cf cd3c 7933 e1bc 07d9 44bc
00000160: d3f7 27bc 577c ed3c a6b8 f93b 4428 393d
00000170: 5a75 1cbd c031 d0bb 7d13 033c 6c1e 183a
00000180: 4f20 99bd 9f49 93bc a381 83bd 45d0 03bc
00000190: 83bb 363b 0e2a a03b 786d 62bd 2438 173d
000001a0: a2b3 8abd 9cb4 6dbd 6923 57bc b87c 9a3c
000001b0: f169 98ba aa3f 3dbb f3de 08bd 63b2 193d
000001c0: c1ae 3b3c c367 47bb 3d79 bebb a4fd 0dbc
000001d0: ad69 0f3d be74 90bd c6af 81bd 88ba 95bd
000001e0: 65b8 93bb a8a5 a8bc bade 6ebc d9f7 adbb
000001f0: dd01 033d 32f5 28b9 16fa 3fbd 1a66 2abd
00000200: 7d0b 93bd 5da0 8dbd 09dd 82bc c061 66bd
00000210: e748 823d 37f9 2aba af25 123d 93a8 98bc
00000220: 0dc0 0d3d aaab fa3b 3d9b 15bd 47ce 113b
00000230: 86f8 8a3c bee5 28bd 9f82 0bbc 5fbc aabc
00000240: bc3b 44bd 2ce4 a6bd b9a7 a8bd d902 35bd
00000250: c785 a4bc af95 703c e505 893d 7bee b63c
00000260: 002b 853d 942a 8a3c c1ff 17bc 8560 08bd
00000270: d4c5 94bc 4b0c 183d e234 77bc 96aa 553c
00000280: b70e 433b 7d14 9d3c 7fe6 323d 12d2 053d
00000290: 7952 b1bc 6ebf 61bd 846e 9bbc 0634 723b
000002a0: d6e4 59bd 15bc 80bb 5057 253d 2811 20bd
000002b0: 9022 bebc aaf0 4fbb d4ca 1dbb ebfa 2d3d
000002c0: ee8b 6ebc 2a86 cabc 860b a2bc e756 e4b8
000002d0: 2931 f8bc 9ae0 aabc 8254 e6bc 04c7 6bbc
000002e0: 6009 50bc 6000 c83c 59c6 ccbc 3de3 a7bc
000002f0: 1df0 873d 2dfd 8c39 4e99 8b3d 7fd5 dc3c
00000300: 97a6 723d 4d75 f53c bc91 22bd facc efbb
00000310: 122a 14bd f08e cebb ecc2 66bc 91b6 1dbd
00000320: ec00 9abc 0d2a 5d3c ab54 123d 7352 3dbc
00000330: b41d 19bc 347e 13bb 2dd4 76bb ae2f 063d
00000340: 3cb3 a8bb f39d 3fbd bdac 443d 6967 2dbc
00000350: a1c9 7abb b8a8 a8bc a204 b43c cfd6 533c
00000360: ea0c 77bc 9754 bcbc 3f4e ae3a 3b98 8ebd
00000370: 91e6 adbc 8172 8abc a691 debc e079 7bbd
00000380: 1976 69bc 3a8a 45bc 9df5 043d f6e1 2dbd
00000390: a022 dabc 7091 813d f9b5 0d3c 2620 183c
000003a0: c808 993b fc0b f33c 9663 93bc d68e e6bc
000003b0: eae7 69bc 507a 8f3c 7a39 27bd 3669 efbc
000003c0: 4e04 423d 2fab e73c 7763 3c3d 4ce3 17bd
000003d0: 29d8 9dbd e638 8fbc 99c4 93bc 453f acbc
000003e0: bfb9 79bc 85ee 2bbd 0676 3f3d 51f5 123d
000003f0: f2f3 0abd c0da 4fbc f825 12bc b7e1 94bc

layers.7.bias f4 [64]
0.038628593 0.0127557665 0.025689898 -0.0030660145 -0.031980745 -0.00801405 0.005431176 0.011326387
-0.012392846 -0.0053074453 -0.053031776 -0.048659056 -0.052204195 0.009930511 0.035491277 -0.0442842
0.008160249 -0.04897876 0.038897842 -0.021355752 -0.0050257966 -0.0030145496 -0.033937767 -0.018228594
0.0042411853 -0.008891287 0.0050072055 -0.04238448 -0.056739695 0.0047585214 0.007899117 0.038133856
-0.03294182 0.0036233286 0.022671942 -0.0068015675 -0.010755617 -0.01151586 0.0041107805 0.04336087
0.0042807315 0.01472468 -0.0453554 -0.033075567 -0.03864123 0.024729442 0.031423923 0.027966825
-0.02669852 -0.040880475 -0.056829475 0.009662103 -0.009095183 0.044935707 -0.032048672 -0.06146422
-0.022565791 -0.05311788 0.04457136 -0.039454456 0.021829937 0.011713831 0.0029729712 -0.040003054
00000000: 0439 1e3d 90fd 503c 9f73 d23c 30ef 48bb
00000010: 3efe 02bd 5d4d 03bc 02f8 b13b 4f92 393c
00000020: 5d0b 4bbc 14ea adbb d937 59bd b84e 47bd
00000030: 11d4 55bd 95b3 223c 4d5f 113d 5963 35bd
00000040: 91b2 053c f49d 48bd 5853 1f3d 42f2 aebc
00000050: 70af a4bb c08f 45bb 5402 0bbd 2254 95bc
00000060: a4f9 8a3b c3ac 11bc 7c13 a43b 599b 2dbd
00000070: e267 68bd 5fed 9b3b 4c6b 013c 3f32 1c3d
00000080: 00ee 06bd 5e75 6d3b 82ba b93c afdf debb
00000090: 5438 30bc 05ad 3cbc bab3 863b 2b9b 313d
000000a0: 6145 8c3b c93f 713c 95c6 39bd 3f7a 07bd
000000b0: 4446 1ebd 6695 ca3c 5fb6 003d af1a e53c
000000c0: dbb6 dabc 4972 27bd 06c6 68bd cc4d 1e3c
000000d0: f603 15bc 810e 383d 7845 03bd e8c1 7bbd
000000e0: e5db b8bc 2292 59bd 7590 363d ff9a 21bd
000000f0: b2d4 b23c 5eeb 3f3c 2ed6 423b 3eda 23bd

layers.10.weight.mean f4 [10, 576]
-0.028594473 -0.0076401434 0.06834604 0.0049848 -0.06063138 0.10687171 0.1401131 0.14099665
-0.083345085 -0.033901207 -0.0020133634 0.06280741 0.043279048 0.04594057 0.0847829 0.042716026
-0.08722148 0.09146265 -0.0114160525 -0.03357862 -0.0022246947 -0.017886817 -0.088881366 0.008174539
0.009268655 0.12177864 0.07222404 -0.07386835 0.012148758 -0.087530784 0.015774272 0.0070299697
-0.093789436 0.05094543 0.14203541 -0.027611678 -0.012583298 0.017261669 0.055616487 -0.01525991
0.026682392 -0.09546694 -0.03016659 0.1792613 -0.10613479 0.01561743 0.010110496 0.033562522
0.021994697 -0.0805992 0.008064512 0.08579755 0.14518751 -0.03725705 -0.0725945 0.0014506846
0.027488727 0.0093118595 -0.09179358 0.04931525 0.06124723 -0.09072048 0.09155097 0.032615777
0.043274213 0.056932162 -0.12216032 0.09424105 -0.14596021 0.075126074 -0.059610046 -0.0056987903
-0.043802135 0.07692107 -0.09351484 0.049832657 -0.10254014 0.069436714 0.06758987 -0.05820223
0.023942506 -0.028747395 -0.027215984 -0.0907115 0.066070095 -0.13235025 0.12279212 0.07300453
-0.0885857 0.12996191 -0.011246738 -0.032045953 -0.005091492 -0.09351505 0.15353985 -0.10492146
-0.054370876 0.044512615 -0.09374614 0.04550594 -0.0062539624 -0.11847315 -0.10855614 0.07223011
-0.116968505 -0.08488096 -0.020857342 0.13627091 0.013425455 -0.0087233195 -0.06680802 0.015040847
-0.110091545 0.07869822 -0.09513355 -0.04154354 -0.062005125 -0.040235862 -0.025843158 -0.12260436
-0.18204997 -0.022749003 -0.040274374 0.04924479 -0.004533857 0.09140989 -0.00048063864 -0.019386852
-0.09762863 -0.11496925 0.043658644 -0.07103708 -0.028002644 -0.09520359 0.10143729 -0.007931973
-0.03721194 0.048418514 -0.035251494 -0.06541376 -0.13287196 -0.097441025 0.09761815 -0.08941066
0.05787549 -0.054260634 -0.08362409 -0.13398586 0.12533869 -0.048976295 0.021432243 -0.115365215
0.05707766 -0.011890034 0.031025663 -0.014296678 -0.03238371 -0.05878933 0.025757391 0.11981371
0.005762539 -0.06153011 0.054878347 -0.10085565 -0.08721535 -0.13833918 0.1189428 -0.053918965
-0.024695938 0.0039398456 -0.040914036 -0.06589134 0.052277956 -0.0120590255 0.018784035 -0.12761736
0.083478145 -0.012805968 0.16752432 -0.06364508 0.003437393 -0.06958097 -0.002338644 -0.037328336
-0.036479685 -0.042785555 0.04791472 -0.030766182 0.09156284 -0.01110962 -0.04718422 -0.13430704
-0.033761967 -0.028041316 0.055797268 0.119704075 -0.06645928 0.004026983 -0.057722043 0.061672032
-0.01575642 0.07564018 -0.097850576 0.056508865 -0.01706963 0.07538799 -0.0924575 0.024060665
0.07192792 -0.011473751 0.046563465 -0.06147179 0.060188923 -0.009290104 -0.10669426 -0.048119716
0.030153682 -0.035926465 -0.0019096867 -0.008018719 0.0043060123 -0.04145809 -0.13132678 0.14796193
-0.09792743 0.0033535394 -0.036456108 -0.10760839 -0.041565143 -0.09008721 -0.061925147 -0.059837315
0.15183908 -0.12552708 -0.060829446 -0.011936758 0.006241712 -0.058136098 0.027140435 -0.00503075
0.05933105 -0.047811966 0.09363009 0.027455118 -0.04641753 -0.05637684 -0.12845002 0.12976462
-0.12242532 -0.07929808 0.069879755 0.07675716 0.042567004 0.000246109 -0.028340595 -0.047444724
00000000: f53e eabc 2b5a fabb 02f9 8b3d 8857 a33b
00000010: 9c58 78bd 8edf da3d cf79 0f3e 6d61 103e
00000020: d4b0 aabd fedb 0abd a2f2 03bb 2ca1 803d
00000030: 5f45 313d 2e2c 3c3d a8a2 ad3d 00f7 2e3d
00000040: 2da1 b2bd c550 bb3d 650a 3bbc bc89 09bd
00000050: 2fcc 11bb 6087 92bc 6f07 b6bd 80ee 053c
00000060: 8fdb 173c 1467 f93d 33ea 933d 4a48 97bd
00000070: 960b 473c 5743 b3bd 0c39 813c a95b e63b
00000080: ad14 c0bd 28ac 503d bb71 113e e331 e2bc
00000090: 2d2a 4ebc 5868 8d3c 1dce 633d b404 7abc
000000a0: 0895 da3c 2c84 c3bd ed1f f7bc 4690 373e
000000b0: 325d d9bd 40e0 7f3c 7ea6 253c db78 093d
000000c0: 392e b43c 3211 a5bd 0421 043c a0b6 af3d
000000d0: 09ac 143e d99a 18bd 6dac 94bd e624 be3a
000000e0: 0a30 e13c c590 183c 46fe bbbd cafe 493d
000000f0: 60de 7a3d a9cb b9bd 137f bb3d 1f98 053d
00000100: 4d40 313d b331 693d 312f fabd 7401 c13d
00000110: 9876 15be b3db 993d aa29 74bd ebbc babb
00000120: de69 33bd cb88 9d3d b584 bfbd 541d 4c3d
00000130: 9100 d2bd d634 8e3d 8f6c 8a3d 7665 6ebd
00000140: 1323 c43c a87f ebbc 0ef4 debc f3c6 b9bd
00000150: c24f 873d d386 07be 6f7a fb3d 6683 953d
00000160: 6b6c b5bd bc14 053e 3d44 38bc 9e42 03bd
00000170: 88d6 a6bb d284 bfbd 8d39 1d3e 10e1 d6bd
00000180: ffb3 5ebd dc52 363d fafd bfbd 7064 3a3d
00000190: 0aee ccbb 0da2 f2bd ae52 debd 61ed 933d
000001a0: 2f8d efbd 12d6 adbd 04dd aabc 9a8a 0b3e
000001b0: 71f6 5b3c 41ec 0ebc a5d2 88bd e26d 763c
000001c0: ad77 e1bd 882c a13d 61d5 c2bd 8f29 2abd
000001d0: 16f9 7dbd 5cce 24bd 08b5 d3bc ff17 fbbd
000001e0: 4f6b 3abe 1e5c babc bef6 24bd e8b4 493d
000001f0: c090 94bb 1c35 bb3d 3afe fbb9 2dd1 9ebc
00000200: 85f1 c7bd 0075 ebbd 68d3 323d e37b 91bd
00000210: cd65 e5bc 1afa c2bd 5bbe cf3d 1bf5 01bc
00000220: 8c6b 18bd 7e52 463d df63 10bd a6f7 85bd
00000230: 960f 08be 298f c7bd 06ec c73d f01c b7bd
00000240: da0e 6d3d 6640 5ebd 1b43 abbd 9733 09be
00000250: c958 003e 5e9b 48bd ac92 af3c 9944 ecbd
00000260: 44ca 693d 6bce 42bc 8829 fe3c 9d3c 6abc
00000270: c8a4 04bd 15cd 70bd 2a01 d33c e460 f53d
00000280: aed3 bc3b ff06 7cbd 1ec8 603d 688d cebd
00000290: f69d b2bd c9a8 0dbe 4898 f33d 22da 5cbd
000002a0: 234f cabc d219 813b 7a95 27bd 0af2 86bd
000002b0: 6921 563d 3893 45bc fae0 993c 20ae 02be
000002c0: 97f6 aa3d 1fd0 51bc 7f8b 2b3e 5a58 82bd
000002d0: e345 613b 7880 8ebd ef43 19bb 99e5 18bd
000002e0: b96b 15bd e83f 2fbd 3a42 443d 5c09 fcbc
000002f0: 4c85 bb3d 2005 36bc 3e44 41bd c987 09be
00000300: fd49 0abd e7b6 e5bc ad8b 643d 6927 f53d
00000310: ce1b 88bd c8f4 833b f36d 6cbd d09b 7c3d
00000320: 9c13 81bc 3de9 9a3d e265 c8bd d775 673d
00000330: 9cd5 8bbc 0565 9a3d 5c5a bdbd df1a c53c
00000340: f24e 933d 66fc 3bbc 55b9 3e3d d8c9 7bbd
00000350: a988 763d 8535 18bc 8582 dabd 2e19 45bd
00000360: db04 f73c a127 13bd 744e faba f260 03bc
00000370: 7319 8d3b f5cf 29bd 877a 06be 5583 173e
00000380: 2d8e c8bd 0ec7 5b3b 0053 15bd ca61 dcbd
00000390: 3640 2abd a57f b8bd 39a5 7dbd f917 75bd
000003a0: b47b 1b3e 2c8a 00be 4c28 79bd 6492 43bc
000003b0: 4687 cc3b 1e20 6ebd 9e55 de3c fdd8 a4bb
000003c0: 1d05 733d 7bd6 43bd 22c1 bf3d 8ee9 e03c
000003d0: 4f20 3ebd 67eb 66bd 6788 03be 04e1 043e
000003e0: 20ba fabd 0867 a2bd 1e1d 8f3d dc32 9d3d
000003f0: bd5a 2e3d 3108 8139 892a e8bc 6655 42bd
