examples/MNIST/mnist_pretrained.pth (torch_old, 459662 bytes, 18 tensors)

layers.0.weight f4 [32, 1, 5, 5]
0	0xbe23ef3c	-0.1600923
1	0xbe0f29a6	-0.13980731
2	0xbd1f1aa5	-0.03884377
3	0xbe53ab76	-0.20670876
4	0x3e2e348b	0.17012231
5	0xbe19f9b3	-0.15036659
6	0x3e06ddde	0.13170573
7	0xbd987300	-0.074438095
8	0xbca70c6b	-0.020391664
9	0xbc31d422	-0.010853799
10	0xbe4b108c	-0.19830531
11	0x3d317f05	0.043334026
12	0xbe170336	-0.14747319
13	0x39d1ca82	0.00040014467
14	0x3de16ea3	0.110074304
15	0x3cdc543b	0.026895633
16	0xbdc02399	-0.0938179
17	0x3e10bf2c	0.14135426
18	0x3e418b1a	0.1890072
19	0x3e65b80b	0.22433488
20	0x3dd65afc	0.10466573
21	0xbe114b0c	-0.14188784
22	0xbe437563	-0.19087748
23	0x3e1bf974	0.15231878
24	0xbc0eadef	-0.008708461
25	0x3d593d8c	0.05303721
26	0x3c55a8dc	0.0130407475
27	0xbd1f2122	-0.038849957
28	0xbd9745b7	-0.07386344
29	0xbe0e8b19	-0.13920249
30	0x3bd43df2	0.006477111
31	0x3e1025d2	0.14076927
32	0xbd7310c5	-0.059342165
33	0xbe01f43c	-0.12690824
34	0xbe2695c3	-0.16268067
35	0x3d9c6722	0.076368585
36	0x3e1c80a1	0.15283443
37	0xbd05d784	-0.032676235
38	0xbd12c4d9	-0.03583226
39	0xbd7d6f11	-0.0618735
40	0x3dbb580c	0.09147653
41	0x3d81fac9	0.063466616
42	0xbdeeb38e	-0.11655341
43	0xbc0bad9e	-0.00852528
44	0xbe08cf8e	-0.13360426
45	0x3e0c1d69	0.13683094
46	0xbd185cf1	-0.03719801
47	0x3b246e82	0.0025090282
48	0xbe6d9219	-0.23200263
49	0xbdd947b1	-0.10609377
50	0x3e46a740	0.19399738
51	0x3e1a17cb	0.15048139
52	0xbe243403	-0.16035466
53	0x3d8130a4	0.063081056
54	0x3e12776e	0.14303371
55	0xbe0ef6a2	-0.1396127
56	0x3e446b1b	0.19181482
57	0xbc6400a6	-0.01391617
58	0x3cae34fd	0.021265501
59	0xbe382004	-0.17980963
60	0x3e164f22	0.14678624
61	0x3c8ae514	0.016954936
62	0xbdfc58b3	-0.123216055
63	0xbe37bc67	-0.17942964
64	0xbda0ddc7	-0.07854801
65	0x3dd0c9d1	0.101947434
66	0x3d5b3301	0.053515438
67	0xbe0d732e	-0.13813469
68	0x3d3539b2	0.044244476
69	0xbdb70682	-0.08936788
70	0xbd544722	-0.05182565
71	0x3e4874f5	0.19575866
72	0x3e25d567	0.16194688
73	0xbe460a0e	-0.19339773
74	0xbe134a68	-0.14383852
75	0x3e50e5ac	0.20400113
76	0x3db9421a	0.09045811
77	0xbde78c9e	-0.113061175
78	0xbe099161	-0.13434364
79	0xbdce4d7a	-0.10073371
80	0x3c820238	0.015870199
81	0xbcba0819	-0.02270894
82	0x3df4c87f	0.11952304
83	0x3e1c0ddb	0.1523966
84	0xbdad236b	-0.08454021
85	0xbdc067d6	-0.09394805
86	0x3d4bc161	0.049744967
87	0xbda2bd2e	-0.079462394
88	0x3e1bc629	0.15212311
89	0xbd83e38b	-0.06439885
90	0xbe45780b	-0.19284074
91	0x3dcdf9da	0.10057421
92	0xbdb1d26f	-0.08682715
93	0xbd6672fa	-0.056261994
94	0xbe58270a	-0.21108642
95	0x3d1387e3	0.036018264
96	0x3da72c4b	0.08162745
97	0x3e5b8342	0.2143679
98	0x3e13dce4	0.14439732
99	0xbe4aba53	-0.1979764
100	0x3b4e2d90	0.0031460263
101	0xbe0c0370	-0.13673186
102	0x3e60d36d	0.21955653
103	0xbdd48071	-0.10376061
104	0xbc5041d8	-0.012711011
105	0xbd7d2442	-0.061802156
106	0x3e2ec52e	0.17067406
107	0xbd51ef7d	-0.051253784
108	0x3d3a5e06	0.045499824
109	0xbe3f3082	-0.18670848
110	0x3d666446	0.056247972
111	0x3e0e52b5	0.13898738
112	0xbdffe395	-0.1249458
113	0xbd1f58f7	-0.038903203
114	0x3e0bd64c	0.13655967
115	0x3e072a2b	0.1319968
116	0xbce1f9d9	-0.027584957
117	0xbde00ed2	-0.10940327
118	0xbd0babfd	-0.034099568
119	0xbdbd385a	-0.09239264
120	0x3e60389f	0.21896599
121	0x3df968bf	0.12178182
122	0xbd92280e	-0.07136546
123	0xbddfb345	-0.10922865
124	0xbe0c4c30	-0.13700938
125	0xbd5fde67	-0.05465546
126	0x3d12ff71	0.03588814
127	0x3cce1645	0.025157103
128	0xbcdb8a9d	-0.026799494
129	0x3e080ebb	0.13286869
130	0x3e246557	0.16054283
131	0xbe0a0629	-0.13478912
132	0x3cdf1317	0.027230782
133	0x3d8251e2	0.06363274
134	0x3e0a4aeb	0.13505141
135	0x3d06c825	0.032905716
136	0x3e3f5264	0.18683773
137	0x3e42ec25	0.19035394
138	0xbc86285d	-0.016376669
139	0xbd969294	-0.07352176
140	0x3cf73246	0.03017534
141	0xbe6ae955	-0.22940572
142	0xbe2204d2	-0.15822151
143	0x3c910314	0.017701663
144	0xbdac43a9	-0.08411343
145	0x3c910e94	0.017707147
146	0xbe1ac807	-0.15115367
147	0xbc61f29c	-0.013790753
148	0xbe27c59b	-0.16383974
149	0xbe399c34	-0.18125993
150	0x3e0fcd96	0.14043269
151	0xbd675b62	-0.056483634
152	0x3bd685e2	0.006546722
153	0xbe3de09a	-0.1854271
154	0xbdcf01bb	-0.10107752
155	0x3ce88765	0.028384874
156	0xbcb7cdf1	-0.022437068
157	0x3dfe2499	0.12409324
158	0x3cc9b701	0.024623396
159	0x3deaf362	0.11472203
160	0x3e139a3b	0.14414303
161	0xbe294338	-0.16529548
162	0xbdfe650b	-0.12421616
163	0xbe5e9df0	-0.21739936
164	0xbe03667a	-0.1283206
165	0x3e3504a0	0.17677546
166	0x3cb3b093	0.021934783
167	0x3e0164e0	0.12636137
168	0xbdd2566b	-0.10270389
169	0x3e04ce5e	0.12969348
170	0xbe13d9bb	-0.14438526
171	0x3d942f6c	0.072356075
172	0x3e01fcff	0.12694167
173	0x3e21a85e	0.15786883
174	0x3e3aec3c	0.18254179
175	0xbe56a1a5	-0.209601
176	0x3d04c9a9	0.03241888
177	0xbdb3bd6e	-0.08776365
178	0xbe1514a6	-0.14558658
179	0x3d59d400	0.053180695
180	0x3dbb8b87	0.09157472
181	0xbc68b042	-0.014202179
182	0x3c83d927	0.016094757
183	0xbd8ba942	-0.06819393
184	0xbe403f93	-0.18774252
185	0x3d4d7aab	0.050165813
186	0xbcdaf423	-0.026727742
187	0x3dc0714b	0.09396609
188	0x3d29d722	0.041464932
189	0xbba854a5	-0.0051370435
190	0x3c3af843	0.011411729
191	0x3deed815	0.11662308
192	0x3cf3c946	0.02975906
193	0x3d81ecc2	0.06343986
194	0xbd79ff96	-0.06103476
195	0xbe0962d1	-0.13416602
196	0x3deb4c64	0.1148918
197	0x3e102a07	0.14078532
198	0x3b276ed6	0.002554824
199	0xbd8c8095	-0.068604626
200	0x3e0e0d61	0.13872291
201	0x3e1e9b60	0.15488958
202	0xbdd6be39	-0.10485501
203	0xbe10f29b	-0.14155047
204	0x3e2b7164	0.16742474
205	0x3d862b12	0.06551184
206	0xbd00b814	-0.03142555
207	0x39e1d71e	0.0004307562
208	0xbe540923	-0.2070661
209	0xbe594750	-0.2121861
210	0xbe05bf75	-0.13061316
211	0xbe4da210	-0.20081353
212	0x3d1a2720	0.03763497
213	0x3d58c6bc	0.052923903
214	0xbdfc9e35	-0.12334863
215	0x3de16aa1	0.11006666
216	0x3e19e500	0.15028763
217	0xbdcef2ce	-0.10104905
218	0x3db99d00	0.090631485
219	0xbde7ebc1	-0.11324263
220	0xbd02b76e	-0.031913213
221	0x3e18713e	0.14886948
222	0x3cdc0e30	0.026862234
223	0x3e0bdab3	0.13657646
224	0x3e645fb1	0.22302128
225	0xbc98f8aa	-0.01867326
226	0xbe518e87	-0.20464526
227	0xbe303ad5	-0.17209943
228	0xbdf881e2	-0.12134148
229	0xbe0ea5f9	-0.13930501
230	0xbc27642d	-0.010216755
231	0x3d7c8bb4	0.06165667
232	0x3e0b5f82	0.13610652
233	0xbc8b9a86	-0.017041456
234	0xbcb3af99	-0.021934317
235	0x3e20f68e	0.15719053
236	0x3e1f1d7c	0.15538591
237	0xbdb4e4d9	-0.08832712
238	0xbbde87c9	-0.006791089
239	0xbd0b0c6c	-0.033947393
240	0x3e28c088	0.16479695
241	0xbd0a89a1	-0.03382266
242	0xbdb0cc92	-0.08632769
243	0x3e10ca12	0.14139584
244	0xbd1805a6	-0.03711476
245	0xbe23455b	-0.15944426
246	0x3dd1aaf4	0.10237685
247	0xbd81dd55	-0.06341044
248	0x3df2b1e2	0.11850335
249	0x3e09574c	0.13412207
250	0xbe2868fc	-0.16446298
251	0x3c72260f	0.014779582
252	0xbda6144a	-0.081093386
253	0x3d79ef42	0.06101919
254	0x3d7d49d1	0.061837975
255	0xbe007ef2	-0.12548426

layers.0.bias f4 [32]
0	0xbdf89c7d	-0.12139223
1	0x3e45cfdd	0.19317575
2	0xbda0e0ce	-0.07855378
3	0x3dd5404b	0.104126535
4	0xbe2433c8	-0.16035378
5	0x3dfdf76e	0.12400709
6	0x3d7431a3	0.05961765
7	0xbe146a97	-0.14493786
8	0x3ddabf98	0.10681075
9	0x3d631b1d	0.05544578
10	0xbcb6b8e8	-0.022304967
11	0x3e090aeb	0.13383071
12	0xbd036883	-0.032082092
13	0xbd7467e4	-0.05966939
14	0x3d75a202	0.059968956
15	0xbc3f57c1	-0.011678637
16	0x3dae94f8	0.08524507
17	0x3db289ab	0.08717664
18	0xbd878920	-0.066179514
19	0x3c28e0ec	0.010307532
20	0x3e2cd1e5	0.16876943
21	0x3e42c940	0.19022083
22	0xbe170b89	-0.14750494
23	0x3e3d360e	0.18477651
24	0x3de5ae47	0.112148814
25	0x3e02c462	0.12770227
26	0x3e13bb26	0.1442686
27	0x3c64268b	0.013925205
28	0x3d75acd5	0.05997928
29	0xbd001732	-0.03127212
30	0xbddede34	-0.10882226
31	0x3da5cf68	0.080962

layers.1.weight f4 [32]
0	0x3f878d45	1.0589987
1	0x3f8c1163	1.0942806
2	0x3f84f693	1.0387748
3	0x3f8985d4	1.0743966
4	0x3f8b59fd	1.0886837
5	0x3f989130	1.1919308
6	0x3f87db42	1.0613787
7	0x3f8e72ab	1.1128744
8	0x3f8da582	1.1066134
9	0x3f8cef5d	1.1010548
10	0x3f899c6b	1.075086
11	0x3f8cc488	1.0997477
12	0x3f92c485	1.1466223
13	0x3f9ce122	1.2256205
14	0x3f845d14	1.0340905
15	0x3f80b498	1.0055113
16	0x3f832408	1.0245371
17	0x3f7ef931	0.99598986
18	0x3f825126	1.0181015
19	0x3f995844	1.1980062
20	0x3f855b89	1.0418559
21	0x3f88466f	1.0646495
22	0x3f95585d	1.1667591
23	0x3f81dc85	1.0145422
24	0x3f8c4f7e	1.0961759
25	0x3f8ab50c	1.0836501
26	0x3f894a6d	1.0725838
27	0x3f9168be	1.136009
28	0x3f80158d	1.0006577
29	0x3f8b6c72	1.089247
30	0x3f8d6662	1.104687
31	0x3f7ae2d0	0.9800234

layers.1.bias f4 [32]
0	0xbd378582	-0.044805057
1	0xbd4b2f83	-0.049605858
2	0xbd32bcb9	-0.04363701
3	0xbd85e938	-0.065386236
4	0xbcfdad2c	-0.030966364
5	0xbb571418	-0.0032818373
6	0xbbe5d5a6	-0.0070139943
7	0x3d74ecd6	0.059796177
8	0xb85fac2f	-5.33277e-05
9	0x3c449b06	0.011999851
10	0xbd8c001b	-0.068359576
11	0xbd37454c	-0.04474382
12	0x3c86b437	0.016443355
13	0xbd78d615	-0.06075104
14	0x3deaeedb	0.11471339
15	0x3b8d17b2	0.004305803
16	0x3c2a4f39	0.010394865
17	0xbd51732d	-0.05113523
18	0x3cc6481f	0.024204312
19	0xbdec50d0	-0.11538851
20	0xbd222026	-0.03958144
21	0x3af73dda	0.0018863038
22	0xbd7bfc35	-0.06151982
23	0x3d170547	0.036870267
24	0xbd03ea4a	-0.032205857
25	0x3d160bc9	0.036632333
26	0xbd26463f	-0.040594336
27	0x3c468bbc	0.012118276
28	0x3d57a4c0	0.052647352
29	0xbcfe655f	-0.031054197
30	0x3ce9ed3f	0.02855551
31	0xbc114301	-0.008866073

layers.1.running_mean f4 [32]
0	0xbe23cea8	-0.15996802
1	0x3ddda0c4	0.10821679
2	0xbda35a55	-0.07976214
3	0x3dbf96ce	0.093549356
4	0xbe2bca4b	-0.16776387
5	0x3dbd7d3a	0.09252401
6	0x3dd6369c	0.10459635
7	0xbe29054a	-0.16505924
8	0x3df79572	0.12089051
9	0x3d4d44e1	0.050114516
10	0xbc5bdb98	-0.013419054
11	0x3daf68fd	0.08564947
12	0xbd284eed	-0.041090894
13	0xbd8d4870	-0.06898582
14	0x3e394080	0.18091011
15	0x3af50094	0.0018692189
16	0x3d8beeba	0.06832643
17	0xbc15b324	-0.009136949
18	0x3d4d0728	0.050055653
19	0x3b39aea1	0.0028332847
20	0x3e3c2b00	0.18375778
21	0x3e349037	0.17633139
22	0xbe42dacf	-0.19028781
23	0x3e46738e	0.19380018
24	0x3de6a2c6	0.11261515
25	0x3e03efb3	0.12884407
26	0x3db434cf	0.08799135
27	0xbc728aa2	-0.01480356
28	0x3e444eed	0.19170733
29	0xbde99d56	-0.114069626
30	0xbdff2e6a	-0.12460025
31	0x3def1c22	0.11675288

layers.1.running_var f4 [32]
0	0x3d59dce9	0.053189192
1	0x3d9632f3	0.073339365
2	0x3d292246	0.04129245
3	0x3c924875	0.017856816
4	0x3d02b976	0.03191515
5	0x3d144887	0.03620198
6	0x3ccb54ab	0.024820646
7	0x3c7b800d	0.015350354
8	0x3ce08fcf	0.027412323
9	0x3cae935b	0.021310499
10	0x3cb882e7	0.022523357
11	0x3d0d3d8a	0.034482516
12	0x3cf13f2d	0.02944907
13	0x3ceeb8c7	0.029140843
14	0x3d874d35	0.06606523
15	0x3c5ceab1	0.013483689
16	0x3bef74d5	0.0073076286
17	0x3d7ba52b	0.061436813
18	0x3d1698be	0.03676676
19	0x3c848cfd	0.01618051
20	0x3d03390f	0.032036837
21	0x3bfc8cae	0.0077072
22	0x3d1440d1	0.036194626
23	0x3c385683	0.011251095
24	0x3ca0d3c8	0.019632235
25	0x3cafdb05	0.021466741
26	0x3d227645	0.039663572
27	0x3cebc4b3	0.028780317
28	0x3d616d64	0.055035964
29	0x3d8fed0c	0.07027635
30	0x3c4f4b29	0.012652197
31	0x3d13bd1c	0.03606902

layers.3.weight f4 [32, 32, 3, 3]
0	0x3d939cdd	0.07207654
1	0xbc878fde	-0.016548093
2	0xbce68be6	-0.02814288
3	0x3b4b69f8	0.0031038504
4	0xbc0577ff	-0.008146285
5	0xbc0281c0	-0.007965505
6	0x3d76bba6	0.06023755
7	0xbd07c74a	-0.03314904
8	0x3c9d51c2	0.019204024
9	0x3d203c7b	0.03912018
10	0x3d134055	0.035950024
11	0xbc97735b	-0.018487623
12	0xbd00fc8a	-0.03149084
13	0x3d014f30	0.03156966
14	0xbd89a721	-0.067213304
15	0xbd63d9e3	-0.055627715
16	0xbc30a03d	-0.010780391
17	0x3d15fc30	0.036617458
18	0x3c5057e9	0.012716272
19	0x3d87295e	0.06599687
20	0xbc35c580	-0.011094451
21	0xbc29adb0	-0.010356352
22	0xbcc40538	-0.02392827
23	0xbda0b6ea	-0.07847388
24	0xbc68f0fd	-0.014217612
25	0xbbef9861	-0.007311866
26	0x3cf423e5	0.029802272
27	0x3da60736	0.08106844
28	0x3c5169ed	0.012781602
29	0x3d3d5772	0.046225972
30	0xbc9323e4	-0.01796145
31	0x3cf165c1	0.029467465
32	0x3d89060f	0.06690609
33	0xbc66661c	-0.014062431
34	0x3c806aa3	0.015675848
35	0x3d94041e	0.07227348
36	0xbb98b8f3	-0.0046607195
37	0x3c3f242e	0.011666341
38	0xbd6b5e75	-0.057463128
39	0xbc4e5ddf	-0.012595623
40	0xbd4ae52b	-0.049534958
41	0xbd27ee93	-0.040999006
42	0xbd6c91d6	-0.057756267
43	0xbd0365a7	-0.032079365
44	0x3d8227a9	0.06355221
45	0xb9fb2e7e	-0.0004790909
46	0xbd485551	-0.04890949
47	0xbd964c2f	-0.073387496
48	0xbd5c6acc	-0.053812787
49	0xbbbb3792	-0.0057134116
50	0xbdf0d36a	-0.11759074
51	0xbdc7fa69	-0.09764559
52	0xbde898b8	-0.11357254
53	0xbddc3ac3	-0.107533954
54	0x3b132ee3	0.0022458367
55	0x3d47d52a	0.048787273
56	0xbbfe6e1d	-0.0077645914
57	0xbd72f579	-0.059316132
58	0xba86a214	-0.0010271692
59	0x3cd0571d	0.025432164
60	0xbad04a65	-0.0015891312
61	0xbcc16db8	-0.023611888
62	0xbe0a2e09	-0.13494124
63	0xbdb9e9c6	-0.09077792
64	0xbbcbc72a	-0.0062188106
65	0x3c975a51	0.018475683
66	0xbd7cb4c7	-0.06169584
67	0xbca2d4e5	-0.019876907
68	0x3be24268	0.006904889
69	0x3d0d474b	0.03449182
70	0xbcbf1dd9	-0.023329662
71	0xbca04056	-0.019561928
72	0x3cd36a2e	0.025807466
73	0x3d61efe9	0.055160437
74	0x3d501d59	0.050809238
75	0xbd696126	-0.056977414
76	0x3ce6d628	0.02817829
77	0xbde9f64b	-0.1142393
78	0xbd23c5fb	-0.03998373
79	0x3cd231a5	0.025658438
80	0xbdbe80e4	-0.09301928
81	0xbd7f93bc	-0.06239675
82	0x3ccead53	0.025229132
83	0x3d5abc95	0.053402502
84	0x3cbfefba	0.02342974
85	0xbc25c78f	-0.010118379
86	0xbbf84ef8	-0.007577773
87	0xbac462f6	-0.0014983106
88	0xbd74079d	-0.059577573
89	0x3ca26b5a	0.01982658
90	0x3d8e137e	0.069373116
91	0xbc4b3fc5	-0.012405341
92	0xbde93fa8	-0.113890946
93	0x3cbdc01f	0.0231629
94	0xbc2d8950	-0.01059182
95	0x3ce0feaa	0.027465183
96	0xbc095c98	-0.0083838925
97	0xbba21b04	-0.004947068
98	0xbb61e719	-0.003447002
99	0x3dbca350	0.09210837
100	0x3bb92579	0.005650219
101	0xbbc2fdb4	-0.005950654
102	0x3ca8ca64	0.02060432
103	0x3d705e9f	0.058683988
104	0x3da102f5	0.07861892
105	0xbd21d2c1	-0.03950763
106	0x3d0cde43	0.034391653
107	0xbca541ee	-0.02017304
108	0x39e5c6d9	0.00043826437
109	0xbc9eeffa	-0.01940154
110	0x3d9acd01	0.07558633
111	0xbd19ed82	-0.03758002
112	0x3bd4f9f4	0.0064995233
113	0xbd6868eb	-0.056740683
114	0xbb7a37a6	-0.0038180142
115	0x3d7fe18d	0.06247096
116	0xbd6ef8a0	-0.058342576
117	0x3caf6ec1	0.021415116
118	0xbcc8ef34	-0.024528123
119	0xbd581ab0	-0.052759826
120	0xbc1d31c4	-0.009594385
121	0x3c1f2df3	0.009715545
122	0x3c499f1d	0.012306002
123	0x3d0d8577	0.03455111
124	0x3b8da959	0.0043231663
125	0xbd03078d	-0.031989623
126	0x3b3caf23	0.0028790913
127	0xbc824bc6	-0.015905272
128	0xbdfa00a7	-0.12207156
129	0xbce39a14	-0.027783431
130	0xbbb82135	-0.005619193
131	0xbd20dc1d	-0.039272416
132	0xbca1fad9	-0.019772934
133	0xbd1439d1	-0.03618795
134	0xbd49c48f	-0.04925972
135	0x3cd698c3	0.02619589
136	0xbd9b740f	-0.07590496
137	0xbdc109b9	-0.094256826
138	0x3d44ec74	0.04807706
139	0xbc739cc8	-0.0148689225
140	0xbd46d2c2	-0.048540838
141	0x3c06dfb5	0.008232047
142	0x3b2a3372	0.0025970605
143	0x3d13e6ed	0.0361089
144	0xbbebd976	-0.007197554
145	0x3c13c777	0.009019724
146	0x3d31a281	0.043367866
147	0x3d8136ff	0.06309318
148	0x3c3bfbe9	0.011473634
149	0xbd6b6d71	-0.05747742
150	0xbd714a6d	-0.05890887
151	0xbb73f24a	-0.0037223273
152	0x3c43aaba	0.01194256
153	0x3cf17892	0.029476438
154	0x3d4a02da	0.049319126
155	0x3d25b42f	0.04045504
156	0xbc52a471	-0.012856589
157	0x3d60c5cc	0.054876134
158	0x3cde1dd8	0.02711384
159	0x3d8cf327	0.06882315
160	0x3d980641	0.07423068
161	0xbcdc19ce	-0.026867773
162	0x3d26a27c	0.0406823
163	0xbbeab12c	-0.007162234
164	0xbd57c454	-0.052677467
165	0xbd3cb1d6	-0.046068035
166	0x3ae1ed92	0.0017236939
167	0xbc6259be	-0.0138153415
168	0xbd6891fe	-0.056779854
169	0xba86a4ef	-0.0010272543
170	0x3d7918e2	0.060814746
171	0xbc33d183	-0.010975244
172	0xbd0f4f21	-0.034987573
173	0xbd5374d4	-0.051625088
174	0x3cd16c75	0.025564412
175	0xbd65a61b	-0.056066614
176	0x3d71cea4	0.05903496
177	0x3d31d743	0.04341818
178	0xbca4dc14	-0.020124473
179	0xbbfd94b6	-0.007738675
180	0x3d4f757f	0.050649162
181	0x3d6798d9	0.05654225
182	0x3cd2ce6c	0.025733195
183	0x3d821741	0.063520916
184	0xbbf32e20	-0.00742127
185	0xbd155a0e	-0.036462836
186	0xba576c0b	-0.0008217699
187	0x3d45e34a	0.048312463
188	0xbc7839f1	-0.015150533
189	0x3ca018ba	0.01954304
190	0x3d241830	0.04006213
191	0xbce517eb	-0.027965507
192	0xbb8005da	-0.0039069476
193	0xbcb00582	-0.021487001
194	0xbc223048	-0.009899206
195	0xbd66da65	-0.05636062
196	0xbc16f8b3	-0.009214568
197	0x3d181acd	0.037134934
198	0xbd902e88	-0.07040125
199	0xbd83b54f	-0.06431066
200	0x3d2909e0	0.041269183
201	0x3d903574	0.070414454
202	0xbd487810	-0.048942626
203	0xbdcbb5f1	-0.09946812
204	0xbd13ee0a	-0.036115684
205	0xbb9d8a7f	-0.00480777
206	0xbdc60f21	-0.09670854
207	0x3b21d5ed	0.002469416
208	0x3daa6303	0.08319666
209	0xbb15639e	-0.0022794972
210	0xbcbd380b	-0.023098012
211	0xbd414b46	-0.047190927
212	0xbccb4f96	-0.024818223
213	0x3c53e8df	0.012933939
214	0xbcf21855	-0.029552618
215	0xbcd5a619	-0.026080178
216	0x3d222f9b	0.03959618
217	0xbc31e007	-0.010856635
218	0xbd3ffd6e	-0.04687255
219	0x3b3eccb2	0.0029113707
220	0x3d384400	0.044986725
221	0xbc95fabd	-0.018308038
222	0x391bc158	0.00014853978
223	0x3ca8e2d6	0.020615976
224	0x3c858db2	0.016302917
225	0x3c4e6415	0.012597104
226	0x3d81e5b7	0.06342643
227	0xbd0383a9	-0.032107983
228	0x3cb6eb16	0.022328895
229	0xbdb0fae0	-0.086416006
230	0xbdcad3c6	-0.09903674
231	0xbd40623f	-0.046968695
232	0x3c2dd8f9	0.010610812
233	0xbd11d3ad	-0.03560226
234	0x3c91c0c5	0.017792115
235	0xbc9e0082	-0.019287352
236	0x3cfec39e	0.031099137
237	0x3dc8b8bb	0.098008595
238	0x3b513e00	0.0031927824
239	0xbd0c430e	-0.034243636
240	0x3cce21fa	0.025162686
241	0x3ae7721f	0.0017657912
242	0xbcaaabc3	-0.020833855
243	0xbc88601e	-0.016647395
244	0xbd394eec	-0.04524128
245	0xbd3a37e8	-0.045463473
246	0x3d3998d0	0.04531175
247	0xbbb8b7a5	-0.0056371265
248	0xbd8bb954	-0.06822458
249	0xbc11276f	-0.008859499
250	0xbda76392	-0.081732884
251	0xbc326e80	-0.010890603
252	0xbd144e4a	-0.036207475
253	0x3cc0ae35	0.023520568
254	0xbdb8580e	-0.0900117
255	0xbbc28a9e	-0.0059369346

layers.3.bias f4 [32]
0	0xba888b65	-0.0010417519
1	0xbd9fde79	-0.07806105
2	0x3d2b760d	0.04186063
3	0xbdba6016	-0.09100358
4	0x3caf4f1a	0.021400023
5	0x3d685730	0.056723773
6	0xbca567db	-0.020191124
7	0x3b032f97	0.002001738
8	0xbdc495d0	-0.09598887
9	0x3a8a342f	0.0010544116
10	0x3b8e4515	0.0043417313
11	0x3cebcd8a	0.028784532
12	0xbd25ee14	-0.040510252
13	0x3d52c472	0.051456876
14	0xbd78bcd5	-0.06072696
15	0xbcd93544	-0.026514657
16	0xbd21b5b1	-0.039479915
17	0xb99b1081	-0.000295762
18	0xbd54e5f2	-0.051977105
19	0xbac38062	-0.001491558
20	0xbcb71331	-0.022348018
21	0xbd337f4b	-0.043822568
22	0x3d245863	0.040123355
23	0x3b8ebaee	0.00435578
24	0xbd531378	-0.05153224
25	0xbdb6a2fc	-0.089178056
26	0xbc924450	-0.01785484
27	0xbdfd0817	-0.12355059
28	0x3c2182ed	0.009857875
29	0x3ca6f183	0.020378834
30	0xbcfe858b	-0.031069538
31	0xbd54c493	-0.05194528

layers.5.weight f4 [64, 32, 3, 3]
0	0x3c6b479a	0.014360333
1	0x3cb70588	0.022341505
2	0x3c08540c	0.00832082
3	0x3d540b35	0.0517685
4	0xbc7a2a71	-0.015268908
5	0xbc57c2fd	-0.013169047
6	0x3ccd2d0c	0.025045894
7	0x3d3bdbba	0.045863844
8	0x3c817330	0.015801996
9	0xbc9f84fb	-0.01947259
10	0xbc689f03	-0.014198068
11	0x3dbf434a	0.09339006
12	0x3de3644c	0.111031145
13	0x3d96a081	0.073548324
14	0x3c8f52c4	0.01749552
15	0x3d8eb48d	0.06968031
16	0x3d434cb2	0.047680564
17	0x3d6e7271	0.05821461
18	0xbb2a5918	-0.0025993045
19	0xbd011ddb	-0.031522613
20	0xbcd340c8	-0.025787726
21	0xbdb1d56c	-0.08683285
22	0xbd29fab6	-0.041498862
23	0xbd9922c4	-0.07477334
24	0xbd4e5409	-0.05037311
25	0xbc9e05af	-0.01928982
26	0xbc48db02	-0.012259247
27	0x3da38843	0.07984974
28	0x3d719609	0.058980975
29	0x3dc4a980	0.09602642
30	0xbb6026fe	-0.0034202929
31	0xbcb6ef74	-0.022330977
32	0xbce24afc	-0.027623646
33	0xbda9d9e4	-0.082935125
34	0xbbea4543	-0.00714937
35	0x3ce8f245	0.028435836
36	0x3c84fe92	0.01623467
37	0xbcbb6a21	-0.022877755
38	0x3c883923	0.016628807
39	0xbd037c87	-0.03210118
40	0xbb2c38f7	-0.002627907
41	0xbbb6dc41	-0.0055804555
42	0x3c78f257	0.015194497
43	0x3c8d3ddc	0.01724141
44	0xbc71e5c2	-0.014764251
45	0xbcd4206d	-0.025894368
46	0xbdea35b5	-0.11436025
47	0xbd0bf173	-0.03416581
48	0xbcd07b28	-0.02544935
49	0x3cfd1869	0.030895429
50	0xbd432178	-0.04763934
51	0xbae995a4	-0.0017821086
52	0xbd813040	-0.06308031
53	0xbcd4b65c	-0.025965862
54	0xbcfd7e9f	-0.030944167
55	0x3cc84dc3	0.024451142
56	0x3c72d8a9	0.014822164
57	0x3cdfb650	0.027308613
58	0xbd01fe7e	-0.031736843
59	0xbd7e06f8	-0.062018365
60	0x3c917bdf	0.017759262
61	0xbc7753f2	-0.015095698
62	0x3d97a69d	0.07404826
63	0xbc8d83d4	-0.017274775
64	0x3d69c4a7	0.057072308
65	0x3c134187	0.008987791
66	0xbb3f7cd0	-0.002921868
67	0x3d160b68	0.03663197
68	0x3d67433a	0.056460597
69	0x3d6d623e	0.05795502
70	0x3cb22fd7	0.021751327
71	0x3bee274a	0.007267867
72	0x3d0d4805	0.03449251
73	0x3d70fa9c	0.05883275
74	0x3d949251	0.0725447
75	0xbcbeae55	-0.023276487
76	0x3d9edafc	0.07756612
77	0x3d9407c0	0.07228041
78	0x3d69ea90	0.05710846
79	0x3d8198e1	0.063279875
80	0x3d676eee	0.056502275
81	0xbd16318a	-0.036668338
82	0x3c0deca1	0.008662374
83	0xbbfebd44	-0.007774027
84	0x3d33e556	0.043919884
85	0xbc3eb9b3	-0.011640954
86	0x3d51888d	0.051155616
87	0x3d2441cd	0.040101815
88	0x3ddc73b7	0.10764258
89	0x3db42dac	0.08797774
90	0xbc5222e0	-0.012825698
91	0x3d569dc5	0.052396554
92	0x3c993d6c	0.018706046
93	0xbbbfab44	-0.005849274
94	0x3d187d61	0.037228946
95	0x3d8f1623	0.06986644
96	0xbd588729	-0.052863274
97	0xbd4285b8	-0.047490805
98	0x3dabc056	0.083862945
99	0x3bcb9154	0.006212393
100	0x3acd7f0a	0.0015678119
101	0x3d8497d0	0.064742684
102	0x38c01ee1	9.161025e-05
103	0xbd0fe17e	-0.035127155
104	0x3dbb9872	0.09159936
105	0xbd03262f	-0.032018837
106	0x3d2a076b	0.04151098
107	0xbccd375a	-0.025050808
108	0x3c9c8f4a	0.019111294
109	0x3c17190b	0.009222279
110	0x3b06e6fa	0.002058445
111	0xbcdf9d9f	-0.02729684
112	0xbdac4f36	-0.08413546
113	0xbcf15e6c	-0.02946397
114	0xbdca6e78	-0.098843515
115	0xbbc1081e	-0.00589086
116	0xbdb6fc83	-0.089348815
117	0xbdbc2b85	-0.09187988
118	0xb9f16f81	-0.0004605018
119	0xbd562dfe	-0.052289955
120	0x3d06322a	0.032762684
121	0xbd0f63ed	-0.035007406
122	0xbbe25d0a	-0.006908064
123	0xbcd5a0c1	-0.02607763
124	0x3ca54bbf	0.02017772
125	0xbb42350c	-0.002963367
126	0x3d9e3337	0.07724612
127	0xbc4523b3	-0.012032437
128	0xbd036621	-0.03207982
129	0x3d06a2fb	0.032870274
130	0x3cae28a8	0.02125962
131	0x3cbd5cff	0.023115633
132	0x3c872f2e	0.01650199
133	0x3e00c1dd	0.12573953
134	0x3d55daeb	0.05221073
135	0x3d9bc45e	0.076058134
136	0xbb63b248	-0.0034743715
137	0x3d4741bf	0.048646685
138	0x3d5f0347	0.054446485
139	0x3bfed650	0.007777013
140	0x3d114e2d	0.035474945
141	0x3d8186da	0.06324549
142	0xbcd71a9f	-0.026257811
143	0xbd4b2f41	-0.04960561
144	0xbcb99604	-0.02265454
145	0xbca66aea	-0.020314652
146	0x3d7e396b	0.062066477
147	0x3d8ca181	0.06866742
148	0x3d7f7407	0.06236651
149	0x3d388d2e	0.045056514
150	0x3d1a5930	0.037682712
151	0x3d20ca3b	0.039255362
152	0x3bb93ae1	0.005652771
153	0xbd1cdc3f	-0.03829598
154	0x3cbc537e	0.02298903
155	0x3d1fd01c	0.039016828
156	0xbc3a4801	-0.011369706
157	0x3d30e4fd	0.04318713
158	0x3d486207	0.04892161
159	0x3cc7030f	0.02429345
160	0xbd5b89d6	-0.053598247
161	0xbd9665f4	-0.07343665
162	0x3cc3d26e	0.023904052
163	0xbd705547	-0.058675077
164	0xbc560fe4	-0.013065312
165	0x3d421d90	0.047391474
166	0xbd2eb314	-0.04265125
167	0x3bb0e9a8	0.0053989477
168	0x3daa07e8	0.08302289
169	0x3cd6b9f5	0.026211718
170	0x3dd96dec	0.10616669
171	0x3d0f23e0	0.034946322
172	0x3d14354a	0.036183633
173	0xbd2c4f8b	-0.042068046
174	0xbad4f96d	-0.0016248651
175	0xbb9510c7	-0.004549119
176	0x3c24a4a5	0.01004902
177	0xbd6c76e0	-0.057730556
178	0x3be2f977	0.006926711
179	0xbd6c62c8	-0.057711393
180	0xbbf34d38	-0.0074249767
181	0x3cf7f5b6	0.030268531
182	0x3c1fc5cb	0.009751747
183	0x3d0e2a8e	0.034708552
184	0xba4eb69a	-0.0007885486
185	0x3d99f2d7	0.07517021
186	0xbd206331	-0.039157096
187	0x3db20fa5	0.0869439
188	0x3b9fb8fb	0.0048743463
189	0x3d3fd046	0.046829484
190	0x3ca3a3c2	0.019975547
191	0x3db6022d	0.08887134
192	0x3bd61c14	0.006534109
193	0x3cec9edd	0.028884346
194	0x3df36e6e	0.11886297
195	0x3c9bd1df	0.019020973
196	0xbcc383c9	-0.023866551
197	0x3c91f634	0.017817594
198	0x3cda9a2c	0.026684843
199	0xbcdc93bc	-0.026925914
200	0x3d3c59f1	0.045984212
201	0x3d31fb51	0.043452565
202	0x3b45369c	0.0030092364
203	0xbc04c180	-0.008102775
204	0xbd965e08	-0.07342154
205	0x3c92f8fe	0.017940994
206	0x3d48cd98	0.049024194
207	0x3d1b69db	0.03794275
208	0xbce6e3b8	-0.028184757
209	0xbb5988c6	-0.0033193096
210	0xbdb5f8c3	-0.08885338
211	0xbc498205	-0.0122990655
212	0xbd173c07	-0.03692248
213	0x3be5b5f8	0.0070102178
214	0xbd1d14c2	-0.038349874
215	0xbd3f8178	-0.04675433
216	0x3c4d8863	0.012544724
217	0xbb1326c2	-0.0022453521
218	0x3c9c7123	0.019096917
219	0xbcbc023a	-0.02295028
220	0x3d4c3368	0.049853712
221	0x3dc45d55	0.09588114
222	0x3d312946	0.043252252
223	0x3d65a799	0.056068037
224	0xbc2c9163	-0.01053271
225	0x3d53697d	0.051614273
226	0xbd46f8b6	-0.048577033
227	0x3c67763d	0.014127311
228	0xbb95d96d	-0.0045730383
229	0xbd0daee5	-0.03459062
230	0xbd25fcfd	-0.04052447
231	0xbd24c1ee	-0.04022401
232	0x3d230839	0.039802764
233	0xbc88a703	-0.0166812
234	0x3d1852dc	0.037188396
235	0x3d29fde1	0.041501883
236	0xbd10ed82	-0.035382755
237	0x39e8ff21	0.00044440574
238	0xbce05b11	-0.027387174
239	0x3d3487d8	0.044074863
240	0x3cf446bc	0.029818885
241	0xbc45783c	-0.012052592
242	0x3c9b95df	0.018992363
243	0x3d552790	0.052039683
244	0x3c5a5de1	0.013328047
245	0x3d2238b4	0.039604858
246	0x3d530053	0.05151398
247	0x3a97248c	0.0011531278
248	0xbdd80200	-0.105472565
249	0x3d8242dc	0.06360409
250	0x3cb79d8e	0.022413995
251	0xbd0e6fca	-0.03477458
252	0x3d253175	0.04033037
253	0x3d1db6ec	0.038504526
254	0x3d9ebe68	0.07751161
255	0x3d6a5efd	0.057219494

layers.5.bias f4 [64]
0	0xbd05863e	-0.032598726
1	0x3cd5abbf	0.026082871
2	0xbca134c8	-0.019678488
3	0xbd3979d4	-0.0452822
4	0xbc8785e2	-0.016543332
5	0xbd7d2233	-0.061800193
6	0x3ba36a4e	0.0049870377
7	0xbd2dfc73	-0.042477082
8	0x3c28c0b2	0.010299848
9	0x3c9df87b	0.019283524
10	0xbc275a3f	-0.010214387
11	0xbd6f4fdf	-0.05842578
12	0xbc939da3	-0.018019503
13	0x3d60b120	0.05485642
14	0xbc38370b	-0.011243592
15	0xbd126757	-0.035743084
16	0xbd4fde4f	-0.05074912
17	0xbc9be43c	-0.019029729
18	0x3c9aea0d	0.018910432
19	0x3cd32499	0.025774287
20	0x3cec938a	0.028878946
21	0xbd882664	-0.066479474
22	0xbc82750c	-0.015924953
23	0xbb5b8a01	-0.0033499005
24	0xbc6aa1a3	-0.014320764
25	0x3d68f613	0.0568753
26	0x3ba48d4a	0.005021726
27	0xbc8e58f2	-0.017376397
28	0xbc112798	-0.008859538
29	0xbd68242e	-0.05667513
30	0xbd91f62f	-0.07127034
31	0xbd306995	-0.04306944
32	0xbced0bb2	-0.02893624
33	0x3c872559	0.016497301
34	0xbcf09f50	-0.029372841
35	0xbcedce32	-0.029028986
36	0x3d5293a6	0.05141034
37	0x3cf64d15	0.030066052
38	0xbcd2ffd2	-0.02575675
39	0x3c92aa1b	0.017903378
40	0x3ca584ed	0.020204986
41	0xbceb27b4	-0.028705455
42	0xbbe5c5cb	-0.007012104
43	0xbd0c05b4	-0.034185126
44	0xbd386a96	-0.045023523
45	0x3cc752ed	0.024331534
46	0x3b0aaa24	0.002115854
47	0x3c5b9238	0.0134015605
48	0x3d081179	0.03321979
49	0xbc225fd6	-0.009910544
50	0xbc894539	-0.01675664
51	0xbb58f8c5	-0.0033107263
52	0xbc8b47fc	-0.017002098
53	0x3d084c52	0.03327591
54	0xbc3e7dca	-0.01162667
55	0xbd13d1a0	-0.036088586
56	0xbd2f7cf0	-0.04284376
57	0xbd21d60b	-0.039510768
58	0x3ce17f0a	0.027526397
59	0x3d03cb46	0.03217628
60	0x3af2f962	0.0018537457
61	0xbb60d084	-0.0034303972
62	0xbcd0930e	-0.025460746
63	0xbd10796f	-0.035272058

layers.7.weight.mean f4 [64, 64, 3, 3]
0	0x3db78b9b	0.089621745
1	0x3c955597	0.018229289
2	0x3da5121e	0.08060096
3	0x3d57268e	0.052527003
4	0xbd92d670	-0.07169807
5	0xbcd7f631	-0.02636251
6	0x3c3b6d2b	0.011439602
7	0xbd84195c	-0.064501494
8	0x3df5e9cc	0.12007484
9	0xbd07a31d	-0.03311454
10	0x3ba04ea5	0.0048921877
11	0x3dfe1ef4	0.124082476
12	0xbbbdde51	-0.0057943244
13	0xbd9029cc	-0.07039222
14	0x3bfd549a	0.0077310326
15	0x3cbd6f87	0.02312447
16	0x3c38a090	0.01126875
17	0xbd257e4b	-0.040403645
18	0xbcd6d00d	-0.026222253
19	0xbaff9c88	-0.0019501606
20	0xbdb78e4a	-0.08962686
21	0xbd79e9a9	-0.06101385
22	0x3dcb4efb	0.09927174
23	0x3d8e786d	0.06956563
24	0xbd4cdd8e	-0.05001598
25	0x3d456ada	0.048197605
26	0xbbede301	-0.007259727
27	0xbd9bd568	-0.076090634
28	0x3c868a0e	0.016423251
29	0xbd153a3c	-0.03643249
30	0xbdc9eb23	-0.09859302
31	0xbaa68553	-0.0012704529
32	0xbd9429a1	-0.072345026
33	0xbd1e435a	-0.03863845
34	0xbbf2aed8	-0.007406097
35	0xbda14a70	-0.07875526
36	0xbd9bdea3	-0.07610824
37	0x3ce2e5b7	0.027697427
38	0x3c94c644	0.018160947
39	0xbdd18dc6	-0.10232119
40	0x3db2283e	0.08699082
41	0xbd11703c	-0.035507426
42	0x3d6542e0	0.05597198
43	0x3d5a9bcd	0.05337124
44	0xbd1b7e5b	-0.0379623
45	0x3c8a8948	0.016911164
46	0xbcaed5cb	-0.021342179
47	0x3e18ee35	0.14934619
48	0x3e03f59c	0.12886661
49	0x3db2a5e0	0.087230444
50	0x3d9f062b	0.07764848
51	0x3df4c36e	0.11951338
52	0x3c2a3c2c	0.010390323
53	0x3cd554f8	0.026041493
54	0xbd67dfe2	-0.056609996
55	0xbdba9a8e	-0.0911151
56	0x3aa1698b	0.001231478
57	0xbd8e3e20	-0.06945443
58	0xbd097a4d	-0.0335639
59	0x3d34832b	0.044070404
60	0x3d26091e	0.04053604
61	0xbd5d73ee	-0.054065637
62	0x3dacd54e	0.08439122
63	0xbd871eb3	-0.06597652
64	0xbd9d4c05	-0.07680515
65	0xbd236a2d	-0.03989618
66	0xbba87517	-0.0051409113
67	0x3d27fd6a	0.04101316
68	0xbb079852	-0.0020690155
69	0x3d0d18d9	0.034447525
70	0x3ba0383d	0.0048895166
71	0xbd1d5144	-0.03840758
72	0xbdb903d4	-0.09033933
73	0xbbe2c623	-0.0069205924
74	0xbdf1727d	-0.11789415
75	0x3aac09f9	0.0013125531
76	0xbc064608	-0.008195408
77	0xbd89b845	-0.067246
78	0xbd4649e2	-0.048410304
79	0x3d149039	0.036270354
80	0xbd0cc0ec	-0.034363672
81	0x3d9f05b0	0.07764757
82	0x3d5f319a	0.054490663
83	0x3d8c0b26	0.06838064
84	0xbdd46b46	-0.10372023
85	0xbd8d35a8	-0.06895
86	0x3d36f59e	0.044667833
87	0xbd152c06	-0.036418937
88	0xbd79fe88	-0.061033756
89	0x3ca3b56c	0.01998397
90	0xbca32f47	-0.019920005
91	0xbb051dbc	-0.0020311913
92	0x3db99a91	0.09062684
93	0xbddaecfa	-0.10689731
94	0x3dc3b636	0.09556238
95	0x3d6a7a0c	0.0572453
96	0xbc8e49ae	-0.017369118
97	0x3d965343	0.073401
98	0x3ceecd76	0.029150706
99	0xbcfca2b4	-0.030839302
100	0xbd8f8479	-0.07007689
101	0x3d97d6f9	0.0741405
102	0x3d630c59	0.055431698
103	0x3dc197e9	0.09452803
104	0x3dc99506	0.09842877
105	0x3d82fd2b	0.06395944
106	0xba891b48	-0.0010460401
107	0xbc457635	-0.0120521085
108	0x3e1e98d4	0.15487987
109	0x3d936bd5	0.07198302
110	0x3bb96b5c	0.00565855
111	0x3db72043	0.089417
112	0xbd28fe54	-0.04125817
113	0x3c8ea2d8	0.017411634
114	0xbd9c3fd6	-0.07629363
115	0xbd5f27bd	-0.054481257
116	0x3d2a91a3	0.041642796
117	0xbd953fe2	-0.07287575
118	0xbdcb1e05	-0.09917835
119	0x3d7b4aa7	0.06135049
120	0xbd6ead9a	-0.058271028
121	0xbd94f528	-0.07273322
122	0x3b2a799c	0.0026012426
123	0x3d807bd8	0.06273621
124	0x3bc717df	0.0060758437
125	0x3c9b09a0	0.018925488
126	0xbddd93cd	-0.108192064
127	0x3d88bd5f	0.06676745
128	0xbe00fbbc	-0.12596029
129	0xbdd02423	-0.101631425
130	0xbda61bdc	-0.081107825
131	0xbd1e2e4f	-0.038618382
132	0xba8fb369	-0.0010963503
133	0x3cf5e9d6	0.030018728
134	0xbceb17b8	-0.028697833
135	0xbd4f5ecf	-0.050627526
136	0xbdf3bbd5	-0.119010605
137	0xbe05ee2c	-0.13079137
138	0x3d2975d9	0.041372154
139	0xbb7375e6	-0.003714913
140	0x3cc7fe25	0.024413178
141	0x3cac097b	0.021000614
142	0x3d6f11c3	0.05836655
143	0x3d204468	0.039127737
144	0x3d672b4e	0.056437783
145	0xbd8e2b7f	-0.0694189
146	0x3e100bbc	0.14066976
147	0xbbe717d1	-0.0070523997
148	0x3cc567a1	0.024097266
149	0x3de8b076	0.11361782
150	0x3d812814	0.063064724
151	0xbc175e41	-0.0092387805
152	0x3dabf6b0	0.08396661
153	0x3daa053f	0.08301782
154	0xbd7ab1bc	-0.061204657
155	0x3b912135	0.0044290074
156	0x3ac81f18	0.0015268056
157	0xbcc900b8	-0.024536476
158	0x3d98c84e	0.0746008
159	0x3d0b3fab	0.033996265
160	0x3db1e10c	0.086855024
161	0x3daf305d	0.085541464
162	0xbd9e68e3	-0.07734849
163	0xbe248f4e	-0.16070291
164	0xbd7187bc	-0.058967337
165	0xbd347ca8	-0.044064194
166	0xbd62da82	-0.055384167
167	0x3d52abad	0.051433254
168	0x3e07e786	0.13271913
169	0x3cc562f6	0.02409504
170	0x3d255b7e	0.040370457
171	0xbcfa238f	-0.030534534
172	0xbd80ca19	-0.06288547
173	0x3ded8d7b	0.11599251
174	0xbda6915c	-0.08133194
175	0x3d3eafa9	0.04655424
176	0x3d672381	0.056430344
177	0x3d1bf0e1	0.038071517
178	0x3ce6469d	0.028109843
179	0xbcdf211d	-0.02723747
180	0xbc86a7cf	-0.01643744
181	0x3e05bba0	0.13059855
182	0xbc20e68a	-0.00982059
183	0xbb1f94dd	-0.0024350204
184	0xbbec1254	-0.0072043333
185	0xbcf1a88c	-0.029499315
186	0xbdb615bb	-0.088908635
187	0xbcd66a77	-0.026173813
188	0xbc890456	-0.0167257
189	0xbd54dfd0	-0.051971257
190	0xbcaa4da0	-0.020788968
191	0xbd358b68	-0.0443224
192	0xbd9d16e7	-0.07670384
193	0xbccccd28	-0.02500017
194	0x3d951de0	0.07281089
195	0x3c46cb3e	0.012133418
196	0x3d99678d	0.07490454
197	0x3d55ba0e	0.05217939
198	0xbcf4e5e4	-0.029894777
199	0x3c89e5f0	0.016833276
200	0x3d7bb70e	0.06145387
201	0xbe10d6e7	-0.14144479
202	0xba4ac8a3	-0.00077355857
203	0xbcb56e86	-0.022147428
204	0x3d7f758c	0.06236796
205	0xbd054e38	-0.0325453
206	0xbc7967f2	-0.015222536
207	0x3df1b654	0.118023545
208	0x3de288c9	0.11061246
209	0x3cf41fff	0.029800413
210	0xbc8b7026	-0.01702125
211	0x3cba3d79	0.02273439
212	0xbd5936c1	-0.053030733
213	0xbcbfc820	-0.023410857
214	0xbdded2f4	-0.1088008
215	0xbb6a94be	-0.0035794224
216	0x3da42952	0.08015694
217	0x3d1a23f8	0.03763196
218	0xbdd1e0d4	-0.10247961
219	0xbd480f51	-0.048842732
220	0xbb920009	-0.0044555706
221	0xbd29fe85	-0.041502494
222	0xbdf77338	-0.12082523
223	0xbd34591a	-0.044030286
224	0xbd95c931	-0.07313765
225	0x3c08673c	0.008325394
226	0x3ca1a63b	0.019732585
227	0xbd28f7fb	-0.041252118
228	0xbd807a9e	-0.06273387
229	0xbc598610	-0.013276592
230	0xbdb11ee4	-0.0864847
231	0xbdb023dd	-0.086005904
232	0xbd721223	-0.059099328
233	0xbd1df130	-0.038560092
234	0xbb7623d1	-0.003755797
235	0x3d9da999	0.07698364
236	0x39fcb4e9	0.00048199974
237	0xbd818885	-0.06324867
238	0xbd88be0e	-0.06676875
239	0xbda22a22	-0.079181924
240	0xbd7e8449	-0.062137876
241	0xbd40915d	-0.04701363
242	0xbd975492	-0.073891774
243	0xbdb35a58	-0.08757466
244	0x3d64f8d3	0.05590136
245	0xbd838caf	-0.06423318
246	0xbd31282d	-0.043251205
247	0xbb86b6a1	-0.0041111265
248	0xbd3914ae	-0.045185737
249	0x3d8ebc9e	0.069695696
250	0x3c8e0983	0.01733852
251	0xbd233ed1	-0.03985483
252	0x3c077dc7	0.008269734
253	0x3e187954	0.14890033
254	0x3d8572c7	0.06516033
255	0xbd7b66e3	-0.061377417

layers.7.weight.scale f4 [64, 64, 3, 3]
0	0xc00461fa	-2.06848
1	0xbff2b69a	-1.8961976
2	0xbfff2c79	-1.9935447
3	0xc0116226	-2.2716155
4	0xc00d1f5e	-2.2050395
5	0xbff636c0	-1.9235458
6	0xc006b1da	-2.1046052
7	0xc0034a11	-2.0513957
8	0xbfdc9699	-1.7233459
9	0xc015ddf3	-2.3416717
10	0xbff7ca42	-1.9358599
11	0xc018b9fd	-2.3863518
12	0xbffb42a8	-1.9629717
13	0xbfff4941	-1.994423
14	0xbffcffbd	-1.9765545
15	0xc0092a35	-2.143201
16	0xc004a167	-2.0723512
17	0xc00b51d5	-2.1768696
18	0xc00be256	-2.1856894
19	0xc00cd7d7	-2.2006738
20	0xc0092949	-2.1431448
21	0xbfebb559	-1.8414718
22	0xc0037c33	-2.0544555
23	0xc00b0432	-2.172131
24	0xc002e262	-2.0450673
25	0xc00981cc	-2.1485472
26	0xc00ef99b	-2.2339847
27	0xc0006724	-2.0062952
28	0xc00411a3	-2.0635765
29	0xbfee19b5	-1.8601595
30	0xbfd3dc5f	-1.6551627
31	0xc0029854	-2.0405474
32	0xc0086706	-2.131288
33	0xc0096065	-2.1465085
34	0xbff84fed	-1.9399391
35	0xc00979f0	-2.1480675
36	0xbff0cc7d	-1.8812405
37	0xbffc2b83	-1.9700779
38	0xc007285c	-2.1118383
39	0xc00b25ac	-2.1741743
40	0xc00266c2	-2.0375218
41	0xbffb975e	-1.9655569
42	0xc00556f8	-2.0834332
43	0xbffb52e4	-1.9634671
44	0xbfdc8a08	-1.7229624
45	0xc006a511	-2.1038249
46	0xc0082b6d	-2.1276505
47	0xc0012edd	-2.0184853
48	0xc001fec7	-2.0311754
49	0xc00b7728	-2.1791477
50	0xbfe1718d	-1.7612778
51	0xbff5d37f	-1.9205168
52	0xc00ab6cd	-2.1674073
53	0xbff130a0	-1.8842964
54	0xc004f473	-2.07742
55	0xbffd97d9	-1.9811965
56	0xbffc39b9	-1.9705116
57	0xc00a25c1	-2.1585543
58	0xc0083524	-2.1282434
59	0xbff22013	-1.8916038
60	0xbff58f11	-1.9184285
61	0xbfe94d73	-1.8226761
62	0xbff0282e	-1.8762262
63	0xc00ebb49	-2.230181
64	0xc004e6bc	-2.076583
65	0xc00d77d9	-2.21044
66	0xbfef122b	-1.867742
67	0xc00b2b75	-2.1745274
68	0xbfd0243b	-1.6261057
69	0xc0061724	-2.0951624
70	0xc0088da4	-2.133645
71	0xc003b166	-2.0577025
72	0xbffa17fc	-1.953857
73	0xbff7a3f9	-1.9346915
74	0xbff2cc91	-1.8968679
75	0xbfec4071	-1.8457166
76	0xbff5a3b4	-1.9190583
77	0xc00d69b7	-2.2095773
78	0xc0040626	-2.0628753
79	0xbffb8c64	-1.9652219
80	0xbff3511c	-1.9009128
81	0xbfe4edc4	-1.788506
82	0xc00cfd70	-2.2029686
83	0xbfda2e96	-1.7045467
84	0xbff34a13	-1.9006981
85	0xbff1308e	-1.8842943
86	0xbfe371a9	-1.7769061
87	0xc006c8d5	-2.1060078
88	0xbfeb060e	-1.8361223
89	0xc005831b	-2.086127
90	0xc0015426	-2.020761
91	0xbfeed2a7	-1.8658036
92	0xc0014351	-2.0197337
93	0xbfe41da2	-1.7821543
94	0xbffc2e86	-1.9701698
95	0xbfe6ab66	-1.8021057
96	0xc0039d0d	-2.0564606
97	0xc007e987	-2.1236284
98	0xc004c13a	-2.0742936
99	0xbfe3cca7	-1.779683
100	0xbff29ebd	-1.8954693
101	0xbfead553	-1.8346351
102	0xbffa51da	-1.9556229
103	0xbfe549d7	-1.7913159
104	0xbfec3680	-1.8454132
105	0xc0093db4	-2.144391
106	0xc00b28fc	-2.1743765
107	0xc00d64af	-2.2092702
108	0xc00bfc99	-2.1872923
109	0xc0071393	-2.1105697
110	0xc003308e	-2.0498385
111	0xc0042892	-2.0649762
112	0xc00e3c0a	-2.2224145
113	0xc0094055	-2.1445515
114	0xc01e5c1e	-2.4743724
115	0xbfe313f0	-1.774046
116	0xbff3ac35	-1.9036928
117	0xbff6eafe	-1.9290464
118	0xbfe5dfc8	-1.7958918
119	0xbffffc2a	-1.9998829
120	0xbff8f255	-1.9448954
121	0xbff6a268	-1.9268312
122	0xbfef484a	-1.8693936
123	0xc00216e3	-2.032647
124	0xc007cecf	-2.1219976
125	0xc0086d47	-2.1316698
126	0xc00d3572	-2.206387
127	0xc007cb84	-2.1217966
128	0xc0044b9f	-2.0671155
129	0xc00b5d2d	-2.177562
130	0xbff7da6f	-1.9363536
131	0xc00a6272	-2.1622586
132	0xbfe96e4b	-1.8236784
133	0xc0083e0d	-2.1287873
134	0xc00e9d2c	-2.228343
135	0xc0060d62	-2.0945668
136	0xc0064f41	-2.0985873
137	0xbfe4445a	-1.7833359
138	0xbff0f0fe	-1.8823545
139	0xbffeb767	-1.989972
140	0xc0012c19	-2.0183165
141	0xc00a0c70	-2.1570091
142	0xbff94a7f	-1.9475859
143	0xbfebc2af	-1.8418788
144	0xbfff815a	-1.996135
145	0xc00a27bf	-2.158676
146	0xbfea638b	-1.8311628
147	0xbfedf4f6	-1.8590381
148	0xbffa9a18	-1.9578276
149	0xbff18dc1	-1.8871385
150	0xc00add90	-2.169773
151	0xbff752e0	-1.9322166
152	0xc0071e08	-2.111208
153	0xc0035ef5	-2.0526707
154	0xc0000218	-2.0001278
155	0xc00d5139	-2.2080824
156	0xbff72680	-1.9308624
157	0xc000df58	-2.0136318
158	0xc0023b0e	-2.0348544
159	0xc014773d	-2.3197777
160	0xc00ef1eb	-2.2335155
161	0xbff0fa45	-1.8826376
162	0xbffaac74	-1.9583879
163	0xc001dcc2	-2.029099
164	0xc00c1516	-2.188787
165	0xbfeadc42	-1.8348467
166	0xbfe1ba15	-1.7634913
167	0xbff6f3d1	-1.9293157
168	0xbff05188	-1.8774881
169	0xbffb8100	-1.9648743
170	0xc00d4ba7	-2.2077425
171	0xc0021577	-2.03256
172	0xc002d176	-2.0440345
173	0xc004ee58	-2.0770473
174	0xc00e295b	-2.2212741
175	0xbff56b67	-1.9173402
176	0xbfeff969	-1.8747989
177	0xc0028e26	-2.039926
178	0xbffb88a9	-1.965108
179	0xbfe45402	-1.7838137
180	0xbfeea2b9	-1.8643409
181	0xbff36b4e	-1.9017122
182	0xc0033931	-2.0503657
183	0xc00ae929	-2.170481
184	0xc009452a	-2.1448464
185	0xbff0e716	-1.8820522
186	0xc00036a2	-2.0033345
187	0xc004e268	-2.0763187
188	0xbff948bb	-1.947532
189	0xc003b4e0	-2.0579147
190	0xc0142369	-2.3146613
191	0xc005c646	-2.0902267
192	0xc00bcbeb	-2.1843212
193	0xbff3e59b	-1.9054445
194	0xbffdc8d8	-1.9826918
195	0xc006bf1e	-2.1054149
196	0xc0048641	-2.0706942
197	0xbff65505	-1.9244696
198	0xc00b08e8	-2.1724186
199	0xc0048651	-2.070698
200	0xbffdd0a2	-1.9829295
201	0xc0075a69	-2.1148932
202	0xbfef5249	-1.8696986
203	0xc016cfee	-2.356441
204	0xc00186ca	-2.0238519
205	0xbfff3ea9	-1.9940997
206	0xbff51b1a	-1.9148896
207	0xbff90370	-1.9454174
208	0xc011b2bb	-2.2765338
209	0xc00d0388	-2.2033405
210	0xbff0f051	-1.8823339
211	0xbff32485	-1.899552
212	0xc00e3aa6	-2.2223296
213	0xbfffda3c	-1.9988475
214	0xbfd541a2	-1.6660655
215	0xc0038350	-2.0548897
216	0xbff15b43	-1.8855976
217	0xc00632d7	-2.096853
218	0xc012c905	-2.2935193
219	0xc0020494	-2.0315294
220	0xbff7a48a	-1.9347088
221	0xc00515fd	-2.079467
222	0xc0016fe3	-2.022454
223	0xc0185166	-2.3799682
224	0xbfffd1be	-1.9985883
225	0xbfde4608	-1.7365122
226	0xc00e37b0	-2.222149
227	0xbffa2bd5	-1.9544626
228	0xc009d132	-2.1533933
229	0xbff0c37f	-1.8809661
230	0xc00b38d5	-2.1753438
231	0xbfd74cec	-1.682035
232	0xc001e97f	-2.0298765
233	0xbffa5906	-1.9558418
234	0xc005c382	-2.0900578
235	0xbfed1fe4	-1.8525357
236	0xc00b6dba	-2.1785722
237	0xbffd43ff	-1.9786376
238	0xc0005962	-2.0054555
239	0xc000427c	-2.004058
240	0xc002d4df	-2.0442426
241	0xbff73a8d	-1.9314743
242	0xc00b1a14	-2.1734667
243	0xbffc47c1	-1.9709398
244	0xbfda29d0	-1.704401
245	0xc00105a4	-2.0159693
246	0xbffd643a	-1.9796212
247	0xc0126535	-2.2874272
248	0xc003d26a	-2.0597177
249	0xbfeb22c1	-1.8369981
250	0xc00dce22	-2.2157063
251	0xbff58428	-1.9180956
252	0xc00966f7	-2.1469095
253	0xc009591e	-2.1460643
254	0xbff9b43a	-1.9508126
255	0xc00767eb	-2.1157176

layers.7.bias.mean f4 [64]
0	0xbae8edd5	-0.0017771075
1	0x3af02f02	0.0018324556
2	0xba74eadc	-0.0009342858
3	0xba994ae4	-0.0011695293
4	0xbb42cb7d	-0.002972334
5	0xba94c7b1	-0.0011351017
6	0xbb3abc8d	-0.0028493733
7	0xbb3457a8	-0.0027518068
8	0xbb15179a	-0.0022749663
9	0xbb043577	-0.002017347
10	0xbb0f13e5	-0.0021831926
11	0xbb064689	-0.002048882
12	0xb97b8b2d	-0.00023989072
13	0x3920dd9d	0.00015341346
14	0xba932cef	-0.0011228601
15	0xb998da3a	-0.0002915429
16	0x365f38a3	3.3262556e-06
17	0x398bfe09	0.00026701417
18	0xba8e3f54	-0.0010852613
19	0xba11fa71	-0.000556863
20	0xba2fe3f3	-0.00067096873
21	0xbb48b7c8	-0.003062712
22	0xba3004a0	-0.00067145564
23	0xb9a01e8c	-0.00030540337
24	0xbb5a87ce	-0.0033345106
25	0xba2b6436	-0.0006538065
26	0x3a57b744	0.0008228908
27	0x3a528df4	0.0008032017
28	0xbb63479e	-0.0034680138
29	0xbace27d3	-0.0015728421
30	0xba4a4cc1	-0.00077171257
31	0xb84714ba	-4.74646e-05
32	0xbaf75c53	-0.0018872119
33	0xb8fdb3ff	-0.00012097507
34	0xbb179d1a	-0.0023134411
35	0xba59307f	-0.00082851195
36	0xba4322cb	-0.0007443844
37	0xbb1b5260	-0.0023700222
38	0xbb45f922	-0.003020831
39	0xb9827c5b	-0.00024888184
40	0xba1d8060	-0.0006008204
41	0xba80fa01	-0.0009840132
42	0xb98b643d	-0.0002658683
43	0xbb6717b1	-0.0035261924
44	0xb9e0b747	-0.00042861162
45	0xbb3a3eee	-0.0028418857
46	0xbb35fbac	-0.0027768416
47	0xbad3506e	-0.0016121992
48	0xb9b7abcb	-0.00035032476
49	0xbafd4b6b	-0.0019324844
50	0xbb3691b5	-0.0027857844
51	0xbb6b2769	-0.0035881645
52	0xbb86fc30	-0.0041194186
53	0xbb19d6fa	-0.0023474083
54	0xbb21e2f8	-0.0024701934
55	0xbb49ab2d	-0.0030772195
56	0xba9aa7f2	-0.0011799319
57	0xbac4a3d5	-0.0015002439
58	0x3a06024e	0.0005112038
59	0xbb474e81	-0.0030411782
60	0xbb7a66a2	-0.0038208147
61	0x396d3570	0.00022621988
62	0xba376d75	-0.00069972064
63	0x3899f761	7.3416864e-05

layers.7.bias.scale f4 [64]
0	0xc00bd96d	-2.1851456
1	0xc00c33e6	-2.1906676
2	0xc010cc96	-2.262487
3	0xc00dfb3d	-2.2184594
4	0xc00ccc92	-2.199986
5	0xc00eaf90	-2.2294655
6	0xc00c0074	-2.1875277
7	0xc00a67d6	-2.1625876
8	0xc00ba974	-2.1822176
9	0xc00f0928	-2.2349339
10	0xc00f8b4a	-2.2428765
11	0xc00f1d12	-2.2361493
12	0xc00879a5	-2.1324246
13	0xc00d70ab	-2.2100017
14	0xc00d90ff	-2.2119749
15	0xc00b14bc	-2.1731405
16	0xc00ed5fe	-2.231811
17	0xc00e6a5d	-2.225242
18	0xc00afc59	-2.171652
19	0xc00b5737	-2.1771982
20	0xc00cd727	-2.2006319
21	0xc00e43fd	-2.2228997
22	0xc00ca63f	-2.1976469
23	0xc00d3c2b	-2.2067974
24	0xc00e18de	-2.2202678
25	0xc010e6ad	-2.2640793
26	0xc00f31b2	-2.2374082
27	0xc00fad0c	-2.244937
28	0xc01095ae	-2.2591357
29	0xc00f7b5f	-2.241905
30	0xc00ce28a	-2.2013268
31	0xc00f15bf	-2.2357023
32	0xc00fdec5	-2.2479718
33	0xc008e7ca	-2.1391473
34	0xc00fcffb	-2.2470691
35	0xc00c8f89	-2.1962607
36	0xc00e48f4	-2.2232027
37	0xc0117c89	-2.273226
38	0xc0104bbc	-2.2546225
39	0xc00fe55c	-2.248374
40	0xc00f9362	-2.2433705
41	0xc00d4d93	-2.2078598
42	0xc00a747c	-2.1633596
43	0xc00d8448	-2.2111988
44	0xc00b8a69	-2.180323
45	0xc00ff7fe	-2.2495112
46	0xc0104bf4	-2.2546358
47	0xc00f03df	-2.2346113
48	0xc01028b6	-2.2524848
49	0xc00c4715	-2.1918385
50	0xc00efe26	-2.234262
51	0xc00fceda	-2.2470002
52	0xc00e6d32	-2.2254148
53	0xc00c2189	-2.1895468
54	0xc00f140c	-2.2355986
55	0xc00eb719	-2.2299254
56	0xc00d2d73	-2.205899
57	0xc00fb6bd	-2.2455285
58	0xc00d1ce2	-2.2048879
59	0xc00fdba0	-2.2477798
60	0xc0106b2f	-2.256542
61	0xc00eb3fe	-2.2297359
62	0xc0102df6	-2.2528052
63	0xc00f794f	-2.241779
