examples/MNIST/mnist_pretrained.pth (torch_old, 459662 bytes, 18 tensors)

layers.0.weight f4 [32, 1, 5, 5]
0	0xbdf62a00	-0.120197296
1	0xbcbe4ae4	-0.02322907
2	0x3ddff169	0.10934717
3	0x3d3089f0	0.043100297
4	0x3e52677a	0.20547286
5	0x3e658a04	0.2241593
6	0xbe0f0cb2	-0.13969687
7	0x3dd68aee	0.104757175
8	0x3e282863	0.16421656
9	0x3dca40ce	0.09875642
10	0x3e3fc265	0.187265
11	0x3e35ee92	0.17766789
12	0x3c55ff6b	0.013061385
13	0x3e0a18ee	0.13486072
14	0xbdd741b9	-0.105105825
15	0x3ded6d48	0.11593109
16	0xbc25b5ed	-0.010114175
17	0xbe22b5a0	-0.15889597
18	0x3e31492b	0.17313068
19	0x3d416fd1	0.047225777
20	0x3e49fef2	0.1972616
21	0xbd25e9d4	-0.0405062
22	0xbde24ba4	-0.110495836
23	0x3e0463fe	0.12928769
24	0xbd3f218c	-0.046662852
25	0xbe36df2c	-0.17858571
26	0x3e398edb	0.18120901
27	0x3db1e2b6	0.0868582
28	0x3e4f2c0c	0.20231646
29	0xbe357c0e	-0.17723104
30	0xbe0dffbd	-0.13867088
31	0x3e1666f6	0.14687714
32	0xbc4f34d5	-0.0126468735
33	0x3cb73860	0.022365749
34	0xbde519ab	-0.111865364
35	0xbd20f7d2	-0.03929884
36	0x3e0ed46f	0.13948224
37	0x3e1ae74c	0.15127295
38	0xbe202405	-0.1563874
39	0xbe255b2d	-0.16148062
40	0xbcf26091	-0.029587062
41	0xbce17ffb	-0.027526846
42	0xbe1a8eba	-0.15093508
43	0xbdc0a306	-0.09406094
44	0x3e1a6246	0.15076551
45	0xbd919037	-0.07107585
46	0xbe6f14bc	-0.23347753
47	0x3e05f32a	0.13081041
48	0x3e1f060c	0.1552965
49	0xbd20f4b0	-0.039295852
50	0xbd3e269e	-0.046423547
51	0xbdecc888	-0.11561686
52	0x3c91e59c	0.017809682
53	0x3e1b3617	0.15157352
54	0x3e3877de	0.18014476
55	0xbe006330	-0.12537837
56	0x3c9d4de1	0.019202175
57	0xbdd3440e	-0.10315715
58	0xbd9f1869	-0.07768328
59	0x3db3342e	0.08750187
60	0xbe4a1773	-0.19735508
61	0x3b5956e3	0.003316336
62	0x3dd562b9	0.104192205
63	0xbe0a6269	-0.13514103
64	0x3dc988d0	0.09840548
65	0xbd254404	-0.040348068
66	0x3c5691fe	0.013096331
67	0x3d659387	0.056048896
68	0x3d048aaa	0.032358803
69	0xbd5d8a39	-0.054086898
70	0xbd986c80	-0.0744257
71	0xbd28817e	-0.04113912
72	0xbde87a75	-0.11351482
73	0x3e1a2b29	0.15055527
74	0xbdb3487b	-0.08754059
75	0xbd977e7f	-0.07397174
76	0x3d8ea72f	0.069654815
77	0x3d9c178c	0.07621679
78	0xbe2b7bff	-0.1674652
79	0xbe4f7571	-0.20259644
80	0xbda22422	-0.07917048
81	0x3e8c148d	0.2735943
82	0x3d8c5411	0.06851972
83	0xbe1041a8	-0.14087546
84	0xbd8d24da	-0.068917945
85	0x3d8e7a98	0.06956977
86	0xbda65cb6	-0.08123152
87	0xbd9db8c7	-0.07701259
88	0xbe7e6368	-0.24842608
89	0xbe25c1b7	-0.16187178
90	0x3c70156b	0.014653544
91	0xbdcd7859	-0.1003272
92	0xbdd96498	-0.1061489
93	0xbe23e1dc	-0.16004127
94	0xbd99c627	-0.07508498
95	0xbe175727	-0.1477934
96	0xbdf48c42	-0.119408146
97	0xbd976808	-0.07392889
98	0xbd9bcb22	-0.07607104
99	0xbd5073e6	-0.05089178
100	0x3ac59f78	0.0015077433
101	0x3e412d3f	0.18864916
102	0x3c4ca9c0	0.012491643
103	0xbcf2ae14	-0.029624023
104	0x3d22aa48	0.039713174
105	0x3d9a5d71	0.07537354
106	0x3d0b55d6	0.034017406
107	0x3d9ff11b	0.07809659
108	0x3df9c05d	0.121948935
109	0x3e354561	0.17702247
110	0x3e22acd2	0.15886238
111	0xbd63369c	-0.055472
112	0x3db2fd36	0.087397024
113	0xbd4148a1	-0.047188405
114	0x3dd8f886	0.10594277
115	0x3d83170b	0.064008795
116	0xbdf61145	-0.12015013
117	0x3db20030	0.08691442
118	0xbc7118e7	-0.01471541
119	0x3de4e52f	0.11176526
120	0x3d853f9b	0.065062724
121	0x3e1a361d	0.15059705
122	0x3c549239	0.012974315
123	0xbe2efd95	-0.17088921
124	0xbce23d89	-0.027617233
125	0xbe6aab84	-0.2291699
126	0xbe057d5a	-0.13036099
127	0x3de74e6f	0.11294257
128	0x3e313330	0.17304683
129	0x3e1de904	0.1542092
130	0xbe6d0b40	-0.23148823
131	0x3e0e7542	0.13911918
132	0xbcf46e43	-0.029837733
133	0xbd533857	-0.0515674
134	0xbdb8819c	-0.09009096
135	0x3deec3a9	0.11658413
136	0xbd1b900b	-0.037979167
137	0x3df8ff53	0.12158074
138	0x3d24737c	0.040149197
139	0xbdf26fc3	-0.11837723
140	0xbe02c505	-0.1277047
141	0x3d95b8a4	0.07310608
142	0x3dbceb5f	0.09224581
143	0x3e51c042	0.20483497
144	0x3dfac1a8	0.12243968
145	0x3dd694d9	0.10477609
146	0xbc37c9f4	-0.011217583
147	0xbdfbbd6e	-0.1229199
148	0x3e09e9ad	0.13468046
149	0xbdc8db56	-0.0980746
150	0x3e0e6479	0.13905515
151	0xbe0a2f6f	-0.13494657
152	0xbc4c008f	-0.012451305
153	0xbe001494	-0.1250785
154	0x3e1a9f0a	0.15099731
155	0xbe4da296	-0.20081553
156	0x3dc247e4	0.09486368
157	0x3d624e7d	0.055250634
158	0xbdc65493	-0.096841
159	0xbd94c0b0	-0.07263315
160	0xbe35ad0f	-0.17741798
161	0xbd060302	-0.032717712
162	0xbdb89733	-0.09013214
163	0x3ca5253c	0.020159356
164	0xbe07a5ec	-0.13246888
165	0xbdabd37d	-0.083899476
166	0x3e26e7e4	0.16299397
167	0x3e575075	0.21026786
168	0xbdb52903	-0.08845713
169	0x3e3904b3	0.18068199
170	0xbe062bbd	-0.13102622
171	0x3de0b150	0.1097132
172	0xbc56f4ca	-0.013119886
173	0x3e34fa20	0.1767354
174	0xbc65c553	-0.014024097
175	0x3d9e0d70	0.07717407
176	0x3d8a4e3c	0.06753203
177	0xbbc14744	-0.005898388
178	0xbcfb00b5	-0.030639986
179	0xbda1d14a	-0.07901247
180	0x3de8cee0	0.11367583
181	0x3c918e89	0.017768161
182	0xbd553857	-0.052055683
183	0xbe011b1e	-0.12608
184	0xbbed11cb	-0.007234787
185	0xbcbf9610	-0.023386985
186	0x3c1df698	0.009641312
187	0x3dba8111	0.09106649
188	0x3df7422d	0.12073169
189	0xbbc8d971	-0.0061294367
190	0x3b829d6d	0.003986052
191	0x3da08955	0.07838694
192	0x3e28ae99	0.16472854
193	0x3b900b27	0.0043958607
194	0xbe51080b	-0.20413224
195	0x3e0b137c	0.13581651
196	0x3e006f3d	0.12542434
197	0x3e00726a	0.12543646
198	0x3c251f45	0.010078256
199	0xbe63736f	-0.22212003
200	0xbe4ca257	-0.19983803
201	0xbde18e09	-0.11013419
202	0x3cd5d0a8	0.026100472
203	0x3aea90ff	0.0017895995
204	0xbd83fd5a	-0.06444807
205	0xbde94052	-0.11389221
206	0xbc6c7730	-0.014432713
207	0xbe16b59e	-0.14717719
208	0xbd38ec05	-0.04514696
209	0xbd8b2099	-0.06793327
210	0x3dc6ee98	0.09713477
211	0xbe20223b	-0.15638058
212	0xbd9d7179	-0.07687659
213	0xbd63dfd8	-0.055633396
214	0xbe6498b4	-0.22323877
215	0x3e227db7	0.15868269
216	0xbdabf632	-0.083965674
217	0x3d6b6b19	0.057475183
218	0x3daf8743	0.08570721
219	0xbde10d1f	-0.10988831
220	0xbc9273a1	-0.017877402
221	0xbc25cb13	-0.010119217
222	0x3db3e4c5	0.08783869
223	0xbe28ecfc	-0.16496652
224	0xbc54cb70	-0.012987956
225	0xbded13c5	-0.11576036
226	0x3de0ab01	0.109701164
227	0x3c9bf429	0.019037323
228	0x3e1bb8c7	0.15207206
229	0x3e3059b7	0.17221723
230	0xbdd7fcba	-0.10546251
231	0x3bce2e6a	0.006292154
232	0xbe1feeac	-0.1561839
233	0xbdc87af0	-0.097890735
234	0x3d9463c3	0.072455905
235	0x3bc4ec43	0.00600961
236	0xbb87a018	-0.0041389577
237	0xbd4e8c34	-0.050426677
238	0xbd0609a3	-0.032724034
239	0xbd5d05a0	-0.053960443
240	0x3dee01dd	0.11621449
241	0xbe16bed2	-0.1472123
242	0xbde6ca83	-0.11269095
243	0xbda7b2c9	-0.081883974
244	0x3e0e227f	0.13880347
245	0xbd90a530	-0.07062757
246	0xbe6e7f53	-0.23290758
247	0xbd4a1dc0	-0.049344778
248	0x3e171aae	0.14756271
249	0x3e20ec6c	0.15715188
250	0xbe113d99	-0.14183654
251	0xbe054e4d	-0.1301815
252	0xbdb12186	-0.08648972
253	0xbdcb41f3	-0.09924688
254	0x3dc09319	0.09403057
255	0x3dc22d3e	0.094812855

layers.0.bias f4 [32]
0	0x3de8d727	0.11369162
1	0x3d967184	0.0734587
2	0xbcf6490d	-0.03006413
3	0x3d4f29c3	0.050576936
4	0x3e3776f9	0.17916478
5	0xbd9f1c94	-0.07769123
6	0xbd89ca5c	-0.0672805
7	0x3d918586	0.07105546
8	0x3b3b4703	0.0028576262
9	0xbcd239ec	-0.025662385
10	0xbdb052e4	-0.0860956
11	0xbd4cf4bc	-0.050038084
12	0x3e48288b	0.19546716
13	0x3e29fe3d	0.1660089
14	0x3df632c5	0.12021402
15	0xbc1d80b9	-0.009613209
16	0x3d995cfc	0.074884385
17	0x3e6dd577	0.23225962
18	0x3d7033ed	0.05864327
19	0xbe046f0e	-0.12932989
20	0xbc264457	-0.010148129
21	0xbd5ed32e	-0.054400615
22	0xbd2e36da	-0.04253278
23	0x3de2f6ca	0.110822275
24	0xbda427fe	-0.080154404
25	0xbd721038	-0.0590975
26	0xbe4706c2	-0.19436172
27	0xbde7e188	-0.113223135
28	0xbe4e37b1	-0.20138432
29	0xbd73f768	-0.059562117
30	0x3d952773	0.07282915
31	0x3cff83e3	0.031190818

layers.1.weight f4 [32]
0	0x3f7e21df	0.99270433
1	0x3f8292e6	1.020108
2	0x3f854395	1.0411249
3	0x3f8913f7	1.0709218
4	0x3f760580	0.9610214
5	0x3f7cd200	0.98757935
6	0x3f82c2d9	1.0215713
7	0x3f879805	1.0593268
8	0x3f801293	1.0005668
9	0x3f83ce9b	1.0297426
10	0x3f8755aa	1.0573018
11	0x3f922886	1.1418617
12	0x3f88cdbc	1.0687785
13	0x3f7f8b5f	0.9982204
14	0x3f8ea593	1.1144279
15	0x3f88c14a	1.0683987
16	0x3f83c795	1.0295283
17	0x3f888978	1.0666952
18	0x3f8fee3a	1.1244576
19	0x3f8cb306	1.0992134
20	0x3f87f3ed	1.0621315
21	0x3f84c1cd	1.0371643
22	0x3f892ca4	1.0716748
23	0x3f8d680f	1.1047381
24	0x3f884c16	1.064822
25	0x3f75e89f	0.96058077
26	0x3f8694d9	1.0514175
27	0x3f7dedd9	0.9919105
28	0x3f86b648	1.0524378
29	0x3f76ec81	0.96454626
30	0x3f85006d	1.0390755
31	0x3f8ea228	1.1143236

layers.1.bias f4 [32]
0	0x3d494f67	0.04914799
1	0x3c77dbda	0.0151281
2	0xbca8db87	-0.020612491
3	0xbc6b5cf1	-0.014365421
4	0xbb57565b	-0.0032857868
5	0x3cbdfae5	0.023190925
6	0x3c7711dd	0.0150799425
7	0x3d843718	0.06455821
8	0xbd00ac6e	-0.03141444
9	0xbc9a88a0	-0.018863976
10	0xbca7bd73	-0.020476079
11	0xbd85802f	-0.0651859
12	0xbd92e70f	-0.07172977
13	0x3d04bcba	0.032406546
14	0xbcb46fec	-0.022026025
15	0xbc958fd1	-0.018257054
16	0x3ca3b613	0.01998428
17	0xbd6acffd	-0.05732726
18	0x3d0d4705	0.034491558
19	0xbc8a4ae3	-0.016881412
20	0xbd381d85	-0.044950027
21	0xbd3cae28	-0.046064526
22	0xbd2a7242	-0.04161287
23	0xbc86130a	-0.0163665
24	0xbd4d097b	-0.05005787
25	0xbb3df3f1	-0.0028984512
26	0x3d014966	0.03156414
27	0xbc17dab7	-0.009268454
28	0xbce92a6c	-0.028462611
29	0x3d242acb	0.040079873
30	0xbd38b48c	-0.045094058
31	0xbda28d34	-0.079370886

layers.1.running_mean f4 [32]
0	0x3e991ae8	0.2990334
1	0x3d1ee1ac	0.038789436
2	0xbd9053a5	-0.07047204
3	0xbe2f0e3a	-0.17095271
4	0x3ea8653c	0.32889736
5	0xbd120955	-0.03565343
6	0xbda6d1ec	-0.08145508
7	0x3dfd2475	0.12360469
8	0xbe1d8935	-0.15384372
9	0xbd60deea	-0.054900087
10	0xbe28a5b7	-0.16469465
11	0xbdf1600a	-0.11785896
12	0x3e212231	0.15735699
13	0x3ec3919a	0.38197023
14	0x3dcdab28	0.10042411
15	0xbc87288f	-0.016498832
16	0x3dadad1e	0.08480285
17	0x3dfce2d9	0.12347955
18	0x3d5c1755	0.05373319
19	0xbe0b1d5d	-0.1358542
20	0xbd068859	-0.032844875
21	0xbd31890d	-0.043343592
22	0xbe0ac2ef	-0.13550924
23	0x3dc5eb45	0.09664015
24	0xbe100a48	-0.14066422
25	0xbd0c0bd1	-0.034190957
26	0xbe5cfb6a	-0.21580282
27	0xbdaacc97	-0.08339804
28	0xbe579f21	-0.21056797
29	0xba7fbd83	-0.00097557175
30	0xbd1d6533	-0.03842659
31	0x3cdc3498	0.026880547

layers.1.running_var f4 [32]
0	0x3dd6048b	0.10450085
1	0x3cb6cf70	0.02231571
2	0x3cc7a3d5	0.024370113
3	0x3e32a6b4	0.17446405
4	0x3d837259	0.064182945
5	0x3d0ce3ef	0.034397062
6	0x3cb10c54	0.021612324
7	0x3d226743	0.03964926
8	0x3d8bcf14	0.068266064
9	0x3d080e5f	0.03321683
10	0x3cc9b077	0.024620278
11	0x3d0055cc	0.031331822
12	0x3d2f0cc4	0.042736784
13	0x3e0d0be2	0.13774064
14	0x3c60949e	0.013707308
15	0x3cacfdfe	0.021117207
16	0x3cc0ce8f	0.023535995
17	0x3d325103	0.04353429
18	0x3c92c90c	0.017918132
19	0x3cc8de20	0.02451998
20	0x3c6974e5	0.014249061
21	0x3d049530	0.03236884
22	0x3d4a757b	0.049428444
23	0x3cc1c27a	0.023652304
24	0x3d5488a7	0.051888134
25	0x3ccd412f	0.025055496
26	0x3cadaf6e	0.021201815
27	0x3cc97957	0.024593992
28	0x3d3bbb22	0.04583276
29	0x3d365997	0.044519033
30	0x3d93691c	0.071977824
31	0x3d150a8d	0.036387015

layers.3.weight f4 [32, 32, 3, 3]
0	0xbc0136f0	-0.007886633
1	0x3cbdc681	0.023165943
2	0x3cf09600	0.0293684
3	0xbd16e1e3	-0.036836516
4	0xbd44abe9	-0.04801551
5	0x37a1d468	1.9291605e-05
6	0x3c43b739	0.011945539
7	0x3c878884	0.016544588
8	0x3d546231	0.051851455
9	0x3d474b33	0.0486557
10	0x3ca2d325	0.019876072
11	0xbb8b4c7b	-0.0042510605
12	0xbd03efb5	-0.032211024
13	0xbb8a21eb	-0.004215469
14	0xbcd798c1	-0.026317956
15	0xbc8475a5	-0.016169379
16	0xbd2c8fa5	-0.042129178
17	0x3c2658af	0.01015298
18	0x3bc657ca	0.0060529457
19	0xbd52c613	-0.05145843
20	0x3d540232	0.051759906
21	0xbb13374e	-0.0022463384
22	0xbc9d2fcd	-0.019187832
23	0x3c6e5658	0.014546953
24	0xbcd0ed27	-0.025503708
25	0x3d142ce0	0.03617561
26	0x3c887218	0.016655967
27	0xbce5fb3b	-0.028073898
28	0xbb86ea2a	-0.00411727
29	0xbb547dce	-0.0032423618
30	0xbd4475d5	-0.047963936
31	0xbc4522ce	-0.012032224
32	0x3d032901	0.032021526
33	0xbd0dde54	-0.034635857
34	0xbd1c0e77	-0.038099732
35	0xbd00f55f	-0.031484004
36	0xbc136779	-0.008996838
37	0x3c9fdbef	0.019514052
38	0x3cf1a9a3	0.029499834
39	0xbd8adf46	-0.06780867
40	0xbd77d2e0	-0.06050384
41	0xbcb5f755	-0.022212664
42	0x3d424ab7	0.047434535
43	0x3d46a9ee	0.0485019
44	0x3d0dc425	0.034610886
45	0x39aedd77	0.0003335287
46	0x3cb08b30	0.021550745
47	0xbd0c62ff	-0.034274098
48	0xbd07be2c	-0.033140346
49	0x3be7e74c	0.0070771333
50	0x3cb38684	0.021914728
51	0x3b9ca758	0.004780691
52	0x3c6044d6	0.013688287
53	0x3d85f37b	0.06540581
54	0x3d3ebe3a	0.046568133
55	0xbcd885ca	-0.026430983
56	0xbd5a7bb4	-0.05334063
57	0xbd3f90ed	-0.04676907
58	0x3be234a0	0.006903246
59	0x3c3c171a	0.011480117
60	0xbd44a0e0	-0.048004985
61	0x3d60e6a4	0.054907456
62	0x3d9c7dfd	0.07641218
63	0xbce15c6f	-0.027509896
64	0xbd3a262f	-0.04544657
65	0xbd85a5d3	-0.06525769
66	0xbcf3da4b	-0.029767176
67	0xbd0a7444	-0.033802286
68	0xbd8a7733	-0.06761017
69	0x3d09095b	0.033456188
70	0x3cc9beb7	0.024627073
71	0xbc6efbca	-0.014586398
72	0x3d773d00	0.06036091
73	0xbcc8df6b	-0.024520596
74	0x3d51a2a9	0.051180515
75	0x3d1471ae	0.036241226
76	0x3d686956	0.05674108
77	0x3d5482c8	0.051882535
78	0xbca9720e	-0.020684268
79	0xbc85986c	-0.016308032
80	0x3cbded03	0.023184305
81	0xbd5fd095	-0.05464228
82	0xbd3d0865	-0.046150584
83	0xbcad5ce7	-0.021162463
84	0xbd141af0	-0.036158502
85	0xbd382dc3	-0.044965517
86	0x3c978341	0.018495204
87	0x3d5bf034	0.053695872
88	0xbd0cebc8	-0.034404546
89	0x3d641c3a	0.05569098
90	0x3c2fb7ab	0.010724942
91	0xbc44365c	-0.011975851
92	0xbd2069f1	-0.039163534
93	0x3d3a03a9	0.045413647
94	0x3c350779	0.011049145
95	0x3d07f258	0.0331901
96	0x3ce28fa6	0.027656388
97	0x3c3c2524	0.011483464
98	0x3c8f6f88	0.017509237
99	0x3c82c29f	0.015961943
100	0x3d1e456f	0.038640436
101	0x3d6349b3	0.055490207
102	0xbd12595f	-0.035729762
103	0x3b617f0a	0.0034407997
104	0xbc4abb8f	-0.012373819
105	0x3cf33afc	0.029691212
106	0xbbd97c29	-0.0066371155
107	0xbd7d9d4e	-0.061917596
108	0xbc998fa1	-0.018745245
109	0xbbb76661	-0.0055969213
110	0x3d2acf0a	0.041701354
111	0x3d07436f	0.033023294
112	0x3c8f0e6e	0.017462935
113	0xbc1740a4	-0.00923172
114	0xbd3e10d5	-0.04640277
115	0xbd8d9d9c	-0.06914827
116	0x3cacf513	0.021112954
117	0xbcf4884d	-0.02985015
118	0xbcad6d56	-0.0211703
119	0xbd0eda0d	-0.03487592
120	0xbba992aa	-0.0051749544
121	0xbd3f7c00	-0.046749115
122	0x3d64df8b	0.05587725
123	0xbd809e9d	-0.06280253
124	0xbd55bba4	-0.0521809
125	0x3d371d29	0.044705544
126	0xbd93821d	-0.072025515
127	0xbcc563f1	-0.024095507
128	0xbd134e4b	-0.035963338
129	0x3d629944	0.055321947
130	0xbc811dc5	-0.015761266
131	0xbd38ee65	-0.045149226
132	0x3d62b248	0.055345803
133	0x3cea4000	0.02859497
134	0x3bb47f61	0.005508349
135	0x3da87f6e	0.0822743
136	0x3d18a7b7	0.03726932
137	0xbb8626db	-0.0040939874
138	0x3d3386fe	0.04382991
139	0x3a4660ef	0.0007567545
140	0x3d2fe386	0.042941593
141	0xbcb1ceb8	-0.021705016
142	0xbc9243bf	-0.01785457
143	0x3ce4087d	0.027836079
144	0xbc21c903	-0.009874585
145	0xbcbe1174	-0.023201682
146	0xbcd47d41	-0.025938632
147	0x3bcedc7f	0.0063129063
148	0x3b53d4f0	0.0032322966
149	0xbd805fe2	-0.06268288
150	0xbd55890d	-0.052132655
151	0xbd2a620a	-0.041597404
152	0x3ca3bb59	0.019986795
153	0xbd8d9f74	-0.06915179
154	0xb98bc453	-0.0002665842
155	0x3d3abf47	0.045592573
156	0x3c8a7213	0.016900098
157	0x3d47d94b	0.04879121
158	0xbd6de94e	-0.058083825
159	0x3b9773f1	0.0046219756
160	0xbd8bf1ed	-0.06833253
161	0xbd23de8f	-0.04000717
162	0x3c3af9fb	0.011412139
163	0x3c258314	0.010102052
164	0x3d5adb44	0.053431764
165	0x3d241f01	0.04006863
166	0xbd1442f0	-0.03619665
167	0x3d41c6af	0.04730862
168	0x3d552239	0.05203459
169	0x3ceefdf0	0.029173821
170	0xbd3c4e1f	-0.04597294
171	0xbc2fdca9	-0.010733762
172	0xbd87233e	-0.06598519
173	0xbbc2c64b	-0.0059440485
174	0x3cacb6f9	0.021083342
175	0x3cf1d851	0.029522093
176	0x3cd0a8d7	0.025471134
177	0x3d917929	0.071031876
178	0x3b818bfd	0.0039534555
179	0x3d732985	0.059365768
180	0xbb5e9bad	-0.0033967302
181	0xbd0e2183	-0.034699928
182	0xbbf1cbf5	-0.00737905
183	0x3cfa9bb2	0.03059182
184	0x3c1591fe	0.0091290455
185	0xbd87c53a	-0.06629415
186	0x3ca700ff	0.020386217
187	0x3d0f05f5	0.03491779
188	0xbd5b9557	-0.05360922
189	0x3d93d169	0.07217676
190	0x3d1a3ef5	0.037657697
191	0xbc5b0c4f	-0.013369634
192	0x3cd1579b	0.025554469
193	0xbd6b661e	-0.057470433
194	0xbd6b5d6f	-0.057462152
195	0xbd05d8c6	-0.032677434
196	0x3d79ba94	0.06096895
197	0x3c0ac1e7	0.0084690815
198	0xbd33b162	-0.043870337
199	0x3ca48b36	0.020085912
200	0x3d12647c	0.03574036
201	0x3d58148b	0.052753966
202	0xbd60f160	-0.054917693
203	0xbd1aa2aa	-0.037752785
204	0x3d916e52	0.0710112
205	0x3c061678	0.008184068
206	0xbd0403cb	-0.03223018
207	0xbcafd743	-0.02146495
208	0x3ca52919	0.020161198
209	0x3c91efc2	0.01781452
210	0x3d284387	0.041080024
211	0x3c9f2e18	0.019431159
212	0xbb7637a5	-0.0037569788
213	0xbcc44d12	-0.023962531
214	0x3d5a6aed	0.05332463
215	0x3d9f9d4d	0.077936746
216	0xbd8e6242	-0.06952335
217	0xbd64c2b1	-0.055849735
218	0xbc9aa81d	-0.01887899
219	0x3d05e017	0.03268441
220	0xbcafab96	-0.021444123
221	0xbd46f98d	-0.048577834
222	0x3d46d396	0.048541628
223	0xbcd81a88	-0.026379839
224	0x3b82aede	0.003988131
225	0x3d71debd	0.05905031
226	0xbd3e5439	-0.04646704
227	0x3d154d35	0.036450583
228	0xbcaf3d0a	-0.02139141
229	0x3d032dd4	0.032026127
230	0xbc8de611	-0.017321618
231	0xbcbcda8b	-0.023053428
232	0xbb422e4f	-0.0029629653
233	0x3d18611e	0.037201993
234	0xbd2c213f	-0.042023893
235	0x3c7ee8b0	0.015558407
236	0xbd19ac09	-0.03751758
237	0x3c358d33	0.011081028
238	0xbd1cdc1b	-0.038295846
239	0xbce57d16	-0.028013747
240	0x3c8e28c6	0.017353427
241	0xbb26b2bf	-0.002543613
242	0xbc9049d1	-0.017613323
243	0x3a472b31	0.00075976836
244	0x3c061315	0.00818326
245	0xbcae786d	-0.021297658
246	0x3c034069	0.008010962
247	0x3d19a23d	0.037508238
248	0x3ab4002f	0.0013732965
249	0x3cfc68c6	0.030811679
250	0x3ca6a337	0.020341499
251	0x3c154619	0.009110951
252	0xbd9122da	-0.070867255
253	0xbc852257	-0.016251726
254	0xbcf5dfec	-0.030014
255	0xbd28dde6	-0.041227244

layers.3.bias f4 [32]
0	0xbd830dd8	-0.06399125
1	0xbcacdb32	-0.021100614
2	0xbdb0f191	-0.08639825
3	0x3c397ed0	0.011321738
4	0x3cc239f9	0.023709284
5	0xbc90ee05	-0.017691622
6	0x3cc20f08	0.023688808
7	0x3c17eac2	0.009272279
8	0x3bc31b6e	0.0059541976
9	0xbdb7c7ee	-0.089736804
10	0xbcccc369	-0.024995523
11	0xbd2e48b3	-0.0425498
12	0xbd8aa98b	-0.06770619
13	0xbd8150e5	-0.063142575
14	0xbd20dc57	-0.039272632
15	0xbc887b13	-0.016660249
16	0xbd0db052	-0.03459198
17	0xbd2a4c09	-0.04157642
18	0x3d68beaf	0.056822475
19	0xbd8f02cd	-0.06982956
20	0x3c914e5e	0.017737564
21	0xbd19673d	-0.03745197
22	0xbdd752b3	-0.105138205
23	0xbbcebc9c	-0.006309105
24	0xbd756257	-0.059908237
25	0x3cd6fc17	0.026243253
26	0xbcb4bdcb	-0.022063157
27	0xbd0de7e0	-0.03464496
28	0xbc2fecf6	-0.010737648
29	0x3bfb4847	0.0076685282
30	0xbcc83f32	-0.024444196
31	0xbc644f66	-0.013934946

layers.5.weight f4 [64, 32, 3, 3]
0	0x3cf2047c	0.029543154
1	0x3d0af1e8	0.033922106
2	0xbc7c34c3	-0.015393439
3	0xbb9b9667	-0.004748154
4	0x3d097e47	0.033567693
5	0xbc13a799	-0.009012126
6	0x3c49af53	0.012309867
7	0xbcebe05c	-0.028793506
8	0x3ccdef4f	0.025138525
9	0xbce81d93	-0.028334415
10	0x3b50f77d	0.0031885796
11	0xbd511ad7	-0.051050987
12	0xbc4836fd	-0.0122201415
13	0x3d913932	0.07090987
14	0x3c203e34	0.009780455
15	0x3d4ce54f	0.050023373
16	0x3cbff7d7	0.023433609
17	0xbbcdd37d	-0.006281315
18	0x3d6fcc91	0.0585447
19	0xbd1e326d	-0.03862231
20	0xbd73aad6	-0.059489094
21	0x3d230f0b	0.039809268
22	0x3c09c4c4	0.008408729
23	0xbceb623c	-0.028733365
24	0x3c198bd6	0.009371718
25	0xbd27c894	-0.04096277
26	0x3cb55a6f	0.022137849
27	0xbc1953e5	-0.009358381
28	0x3c08745f	0.008328526
29	0xbc4ed652	-0.01262434
30	0xbd9b5c17	-0.07585924
31	0xbd63a626	-0.055578373
32	0xbd564f39	-0.052321646
33	0x3c4a89c5	0.012361948
34	0xbd00af69	-0.031417284
35	0x3c5a37e4	0.013318989
36	0xbd2009e6	-0.03907194
37	0xbcbd2e12	-0.023093257
38	0x3d19652d	0.037450004
39	0xbd74bc4a	-0.05974988
40	0x3c439719	0.01193788
41	0xbc93c52d	-0.018038357
42	0x3db0789e	0.08616756
43	0x3db6f4da	0.089334205
44	0xbce0b48c	-0.027429841
45	0x3d82ffa0	0.06396413
46	0x3b3243ae	0.0027200985
47	0x3d53052e	0.05151861
48	0xbccf0eb4	-0.025275566
49	0xbc00c91d	-0.007860449
50	0xbd2d9e55	-0.042387325
51	0x3b11a747	0.002222495
52	0x3ccd3090	0.02504757
53	0xbcc6bd94	-0.02426032
54	0xbd601487	-0.054707076
55	0x3abe5f48	0.0014524246
56	0x3cd2abb3	0.025716638
57	0xbae2c339	-0.0017300613
58	0xbd7cdfac	-0.061736748
59	0x3c142c7b	0.009043808
60	0xbcf2ab2e	-0.02962264
61	0xbd26f217	-0.04075822
62	0x3d6b79f0	0.057489336
63	0x3d573445	0.052540082
64	0xbc3ebbdd	-0.01164147
65	0x3c4e8233	0.012604284
66	0x3d3d1718	0.046164602
67	0xbd355afc	-0.044276223
68	0xbdbffbed	-0.09374223
69	0xbcd7bc4d	-0.026334906
70	0x3c1d95cf	0.009618237
71	0x3cd1537a	0.0255525
72	0xbcd3ad83	-0.025839573
73	0xbd8203d8	-0.063483894
74	0xbd009731	-0.031394187
75	0xbd9a548f	-0.075356595
76	0xbd911038	-0.070831716
77	0xbc419967	-0.011816359
78	0xbd5b5167	-0.05354443
79	0xbd8e5483	-0.06949713
80	0x3b4952e8	0.0030719582
81	0xbcb23934	-0.021755792
82	0xbcca2e30	-0.024680227
83	0xbd9469ea	-0.07246764
84	0x3c9d3aa6	0.019193005
85	0xbd0a7b2b	-0.03380887
86	0x3d286e2c	0.041120693
87	0xbb949a19	-0.0045349714
88	0x3cc0b78c	0.023525022
89	0x3d8a3b75	0.06749622
90	0xbd36e1e6	-0.044649027
91	0x3da813b7	0.08206885
92	0x3cc88a7d	0.024480099
93	0xbd055000	-0.032546997
94	0x3d3aafe5	0.045577902
95	0x3d554c8a	0.052074946
96	0x3c201cef	0.009772523
97	0x3a538b9e	0.0008069816
98	0x3b9dfe45	0.004821571
99	0x3bba130e	0.005678541
100	0xbd36a98f	-0.044595297
101	0xbcc40f7a	-0.023933161
102	0x3d3186dd	0.043341506
103	0xbcb177f9	-0.021663653
104	0xbca29d3e	-0.01985037
105	0xbd306f44	-0.04307486
106	0x3d093e38	0.033506602
107	0x3bbbf08f	0.005735464
108	0xbd88fb55	-0.06688563
109	0x3d1906e8	0.037360102
110	0xbbf489d9	-0.007462722
111	0x3d2382f4	0.03991981
112	0x3ce156dc	0.027507238
113	0xbcea3120	-0.028587878
114	0x3d75799f	0.05993044
115	0x3d8d6fb6	0.06906073
116	0xbd0df6b3	-0.0346591
117	0x3d8b1f45	0.067930736
118	0x3d335607	0.043783214
119	0x3c1bebbe	0.009516655
120	0x3cfae8a4	0.03062851
121	0x3b80f431	0.00393536
122	0x3b845840	0.0040388405
123	0xbd375300	-0.04475689
124	0xbd8b753c	-0.0680947
125	0xbd7f0c3a	-0.06226752
126	0xbd8a653a	-0.06757589
127	0xbd3c7620	-0.04601109
128	0xbd425fc6	-0.047454618
129	0xba2ded8c	-0.00066348235
130	0xbb789b58	-0.003793439
131	0xbd8db3b7	-0.069190435
132	0x3d18f157	0.037339535
133	0x3d57a527	0.052647736
134	0xbc7ba853	-0.015359956
135	0x3d0fffd6	0.035156094
136	0x3d8141d4	0.06311384
137	0xbc6b6259	-0.01436671
138	0xbb69467d	-0.0035594993
139	0xbd18616c	-0.037202284
140	0x3d407d21	0.046994332
141	0x3d77792a	0.060418285
142	0xbd1a6ca4	-0.037701264
143	0x3ba1ddbc	0.004939763
144	0x3beaded8	0.0071676783
145	0x3c0aaa94	0.008463521
146	0x3c9b8bac	0.0189875
147	0x3c2a552b	0.010396282
148	0x3c9a48dc	0.01883357
149	0x3d13a21b	0.036043268
150	0x3c3e4ac7	0.011614508
151	0x3d8c1ee3	0.06841829
152	0x3d464615	0.04840668
153	0xbc90f18d	-0.017693305
154	0x3c2e4464	0.010636423
155	0xbdaf7a9b	-0.08568307
156	0xbd902a05	-0.070392646
157	0xbd561a5b	-0.05227123
158	0xbc8ad9cb	-0.016949555
159	0xbcf2f3cc	-0.029657267
160	0x3cc232af	0.023705808
161	0xbcea103f	-0.0285722
162	0xbd0bff85	-0.03417923
163	0x3c66e25f	0.014092057
164	0x3d13b3c1	0.0360601
165	0x3cee76f0	0.029109448
166	0xbb36b328	-0.0027877782
167	0xbd604477	-0.054752793
168	0xbd1ee06a	-0.038788237
169	0xbd5ca18f	-0.05386501
170	0x3c3487d4	0.011018712
171	0x3b8bf98c	0.0042716917
172	0xbd84fca1	-0.06493498
173	0x3c76f0b6	0.015072038
174	0xbd4bbfc6	-0.049743436
175	0x3c357e1e	0.011077432
176	0xbd797a52	-0.06090767
177	0xbbe15a47	-0.006877217
178	0x3d7f6cec	0.062359735
179	0x3cc782b0	0.024354309
180	0xbd156a7d	-0.03647851
181	0x3d840c7f	0.06447696
182	0xbb71f8b1	-0.0036921913
183	0xbcde8991	-0.027165206
184	0x3d3e6da9	0.0464913
185	0x3c499f75	0.012306084
186	0xbcfc73f8	-0.030817017
187	0xbd35cf07	-0.04438689
188	0xbd8f9ea7	-0.070126824
189	0x3cf05206	0.029335987
190	0xbd25c49c	-0.040470704
191	0xbce11f96	-0.027480882
192	0xbbcec190	-0.0063096955
193	0x3c7b523e	0.015339432
194	0x3d1ba6e0	0.03800094
195	0x3c8541fb	0.016266814
196	0x3da52ea3	0.08065536
197	0x3d837f11	0.0642072
198	0x3d79d363	0.06099261
199	0x3d23a56a	0.039952673
200	0xbc9e39b1	-0.019314619
201	0xbc634ac2	-0.013872804
202	0xbc9b2e2d	-0.018942917
203	0x3cf7bbb2	0.030240867
204	0xbd0a981a	-0.03383646
205	0xbcd7e305	-0.026353369
206	0x3c021c33	0.0079412935
207	0xbd140391	-0.036136214
208	0xbc0cd13a	-0.008594805
209	0xbda7d689	-0.08195216
210	0x3d61d3e4	0.055133715
211	0x3d2977f9	0.04137418
212	0x3d25832b	0.040408295
213	0x3d071e3e	0.032987826
214	0x3c6111e7	0.013737178
215	0x3c522a74	0.012827504
216	0x3cd18a26	0.02557857
217	0xbbdcc804	-0.006737711
218	0xbc179a5f	-0.0092531135
219	0xbcc94988	-0.024571195
220	0xbd1ecdd8	-0.038770527
221	0xbcb0fadf	-0.021604
222	0x3c0bc9b7	0.008531979
223	0xbc30aec9	-0.0107838595
224	0xbd30f519	-0.043202493
225	0xbb812bb2	-0.0039419765
226	0xbd329d81	-0.04360724
227	0xbd0ed730	-0.034873188
228	0xbc1c8433	-0.009553003
229	0xba9d15fe	-0.0011984704
230	0xbd715c93	-0.058926176
231	0xbc52840a	-0.012848863
232	0x3b4d6a8b	0.0031344022
233	0x3d10c25b	0.0353416
234	0x3d267ce5	0.040646452
235	0xbbcd98a4	-0.0062742997
236	0x3d0893c3	0.03334404
237	0xbd472717	-0.048621263
238	0x3cb02a40	0.021504521
239	0xbd637eb2	-0.055540748
240	0xbcde0a15	-0.027104417
241	0xbcd2886e	-0.02569982
242	0xbcd6c964	-0.026219077
243	0xbc9126ac	-0.017718635
244	0x3c08fdbb	0.008361275
245	0x3d536d6b	0.05161802
246	0x3d6ed4f3	0.058308553
247	0xbcafeafa	-0.02147435
248	0xbbe04424	-0.0068440605
249	0x3cb849bc	0.022496097
250	0xbc41606c	-0.011802774
251	0xbca0c476	-0.01962493
252	0x3d11ef82	0.035628803
253	0xbd03cebf	-0.03217959
254	0x3cbcc76f	0.023044316
255	0xbd4e5b50	-0.05038005

layers.5.bias f4 [64]
0	0xbd0a926e	-0.033831052
1	0xbcda1609	-0.026621835
2	0xbc9bd36b	-0.01902171
3	0x3c94ed16	0.018179458
4	0xbd756744	-0.059912935
5	0xbbe5b42d	-0.007010004
6	0xbca102b3	-0.019654607
7	0x3c9c96a0	0.019114792
8	0x3c216200	0.009850025
9	0xbab37e76	-0.0013694305
10	0x3c1d3a37	0.009596399
11	0x3c2983e4	0.010346387
12	0xbb16831c	-0.002296633
13	0xbc5d0cc4	-0.013491813
14	0x3ab3ef4e	0.0013727935
15	0xbba5ab4c	-0.0050558206
16	0x3d398080	0.045288563
17	0x3c865076	0.016395789
18	0xbd63a15c	-0.055573806
19	0x3ad6414d	0.0016346365
20	0xbd553f12	-0.0520621
21	0x3bfb669a	0.007672143
22	0x3d20bc34	0.039241984
23	0x3cf07505	0.029352674
24	0x3c286c63	0.010279748
25	0x3c8021e6	0.015641164
26	0xbd5817d5	-0.052757103
27	0xbd400abe	-0.046885245
28	0x3cf6cce7	0.030127002
29	0x3d27299e	0.040811174
30	0xbd1ad3c2	-0.037799604
31	0xbc7f2c76	-0.015574565
32	0x3cadf343	0.02123416
33	0x3cbfdf68	0.023421958
34	0xbd29dd01	-0.04147053
35	0xbc10fcfa	-0.008849377
36	0xbab62994	-0.0013897889
37	0x3bdf33aa	0.0068115788
38	0x3c38b05a	0.011272514
39	0xbc492a47	-0.012278146
40	0xbd4dd295	-0.050249655
41	0x3c6a23d5	0.01429077
42	0xbc70f5ed	-0.014707071
43	0x3d3c5baa	0.045985855
44	0x3d1ad925	0.03780474
45	0xbc09c90d	-0.008409751
46	0xbc8039d2	-0.01565257
47	0x3d2754a8	0.04085222
48	0xbc71a9f0	-0.014749989
49	0xbd11d0e9	-0.035599623
50	0xbd5cceb6	-0.053908072
51	0xbca2746d	-0.019830907
52	0x3d03978e	0.032126956
53	0xbca47fca	-0.020080466
54	0xbd36b13e	-0.044602625
55	0x3c80c52f	0.015719024
56	0xbd26d17d	-0.040727127
57	0xbc0a4648	-0.008439608
58	0xbd1b1c72	-0.037868924
59	0x3c4284b0	0.0118724555
60	0x3d246b19	0.0401412
61	0x3b27659f	0.0025542749
62	0x3ce104f2	0.027468178
63	0xbc95bf98	-0.018279836

layers.7.weight.mean f4 [64, 64, 3, 3]
0	0x3d660321	0.056155328
1	0xbce1fe69	-0.027587133
2	0xbc874ffd	-0.016517634
3	0xbccab127	-0.024742676
4	0x3c244720	0.010026723
5	0x3d876661	0.06611324
6	0xbd40217d	-0.046906937
7	0xbdb345a9	-0.08753521
8	0x3c8345da	0.016024519
9	0xbd252375	-0.040317018
10	0x3cd1a791	0.025592597
11	0x3dadf485	0.08493904
12	0xbd88a888	-0.0667277
13	0x3d9b330b	0.07578095
14	0xbdab0278	-0.0835008
15	0xbcde1684	-0.027110346
16	0x3d2fffee	0.042968683
17	0xbd79a8dd	-0.060952056
18	0xbd36de2d	-0.044645477
19	0xbda301a2	-0.07959296
20	0xbcf9c049	-0.030487197
21	0x3cae8451	0.021303328
22	0x3a101f2b	0.00054978085
23	0x3d337c6e	0.043819837
24	0xbdf7e581	-0.12104321
25	0xbd51fff6	-0.051269494
26	0x3d42c144	0.047547594
27	0x3d0a20e1	0.033722762
28	0x3dcd06b3	0.100110434
29	0xbb6f802b	-0.00365449
30	0x3d1a387e	0.03765153
31	0xbcfe19f2	-0.031018231
32	0xbd3542bd	-0.0442531
33	0xbbb71b55	-0.005587975
34	0x3db59770	0.08866775
35	0x3d2256a6	0.039633416
36	0xbb0fcbd0	-0.002194155
37	0xbd134f62	-0.035964377
38	0x3d17d828	0.037071377
39	0x3db0cd0b	0.08632859
40	0x3d00dd31	0.031460945
41	0xbd72339c	-0.05913125
42	0x3cc75442	0.02433217
43	0xbd8a5b3f	-0.06755685
44	0x3d134982	0.035958774
45	0x3c96fdfc	0.018431656
46	0xbd57cb46	-0.05268409
47	0x3c9e7033	0.01934061
48	0x3c411fb0	0.01178734
49	0x3d71e76f	0.059058603
50	0x3c651b42	0.01398355
51	0xbd2358b4	-0.039879516
52	0xbdcc3bb2	-0.099723235
53	0x3c6f072f	0.014589115
54	0xbbcb9037	-0.00621226
55	0xbd9ccbdf	-0.07656073
56	0x3cd0c674	0.025485255
57	0xbb46314c	-0.0030241786
58	0x3c294e2b	0.010333578
59	0x3d24fd89	0.040280852
60	0xbda6723f	-0.081272595
61	0xbd9a72c3	-0.0754142
62	0xbd108329	-0.035281334
63	0xbd710a4a	-0.058847703
64	0x3dc746a9	0.09730274
65	0x3d089381	0.033343796
66	0xbd0ae7bf	-0.033912417
67	0x3ba1036f	0.0049137394
68	0xbda2df57	-0.07952755
69	0xbd2cc09d	-0.042175878
70	0x3dbdd9b7	0.092700414
71	0x3bbabc01	0.0056986813
72	0xbc73bd03	-0.014876607
73	0x3daca1df	0.08429312
74	0x3cbaa2ab	0.022782644
75	0xbd2c7297	-0.04210147
76	0x3d59e997	0.053201284
77	0xbd3b1711	-0.045676295
78	0x3dca6f1c	0.09884474
79	0x3da41a62	0.080128446
80	0x3d0c9af5	0.034327466
81	0xbcce15ac	-0.025156818
82	0x3d61cf47	0.055129316
83	0x3d0eaa76	0.034830533
84	0xbd88b4f9	-0.06675143
85	0xbd0d0424	-0.034427777
86	0xbcc06360	-0.023484886
87	0xbd566f64	-0.052352324
88	0x3df18c31	0.117943175
89	0xbbb7e1d1	-0.005611636
90	0x3d92bc03	0.07164767
91	0x3da8851e	0.08228515
92	0xbd0e330b	-0.034716647
93	0xbcaebb1e	-0.021329459
94	0xbd54ff79	-0.05200145
95	0xbd4b6042	-0.049652345
96	0x3d6455ca	0.055745877
97	0x3d9452a4	0.07242325
98	0x3be7a900	0.007069707
99	0x3c971b41	0.018445613
100	0xbc951b49	-0.018201487
101	0x3b20da51	0.002454419
102	0x3c8e8e8e	0.01740196
103	0x3d215795	0.039390165
104	0xbcd54875	-0.026035527
105	0x3d8cf4e9	0.068826504
106	0xbd0006d5	-0.031256516
107	0xbdab084b	-0.08351191
108	0xbd559919	-0.05214796
109	0xbd238103	-0.039917957
110	0xbc9d1467	-0.019174768
111	0x3bdc6407	0.0067257914
112	0xbbcbc299	-0.006218266
113	0x3ccbf3b3	0.024896478
114	0xbd06f5a5	-0.03294911
115	0x3c1f15e9	0.009709814
116	0x3b822ffe	0.0039730063
117	0x3c377186	0.0111965
118	0xbc4f2454	-0.012642939
119	0x3d39d3ec	0.04536812
120	0x3c9c5f6b	0.019088468
121	0xbcd6dbef	-0.02622792
122	0x3d9f91ed	0.07791505
123	0xbd22ddbe	-0.03976225
124	0xbd987faf	-0.07446229
125	0x3cb6dbed	0.022321666
126	0x3d14c4d8	0.036320537
127	0x3d4d5e38	0.050138682
128	0xbd807224	-0.062717706
129	0x3d060148	0.032716066
130	0xbce35332	-0.027749632
131	0x3d13be8b	0.036070388
132	0x3dbb85de	0.091563925
133	0x3daaf263	0.08347013
134	0x3c4babbc	0.012431081
135	0xbd7087f5	-0.05872341
136	0x3cdaa9ce	0.026692297
137	0x3d5802c8	0.052737027
138	0xbd11937b	-0.03554104
139	0x3b3fa5fb	0.002924322
140	0xbd63c246	-0.055605195
141	0xbc572cb7	-0.013133219
142	0x3d016ce4	0.031597987
143	0xbd987ed7	-0.07446068
144	0x3b847a5c	0.0040429067
145	0xbd6a1060	-0.057144523
146	0xbd8e9d3d	-0.069635846
147	0xbd958616	-0.073009655
148	0x3ca41c0e	0.020032909
149	0x3db66c79	0.08907408
150	0x3d28b0cf	0.041184243
151	0x3c9d1703	0.019176012
152	0x3ad2483b	0.0016043255
153	0x3cdd5d9a	0.027022172
154	0x3ccb21be	0.024796363
155	0xbd5f6850	-0.05454284
156	0xbd4c0705	-0.04981138
157	0xbd0286c4	-0.031866804
158	0xbcfefb6e	-0.03112575
159	0xbd19e353	-0.03757031
160	0xbd2487de	-0.040168636
161	0xbd9168a1	-0.071000345
162	0xbd96ed5a	-0.0736949
163	0x3cc1797f	0.023617504
164	0xbc0b2327	-0.008492268
165	0xbda0e579	-0.078562684
166	0xbc2233bc	-0.00990003
167	0x3c339cc1	0.010962666
168	0xbcb65979	-0.02225946
169	0x3e052cfd	0.13005443
170	0xbcf1b40a	-0.029504795
171	0xbd9cfbed	-0.076652385
172	0xbd9f6f64	-0.07784918
173	0x3d364c9f	0.044506665
174	0xbcaf8b00	-0.021428585
175	0x3d61cac3	0.05512501
176	0x3c513bb1	0.012770579
177	0xbc89073f	-0.016727088
178	0xbd16bbf5	-0.036800344
179	0xbb6de28d	-0.0036298365
180	0x3b55faf9	0.0032650812
181	0xbc95b5cb	-0.018275162
182	0xbd3ce7b3	-0.046119403
183	0xbcc3ad73	-0.023886418
184	0xbc5bd10e	-0.013416542
185	0xbd2867da	-0.041114666
186	0xbc283da3	-0.010268602
187	0xbd88ebe3	-0.06685617
188	0x3c838529	0.016054707
189	0x3cec5a8c	0.02885177
190	0x3d844e65	0.06460265
191	0xbdc3fb96	-0.095694706
192	0x3d1326ee	0.035925798
193	0xbc032c04	-0.0080061
194	0xbc3a14ea	-0.011357525
195	0x3dfdc2fe	0.123907074
196	0xbc342838	-0.010995917
197	0xbdac2358	-0.08405179
198	0x3b09b3e6	0.002101177
199	0xbd287fc4	-0.04113747
200	0xbd847207	-0.064670615
201	0xbce2f53d	-0.02770483
202	0xbbcab561	-0.006186173
203	0xbc7b6a2a	-0.015345136
204	0xbc0944ea	-0.008378247
205	0xbe046f48	-0.12933075
206	0xbd295b6c	-0.041346952
207	0x3cb69286	0.022286665
208	0x3c4be90d	0.0124457
209	0xbbfb43d1	-0.0076679965
210	0x3c9fd5b5	0.019511083
211	0x3d8f1d54	0.06988016
212	0x3d933bdd	0.071891524
213	0x3a96c17c	0.0011501755
214	0xbdcf9f3c	-0.101377934
215	0xbd16b5f9	-0.036794636
216	0xbd38e76f	-0.045142587
217	0xbc9e866f	-0.019351212
218	0x3cba1ab5	0.022717813
219	0xbb945c1e	-0.004527583
220	0x3d02b02c	0.03190629
221	0x3d5291a3	0.05140842
222	0x3bfe6765	0.0077637904
223	0xbd70f4ce	-0.058827214
224	0xbd3fdb87	-0.046840217
225	0xbd13545e	-0.03596913
226	0x3d86875a	0.06568785
227	0xbd840819	-0.06446857
228	0xbc0f1fee	-0.00873564
229	0xbd97b4c1	-0.07407523
230	0xbd0d0104	-0.034424797
231	0xbd935e5e	-0.071957335
232	0x3d6c8ba9	0.057750378
233	0x3ce85d61	0.028364839
234	0xbd1bacd7	-0.03800663
235	0xbbb4628a	-0.005504911
236	0x3ac3afc0	0.0014929697
237	0x3ca9f77f	0.020747898
238	0x3d1f9028	0.038955837
239	0x3d1eaba8	0.038737923
240	0x3b8c20ef	0.004276387
241	0x3d1bbd24	0.038022175
242	0x3d17ccfa	0.037060715
243	0x3ce5de25	0.028060028
244	0x3cf93e51	0.030425223
245	0xbd9ac770	-0.07557571
246	0xbbd7f56e	-0.006590537
247	0xbcf46594	-0.029833592
248	0x3c7fee90	0.015620843
249	0x3d59743f	0.053089377
250	0x3d28e231	0.041231338
251	0x3ce1ba84	0.027554758
252	0xbc99c9ef	-0.018773047
253	0xbd3d3c94	-0.04620035
254	0xbc1eaa77	-0.009684197
255	0x3b8a84af	0.004227243

layers.7.weight.scale f4 [64, 64, 3, 3]
0	0xc002c076	-2.042997
1	0xbffd798d	-1.9802719
2	0xbffdd1fa	-1.9829705
3	0xc0047057	-2.0693567
4	0xbff448df	-1.9084738
5	0xbffd9368	-1.981061
6	0xc0069c73	-2.103299
7	0xc00cc0bb	-2.1992633
8	0xc0046d0c	-2.0691557
9	0xc00355b6	-2.0521064
10	0xbff99005	-1.9497076
11	0xbffb005c	-1.9609485
12	0xc013464c	-2.3011656
13	0xbff2a51c	-1.8956637
14	0xbff0620a	-1.8779919
15	0xc00781f5	-2.117307
16	0xc007be1b	-2.120978
17	0xc004aa64	-2.0728998
18	0xc0008f59	-2.0087492
19	0xbff67bac	-1.9256492
20	0xc018dbaf	-2.3884084
21	0xc007ec39	-2.123793
22	0xbff14747	-1.8849877
23	0xbfea2a41	-1.8294145
24	0xc002ed3d	-2.0457299
25	0xbfff2b7b	-1.9935144
26	0xc004e23a	-2.0763078
27	0xc0030aba	-2.0475297
28	0xc01194f2	-2.274716
29	0xc016efab	-2.3583782
30	0xbfea5fe7	-1.8310517
31	0xbfe88547	-1.8165673
32	0xc012d86f	-2.29446
33	0xc00e77f2	-2.226071
34	0xbff6cfce	-1.9282167
35	0xbff738ee	-1.9314249
36	0xbfe6e03e	-1.8037183
37	0xbffdf8f4	-1.98416
38	0xc0034e03	-2.0516365
39	0xc0017093	-2.022496
40	0xc00019c0	-2.0015717
41	0xc00c4612	-2.1917768
42	0xc0185b35	-2.3805668
43	0xc004741a	-2.0695863
44	0xc00683c3	-2.101792
45	0xbfecf37d	-1.8511807
46	0xc00bd8af	-2.1851003
47	0xbffcd686	-1.9752967
48	0xc002f158	-2.0459805
49	0xbffb636b	-1.9639715
50	0xc0064c39	-2.0984023
51	0xc00c3d4f	-2.191242
52	0xc00ae689	-2.1703207
53	0xc0095360	-2.1457138
54	0xbffa6a10	-1.9563618
55	0xc00c573f	-2.192825
56	0xbff04875	-1.8772112
57	0xc004b300	-2.0734253
58	0xc0029f5b	-2.0409763
59	0xbffba9a9	-1.9661151
60	0xbffa36c7	-1.9547967
61	0xc010860c	-2.2581816
62	0xc0077509	-2.1165183
63	0xbff31ec8	-1.8993769
64	0xc0090e77	-2.1415079
65	0xbff5c2ea	-1.9200108
66	0xc008f107	-2.1397111
67	0xc008c589	-2.1370566
68	0xbff15a53	-1.885569
69	0xc0020afe	-2.031921
70	0xc00db4cc	-2.21416
71	0xc0025a33	-2.0367553
72	0xbffeb11a	-1.9897797
73	0xbff42c6f	-1.907606
74	0xc0040cfc	-2.0632925
75	0xc000c6ff	-2.0121458
76	0xbfce2f87	-1.6108254
77	0xc003f569	-2.0618536
78	0xbff7d883	-1.9362949
79	0xbff3fd3b	-1.9061655
80	0xc005b51d	-2.0891793
81	0xbff694ee	-1.92642
82	0xc002f3d0	-2.0461311
83	0xc002a168	-2.0411015
84	0xc00cbe85	-2.1991284
85	0xbfd6d12e	-1.6782587
86	0xc0075982	-2.1148381
87	0xbfef551b	-1.8697847
88	0xbfdae0de	-1.7099874
89	0xbff39167	-1.9028748
90	0xbff99dd1	-1.9501287
91	0xc00b7c21	-2.1794512
92	0xbfe133e2	-1.7593958
93	0xbffadd02	-1.9598696
94	0xc00c02ab	-2.1876628
95	0xbfd5da79	-1.6707298
96	0xc0078f24	-2.1181116
97	0xbff78e72	-1.9340346
98	0xbff772ed	-1.9331948
99	0xc0079625	-2.118539
100	0xc00888c8	-2.1333485
101	0xbffedcca	-1.991113
102	0xc005f8a1	-2.0933
103	0xc00f3667	-2.2376955
104	0xc00a60f0	-2.1621666
105	0xc00c9cb4	-2.1970644
106	0xc004ccdd	-2.0750039
107	0xc0065d8f	-2.0994604
108	0xc00ba789	-2.1821005
109	0xc00ce6cf	-2.2015874
110	0xc002854e	-2.0393863
111	0xbff85267	-1.9400147
112	0xc00c1617	-2.1888483
113	0xbff118a8	-1.883565
114	0xbfcb5b1c	-1.5887179
115	0xc00d49b5	-2.2076237
116	0xbfef5c18	-1.869998
117	0xc0012445	-2.0178387
118	0xc0080cca	-2.1257806
119	0xbff0e8a2	-1.8820994
120	0xbfeb8a24	-1.8401532
121	0xbff988ed	-1.9494911
122	0xbff55cf7	-1.9168996
123	0xbff823ce	-1.9385927
124	0xc0042c70	-2.0652122
125	0xc0096bb1	-2.147198
126	0xbfd9e596	-1.7023189
127	0xc0002807	-2.002443
128	0xc00510b1	-2.0791438
129	0xc012b8e3	-2.2925346
130	0xc00346e2	-2.0512013
131	0xbfe0950c	-1.7545485
132	0xc001d67b	-2.0287158
133	0xc00c249d	-2.1897347
134	0xbffec1c7	-1.9902886
135	0xbffeb509	-1.9898998
136	0xbfe0f7db	-1.757564
137	0xbfe688e6	-1.8010528
138	0xc00c9644	-2.1966715
139	0xc007289f	-2.1118543
140	0xc0070f04	-2.1102915
141	0xbff15109	-1.8852855
142	0xc016edb2	-2.3582578
143	0xbfe93271	-1.8218518
144	0xc0032a31	-2.0494502
145	0xbffb0f6e	-1.9614084
146	0xbfe978d7	-1.8240002
147	0xc001c388	-2.0275593
148	0xbffd5a14	-1.9793115
149	0xbffaa00c	-1.9580092
150	0xbff289ae	-1.8948267
151	0xc00334f3	-2.0501068
152	0xc00cf5b6	-2.202497
153	0xc00b45a6	-2.176126
154	0xbff96f99	-1.9487182
155	0xbff24ebd	-1.8930279
156	0xc00968e7	-2.1470277
157	0xc003797a	-2.0542893
158	0xc00caebd	-2.1981652
159	0xc004695a	-2.0689301
160	0xc009619a	-2.1465821
161	0xc006fa8e	-2.1090426
162	0xbff3e655	-1.9054667
163	0xc0012d28	-2.018381
164	0xbff2ecc6	-1.8978508
165	0xc00e9e81	-2.2284243
166	0xc008856e	-2.133144
167	0xc00e7613	-2.2259567
168	0xc008967f	-2.1341856
169	0xbff1574c	-1.8854766
170	0xbffe40cf	-1.9863528
171	0xc007de78	-2.1229534
172	0xc0166087	-2.3496416
173	0xc00e4f23	-2.2235801
174	0xc0060eb3	-2.0946472
175	0xbfe915e1	-1.8209802
176	0xc00b0827	-2.1723726
177	0xbfeef1a6	-1.8667495
178	0xc00daaa9	-2.2135413
179	0xbfeed25e	-1.8657949
180	0xc0113894	-2.2690783
181	0xc0081dde	-2.126823
182	0xc0044596	-2.0667472
183	0xc016c20b	-2.3555934
184	0xc0099926	-2.1499724
185	0xbfdcd301	-1.7251893
186	0xc00eda81	-2.2320864
187	0xc01a6899	-2.4126341
188	0xc00135b3	-2.0189025
189	0xc0014808	-2.0200214
190	0xbfff9743	-1.9968036
191	0xbfea093b	-1.8284067
192	0xc0052077	-2.0801065
193	0xc00229b6	-2.0337958
194	0xc005d79f	-2.0912855
195	0xc015eee4	-2.3427057
196	0xc007da88	-2.122713
197	0xc0006769	-2.0063117
198	0xc0131db5	-2.2986882
199	0xc007c6be	-2.1215053
200	0xbfe42ecc	-1.7826781
201	0xbff1fef6	-1.8905933
202	0xbfe2b92a	-1.7712758
203	0xc005d9e3	-2.0914237
204	0xc002b18f	-2.0420873
205	0xc0104374	-2.254117
206	0xc009f441	-2.155533
207	0xc0062365	-2.0959103
208	0xbfe407c3	-1.7814869
209	0xbffaa005	-1.9580084
210	0xbfea93b6	-1.8326328
211	0xc003f18d	-2.061618
212	0xbfe2c57c	-1.7716517
213	0xbffb4e13	-1.9633201
214	0xbff4014a	-1.9062893
215	0xbffa50af	-1.9555873
216	0xbffe4aa9	-1.9866534
217	0xc00528eb	-2.0806224
218	0xbff8cf10	-1.943819
219	0xbffea2bf	-1.9893416
220	0xc006a3a2	-2.1037374
221	0xbff37a22	-1.9021647
222	0xbff6d7da	-1.9284623
223	0xc01776df	-2.3666303
224	0xbff01fce	-1.8759706
225	0xc00d7bfc	-2.2106924
226	0xc0112e2a	-2.2684426
227	0xc00611f0	-2.0948448
228	0xbfecdb51	-1.850443
229	0xc003277e	-2.0492854
230	0xbff661f8	-1.9248648
231	0xbffffa4b	-1.9998258
232	0xc00296fa	-2.0404649
233	0xbfffa805	-1.997315
234	0xbffddcaa	-1.9832966
235	0xbff06800	-1.8781738
236	0xc013fee0	-2.3124313
237	0xc009b57d	-2.1517022
238	0xc005fa9b	-2.0934207
239	0xc010b8dd	-2.2612832
240	0xbff81cce	-1.938379
241	0xbff66cff	-1.9252013
242	0xbff0a57a	-1.88005
243	0xbfd121ba	-1.6338418
244	0xc0033d02	-2.0505986
245	0xbfff378c	-1.9938827
246	0xbffc8fd7	-1.9731396
247	0xc0053090	-2.081089
248	0xbfe8eb03	-1.819672
249	0xc0021a07	-2.0328386
250	0xbff6c818	-1.9279814
251	0xc003a28b	-2.0567958
252	0xc0049fdb	-2.0722568
253	0xbffea522	-1.9894145
254	0xc0067996	-2.101171
255	0xc00af188	-2.170992

layers.7.bias.mean f4 [64]
0	0xbbb7fe51	-0.0056150337
1	0xbb293d12	-0.0025823754
2	0xb927fa9f	-0.00016019725
3	0xbb4a8e81	-0.0030907693
4	0xbb5715a0	-0.0032819286
5	0xbc0d522f	-0.008625551
6	0xbb57602b	-0.0032863717
7	0xbb8f7d26	-0.0043789325
8	0xbb7f33af	-0.0038940718
9	0xbb537f58	-0.0032271948
10	0xbb802b57	-0.0039114165
11	0xbb011425	-0.0019695845
12	0xbbd1518b	-0.0063878945
13	0xbbee50c0	-0.0072728097
14	0xbb2c9d8b	-0.002633902
15	0xbaa789af	-0.0012782122
16	0xba7d24d9	-0.0009656675
17	0xbbe7ab6a	-0.0070699947
18	0xbb4264be	-0.0029662098
19	0x3980762d	0.0002450211
20	0xbb455b9b	-0.0030114416
21	0xbb10281d	-0.0021996566
22	0xbb84420a	-0.004036193
23	0xbb9a5efc	-0.00471103
24	0xbb80e294	-0.00393326
25	0xbb34649f	-0.0027525795
26	0x3b6178cf	0.0034404283
27	0xba694f57	-0.0008900067
28	0xbb9d8e88	-0.004808251
29	0xbb9449a9	-0.0045253825
30	0xbb990121	-0.004669324
31	0xbc318e7c	-0.010837194
32	0xba291029	-0.00064492464
33	0xbbe6586d	-0.007029584
34	0xbb206950	-0.0024476834
35	0xb87bf8fb	-6.0074944e-05
36	0xbbff0f77	-0.007783826
37	0xbbe9e397	-0.0071377265
38	0xbb6e392c	-0.0036349995
39	0xbbc31a67	-0.005954075
40	0xbbe42d8e	-0.0069634384
41	0xbb023bac	-0.0019871993
42	0xbb47d1e9	-0.0030490106
43	0x3a132cf7	0.0005614305
44	0xba86e75b	-0.0010292338
45	0xbbc11020	-0.005891815
46	0xbb7eda5a	-0.0038887472
47	0xba97d88e	-0.0011584924
48	0xbb0bd5a0	-0.0021337047
49	0xbb05dcb5	-0.002042574
50	0x3a6d9953	0.00090636796
51	0xbb94b9b3	-0.0045387386
52	0xbc094e45	-0.008380477
53	0xba24b580	-0.0006283149
54	0xbb767e68	-0.0037611965
55	0xbb1bde0b	-0.002378347
56	0xbae9d29d	-0.0017839257
57	0xb911b09b	-0.00013894068
58	0xbbe2bf44	-0.0069197733
59	0xbbd537c6	-0.006506893
60	0xbbe0e318	-0.006863009
61	0xbc240b6c	-0.010012489
62	0xbba00f5f	-0.004884645
63	0xbc06ac75	-0.008219828

layers.7.bias.scale f4 [64]
0	0xc00aeddb	-2.1707675
1	0xc009ba68	-2.1520023
2	0xc0066825	-2.1001065
3	0xc00b53fd	-2.1770012
4	0xc00eda34	-2.232068
5	0xbff69f2b	-1.9267324
6	0xbffb55bd	-1.963554
7	0xc00d1615	-2.2044728
8	0xc00ba92a	-2.1822
9	0xc00a3532	-2.1594968
10	0xc0073a2f	-2.1129262
11	0xc007792c	-2.1167707
12	0xbffebb58	-1.9900923
13	0xc00822b2	-2.1271176
14	0xc007be3f	-2.1209867
15	0xc006ab2a	-2.104197
16	0xc0022dbc	-2.0340414
17	0xc00d47fc	-2.2075186
18	0xc0086f61	-2.131798
19	0xc0082e19	-2.1278136
20	0xc008b2e0	-2.1359177
21	0xbff96037	-1.9482487
22	0xc00230dd	-2.0342324
23	0xc00b8b21	-2.1803668
24	0xc010082c	-2.2504988
25	0xc00ec3bb	-2.2306964
26	0xc00cfaf7	-2.2028177
27	0xbfffdf64	-1.9990048
28	0xc006b12b	-2.1045635
29	0xc001e75c	-2.029746
30	0xc009840f	-2.1486852
31	0xc00b2820	-2.174324
32	0xc009c8d6	-2.152883
33	0xc007ece3	-2.1238334
34	0xc00a740a	-2.1633325
35	0xc0015b7e	-2.0212092
36	0xc002ceb3	-2.043866
37	0xc00c96ca	-2.1967034
38	0xc0082f50	-2.1278877
39	0xc009ac92	-2.1511579
40	0xc002ac4c	-2.0417662
41	0xc01173b6	-2.2726874
42	0xc00451e5	-2.0674984
43	0xc005ef4e	-2.092731
44	0xc0103a10	-2.2535439
45	0xc00ba135	-2.1817143
46	0xc011e028	-2.2793064
47	0xc00431c6	-2.065538
48	0xc0104024	-2.2539148
49	0xc003dfc6	-2.060533
50	0xc007fc4d	-2.1247742
51	0xc00d89aa	-2.2115273
52	0xc00731f8	-2.1124249
53	0xc0078ffd	-2.1181633
54	0xc003e559	-2.0608733
55	0xc00e0d9a	-2.2195802
56	0xc0088ba1	-2.1335223
57	0xc00ad971	-2.1695216
58	0xc010a10d	-2.2598298
59	0xc01122c2	-2.2677464
60	0xc00717af	-2.1108205
61	0xc00cc99c	-2.1998053
62	0xc005a36d	-2.0880997
63	0xc00afd04	-2.1716928
